data/result/d_420.pt (torch, 94638 bytes, 7 tensors)

D_attr_matrix.weight f4 [36, 5]
0.05919437 -0.45828408 -0.16557984 0.08730625 -0.07033749 -0.398605 -0.32810098 0.17180172
-0.43714246 0.42147166 0.2252574 0.004620654 -0.01906982 -0.010688576 0.0054495325 -0.080925636
-0.41512063 0.29414675 0.092989996 -0.16300754 0.012722577 -0.20287062 -0.0077308873 0.13540137
0.11171006 -0.77874446 -0.8019844 0.20233068 0.572147 -0.4859025 0.00018995014 -0.11818286
-0.013925024 0.54096955 0.0058210636 0.5798183 -0.23328358 0.49535337 -0.14943959 -0.3546022
-0.4407547 0.14643784 0.12176443 -0.266901 0.03863314 -0.17811464 0.11519521 -0.3739333
-0.07903046 0.15638737 0.18430293 0.11994332 0.0774277 0.022542793 0.073253274 0.012281348
0.3862001 -0.11099173 -0.23658998 -0.29361764 -0.11187471 0.03929892 -0.06879681 -0.015984418
-0.030756168 -0.22909568 0.41950303 0.09634432 0.73584384 0.805693 0.14687487 0.2560045
-0.004852108 -0.032889687 -0.4099648 -0.13859873 0.24281758 0.18080239 0.022826647 0.263814
0.012178397 0.03345108 -0.008685976 0.17590828 -0.02289538 -0.23160581 -0.6914425 0.34065816
0.40103987 0.015137477 0.054440316 0.011135397 -0.00754077 -0.04377215 -0.09360731 -0.48611084
-0.06818147 0.35585603 0.3107136 -0.56237715 -0.046505272 -0.034406617 -0.0041521396 0.05984658
-0.2609179 0.37972263 0.50682306 0.6041691 0.065112926 0.22272994 -0.22904393 0.042755388
0.015411572 0.0007822119 -0.026717892 -0.016680367 0.6109462 -0.5454525 0.047312535 0.6327739
-0.1525069 -0.1164564 0.040448915 -0.3908435 -0.023295812 0.103930384 0.008518354 -0.5902022
-0.16942208 0.34994978 0.03674285 0.0475239 -0.15993302 -0.056781437 -0.054281075 -0.23392051
-0.40302092 -0.043176368 0.521063 0.34578353 0.07623355 0.04410927 -0.0028613452 -0.061990406
0.06358429 -0.5173555 -0.27359134 0.006726603 0.42228162 -0.40579113 -0.1139464 0.14590625
0.09711895 0.06249985 -0.039169576 0.5557132 0.1494808 -0.48501033 -0.31508535 0.17740877
0.028144011 -0.10265951 0.178848 0.07477438 -0.032022253 -0.020115064 -0.20372312 -0.508674
-0.1098694 0.17750958 0.027857281 0.2639233 -0.018891348 -0.22728033 -0.18886313 -0.8926911
0.20259045 0.73468715 -0.28330702 -0.30417228
00000000: cc75 723d 36a4 eabe c38d 29be 9fcd b23d
00000010: 1a0d 90bd f415 ccbe dafc a7be caec 2f3e
00000020: 23d1 dfbe 22cb d73e e0a9 663e db68 973b
00000030: 5038 9cbc 231f 2fbc fe91 b23b 57bc a5bd
00000040: b18a d4be 679a 963e 8a71 be3d 73eb 26be
00000050: 5b72 503c 51bd 4fbe 6253 fdbb a8a6 0a3e
00000060: 3ec8 e43d cc5b 47bf da4e 4dbf c62f 4f3e
00000070: 3a78 123f 36c8 f8be 5a2d 4739 db09 f2bd
00000080: c925 64bc fb7c 0a3f 9fbe be3b f96e 143f
00000090: e4e1 6ebe f59e fd3e b106 19be 6b8e b5be
000000a0: 9aaa e1be cdf3 153e a15f f93d 3fa7 88be
000000b0: c93d 1e3d af63 36be 77eb eb3d 2f74 bfbe
000000c0: b9da a1bd 0324 203e e8b9 3c3e d8a4 f53d
000000d0: 6a92 9e3d aaab b83c d005 963d b537 493c
000000e0: 05bc c53e a24f e3bd a544 72be 0d55 96be
000000f0: 911e e5bd e8f7 203d 58e5 8cbd c1f1 82bc
00000100: 5cf4 fbbc 0f98 6abe 1ac9 d63e 2c50 c53d
00000110: 4360 3c3f e541 4e3f 5e66 163e 0613 833e
00000120: 6ffe 9ebb 56b7 06bd e8e6 d1be d3ec 0dbe
00000130: 2ca5 783e 4324 393e f3fe ba3c a112 873e
00000140: e687 473c 0004 093d a04f 0ebc 4d21 343e
00000150: 188f bbbc 132a 6dbe 6002 31bf bf6a ae3e
00000160: 1955 cd3e 2e03 783c cffc 5e3d 3d71 363c
00000170: 9018 f7bb 6d4a 33bd 30b5 bfbd 85e3 f8be
00000180: baa2 8bbd c332 b63e da15 9f3e f3f7 0fbf
00000190: 507c 3ebd f4ed 0cbd ac0e 88bb b021 753d
000001a0: 0897 85be 016b c23e 28bf 013f d3aa 1a3f
000001b0: ed59 853d 5113 643e 7e8a 6abe 4620 2f3d
000001c0: d180 7c3c 5a0d 4d3a 7bdf dabc 44a5 88bc
000001d0: f866 1c3f c6a2 0bbf caca 413d 78fd 213f
000001e0: c52a 1cbe b180 eebd c3ad 253d a41c c8be
000001f0: dcd6 bebc 74d9 d43d 9190 0b3c 7e17 17bf
00000200: fb7c 2dbe 9e2c b33e ac7f 163d 6ca8 423d
00000210: 7bc5 23be a793 68bd d555 5ebd dc88 6fbe
00000220: c258 cebe b4d9 30bd 6364 053f 8a0a b13e
00000230: 5620 9c3d ecab 343d 6885 3bbb a7e9 7dbd
00000240: 7b38 823d 6971 04bf 2a14 8cbe d66a dc3b
00000250: 4c35 d83e dbc3 cfbe bb5c e9bd 7368 153e
00000260: 4de6 c63d d8ff 7f3d 4770 20bd 3843 0e3f
00000270: 7f11 193e 4653 f8be de52 a1be a5aa 353e
00000280: 458e e63c 263f d2bd ee23 373e 4f23 993d
00000290: c429 03bd 59c8 a4bc cb9c 50be 7638 02bf
000002a0: 3503 e1bd 12c5 353e f434 e43c f420 873e
000002b0: 07c2 9abc 2dbc 68be 5665 41be 6787 64bf
000002c0: df73 4f3e 7514 3c3f 9e0d 91be 78bc 9bbe

l1.weight f4 [100, 108]
-0.033235487 0.1355873 -0.020000676 0.12724483 0.121510215 -0.11275212 0.026750153 0.07191091
0.08968908 -0.02021224 -0.14072429 -0.046410974 -0.083889164 0.33432814 0.14220157 -0.13554484
0.09203163 0.1596303 0.02181412 0.039350457 -0.04009843 0.00024225736 -0.011371423 0.02890552
-0.05475698 -0.09630808 -0.061278496 0.017768316 0.112282924 0.20576182 0.24175803 -0.06829106
0.20843747 0.1063945 0.014839138 0.07852788 -0.16848885 0.10620745 0.018859787 0.13658243
-0.050221145 -0.01714489 0.018723715 0.015302712 -0.11538091 -0.16862004 0.049161937 0.18429254
-0.049268518 0.08539186 -0.12425833 -0.07945296 -0.06119499 -0.11614406 -0.009859023 0.24162011
0.08941786 0.03280895 0.04492584 -0.045077216 0.1755778 0.10479917 -0.22132306 0.056153446
0.00785521 -0.14580123 -0.20475785 0.04431387 -0.021255722 0.13493305 -0.031178558 -0.14613006
0.083986886 -0.007404896 -0.069679104 -0.13037309 -0.20000522 -0.26711276 -0.040338993 0.011998256
0.14132662 -0.19037597 0.02984425 -0.1266854 0.11443064 -0.12822044 -0.030430114 -0.0751927
-0.011237103 0.06386349 0.2549992 -0.060936067 0.3006772 0.502024 0.20083658 0.49271867
0.10666182 0.24690816 0.36772192 0.57854205 0.2728135 -0.0008176617 0.5481862 0.39696905
0.40664345 0.27417368 0.4620276 0.14335217 0.4779479 -0.17479137 -0.24095386 0.36529392
-0.6739764 -0.10050139 -1.1326044 0.2245353 0.3040408 -0.16378115 -0.41104358 -0.23626985
0.17098358 -0.008577647 0.019243473 -0.40367666 -0.05958 -0.38889274 0.20228271 0.4722083
-0.24970588 -0.08144781 0.006478166 -0.089594856 0.053124543 0.2104907 -0.17774434 0.2877083
0.23384549 0.25200444 -0.021103036 0.0017357189 -0.18754709 -0.35095796 -0.37271535 0.3463117
-0.11917424 -0.15179464 -0.23499899 -0.3857673 -0.18845394 -0.23834985 0.19901176 0.18076381
-0.11645199 0.644789 0.22001226 -0.053471334 -0.3449518 -0.009000331 0.06719262 0.105799116
0.7075354 0.03519037 -0.048752856 -0.11117252 0.08950193 0.08182052 -0.09862054 -0.09306845
-0.10021515 -0.1201975 0.75128347 -0.121665 -0.7076135 -0.29644117 -0.7315675 0.14944367
1.0484954 0.24835822 0.20414045 0.19664414 -0.14621183 -0.12517555 0.17470929 0.38151973
-0.05627039 -0.5859871 -0.38579232 0.23011774 0.09265026 -0.07180049 0.84794366 0.19785677
-0.29678226 -0.49576458 0.15346132 0.43640792 -0.114278525 -0.22098741 -0.18246914 -0.17542121
-0.3097582 0.016418355 -0.10478071 -0.33864188 -0.13873352 -0.18284854 0.14302978 -0.19216628
-0.09900481 0.1461194 -0.4055405 -0.0042849244 -0.021451768 0.17823853 -0.061937474 -0.046514496
0.15911484 -0.042310353 -0.19761418 0.07573239 -0.038819835 -0.1572247 0.054106735 0.2279756
0.059183344 0.007589152 -0.14783368 -0.04480815 -0.015910497 0.096478425 -0.03064756 -0.15545067
-0.15800215 -0.05140512 -0.0456013 0.38000426 0.0051312577 -0.019625574 0.16619156 0.01578873
0.018436724 0.074119076 0.08137885 -0.19089408 -0.07829393 0.073983945 0.0017556747 -0.0062652533
0.14981648 0.1383165 0.10158738 -0.1767722 -0.047732323 0.076005355 0.09230211 0.021689089
00000000: ef21 08bd 66d7 0a3e 75d8 a3bc 784c 023e
00000010: 59da f83d 95ea e6bd 2323 db3c 0746 933d
00000020: e9ae b73d 2494 a5bc 071a 10be 6f19 3ebd
00000030: 15ce abbd 0f2d ab3e 4a9d 113e 44cc 0abe
00000040: 147b bc3d 2076 233e 86b3 b23c f22d 213d
00000050: 403e 24bd 7706 7e39 344f 3abc 45cb ec3c
00000060: db48 60bd 2c3d c5bd 29ff 7abd dc8e 913c
00000070: 97f4 e53d 3ab3 523e 6b8f 773e 2fdc 8bbd
00000080: a270 553e 5ce5 d93d db1f 733c 3ad3 a03d
00000090: 5788 2cbe 4b83 d93d d77f 9a3c 44dc 0b3e
000000a0: b0b4 4dbd 7173 8cbc 7a62 993c 3ab8 7a3c
000000b0: d44c ecbd bbaa 2cbe 075e 493d 2fb7 3c3e
000000c0: c9cd 49bd ede1 ae3d 277b febd 3cb8 a2bd
000000d0: 99a7 7abd f0dc edbd bd87 21bc 436b 773e
000000e0: b620 b73d ad62 063d 2804 383d e3a2 38bd
000000f0: abca 333e f2a0 d63d 83a2 62be 2801 663d
00000100: 24b3 003c eb4c 15be 0bac 51be 7682 353d
00000110: 7b20 aebc e42b 0a3e 2d6a ffbc 1ea3 15be
00000120: 5101 ac3d c5a4 f2bb ebb3 8ebd 8680 05be
00000130: 2bce 4cbe 01c3 88be 803a 25bd 5594 443c
00000140: edb7 103e ebf1 42be ee7b f43c d1b9 01be
00000150: 9d5a ea3d 384c 03be 9348 f9bc a1fe 99bd
00000160: d31b 38bc ddca 823d 418f 823e 1998 79bd
00000170: 5df2 993e a584 003f 1ba8 4d3e 9f45 fc3e
00000180: 8371 da3d 7ed5 7c3e 0c46 bc3e 551b 143f
00000190: 36ae 8b3e 5958 56ba ee55 0c3f 873f cb3e
000001a0: 9233 d03e 7e60 8c3e e28e ec3e e9ca 123e
000001b0: 96b5 f43e 82fc 32be 9cbc 76be ce07 bb3e
000001c0: b889 2cbf acd3 cdbd 2ef9 90bf 95ec 653e
000001d0: 3cab 9b3e 3fb6 27be 4e74 d2be b9f0 71be
000001e0: 5216 2f3e 4289 0cbc 7da4 9d3c b5ae cebe
000001f0: 280a 74bd f31c c7be 3323 4f3e 49c5 f13e
00000200: e6b2 7fbe 1cce a6bd cc46 d43b 827d b7bd
00000210: 1f99 593d e08a 573e 9d02 36be 814e 933e
00000220: 3175 6f3e ba06 813e 46e0 acbc 1081 e33a
00000230: 580c 40be c3b0 b3be 8cd4 bebe c44f b13e
00000240: a011 f4bd 0e70 1bbe 93a3 70be 4b83 c5be
00000250: 12fa 40be fc11 74be bdc9 4b3e 261a 393e
00000260: 627e eebd e410 253f e54a 613e c204 5bbd
00000270: 869d b0be 2076 13bc 499c 893d 35ad d83d
00000280: 0a21 353f c723 103d 13b1 47bd 6bae e3bd
00000290: ca4c b73d 8491 a73d 91f9 c9bd ac9a bebd
000002a0: 9a3d cdbd 1b2a f6bd 1d54 403f 802b f9bd
000002b0: 2926 35bf 23c7 97be 0248 3bbf c307 193e
000002c0: 1935 863f 9e51 7e3e 320a 513e 155d 493e
000002d0: 8eb8 15be 052e 00be fee6 323e 8e56 c33e
000002e0: c87b 66bd 4003 16bf 9286 c5be fca3 6b3e
000002f0: 6bbf bd3d 230c 93bd d612 593f f79a 4a3e
00000300: d8f3 97be dbd4 fdbe f724 1d3e dc70 df3e
00000310: dc0a eabd 864a 62be 31d9 3abe 9ea1 33be
00000320: a098 9ebe c97f 863c 4597 d6bd 7862 adbe
00000330: 2910 0ebe a63c 3bbe 6676 123e 3dc7 44be
00000340: 09c3 cabd 53a0 153e 01a3 cfbe 8d68 8cbb
00000350: 9ebb afbc 2984 363e 26b2 7dbd fc85 3ebd
00000360: 00ef 223e 9f4d 2dbd 5f5b 4abe 9519 9b3d
00000370: 8c01 1fbd 83ff 20be 069f 5d3d 7072 693e
00000380: 3c6a 723d 6cae f83b b661 17be c088 37bd
00000390: bb56 82bc 7b96 c53d 9710 fbbc 762e 1fbe
000003a0: 51cb 21be 2d8e 52bd 6ec8 3abd eb8f c23e
000003b0: 1c24 a83b d0c5 a0bc 1f2e 2a3e 5e57 813c
000003c0: 9d08 973c becb 973d f4a9 a63d bd79 43be
000003d0: 9158 a0bd e584 973d ab1e e63a c14c cdbb
000003e0: 7e69 193e d7a2 0d3e 0b0d d03d c603 35be
000003f0: f882 43bd b2a8 9b3d e308 bd3d 51ad b13c

l1.bias f4 [100]
-0.10274393 0.008094639 0.27227336 -0.12887771 -0.05314523 -0.13049899 0.042189285 0.11214299
-0.08399615 -0.14930052 0.21119839 -0.14827484 0.07408726 0.26349422 0.019407127 -0.09718687
0.06642221 0.054994777 -0.19411363 0.17031102 -0.25572786 -0.20638488 -0.10858724 0.2909743
0.028557908 -0.023125406 -0.17430156 -0.059261065 0.10165041 0.17467669 -0.021125859 -0.16838856
-0.17016493 -0.0068875947 -0.2894517 0.070332944 -0.23632836 0.117864124 -0.09306711 -0.108205035
0.028388206 0.17420225 0.077814706 0.31513196 0.08355543 0.07919778 0.030594062 0.1482892
0.04979222 -0.1187144 -0.100462 -0.07245396 0.005203409 -0.120233364 0.007954822 0.28038758
0.019371701 0.08183628 0.050130647 0.189081 0.27405852 -0.03820546 -0.071617104 -0.10738202
0.1675029 -0.20456146 -0.0665026 0.38178203 -0.08793167 0.19805668 -0.0051085283 0.07980612
-0.12754013 -0.10303027 0.19354382 0.027380936 0.012648288 0.1265137 -0.17889345 0.2639936
-0.23571075 -0.087943636 0.095898055 -0.14020422 -0.0075772647 0.28511375 0.06997969 -0.02008499
0.06271296 0.22722824 0.1851848 0.2050671 -0.01912465 -0.02080631 -0.19755922 -0.0033451554
0.22842322 -0.027881911 -0.095744126 0.009019669
00000000: 696b d2bd 609f 043c 6a67 8b3e 85f8 03be
00000010: d0ae 59bd 87a1 05be acce 2c3d 39ab e53d
00000020: 2c06 acbd 3ce2 18be 6444 583e 5cd5 17be
00000030: 10bb 973d b7e8 863e b2fb 9e3c e909 c7bd
00000040: 5e08 883d 3442 613d b9c5 46be 0366 2e3e
00000050: c3ee 82be 8f56 53be fd62 debd 95fa 943e
00000060: 46f2 e93c 7e71 bdbc 1c7c 32be bbbb 72bd
00000070: 172e d03d 72de 323e 2310 adbc 0d6e 2cbe
00000080: b73f 2ebe 55b1 e1bb 0333 94be b80a 903d
00000090: 1000 72be bf62 f13d f899 bebd 9a9a ddbd
000000a0: 628e e83c 1362 323e 515d 9f3d fa58 a13e
000000b0: 1c1f ab3d 7232 a23d 66a0 fa3c 20d9 173e
000000c0: edf2 4b3d 8920 f3bd 05bf cdbd be62 94bd
000000d0: 5c81 aa3b e93c f6bd f154 023c f68e 8f3e
000000e0: 67b1 9e3c c899 a73d cb55 4d3d 739e 413e
000000f0: 6651 8c3e 547d 1cbd fdab 92bd 1beb dbbd
00000100: e185 2b3e 8f78 51be 8432 88bd ef78 c33e
00000110: 8515 b4bd 5fcf 4a3e 7165 a7bb 6471 a33d
00000120: e199 02be 8901 d3bd 5a30 463e fc4d e03c
00000130: c43a 4f3c cf8c 013e d82f 37be 2b2a 873e
00000140: 295e 71be cb1b b4bd 3366 c43d b291 0fbe
00000150: b44a f8bb 6efa 913e 8351 8f3d 4789 a4bc
00000160: a76f 803d 85ae 683e 16a1 3d3e 1cfd 513e
00000170: 4cab 9cbc ff71 aabc f74c 4abe 653a 5bbb
00000180: c7e7 693e 9b68 e4bc 7f15 c4bd 3cc7 133c

l2.weight f4 [100, 100]
0.24138924 -0.38566142 -0.24807356 -0.04718814 0.32312295 -0.123953514 -0.07653213 0.016642258
-0.1758896 -0.04246211 0.09258836 0.45631444 -0.05236748 -0.042499695 0.22191519 0.29607847
-0.014772575 -0.16473316 0.12408648 -0.17098361 0.40777922 -0.06844292 0.20449342 -0.13946171
0.2897364 0.13805674 -0.079623446 0.13338742 -0.04777558 -0.27625468 -0.007366008 -0.15085411
0.43368268 -0.1671407 0.055581324 -0.084460184 0.028300418 -0.03578484 0.25563917 -0.09574038
-0.032477167 -0.13860777 -0.29605335 -0.2990175 -0.04142319 0.0927059 0.19828552 0.076572776
0.23551375 -0.097462036 0.13180447 -0.027758306 -0.07723181 -0.04618009 -0.21825305 0.14414597
0.3317733 -0.28370538 -0.25315192 0.026673067 0.23670313 -0.18362947 -0.10158266 -0.22891793
-0.0582879 0.119769275 -0.4243882 -0.26147366 0.15715851 -0.064217925 -0.41647965 -0.15297897
0.15316649 0.01987189 -0.13030034 -0.121025436 0.284772 -0.48218837 -0.06114046 -0.44337207
0.11825159 0.1280197 0.12698035 0.11861407 0.06524371 0.17028308 0.22920218 -0.0057712616
0.2838372 -0.18666236 0.29964474 -0.22889115 -0.15826197 0.04547628 -0.0982859 0.18502371
-0.1385402 0.32244554 -0.10232116 0.2207301 -0.0596978 0.5936959 0.21400908 -0.303178
-0.3216307 0.07049596 0.08855304 0.115818225 -0.1390901 0.14526483 0.033216324 -0.010681898
-0.033238184 0.18543176 -0.05606201 -0.27840617 -0.033186235 0.10292961 -0.24913548 0.17909607
-0.17956448 0.22421113 0.057122126 0.11970334 -0.08837816 -0.16357593 0.28544936 -0.18013377
0.23112498 0.14581148 0.15310818 -0.012896139 -0.44769242 0.320702 -0.082660735 0.21708241
0.09613244 0.0018422168 -0.1125608 0.17385721 -0.22312398 0.23577796 0.18128164 -0.16638197
-0.05038184 0.091673076 0.08127129 0.040107314 -0.2923126 -0.42104694 -0.00043143876 -0.11140699
-0.11305172 0.031197717 0.15042222 -0.01689211 0.082178384 0.38564515 0.12559944 -0.12471243
0.035672087 -0.016544651 0.17969115 -0.028449405 0.4714497 0.08034567 0.49906185 0.3362059
-0.056449194 0.017466845 0.13894847 -0.21213126 -0.6608358 -0.1949813 0.031042065 -0.048033603
-0.18150952 -0.45625076 0.1620733 0.26562867 -0.19673827 -0.18510088 0.047210127 0.056886822
-0.15701221 -0.030180482 -0.3242486 0.08383973 -0.0110994885 0.5231266 -0.11041917 0.14220594
0.12170512 0.11240692 0.06940451 -0.014615033 -0.07662852 -0.19860634 -0.028873174 0.15480371
0.64622515 -0.115737975 -0.52786887 0.07437765 -0.17362505 0.43373188 -0.53276914 -0.6042618
0.2590004 0.5475674 -1.0040067 0.05464214 -0.33874077 -0.833262 -0.6670609 0.1047782
-0.88934875 -1.006074 -0.060165558 -0.13844337 -0.10017925 0.33740994 0.3358185 0.20193762
-1.0944439 0.238 0.114384174 0.0928186 0.15807414 -1.7076968 1.1014004 0.1709753
1.0061622 0.33251742 0.30549356 -0.34659773 0.040502783 -0.09220518 0.19949467 0.10009832
0.29199 -0.00976251 0.117938444 -0.69477147 -0.095781155 1.2353585 -0.67191607 -0.17459637
0.93337446 0.6198528 -0.31165096 -0.034742754 0.76525456 -0.82624215 0.46911827 0.365283
00000000: be2e 773e 6a75 c5be ff06 7ebe 5a48 41bd
00000010: 5f70 a53e 57db fdbd e1bc 9cbd 5855 883c
00000020: 671c 34be c0ec 2dbd f79e bd3d 0ca2 e93e
00000030: 487f 56bd 2914 2ebd bc3d 633e 9997 973e
00000040: ac08 72bc cfaf 28be 0d21 fe3d 5416 2fbe
00000050: 70c8 d03e cd2b 8cbd b966 513e 0dcf 0ebe
00000060: 5458 943e bf5e 0d3e 9e11 a3bd b696 083e
00000070: 54b0 43bd 4171 8dbe 8e5e f1bb 8079 1abe
00000080: a80b de3e ef26 2bbe 3ea9 633d 76f9 acbd
00000090: 47d6 e73c 2093 12bd 23e3 823e 8813 c4bd
000000a0: c706 05bd 32ef 0dbe 4e94 97be d218 99be
000000b0: 5dab 29bd 97dc bd3d 5c0b 4b3e 30d2 9c3d
000000c0: 842a 713e 2d9a c7bd c0f7 063e 6365 e3bc
000000d0: b62b 9ebd 5627 3dbd ba7d 5fbe 009b 133e
000000e0: 31de a93e d541 91be 219d 81be 7a81 da3c
000000f0: 4e62 723e 5d09 3cbe 920a d0bd 7669 6abe
00000100: 4bbf 6ebd 9849 f53d 6949 d9be e0df 85be
00000110: 29ee 203e b084 83bd d23c d5be 85a6 1cbe
00000120: add7 1c3e 60ca a23c 746d 05be 2fdc f7bd
00000130: a3cd 913e 65e1 f6be 6b6e 7abd aa01 e3be
00000140: e42d f23d 9917 033e 2307 023e efeb f23d
00000150: 7f9e 853d b05e 2e3e fab3 6a3e da1c bdbb
00000160: 1c53 913e 6b24 3fbe 096b 993e 7162 6abe
00000170: 6d0f 22be 5645 3a3d 1e4a c9bd db76 3d3e
00000180: 7bdd 0dbe 9517 a53e c28d d1bd 1207 623e
00000190: ae85 74bd 74fc 173f 3225 5b3e 263a 9bbe
000001a0: c7ac a4be 3060 903d 4c5b b53d 1b32 ed3d
000001b0: a36d 0ebe 4ec0 143e d70d 083d 2103 2fbc
000001c0: c324 08bd d3e1 3d3e 47a1 65bd 418b 8ebe
000001d0: 4aee 07bd c2cc d23d 5f1d 7fbe f664 373e
000001e0: c0df 37be 9a97 653e e4f8 693d 0627 f53d
000001f0: 9cff b4bd 7380 27be 6b26 923e fd74 38be
00000200: 07ac 6c3e 9b4f 153e 64c8 1c3e 544a 53bc
00000210: f137 e5be 0d33 a43e 084a a9bd da4a 5e3e
00000220: 16e1 c43d 8a76 f13a 4786 e6bd a007 323e
00000230: 9d7a 64be c76f 713e e5a1 393e 0960 2abe
00000240: 305d 4ebd 18bf bb3d 9071 a63d 9147 243d
00000250: ffa9 95be 7793 d7be bb32 e2b9 5929 e4bd
00000260: a987 e7bd 5b92 ff3c 4808 1a3e 5361 8abc
00000270: 244d a83d 4873 c53e 249d 003e 3b69 ffbd
00000280: e51c 123d a688 87bc f500 383e ba0e e9bc
00000290: db61 f13e 458c a43d 0985 ff3e 2e23 ac3e
000002a0: 4537 67bd a116 8f3c 8248 0e3e f038 59be
000002b0: 892c 29bf 2ea9 47be ee4b fe3c e2be 44bd
000002c0: a2dd 39be b399 e9be 8bf6 253e 7b00 883e
000002d0: c275 49be 168b 3dbe 685f 413d 2802 693d
000002e0: cfc7 20be 0f3d f7bc ea03 a6be 2ab4 ab3d
000002f0: a1da 35bc a0eb 053f 7223 e2bd 6f9e 113e
00000300: 8940 f93d 9935 e63d f423 8e3d e473 6fbc
00000310: 6aef 9cbd 765f 4bbe 6f87 ecbc dd84 1e3e
00000320: 036f 253f 0808 edbd 6a22 07bf 4f53 983d
00000330: c4ca 31be 1b12 de3e 8f63 08bf e7b0 1abf
00000340: b39b 843e 612d 0c3f 4b83 80bf 70d0 5f3d
00000350: 6e6f adbe a950 55bf 81c4 2abf f495 d63d
00000360: 5cac 63bf 08c7 80bf 2970 76bd 19c4 0dbe
00000370: c72a cdbd ffc0 ac3e 67f0 ab3e bcc8 4e3e
00000380: bd16 8cbf 46b6 733e 4042 ea3d ae17 be3d
00000390: 30de 213e cf95 dabf b0fa 8c3f 2614 2f3e
000003a0: ecc9 803f b93f aa3e a769 9c3e 4275 b1be
000003b0: 3fe6 253d 12d6 bcbd 5548 4c3e 5900 cd3d
000003c0: b77f 953e eff2 1fbc b689 f13d 8bdc 31bf
000003d0: e928 c4bd 3a20 9e3f b102 2cbf 64c9 32be
000003e0: a1f1 6e3f acae 1e3f b790 9fbe 6b4e 0ebd
000003f0: b9e7 433f 9b84 53bf 4530 f03e 6006 bb3e

l2.bias f4 [100]
-0.3449668 0.42153785 0.13524523 -0.26231262 -0.012807577 0.14634116 -0.081168815 0.15451312
0.06785834 0.1171334 0.09029923 0.43071547 0.44813782 -0.3105965 0.32137588 -0.08577241
0.45509693 0.16953422 -0.21321641 -0.05027531 0.20477022 0.342886 0.2859765 0.14935178
0.15685144 -0.26696247 0.18924995 -0.4053728 0.061253764 -0.051058505 0.109077044 -0.1919975
0.35170212 0.05649253 -0.08194172 -0.17587312 -0.09680219 0.12774715 -0.004543183 -0.034490254
-0.37485445 0.112492085 -0.08539738 -0.25031143 0.14778008 -0.07757183 0.31213877 0.06303908
-0.1528384 -0.15180475 -0.4011274 0.15410459 -0.27885994 0.06785796 0.22411233 -0.06949069
0.38672 -0.36991853 0.40699115 0.32974702 0.13369106 -0.05648652 -0.03125092 -0.093892336
-0.33159497 -0.22303836 0.15215166 -0.14984065 0.042029396 -0.029950265 -0.100019306 0.013049925
-0.039966226 -0.19022094 0.0746882 0.032175306 0.41272542 -0.09573508 -0.20163976 -0.12728825
-0.17135836 0.027154313 0.06563929 0.08686099 -0.13815862 -0.47620618 0.20165347 0.2100004
-0.11097279 -0.22091274 -0.1698335 -0.10054506 0.18378893 0.0376023 0.21044223 0.3307763
-0.109229185 0.22186074 0.46322176 -0.1948386
00000000: 7d9f b0be cfd3 d73e ba7d 0a3e d74d 86be
00000010: dfd6 51bc 75da 153e d63b a6bd b038 1e3e
00000020: 50f9 8a3d a3e3 ef3d cdee b83d bd86 dc3e
00000030: 5272 e53e 8106 9fbe 618b a43e 72a9 afbd
00000040: 7702 e93e 619a 2d3e 6755 5abe 7ced 4dbd
00000050: 49af 513e c18e af3e 836b 923e acef 183e
00000060: aa9d 203e 4eaf 88be bdca 413e 068d cfbe
00000070: 3ae5 7a3d b922 51bd c963 df3d fe9a 44be
00000080: 4d12 b43e b664 673d 0fd1 a7bd 1518 34be
00000090: 3a40 c6bd 26d0 023e fbde 94bb a745 0dbd
000000a0: ecec bfbe 4062 e63d d2e4 aebd d228 80be
000000b0: a953 173e fbdd 9ebd a7d0 9f3e a21a 813d
000000c0: ab81 1cbe b472 1bbe 9260 cdbe 98cd 1d3e
000000d0: bbc6 8ebe 1df9 8a3d b47d 653e 2351 8ebd
000000e0: 2a00 c63e f665 bdbe 2561 d03e 9ad4 a83e
000000f0: 4fe6 083e 695e 67bd f700 00bd a04a c0bd
00000100: d1c6 a9be 2b64 64be a5cd 1b3e d46f 19be
00000110: 0427 2c3d 425a f5bc ecd6 ccbd 5acf 553c
00000120: a0b3 23bd 47c9 42be 21f6 983d 41ca 033d
00000130: bf50 d33e c110 c4bd a77a 4ebe da57 02be
00000140: 9178 2fbe b972 de3c e46d 863d 2de4 b13d
00000150: 7479 0dbe 4cd1 f3be 3f7e 4e3e 580a 573e
00000160: b445 e3bd f336 62be d5e8 2dbe 92ea cdbd
00000170: 2a33 3c3e df04 1a3d 2b7e 573e 835b a93e
00000180: 8db3 dfbd 762f 633e 672b ed3e c583 47be

l3.weight f4 [18, 100]
-0.08639457 -0.27767432 -0.6694614 0.23851289 0.44622537 -0.40202528 0.13770969 -0.19922236
-0.01611328 -0.3132244 -0.07025352 -0.36132404 -0.18689297 0.52658707 -0.09621158 -0.0807862
-0.2252271 -0.112732746 -0.044538885 0.7072956 -0.29119167 -0.10568419 -0.105511755 -0.10508479
-0.29597795 0.27606702 -0.46917552 0.367844 -0.2873352 0.40418643 -0.31989384 0.24481554
-0.2330456 0.4719135 0.37658754 0.2161343 0.18684351 -0.09639806 0.089207634 -0.24457565
0.37150794 -0.28309596 0.08090054 0.124850094 -0.31393814 0.40636054 0.3497347 0.2782884
0.44383612 0.2165954 0.21306986 -0.3089051 0.25679147 -0.6005749 -0.42772582 0.28901452
-0.23148654 0.08874767 -0.23608056 -0.12027648 0.106979206 -0.50995123 0.45497587 0.23173827
0.37933296 0.43565914 -0.3660179 0.20162383 -0.46795976 -0.4495981 0.09717689 -0.15817066
0.06961376 0.12703718 -0.25393265 -0.10700898 -0.17336176 0.20000528 -0.27642387 0.25378516
0.47798958 -0.019162266 -0.5044627 -0.37942073 0.1493361 0.18391097 -0.12512477 -0.4675909
0.047072805 0.12554109 -0.0004038407 0.111346655 0.06479937 -0.17687684 -0.21767329 -0.13934518
0.060527142 0.2789973 -0.06399903 0.3285436 0.10034266 0.1040965 -0.5510585 0.055752106
0.5891027 -0.24555093 0.3197226 -0.038527127 -0.2996417 -0.46376303 0.09396059 -0.19152696
-0.086819544 0.3759055 -0.32266694 0.09060617 -0.30059707 -0.3108669 0.049950592 0.378419
-0.2642874 -0.29447442 -0.36153403 -0.10362627 -0.32155982 0.044104792 -0.5459326 0.32049996
-0.058640044 0.34270543 -0.4929179 0.24794956 -0.106093824 0.4793098 0.21883391 0.10959732
0.2061574 0.0973383 0.23869412 -0.49547112 0.21822359 -0.35252306 0.04990694 0.18084691
-0.24968417 0.3834169 0.39603552 0.21720698 0.5478066 0.30207804 0.470487 -0.37242803
0.09402234 -0.23858379 -0.6789822 0.16525918 -0.18842119 0.3312253 -0.25483087 -0.41059747
0.19660553 -0.58819103 0.18296152 0.07899775 0.30837435 0.44502795 -0.20023589 0.4021547
-0.41324264 -0.36200088 0.21027437 -0.094007395 -0.11708746 0.3112756 -0.15497148 -0.27442423
-0.08522762 0.2924373 -0.2857934 0.184817 0.4433825 -0.38967183 0.032236103 -0.3315784
0.03577511 0.34189516 -0.24486431 -0.15258119 0.18120602 0.2873454 -0.13884667 0.0054077273
-0.19104311 -0.21395889 -0.09559327 -0.115443505 0.0010847922 0.25032187 -0.19435264 0.3273585
0.28563362 -0.4446015 -0.5989057 0.08110799 0.12849146 -0.373378 0.2628978 -0.23798159
-0.3144043 -0.29917073 -0.028887322 -0.06532112 0.09805944 0.49585286 -0.21019536 -0.03852555
-0.14466806 -0.20511153 0.2023466 0.7111439 -0.22224197 -0.12171426 -0.24417993 -0.29133722
-0.12426564 -0.092666 -0.68135595 0.47202197 -0.1588763 0.43079427 -0.30098826 0.20194292
-0.22720768 0.33482993 0.40104678 -0.07995308 0.20899984 -0.27686962 0.028401887 -0.14106256
-0.093227126 -0.18023278 -0.009516069 0.22953708 -0.25389767 0.54233795 0.32242396 0.45907852
0.39628053 0.29167444 0.21586522 -0.45232615 -0.18682101 -0.13700496 -0.4245365 0.020004302
00000000: a3ef b0bd 542b 8ebe d361 2bbf b93c 743e
00000010: a777 e43e 42d6 cdbe c503 0d3e f200 4cbe
00000020: ffff 83bc f35e a0be 14e1 8fbd 77ff b8be
00000030: df60 3fbe 69ce 063f 940a c5bd 3c73 a5bd
00000040: efa1 66be 6de0 e6bd 686e 36bd 5311 353f
00000050: 1317 95be f470 d8bd 8c16 d8bd b236 d7bd
00000060: 6c8a 97be a858 8d3e c637 f0be 0c56 bc3e
00000070: 991d 93be 86f1 ce3e 20c9 a3be edb0 7a3e
00000080: 81a3 6ebe a59e f13e 15d0 c03e 4f52 5d3e
00000090: e853 3f3e 596c c5bd 7eb2 b63d 0a72 7abe
000000a0: 4a36 be3e f4f1 90be 2faf a53d 68b1 ff3d
000000b0: 80bc a0be 7d0e d03e 6d10 b33e d17b 8e3e
000000c0: 7d3e e33e 2fcb 5d3e fc2e 5a3e cf28 9ebe
000000d0: 2c7a 833e 47bf 19bf e1fe dabe b6f9 933e
000000e0: cf0a 6dbe 57c1 b53d 1abf 71be 8453 f6bd
000000f0: ea17 db3d 2a8c 02bf 99f2 e83e cc4c 6d3e
00000100: ee37 c23e b70e df3e b366 bbbe 7a76 4e3e
00000110: 6c98 efbe b931 e6be ad04 c73d 7df7 21be
00000120: a991 8e3d 0916 023e 7603 82be 8627 dbbd
00000130: bf85 31be 2fce 4c3e 6e87 8dbe 21f0 813e
00000140: 0dbb f43e 2ffa 9cbc 7824 01bf 6f43 c2be
00000150: 90eb 183e 2853 3c3e b520 00be 1368 efbe
00000160: 6acf 403d d88d 003e 95ba d3b9 b709 e43d
00000170: 88b5 843d 341f 35be bfe5 5ebe 81b0 0ebe
00000180: 4feb 773d bcd8 8e3e ec11 83bd de36 a83e
00000190: 7480 cd3d 8c30 d53d 2b12 0dbf 525c 643d
000001a0: 6fcf 163f b471 7bbe aeb2 a33e 9fce 1dbd
000001b0: a36a 99be 5972 edbe 696e c03d a51f 44be
000001c0: 72ce b1bd b076 c03e 9a34 a5be ba8f b93d
000001d0: dce7 99be f229 9fbe fe98 4c3d 23c0 c13e
000001e0: ae50 87be 5ac5 96be fd1a b9be 033a d4bd
000001f0: 7da3 a4be 3aa7 343d 3dc2 0bbf 9218 a43e
00000200: 8b30 70bd 1677 af3e bc5f fcbe 7de6 7d3e
00000210: b847 d9bd 1868 f53e ff15 603e 8f74 e03d
00000220: ed1a 533e 4d59 c73d 3b6c 743e 64ae fdbe
00000230: 0176 5f3e e77d b4be 386b 4c3d ef2f 393e
00000240: 35ad 7fbe 384f c43e 2bc5 ca3e 826b 5e3e
00000250: 0e3d 0c3f f9a9 9a3e ace3 f03e e3ae bebe
00000260: c98e c03d 4f4f 74be c7d1 2dbf b439 293e
00000270: 7cf1 40be 5d96 a93e 3179 82be d539 d2be
00000280: f652 493e b093 16bf 445a 3b3e 93c9 a13d
00000290: 3ee3 9d3e b4da e33e a30a 4dbe 39e7 cd3e
000002a0: 8a94 d3be 2e58 b9be 2a52 573e f386 c0bd
000002b0: 8dcb efbd 845f 9f3e d8b0 1ebe 5581 8cbe
000002c0: d28b aebd 57ba 953e 8353 92be ab40 3d3e
000002d0: 0803 e33e 1183 c7be 010a 043d a5c4 a9be
000002e0: ec88 123d e20c af3e b6bd 7abe 3e3e 1cbe
000002f0: 128e 393e f01e 933e d22d 0ebe 4e33 b13b
00000300: cea0 43be 0a18 5bbe 68c6 c3bd a56d ecbd
00000310: 962f 8e3a 302a 803e 6104 47be 899b a73e
00000320: 923e 923e cfa2 e3be e251 19bf f21b a63d
00000330: 4493 033e 672b bfbe 8a9a 863e 72b1 73be
00000340: 9af9 a0be e82c 99be 1ba5 ecbc 14c7 85bd
00000350: 63d3 c83d 6de0 fd3e 743d 57be f8cc 1dbd
00000360: dd23 14be c208 52be f233 4f3e 870d 363f
00000370: 6693 63be 5345 f9bd 4e0a 7abe 272a 95be
00000380: fc7e febd acc7 bdbd 586d 2ebf ddac f13e
00000390: 78b0 22be 1191 dc3e 221b 9abe 20ca 4e3e
000003a0: 21a9 68be d46e ab3e 0156 cd3e 71be a3bd
000003b0: 0e04 563e dbc1 8dbe 13ab e83c b472 10be
000003c0: dded bebd f18e 38be 49e9 1bbc c50b 6b3e
000003d0: e0fe 81be a9d6 0a3f c114 a53e 570c eb3e
000003e0: 48e5 ca3e 5a56 953e c60b 5d3e 4b97 e7be
000003f0: 024e 3fbe 074b 0cbe d95c d9be 10e0 a33c

l3.bias f4 [18]
0.04275505 -0.11426396 -0.50458467 -0.3640559 0.09551465 -0.070663385 -0.030018162 -0.41334507
-0.16501327 -0.24019364 0.009172758 -0.34777832 -0.36589012 0.3253379 -0.11113282 -0.29219833
-0.4395179 -0.36442673
00000000: eb1f 2f3d 3903 eabd 762c 01bf 8965 babe
00000010: 2f9d c33d f7b7 90bd a6e8 f5bc f7a1 d3be
00000020: 3df9 28be 52f5 75be 5649 163c 0010 b2be
00000030: f355 bbbe b092 a63e 9b99 e3bd 059b 95be
00000040: 7d08 e1be 2496 babe
