data/result/d_430.pt (torch, 94638 bytes, 7 tensors)

D_attr_matrix.weight f4 [36, 5]
000000 04 e9 81 3d 0c d5 e9 be 16 e7 28 be d4 ff b1 3d
       0.06343272 -0.45670354 -0.16494402 0.086913735
000010 4b 25 99 bd 6b bb ca be 65 54 a7 be b4 7d 30 3e
       -0.07477816 -0.39596114 -0.32681575 0.17235452
000020 4f 9e df be 6d 46 d8 3e 16 69 65 3e 83 e8 ae 3b
       -0.43675467 0.4224123 0.22403368 0.005337776
000030 c3 00 b3 bc f5 ca 5b bc e4 fc 89 3c 61 38 aa bd
       -0.02185095 -0.013415088 0.01684422 -0.08311535
000040 90 0a d3 be 9c 63 93 3e 3d f7 c9 3d ef cd 1d be
       -0.41218996 0.28786933 0.0986161 -0.15410589
000050 ef f1 38 3c 32 9a 4d be 2a b9 68 bb 20 02 06 3e
       0.01128815 -0.20078352 -0.0035510757 0.13086748
000060 27 e6 e1 3d 84 78 47 bf 4f d6 4c bf 3d 39 47 3e
       0.11030226 -0.7791827 -0.8001451 0.19455428
000070 74 08 12 3f 32 93 fa be dc 2f 33 ba df 17 f0 bd
       0.5704415 -0.48940426 -0.00068354397 -0.11723303
000080 23 0b 72 bc a0 48 0a 3f 8d 11 e1 3b 14 1b 13 3f
       -0.014773163 0.54017067 0.0068685473 0.5746319
000090 23 31 6b be 60 01 fc 3e a7 69 1c be 86 a7 b3 be
       -0.22967963 0.492198 -0.15274678 -0.35088748
0000a0 65 96 e0 be 23 be 13 3e 9e 4e 00 3e bd af 87 be
       -0.43864742 0.14428 0.1252999 -0.26501265
0000b0 2c 1f 17 3d 40 d2 34 be 2b 16 e9 3d 2c 3a c0 be
       0.036894962 -0.17658329 0.11381181 -0.37544382
0000c0 40 a0 9e bd f2 24 20 3e 4d 67 3a 3e 6c 08 f3 3d
       -0.07745409 0.15639094 0.18203469 0.11866841
0000d0 6a 2c 9a 3d aa 52 d6 3c 4f df 8d 3d 34 50 0b 3c
       0.075280026 0.026162464 0.06927358 0.008503009
0000e0 d8 1a c5 3e 92 49 e7 bd a5 35 7b be 20 0a 99 be
       0.38497043 -0.11293329 -0.24532183 -0.29890537
0000f0 f7 21 e2 bd ef ac 17 3d 5a b1 89 bd 1b 10 75 bc
       -0.110416345 0.037030157 -0.0672328 -0.014957453
000100 d1 e0 ea bc 45 39 6b be a0 60 d7 3e dc d8 c3 3d
       -0.028671654 -0.22971065 0.42065907 0.09562847
000110 8b 97 3c 3f ac d9 4e 3f f0 17 12 3e 2d 2f 82 3e
       0.73668736 0.8080089 0.14266944 0.25426617
000120 b8 62 f0 bb 27 78 b2 bc ef eb cf be 0d c5 0c be
       -0.007335987 -0.021785809 -0.4060969 -0.13747044
000130 2a 02 78 3e b8 66 37 3e 5f 31 c5 3c 30 0a 88 3e
       0.24219576 0.17910278 0.024071394 0.26570272
000140 d6 86 d4 3b 49 85 03 3d 6e 58 33 bc 0b 26 33 3e
       0.0064858003 0.032109533 -0.010946376 0.17494981
000150 e9 5e 9d bc 99 30 65 be b7 c7 30 bf 9d 39 ac 3e
       -0.019210296 -0.2238182 -0.6905474 0.33637705
000160 02 d9 ca 3e e1 fe b5 3c 29 b6 56 3d fa c0 53 3b
       0.3961869 0.022216262 0.052419815 0.0032311068
000170 87 34 f5 bb c2 5a 28 bd f7 54 bd bd 60 81 fa be
       -0.0074830684 -0.04110218 -0.092447214 -0.4892683
000180 40 65 87 bd 38 29 b1 3e f3 83 a2 3e b2 fa 0d bf
       -0.06611109 0.3460176 0.31741294 -0.55460656
000190 c0 16 36 bd fc 66 08 bd 2b 8f 8f bb 20 f2 66 3d
       -0.04445529 -0.03330134 -0.0043810806 0.056383252
0001a0 2f ec 84 be e3 3e bf 3e c8 71 f6 3e 5e 19 17 3f
       -0.25961444 0.37352666 0.48133683 0.5902308
0001b0 9b e9 6e 3d e1 ff 65 3e 1e 2f 67 be 27 de 21 3d
       0.058328252 0.22460891 -0.22576568 0.0395185
0001c0 2a d5 8e 3c 16 a5 92 bb 5e 0b c8 bc 5b 8f 5c bc
       0.017435629 -0.004475246 -0.024419483 -0.013461913
0001d0 c3 59 1c 3f ae 1b 0d bf f1 a3 14 3d 8a 3d 24 3f
       0.61074466 -0.5512036 0.03628916 0.641564
0001e0 6b d8 19 be 7d ed e6 bd 48 70 1d 3d ea 2e c7 be
       -0.15023963 -0.11275766 0.038437158 -0.3890298
0001f0 47 30 c3 bc e3 ab ce 3d 48 3b d8 3b 2d 0f 17 bf
       -0.023826731 0.100913785 0.0065988638 -0.5900753
000200 f9 56 2f be 5d 66 b4 3e 21 ca 10 3d 77 dc 54 3d
       -0.17123021 0.35234347 0.035349015 0.051968064
000210 0f 3f 23 be a8 dc 6b bd 67 85 57 bd fe 8f 6d be
       -0.15942024 -0.05758348 -0.052617457 -0.2319946
000220 1f 2a c7 be f7 58 24 bd ce 12 03 3f b3 f7 b0 3e
       -0.38899323 -0.040123906 0.5120057 0.3456398
000230 8b 28 8f 3d 9f 08 26 3d 48 4c 02 b9 ca 20 6d bd
       0.06990155 0.040535565 -0.00012426183 -0.0578926
000240 23 cf 83 3d 12 2e 04 bf 87 1f 8e be d9 f0 b1 3a
       0.064359926 -0.516328 -0.27758428 0.0013575807
000250 5f ec d6 3e d8 62 d0 be 10 27 ec bd a8 d9 13 3e
       0.41977212 -0.40700412 -0.11530888 0.14438498
000260 7b 5f dd 3d a5 e4 8a 3d d2 d5 1e bd 0b 03 10 3f
       0.10809227 0.06781892 -0.038778134 0.56254643
000270 79 1c 18 3e 72 9c f7 be ef d6 a0 be 64 a3 35 3e
       0.14854611 -0.48361546 -0.3141398 0.1773811
000280 64 47 b5 3c ed 66 ce bd d7 77 30 3e 6c 36 91 3d
       0.022128768 -0.10078225 0.17233215 0.07090458
000290 f4 80 ed bc 57 d0 93 bc f2 f7 53 be de 08 02 bf
       -0.028992154 -0.01804368 -0.20700052 -0.5079478
0002a0 80 cc da bd b2 a0 30 3e 6f ba ea 3c 0a c8 86 3e
       -0.106835365 0.172488 0.028653352 0.26324493
0002b0 eb de a3 bc 8b 76 67 be 81 4f 3f be 8a e4 64 bf
       -0.020003757 -0.22603814 -0.18682672 -0.8941122
0002c0 86 10 50 3e ee 48 41 3f 12 32 91 be ad be 9b be
       0.20318803 0.75501907 -0.28358513 -0.30418912

l1.weight f4 [100, 108]
000000 33 48 04 bd 7f 16 0b 3e ef 22 aa bc 92 59 03 3e
       -0.032295417 0.135828 -0.02076861 0.12827137
000010 08 d5 f6 3d b0 e7 e7 bd 22 26 cc 3c 1b b0 94 3d
       0.12052351 -0.11323488 0.024920527 0.07260152
000020 7a 83 b7 3d f5 97 ba bc 8d bb 0e be 47 a8 3d bd
       0.08960624 -0.022777537 -0.13938732 -0.04630306
000030 57 09 ad bd 77 2c ab 3e 5d 93 11 3e 6a 04 07 be
       -0.08449047 0.3343236 0.14216371 -0.13185278
000040 54 1d bc 3d c2 0e 28 3e 44 ce ad 3c 3f 20 0e 3d
       0.091852814 0.1641188 0.02121652 0.03469872
000050 77 0f 24 bd a0 6a 93 39 df 84 29 bc fc 29 ec 3c
       -0.04005381 0.00028117467 -0.01034662 0.028828613
000060 a9 e9 60 bd 1f 3b c5 bd e1 f6 7b bd 97 fe 96 3c
       -0.054910336 -0.09630417 -0.06151474 0.018431945
000070 74 02 e3 3d 08 02 54 3e 74 85 77 3e da 29 8a bd
       0.11084452 0.207039 0.24172002 -0.06746264
000080 e6 34 55 3e b0 bf d6 3d 93 f4 6a 3c 48 e2 a0 3d
       0.2082096 0.1048578 0.014340538 0.0785566
000090 4e bb 2c be 6b 63 da 3d 17 ec 98 3c ff 16 0c 3e
       -0.16868326 0.10663494 0.018667264 0.13680647
0000a0 9f bf 51 bd b6 9a a7 bc 16 8b af 3c c1 95 7c 3c
       -0.051208135 -0.020459514 0.021428626 0.0154165635
0000b0 05 d0 ee bd 7d c3 2f be 31 8c 4a 3d df 7b 46 3e
       -0.1166077 -0.17164417 0.049450103 0.1938319
0000c0 3f b8 41 bd 66 e5 ab 3d 27 44 fd bd 35 f3 99 bd
       -0.04729485 0.08393364 -0.12366515 -0.07517091
0000d0 30 84 6b bd 67 ec ec bd ef 02 1a bc f8 8f 77 3e
       -0.05749911 -0.11568528 -0.0094001135 0.24176013
0000e0 ec 07 b7 3d ce f2 0e 3d 6e f0 3b 3d 80 7a 42 bd
       0.08937058 0.034899525 0.04588359 -0.047480106
0000f0 4d 58 33 3e d6 0c d6 3d 6e 80 60 be 6a 77 66 3d
       0.17514153 0.10451667 -0.21923992 0.056266226
000100 76 eb d8 3b f5 d4 17 be 0e 40 55 be 78 24 37 3d
       0.006619866 -0.1482733 -0.20825216 0.044712514
000110 a3 ca 93 bc 1c 3c 0d 3e d6 74 fc bc 1a a0 14 be
       -0.01804096 0.13792461 -0.03081743 -0.14514199
000120 89 0a ae 3d a9 d6 00 bc d6 33 8d bd 42 78 04 be
       0.08498103 -0.007863679 -0.068946525 -0.129365
000130 f7 df 4c be c1 0c 89 be 18 09 28 bd 52 d4 3b 3c
       -0.20007311 -0.26767543 -0.041024297 0.011464195
000140 06 6e 13 3e 00 62 42 be 16 93 03 3d 3c 51 ff bd
       0.1439744 -0.18982697 0.032122694 -0.12466666
000150 7c 32 e4 3d e1 cf 02 be 8f 24 fb bc 7f 7c 98 bd
       0.11142442 -0.12774612 -0.030657081 -0.07445621
000160 28 37 35 bc d0 08 83 3d 9c 14 85 3e f2 91 ac bd
       -0.011060514 0.06398165 0.25992286 -0.08426274
000170 d3 9d ae 3e 16 1e d6 3e c4 9e 71 3e 90 55 e7 3e
       0.34104785 0.4181983 0.2359572 0.45182467
000180 7a 24 4f 3e 8a dc 82 3e 6e 3c 9b 3e 91 ad d6 3e
       0.20228758 0.25558883 0.30319542 0.41929296
000190 21 f4 5e 3e fc b9 9c 3d 7e 2a 1c 3f 47 63 ad 3e
       0.21772815 0.07652661 0.6100234 0.33864805
0001a0 dc 1e db 3e 5a 12 97 3e 7d fb f2 3e cb b0 8a 3e
       0.4279698 0.2950619 0.47457495 0.27088007
0001b0 24 74 f8 3e 40 03 37 be 2a 05 82 be 0d 6b bf 3e
       0.48526108 -0.17872334 -0.25394565 0.3738636
0001c0 24 94 2e bf a3 24 c9 bd 27 ce 91 bf 9d 6d 6e 3e
       -0.68194795 -0.09821441 -1.1391038 0.23284002
0001d0 aa 8c 9f 3e 44 4c 2e be 18 a8 d3 be a2 1a 75 be
       0.31162006 -0.1702128 -0.41339183 -0.23935941
0001e0 97 5b 31 3e 45 7f b9 bb 47 4a b6 3c 52 74 d1 be
       0.17320095 -0.0056609237 0.022252215 -0.40909058
0001f0 57 b1 7e bd 87 86 ca be bd 1c 53 3e a3 0d f5 3e
       -0.062180843 -0.3955576 0.20616432 0.47861966
000200 ba cf 82 be 77 12 9f bd 6d 54 d9 3c 87 ca c4 bd
       -0.25549108 -0.07767194 0.026529515 -0.096089415
000210 89 21 50 3d 58 71 5b 3e 21 2c 34 be b2 fa 95 3e
       0.05081323 0.21429956 -0.17594959 0.29292828
000220 89 58 78 3e 69 96 85 3e 9a cb c3 bc 5d cc 2b 3b
       0.24252523 0.26091316 -0.023900796 0.002621434
000230 63 ca 43 be d3 bb b5 be 38 c4 c2 be 51 21 b5 3e
       -0.19120173 -0.3549486 -0.38040328 0.3537698
000240 4c 9b ed bd 8e 16 1c be f5 0c 75 be 01 14 c9 be
       -0.11601886 -0.15242979 -0.23930724 -0.39273074
000250 b8 ba 47 be f9 2a 78 be b1 3d 51 3e 29 e8 3c 3e
       -0.19504821 -0.24235143 0.2043369 0.18447937
000260 1a 87 f2 bd de c2 25 3f c1 79 5c 3e bf a8 69 bd
       -0.11842175 0.6475047 0.2153082 -0.057045694
000270 61 c4 b1 be e5 fe 48 bc bd 19 85 3d 97 73 d0 3d
       -0.34720138 -0.012267803 0.0649905 0.10178297
000280 ae 76 35 3f 74 05 1b 3d 34 d6 54 bd 7e 3a eb bd
       0.70884216 0.037846997 -0.051962093 -0.11485766
000290 70 c0 b3 3d e4 2e bb 3d 3f f6 e2 bd 1d c8 d5 bd
       0.08776939 0.09139803 -0.11082124 -0.10438559
0002a0 dd 41 d3 bd 95 a5 fc bd 40 73 40 3f 0f 8b ff bd
       -0.10315297 -0.1233627 0.7517586 -0.12477695
0002b0 18 89 35 bf cc da 99 be f2 f7 3b bf dc 27 16 3e
       -0.70912313 -0.3004974 -0.7342521 0.14663643
0002c0 3a e4 86 3f 1c a9 80 3e cc e7 57 3e b5 f1 4f 3e
       1.0538399 0.2512902 0.21084517 0.20307048
0002d0 1a 90 17 be c1 6f 06 be 54 5b 3a 3e d7 10 c2 3e
       -0.14801064 -0.13128568 0.18198901 0.37903473
0002e0 5e e4 59 bd 4c 6a 15 bf bd 8c c4 be 91 a0 6b 3e
       -0.053196304 -0.5836532 -0.38388625 0.2301047
0002f0 54 24 bd 3d 57 4a 9c bd 4b dc 58 3f 2d 9e 4a 3e
       0.09235445 -0.07631367 0.8471114 0.19786902
000300 68 8d 96 be 3d dd 01 bf 3a 4c 20 3e 46 a0 e5 3e
       -0.2940476 -0.5072821 0.15654078 0.4484884
000310 d3 92 f0 bd 90 96 65 be e3 94 40 be 04 8b 1a be
       -0.117467545 -0.22420716 -0.18806796 -0.15092093
000320 34 09 a0 be ee 1f 39 3d ef 51 ee bd 2b ff ab be
       -0.3125702 0.045196466 -0.11636721 -0.33593115
000330 57 18 25 be 56 6d 3b be 1d 9b 2b 3e 4b 5e 20 be
       -0.16122566 -0.18303427 0.1675839 -0.1566097
000340 6d e6 c8 bd fc 3a ed 3d d8 76 cf be e4 2e 94 3c
       -0.09809575 0.11583516 -0.40520358 0.018088765
000350 27 96 95 bc d6 2d 33 3e db f5 25 bd 44 f8 c0 bd
       -0.018260075 0.17497954 -0.04051767 -0.09422353
000360 cf 93 20 3e b0 c7 29 bd b5 7e 48 be 43 19 95 3d
       0.15681385 -0.041450202 -0.19579585 0.07280209
000370 a7 a9 14 bd 2d 81 21 be cf ad 65 3d 84 73 69 3e
       -0.036294606 -0.15771933 0.05607396 0.22797972
000380 c4 c7 77 3d 64 dd 24 3c 07 31 1c be 11 8e 35 bd
       0.060493246 0.010062549 -0.15253077 -0.04432494
000390 f9 74 3d bc 83 66 c4 3d 82 fe 04 bd 9c fa 1f be
       -0.011563533 0.09589865 -0.03246928 -0.15622944
0003a0 16 e6 20 be fc 48 54 bd 19 59 3e bd c8 1b c3 3e
       -0.15712771 -0.051827416 -0.04647169 0.38107133
0003b0 23 2d ce 3b c8 0c aa bc ad d3 27 3e 94 61 8b 3c
       0.006292002 -0.020758048 0.16389342 0.017014302
0003c0 db 8a 93 3c 94 91 95 3d 8d 62 a5 3d 3f 37 45 be
       0.018010547 0.073031574 0.08075438 -0.19259356
0003d0 7a 1e 9e bd ec 2f 93 3d a9 8c 3b 3b 26 92 0d bc
       -0.07720657 0.07186875 0.0028617776 -0.0086408015
0003e0 9c 4f 1a 3e f6 98 0c 3e da db cb 3d 50 47 33 be
       0.15069431 0.13730225 0.09954043 -0.17507672
0003f0 c0 f4 46 bd 9e ee 97 3d 82 e6 bb 3d 0c ef aa 3c
       -0.048573256 0.074185595 0.09174825 0.02086594

l1.bias f4 [100]
000000 16 37 d3 bd 47 5c 38 3c 75 09 8b 3e 22 21 03 be
       -0.10313241 0.011252469 0.27155653 -0.12805608
000010 3c d3 56 bd 2d 66 05 be 54 09 2c 3d 73 27 e6 3d
       -0.052447543 -0.13027258 0.042001083 0.11237993
000020 0b da ac bd f8 a6 18 be 28 7c 58 3e e1 b0 18 be
       -0.08440026 -0.14907444 0.21141112 -0.14911224
000030 8a 93 93 3d 36 f2 86 3e 1b c1 9c 3c dd 46 c3 bd
       0.07205875 0.26356667 0.019135049 -0.095350005
000040 c8 d2 89 3d 76 e5 5f 3d 2e e5 47 be fb 1e 2d 3e
       0.067296565 0.05466219 -0.19521019 0.1690635
000050 74 e4 82 be 7b 92 53 be 5d 0c e0 bd 1b 48 95 3e
       -0.2556492 -0.20661347 -0.10939858 0.29156575
000060 ef 9f ef 3c 98 9c bc bc d2 98 33 be 88 c5 72 bd
       0.029251067 -0.023023888 -0.17538765 -0.05927041
000070 84 cb ce 3d 36 6f 33 3e 00 76 ae bc 0d 3d 2d be
       0.10097411 0.17522892 -0.021296501 -0.1691782
000080 e5 66 2e be 4e 4a e0 bb 76 ae 94 be 97 f2 8d 3d
       -0.17031439 -0.0068447953 -0.29039353 0.06931036
000090 ee 26 73 be f0 2d fa 3d d1 0d bb bd eb 91 de bd
       -0.23745319 0.12215793 -0.09133495 -0.108676754
0000a0 88 b0 ea 3c ab e2 35 3e 0f 0d 9c 3d 4e 2c a1 3e
       0.02864863 0.17762248 0.07619678 0.31479114
0000b0 6a 66 aa 3d 84 2e a2 3d 18 90 fe 3c 2b c2 13 3e
       0.08320315 0.079190284 0.031074569 0.14429538
0000c0 f5 ae 4c 3d 19 4b f2 bd 42 23 cd bd 44 a1 99 bd
       0.04997154 -0.1183073 -0.100164905 -0.07501462
0000d0 17 de a9 3b 45 eb f5 bd f0 9f f2 3b d0 46 8f 3e
       0.005183946 -0.12007765 0.00740432 0.27983713
0000e0 a6 b2 9f 3c 27 32 a6 3d 55 13 41 3d b8 58 49 3e
       0.019494366 0.081150346 0.047137577 0.1966275
0000f0 9e 66 8c 3e 98 62 22 bd 6a 28 92 bd dc 5b da bd
       0.2742204 -0.039644808 -0.071366146 -0.10662052
000100 8c 24 2b 3e f7 6a 53 be 36 b0 84 bd c7 37 c4 3e
       0.1671316 -0.20646273 -0.06478922 0.38323805
000110 fc 30 b3 bd 2a b8 46 3e 32 71 de bb d6 49 a2 3d
       -0.087495774 0.1940619 -0.0067883963 0.07924239
000120 72 26 04 be d5 6d d2 bd 11 49 45 3e 62 26 e1 3c
       -0.1290529 -0.10274855 0.19266154 0.027484123
000130 12 a2 55 3c e4 e6 fd 3d e2 1a 36 be 15 f1 85 3e
       0.013039129 0.123975545 -0.17783692 0.26160493
000140 34 8c 76 be 4f 50 b5 bd f1 c4 c1 3d 34 a7 0b be
       -0.24076921 -0.08853208 0.09461392 -0.13638002
000150 79 60 ce bb c4 02 92 3e 08 80 92 3d ef 14 a4 bc
       -0.0062981215 0.28517735 0.07153326 -0.020029513
000160 59 4e 80 3d 3b 17 68 3e 51 de 3d 3e cc d8 51 3e
       0.06264944 0.22665112 0.18541838 0.20492858
000170 4c 3c a4 bc 0d 6f a9 bc 98 59 4a be f1 d6 0b bb
       -0.020048283 -0.020682836 -0.1976074 -0.0021337832
000180 ff b7 66 3e 8c 0a e2 bc cd 9a c4 bd e0 4e f7 3b
       0.22531126 -0.02759292 -0.095998384 0.0075472444

l2.weight f4 [100, 100]
000000 d3 7b 7d 3e 79 7f cb be 97 1e 82 be 5d 0c 3a bd
       0.24754266 -0.3974569 -0.25413963 -0.045421947
000010 3a 86 a4 3e 8f ae 07 be 98 7b 8f bd d0 32 ff 3c
       0.32133657 -0.13250183 -0.070059955 0.031152159
000020 c7 d5 36 be 02 fb 76 bd 88 bd bd 3d 94 ba ea 3e
       -0.17854987 -0.060297973 0.09264666 0.45845473
000030 f4 60 5f bd e8 ad 3b bd 9e 25 6e 3e bf 93 98 3e
       -0.05453582 -0.045820147 0.23256537 0.2980022
000040 0f 03 be bc e5 44 2a be 3e a2 fd 3d 27 8f 31 be
       -0.023194818 -0.16627844 0.12384461 -0.17339765
000050 92 3e d3 3e 2f 1f 96 bd 91 c8 54 3e f0 b5 11 be
       0.41258675 -0.073301665 0.20779635 -0.1422956
000060 23 8a 9c 3e 5d c8 03 3e 01 bd 93 bd da 95 09 3e
       0.3057414 0.12869401 -0.07213784 0.1343607
000070 33 5d 4a bd e6 32 97 be 4b cf 34 3c b9 43 23 be
       -0.049405288 -0.2953102 0.011035751 -0.15943803
000080 99 f5 d1 3e 0f fb 29 be 73 d6 82 3d 9d a0 d0 bd
       0.4100769 -0.16599678 0.06388559 -0.101868846
000090 59 1d 12 3d ce cd 32 bd 6e ee 81 3e 79 f6 c8 bd
       0.03567252 -0.043653302 0.2537722 -0.09812636
0000a0 f1 31 09 bd 88 6d 14 be 97 52 99 be 53 d2 95 be
       -0.033494893 -0.14494908 -0.29945824 -0.29262027
0000b0 5d 20 0a bd 81 25 9c 3d 30 25 42 3e 32 51 ac 3d
       -0.03372227 0.07624341 0.18959498 0.08413924
0000c0 3b a0 62 3e 4b c8 d2 bd 1f 81 09 3e dc 20 ba bc
       0.22131436 -0.10292109 0.13428162 -0.022720747
0000d0 4c 9e 6a bd ce 2e 26 bd 0e ad 62 be 0b fc 1d 3e
       -0.05727987 -0.04057198 -0.22136328 0.15428178
0000e0 ae 63 a4 3e 3b 13 94 be 77 67 80 be 28 07 c9 3c
       0.321073 -0.28920922 -0.25078937 0.024539545
0000f0 cc 5b 6f 3e 2e 2a 39 be ba f7 bf bd f7 80 6d be
       0.23374861 -0.18082497 -0.09373422 -0.23193727
000100 e0 90 7a bd c2 8e 01 3e df 50 de be fa b1 86 be
       -0.06117332 0.12652114 -0.43421075 -0.2630766
000110 b4 0f 1e 3e 34 b3 66 bd 7f f6 d4 be b4 95 1e be
       0.15435678 -0.056323245 -0.41594312 -0.15486795
000120 f2 4d 17 3e b6 0a be 3b fd 09 09 be e3 2e 10 be
       0.14775828 0.0057996167 -0.13382716 -0.14080386
000130 a0 13 8a 3e 66 aa f8 be 91 02 7a bd cc 23 e1 be
       0.26968098 -0.48567504 -0.061037604 -0.43972623
000140 e4 ee fb 3d 3c 8d 06 3e d5 30 0b 3e 44 dd f4 3d
       0.12301424 0.13139814 0.13592847 0.119562656
000150 68 e4 4b 3d fa bb 36 3e ed 70 6c 3e 73 ba 98 bb
       0.049778372 0.17845145 0.23089953 -0.0046608984
000160 4d b1 92 3e 0f 63 40 be f8 26 9e 3e eb 22 6e be
       0.28650895 -0.18787788 0.30889106 -0.23255508
000170 e6 87 02 be ff 74 6a 3d 2c cb b7 bd 52 fc 42 3e
       -0.12747154 0.057240482 -0.08974299 0.19041565
000180 54 bd 10 be bb 31 ab 3e b1 6c ca bd 77 ed 74 3e
       -0.14134723 0.3343638 -0.098840125 0.2391871
000190 5d 65 8e bd 3d 64 18 3f 81 61 61 3e c9 8f 9a be
       -0.06952927 0.5952795 0.22009851 -0.30187824
0001a0 f7 10 a7 be cb e1 94 3d a2 f8 cc 3d a7 f5 df 3d
       -0.3263013 0.07269629 0.100083604 0.10935526
0001b0 1b c9 0a be d8 b4 1d 3e 53 4e 10 3d fb 27 6f bc
       -0.13553278 0.15401018 0.035230946 -0.014596934
0001c0 69 c1 03 bd 19 5f 47 3e cb 1c 7a bd 50 36 8b be
       -0.032166872 0.1946987 -0.061062615 -0.27189875
0001d0 3e 58 e8 bc 4e 65 d6 3d e3 0f 84 be a5 c6 39 3e
       -0.02836239 0.10468541 -0.2579337 0.18142183
0001e0 68 e0 38 be 1a 49 5d 3e 76 e3 64 3d 46 45 fa 3d
       -0.18054354 0.21609917 0.055880986 0.12220244
0001f0 1a b5 b7 bd 6d 2d 1d be ca 53 8f 3e 1f 6d 36 be
       -0.08970089 -0.1534936 0.27993613 -0.17815064
000200 11 66 71 3e 66 c2 21 3e f9 d2 16 3e c5 8c f1 bb
       0.23574091 0.15796813 0.14728917 -0.0073715174
000210 5c 6a de be 7e 2d a3 3e 2d 57 ba bd 64 da 6c 3e
       -0.4344052 0.31870645 -0.09098659 0.23130184
000220 51 b0 bc 3d c4 b9 9a 3b ee e4 df bd 6c 53 34 3e
       0.09213317 0.004721852 -0.10932337 0.17609948
000230 ed dd 64 be 45 fd 76 3e 44 b8 2e 3e 45 fb 31 be
       -0.22350283 0.24120052 0.1706248 -0.17381008
000240 b9 70 7a bd 65 42 b2 3d 02 ad a7 3d c7 e0 14 3d
       -0.061142657 0.0870407 0.081872955 0.036347177
000250 17 34 8b be 86 ad d8 be 08 59 2f bb 3d 6f fb bd
       -0.2718818 -0.42319888 -0.0026755948 -0.122770764
000260 31 ac ed bd 0e b3 d9 3c 78 00 17 3e 74 5d a6 bc
       -0.116051085 0.026574638 0.14746273 -0.020308234
000270 75 d2 a3 3d cb 61 c5 3e 05 c5 f5 3d 78 1b e3 bd
       0.07999126 0.38551173 0.12000469 -0.110892236
000280 b9 fa 29 3d 62 0e a8 bc ef 9a 36 3e f5 ee eb bc
       0.041498873 -0.02051467 0.1783254 -0.028800467
000290 d0 47 f2 3e 1f ea a1 3d 74 2e 03 3f 1a a2 ae 3e
       0.47320414 0.07905983 0.51242757 0.3410805
0002a0 76 c0 6d bd 82 bd 18 3c 43 6b 12 3e 87 ff 5c be
       -0.058044873 0.009322526 0.1429873 -0.21581851
0002b0 a4 0d 2b bf 3e 95 45 be 73 fc 09 3d 6f 1b 10 bd
       -0.6681769 -0.19295213 0.03368802 -0.035182413
0002c0 b9 1e 35 be 32 76 e9 be 32 47 26 3e fc 91 89 3e
       -0.17687501 -0.45597988 0.16238096 0.2686919
0002d0 9f 9c 51 be 08 98 66 be 2a 21 49 3d 56 53 65 3d
       -0.20469902 -0.22518933 0.049103893 0.05598768
0002e0 32 13 20 be 3b be a4 bc 6a 61 a2 be f9 d0 a3 3d
       -0.15632322 -0.02011024 -0.31714946 0.07998843
0002f0 79 c4 4d bc a7 ae 05 3f 7a 5c e5 bd d6 b8 14 3e
       -0.01255905 0.52219623 -0.11199279 0.14523634
000300 d7 48 e9 3d ac 10 fc 3d 02 dc 7d 3d 73 c6 89 bc
       0.11390846 0.123078674 0.061977394 -0.01681826
000310 96 d1 a0 bd 6f 04 4f be 54 18 1c bd ca 48 10 3e
       -0.07852475 -0.20216535 -0.03810914 0.14090267
000320 8a 29 22 3f c7 1e ea bd 0f 27 0e bf b8 77 9c 3d
       0.63344634 -0.114316516 -0.5552835 0.07640022
000330 9a 2e 61 be 98 7f df 3e 81 95 14 bf 3d f2 19 bf
       -0.21990433 0.43652034 -0.58040625 -0.6013525
000340 3f d2 8b 3e 72 58 15 3f 6a a1 7d bf fa 5f 62 3d
       0.27308843 0.5833808 -0.99074423 0.05526731
000350 aa 4b b1 be ad 43 53 bf a6 58 31 bf 26 1c d6 3d
       -0.3462804 -0.8252514 -0.6927589 0.10454588
000360 47 3b 61 bf 28 b6 82 bf 13 ed 3b bd 32 57 13 be
       -0.87981075 -1.021184 -0.04588039 -0.14388731
000370 ea 41 cc bd 5b db b0 3e 93 08 a9 3e 5f 73 56 3e
       -0.099735096 0.34542355 0.33014354 0.20942448
000380 9a 8e 92 bf f3 7d 87 3e f9 25 00 3e b3 31 be 3d
       -1.1449769 0.2646328 0.12514485 0.09286823
000390 fc 35 2c 3e 23 a5 dc bf 1c 59 8d 3f bb 77 5a 3e
       0.16817468 -1.7237896 1.1042819 0.21334736
0003a0 ba 2e 81 3f c1 36 c4 3e 99 95 9e 3e 44 ec b5 be
       1.0092385 0.38323024 0.3097351 -0.3553182
0003b0 7d f5 2b 3d e9 19 ca bd 00 5c 41 3e c3 5f db 3d
       0.041982163 -0.09868223 0.18882751 0.107116245
0003c0 47 17 97 3e 21 61 36 bc 30 a1 f2 3d 75 1b 3e bf
       0.29509947 -0.011131556 0.1184715 -0.74260646
0003d0 0a 8a e5 bd 0d 4a a4 3f bf d5 30 bf 1f 68 2e be
       -0.112079695 1.2835099 -0.6907615 -0.17031907
0003e0 83 e7 64 3f ea bd 1b 3f 8e 72 a3 be 01 8a 19 bd
       0.8941576 0.6083666 -0.31923336 -0.037485126
0003f0 3b 69 40 3f 24 c2 5e bf 37 a9 0a 3f 10 e7 b6 3e
       0.7516057 -0.87014985 0.5416445 0.35723162

l2.bias f4 [100]
000000 4d 69 b2 be 6f 51 d9 3e bc a5 09 3e 54 f9 84 be
       -0.34845963 0.4244494 0.13442129 -0.25971472
000010 4c 36 1b bc 34 31 15 3e ec a8 a7 bd 1a 07 1c 3e
       -0.009473395 0.14569551 -0.08186516 0.15237084
000020 d8 32 8d 3d 04 cb ec 3d 48 78 b4 3d f9 da dc 3e
       0.06894463 0.1156216 0.08812004 0.43135813
000030 0e 03 e5 3e 09 83 9f be cf fc a3 3e d1 9f b3 bd
       0.44728893 -0.3115466 0.32028815 -0.08770717
000040 f1 a7 ea 3e bd 2c 2f 3e 7a bd 58 be e4 be 4d bd
       0.45831254 0.1710691 -0.2116603 -0.050230876
000050 c7 f9 4f 3e 79 65 b0 3e 6a c8 93 3e f8 0a 1a 3e
       0.20310126 0.34452417 0.2886384 0.15043247
000060 29 20 1e 3e 24 19 89 be 77 87 41 3e 75 dc ce be
       0.15441956 -0.26776993 0.18899332 -0.4040257
000070 a6 7e 7c 3d dd c0 49 bd f9 68 e0 3d 71 87 45 be
       0.06164422 -0.049256194 0.10957522 -0.19289948
000080 9c 0b b4 3e 92 95 6e 3d 54 50 a0 bd 99 46 37 be
       0.35165107 0.05824811 -0.078278214 -0.17898025
000090 a0 73 c5 bd 1a ef 04 3e 04 f2 ae bb db 9c 08 bd
       -0.09641194 0.12981835 -0.005338909 -0.033352714
0000a0 b0 df c1 be 9f dd e1 3d a3 6e b1 bd ed 44 7f be
       -0.37865973 0.11028599 -0.086636804 -0.24928637
0000b0 a9 1c 17 3e 12 96 a3 bd 56 4a a0 3e ed 9d 82 3d
       0.14757027 -0.07987608 0.31306714 0.06377778
0000c0 c5 67 1d be b3 fc 1c be 84 6b cd be ed 33 1c 3e
       -0.15371616 -0.15330772 -0.4012109 0.15254183
0000d0 dc f7 8d be 9e b9 93 3d 56 08 66 3e 89 75 8a bd
       -0.27728164 0.07213138 0.22464117 -0.06760699
0000e0 e3 e6 c5 3e 6f bb bc be 52 db d1 3e 81 87 a9 3e
       0.38652715 -0.3686175 0.4098764 0.33111194
0000f0 6b bc 0a 3e 21 f7 6e bd c9 f6 e6 bc 10 72 c2 bd
       0.13548438 -0.05834115 -0.028193848 -0.09494412
000100 26 e6 a7 be e8 b0 65 be 78 41 1f 3e e6 b9 18 be
       -0.32792777 -0.22430766 0.15552318 -0.14914665
000110 f1 1d 1f 3d 0e cf fd bc e4 88 be bd 81 90 41 3c
       0.038846914 -0.03098252 -0.093034536 0.011814238
000120 df 37 1e bd 64 4b 45 be 07 9a 95 3d bf e7 15 3d
       -0.0386275 -0.1926704 0.07304769 0.036597963
000130 ff 77 d5 3e d9 37 be bd 49 e8 51 be f4 8e 02 be
       0.41693112 -0.09287996 -0.20498766 -0.12749845
000140 5a 34 2d be dd 7b d4 3c 4f 66 8e 3d 03 15 ae 3d
       -0.16914502 0.025937969 0.069531076 0.085001014
000150 c7 b8 0c be c0 77 f3 be c8 38 4b 3e 41 6e 56 3e
       -0.13742362 -0.475523 0.19845879 0.20940496
000160 06 b1 f2 bd a2 7f 63 be da 5b 29 be d4 d5 cd bd
       -0.11850171 -0.22216657 -0.16538945 -0.1005055
000170 63 8f 3a 3e 54 43 24 3d 44 94 5c 3e fd d0 a7 3e
       0.1821876 0.04010327 0.21540934 0.32776633
000180 de 7b de bd 28 09 62 3e 69 29 e9 3e 97 50 4a be
       -0.108634695 0.22073805 0.45539406 -0.19757305

l3.weight f4 [18, 100]
000000 2a 06 b3 bd a5 ad 8d be fa fe 2e bf 66 05 74 3e
       -0.0874141 -0.27671543 -0.68357813 0.23830184
000010 07 3d e8 3e 1a 2f d3 be 0f 47 12 3e 56 fb 4a be
       0.4535906 -0.41246873 0.14284919 -0.1982244
000020 08 2f 77 bc 55 39 a3 be ea a4 8f bd 23 77 b8 be
       -0.015086897 -0.31879678 -0.07013877 -0.36028394
000030 7b 16 3f be 84 f5 09 3f 0e 58 c9 bd ec 70 a7 bd
       -0.1866092 0.5389025 -0.09831248 -0.08175835
000040 92 89 65 be a3 b2 e4 bd c8 58 3a bd 51 72 37 3f
       -0.2241576 -0.11166885 -0.045494825 0.7165881
000050 fa 8c 94 be af 40 d6 bd 94 ce db bd 38 49 d5 bd
       -0.29013807 -0.10461556 -0.10732761 -0.10414356
000060 09 7c 99 be 58 d4 8c 3e 11 00 f6 be 1f 6e c1 3e
       -0.29977444 0.27505755 -0.48046926 0.37779328
000070 b2 93 92 be ff 80 d2 3e 81 47 a3 be d5 ac 79 3e
       -0.28628308 0.4111404 -0.3189049 0.24382336
000080 4f 8d 6d be a4 e9 f6 3e dc 4b c4 3e 38 aa 5f 3e
       -0.23198436 0.4822513 0.38339126 0.21842277
000090 ea c8 44 3e 5e 47 c3 bd b7 52 b5 3d 40 3e 84 be
       0.19217268 -0.095350966 0.08853667 -0.25828743
0000a0 1b aa bd 3e 11 c6 94 be 8a c3 a3 3d 4b 2f ff 3d
       0.37043843 -0.29057363 0.079962805 0.12460192
0000b0 5d 3d a0 be 5e 29 d6 3e d8 75 b8 3e dd f6 93 3e
       -0.31296816 0.41828436 0.36027408 0.2889928
0000c0 02 b8 e9 3e df c0 5c 3e 05 21 59 3e 95 e8 a3 be
       0.456482 0.2155795 0.21204002 -0.32013384
0000d0 7b f1 82 3e 45 79 19 bf 6e ee e3 be d2 94 94 3e
       0.2557486 -0.5995067 -0.44517845 0.2901979
0000e0 ac 03 6c be 40 fb b3 3d 8a bb 70 be d1 12 f4 bd
       -0.23048276 0.087881565 -0.2350904 -0.119176514
0000f0 7c 35 e6 3d 35 63 06 bf 94 11 ed 3e 16 a5 71 3e
       0.1124067 -0.5249513 0.46302474 0.23598132
000100 91 ce c1 3e ff 99 e4 3e 6b d9 ba be b1 b1 4d 3e
       0.3785291 0.4464874 -0.36494002 0.20087315
000110 e2 43 f4 be 14 4a ea be f1 18 cb 3d 58 31 24 be
       -0.4770804 -0.45759642 0.099168666 -0.16034448
000120 9b e5 90 3d 08 15 01 3e 50 bf 83 be 28 e1 d8 bd
       0.07075044 0.12605679 -0.25731897 -0.1058982
000130 10 18 30 be 07 d5 4b 3e c7 6e 91 be f6 5a 81 3e
       -0.17196679 0.19905482 -0.2840483 0.2526471
000140 c7 60 f8 3e d3 ac d2 bc a9 cc 00 bf 4c 7c c7 be
       0.48511335 -0.025717175 -0.50312287 -0.38962018
000150 1b 7b 1f 3e 99 0a 3b 3e 1f ce 02 be 97 29 ef be
       0.15574305 0.18265761 -0.12773941 -0.46711418
000160 24 40 3b 3d 49 0a 00 3e dd 24 3a 3c 87 49 e2 3d
       0.045715466 0.12503923 0.011361328 0.110491805
000170 f4 8b 86 3d b3 02 3e be 69 68 5d be c4 ab 0d be
       0.06569663 -0.18555717 -0.2162186 -0.13835055
000180 40 dc 75 3d 08 c5 94 3e 63 02 81 bd ee aa a7 3e
       0.0600245 0.29056573 -0.06299283 0.32747597
000190 e3 80 cb 3d 25 1c d7 3d 90 b4 10 bf 1d 5c 61 3d
       0.099366926 0.10503415 -0.56525517 0.055019487
0001a0 05 9f 18 3f bf f8 82 be 35 84 a6 3e dc 0a 1a bd
       0.59617645 -0.25580403 0.3252274 -0.037608013
0001b0 1a fb 98 be bf de f0 be 63 0d c3 3d 5c 25 43 be
       -0.29879075 -0.47044942 0.09524038 -0.1905722
0001c0 43 a8 b0 bd c0 55 c7 3e 28 47 a6 be f5 cd b7 3d
       -0.086258434 0.3893261 -0.32476163 0.0897483
0001d0 33 77 99 be 8a b5 9e be d7 5f 49 3d e2 28 c7 3e
       -0.29973754 -0.30997878 0.049163666 0.3889838
0001e0 f3 df 86 be 20 55 96 be e7 45 b8 be 62 e4 d1 bd
       -0.26342735 -0.2936182 -0.3599083 -0.10248639
0001f0 09 63 a6 be bd 10 31 3d 13 7f 0e bf 49 1d aa 3e
       -0.32497433 0.043228853 -0.5566265 0.33225468
000200 1f a6 6c bd dd 63 b3 3e 36 d8 fb be 1c de 7c 3e
       -0.057775613 0.35037127 -0.49188393 0.24694103
000210 38 86 d7 bd 9d 8d fa 3e 69 7b 66 3e 7d 9f e7 3d
       -0.10523647 0.48936167 0.22508015 0.11309717
000220 5d ab 57 3e fb 38 c9 3d 98 5f 73 3e cf 9a 01 bf
       0.21061464 0.09825321 0.23766935 -0.50626844
000230 84 94 5e 3e f7 5d b8 be 49 cd 48 3d eb 79 38 3e
       0.21736342 -0.3600919 0.0490239 0.18015258
000240 42 8c 7e be 8d 3f ca 3e 7f 35 d0 3e e2 95 68 3e
       -0.24858192 0.3950161 0.40665814 0.22713426
000250 2c bb 0f 3f 7f 3a 9a 3e 17 70 f0 3e 85 e6 c4 be
       0.56144977 0.30122754 0.46960518 -0.38457122
000260 64 bd be 3d b3 6c 73 be eb 23 32 bf 57 09 2b 3e
       0.09313467 -0.23771934 -0.69586056 0.16702782
000270 87 ef 3f be 62 31 a9 3e fc fa 81 be e6 b7 d1 be
       -0.18743716 0.3304549 -0.25386798 -0.40960616
000280 d3 2c 4e 3e dc 4e 1a bf 4e e9 44 3e 76 43 a9 3d
       0.20134287 -0.6027658 0.19229624 0.0826482
000290 cd 5d 9d 3e 52 24 e9 3e fd 1d 4c be 3f 66 cd 3e
       0.30735627 0.45535523 -0.19933315 0.4011707
0002a0 8f 4f d8 be 45 85 bd be fe c5 5a 3e 1b 01 cd bd
       -0.42248198 -0.3701574 0.2136459 -0.100099765
0002b0 2e 10 ed bd 7b dd 9e 3e f9 b9 22 be 9e f6 8b be
       -0.11575352 0.3102835 -0.15891255 -0.2733659
0002c0 ab b0 ad bd bd 3b 95 3e be 1b 95 be e0 6c 3c 3e
       -0.08480962 0.2914714 -0.29122728 0.18400908
0002d0 5c ba e6 3e 34 c0 ca be ad 64 05 3d 16 84 af be
       0.45064056 -0.39599764 0.032566715 -0.3428046
0002e0 70 bc 2c 3d 87 06 ae 3e 34 f2 79 be 21 fd 1a be
       0.042171896 0.33989355 -0.244088 -0.15135624
0002f0 d4 5e 39 3e 51 a7 92 3e 1b 08 00 be a9 38 93 3b
       0.1810258 0.28643277 -0.12503092 0.0044928384
000300 7d ba 42 be 74 0b 64 be 71 4d c2 bd ac b6 ea bd
       -0.19016452 -0.22269994 -0.09487427 -0.11460623
000310 85 8b e9 39 fc ff 85 3e b8 2f 46 be 37 2b a7 3e
       0.00044545173 0.26171863 -0.19354141 0.32650158
000320 90 e0 91 3e 7b 32 e3 be df 79 1d bf d8 f3 a5 3d
       0.2849164 -0.4437445 -0.61514086 0.0810315
000330 8d 32 0b 3e b1 84 c5 be 0a bb 89 3e 20 ec 72 be
       0.13593502 -0.38577798 0.26900512 -0.23722887
000340 9a 95 a0 be 7e cd 9a be 87 b8 ec bc 64 39 84 bd
       -0.31364137 -0.30234903 -0.028896583 -0.06456259
000350 68 1b c9 3d ac a2 01 3f 0f ee 57 be 0f b4 20 bd
       0.098196805 0.5063884 -0.21086906 -0.039234217
000360 7f 55 13 be 40 3c 51 be da 75 4e 3e 46 46 38 3f
       -0.14388083 -0.2043314 0.20162144 0.7198223
000370 83 c8 62 be 8c a7 f7 bd 09 08 7a be 0d b9 94 be
       -0.22146802 -0.12092504 -0.24417128 -0.29047433
000380 22 9b 01 be 65 7b bf bd 7d 53 31 bf b1 d7 f5 3e
       -0.12656835 -0.093497075 -0.6926802 0.48016122
000390 e6 e6 21 be dc eb df 3e d1 b6 99 be e9 ee 4d 3e
       -0.15810737 0.43734634 -0.3002229 0.20110668
0003a0 54 dc 67 be f0 7b b2 3e eb 3f d0 3e fd 0f 9c bd
       -0.22642642 0.34860182 0.40673766 -0.07620237
0003b0 41 39 5a 3e 31 5d 8d be 3b 64 e7 3c 34 6d 1c be
       0.21310903 -0.27610162 0.028246036 -0.15276033
0003c0 20 8c c0 bd 43 4b 3f be 02 2a 27 bc 15 ef 6a 3e
       -0.09401727 -0.18681054 -0.010202887 0.22942765
0003d0 f6 98 81 be 66 ff 0c 3f 6a d5 ab 3e b7 9b f0 3e
       -0.25312012 0.5507721 0.3356126 0.469938
0003e0 19 bd d0 3e b4 f2 94 3e 17 36 5c 3e 7a 54 ec be
       0.4076927 0.29091418 0.21505009 -0.461582
0003f0 d6 16 40 be dc 7b 0b be 9b 96 e3 be 99 ba b0 3c
       -0.18758711 -0.13621467 -0.4445084 0.021573352

l3.bias f4 [18]
000000 8f 82 33 3d 3e 44 e8 bd 91 f8 00 bf 33 f6 b9 be
       0.043825682 -0.11341141 -0.5037928 -0.36320648
000010 0e 5c c5 3d f5 dc 8e bd f6 08 e7 bc 2e 1a d3 be
       0.09636699 -0.06975738 -0.028202515 -0.4123091
000020 ec 3b 28 be cb 0a 75 be 94 70 24 3c 83 ae b1 be
       -0.16429108 -0.23929898 0.010036606 -0.34703454
000030 1c e2 ba be 6d 24 a7 3e 87 99 e1 bd 6f 3b 95 be
       -0.36500633 0.32644978 -0.11015611 -0.29146907
000040 ab b1 e0 be 92 03 ba be
       -0.4388555 -0.3633085
