data/result/d_440.pt (torch, 94638 bytes, 7 tensors)

D_attr_matrix.weight f4 [36, 5]
00000000: 5df1 813d 49ef e9be ff48 28be 0edd b33d
00000010: 572f 99bd d647 ccbe 75d3 a6be 4b1d 323e
00000020: 4f86 dfbe 9740 d93e b98c 653e e641 733b
00000030: 8552 d1bc 2501 dfbb bc52 483c 01b7 acbd
00000040: c3fe d2be 22c7 923e 6b3f e73d d9c8 1fbe
00000050: 4fdc 713c b057 4dbe e8f4 64bc 3952 043e
00000060: d0d8 e03d 7903 49bf 3269 4cbf a840 513e
00000070: 8f21 113f 46c1 fcbe 67e1 39ba 71c3 efbd
00000080: e12f 78bc 9120 0a3f ea7a 273c 0136 143f
00000090: aa9b 70be d96d ff3e be53 18be a0c9 b5be
000000a0: fbb7 e0be cac8 123e e0c6 023e 8f9c 87be
000000b0: d73c 173d 3173 34be 8fa9 e73d 6840 c2be
000000c0: 04e3 9ebd 4156 213e 7977 3a3e ed2f f13d
000000d0: 9a82 973d 8594 e33c f016 893d 4b24 143c
000000e0: 3fc1 c53e 7970 e7bd bd29 82be 8c6d 9abe
000000f0: c693 e1bd cf96 153d dc8e 8abd bf7b 7ebc
00000100: 3c0a fdbc f00f 6bbe 0cca d73e e298 c33d
00000110: 30fd 3c3f 7585 4e3f 24cb 143e 75bb 813e
00000120: 479b 0bbc 345a ddbc ebee d0be ea9d 08be
00000130: adfb 773e e2e7 363e 1fab aa3c 8180 883e
00000140: 3330 013c a107 083d 28b5 06b9 35b9 323e
00000150: d990 97bc 8ed4 5fbe cc88 2fbf 4787 ac3e
00000160: 1d3c cb3e 19ea be3c dfb0 5c3d bb63 3c3b
00000170: 6e60 3fbc 40ca 26bd da0d bcbd 291a fabe
00000180: 30ad 82bd 07ba ab3e e632 a33e 929f 0dbf
00000190: 67f7 2bbd 3ef2 f9bc 506e 5dbb ef2e 5f3d
000001a0: 678f 84be 126d c73e 572e 023f bb95 193f
000001b0: c97c 7b3d 8ed9 663e 65e8 65be 7e55 173d
000001c0: 0bfb 963c a0ea 123b 8e79 e8bc 2969 76bc
000001d0: 46ae 1d3f f500 0ebf 8d87 3c3d 0734 253f
000001e0: a2c5 17be fa7a e7bd a8d3 2c3d e712 c7be
000001f0: 9808 c2bc 3e30 cd3d fb37 c33b ffab 16bf
00000200: 0f64 2ebe 6660 b53e 3a77 2d3d cd09 573d
00000210: 4df3 22be 2bf5 61bd ea89 63bd 06ad 6fbe
00000220: 4c9b c9be 2614 29bd 6c31 043f bc2e b33e
00000230: 4ad0 843d 871a 2a3d 8425 bc39 0a6a 6dbd
00000240: c65d 6c3d f3ee 03bf b5a6 89be e714 653b
00000250: a02f d53e c0fd d1be 89e8 f2bd 16db 133e
00000260: 93f4 eb3d 2b2b 883d 3e36 23bd d023 133f
00000270: b3cb 173e e6e1 f9be 7700 a3be ec53 353e
00000280: 940d b43c e938 d0bd 25fa 313e 2793 913d
00000290: b884 06bd 7ee9 8dbc 884a 50be 2c3c 02bf
000002a0: 295e debd 437c 2a3e be1f ec3c 79fd 863e
000002b0: 75e8 9cbc 30b9 67be e0ff 3ebe 1ad7 67bf
000002c0: c336 4d3e e68a 473f 8cce 8fbe 0467 9abe
0.063448645 -0.45690373 -0.16434096 0.08782397 -0.074797325 -0.39898556 -0.32583204 0.17393987
-0.43657157 0.4243209 0.22416963 0.0037118136 -0.025552044 -0.0068055564 0.012226757 -0.08433343
-0.41209993 0.2866755 0.11291393 -0.15603961 0.014761998 -0.20052981 -0.013974406 0.1292199
0.10978854 -0.78520924 -0.79848015 0.2043482 0.5669183 -0.49366206 -0.00070907775 -0.11707199
-0.015148134 0.5395594 0.010222176 0.57894903 -0.23496881 0.49888495 -0.14875695 -0.3550539
-0.43890366 0.14334407 0.12771177 -0.26486632 0.036923256 -0.17622067 0.113116376 -0.37939763
-0.077581435 0.1575556 0.18209638 0.11776719 0.07397957 0.02778078 0.06693828 0.009041856
0.38623998 -0.11300749 -0.2542247 -0.30161703 -0.11014514 0.036520775 -0.067655295 -0.015532433
-0.03088867 -0.22955298 0.42146337 0.095506445 0.73823833 0.8067239 0.14530617 0.2533833
-0.008520908 -0.027020551 -0.4080728 -0.1334149 0.242171 0.17861894 0.02083355 0.2666054
0.007885027 0.0332104 -0.00012846722 0.17453463 -0.018501686 -0.21858427 -0.6856811 0.33696958
0.396943 0.023304986 0.053879615 0.0028745967 -0.0116807055 -0.040720224 -0.091823295 -0.48848084
-0.06380689 0.33540365 0.3187477 -0.5532161 -0.041983988 -0.030511018 -0.0033787675 0.05448812
-0.25890657 0.38950402 0.5085196 0.59994096 0.0613983 0.22543928 -0.22451933 0.036946766
0.018430253 0.002241768 -0.028378274 -0.015039721 0.61594045 -0.5547021 0.04602771 0.6453251
-0.14821485 -0.11302753 0.04219404 -0.3888161 -0.023685738 0.10018967 0.005957601 -0.58856195
-0.17030357 0.3542511 0.04235003 0.05249958 -0.15913124 -0.05516545 -0.055551447 -0.23405847
-0.39376295 -0.04127898 0.5163791 0.34996593 0.064850405 0.041529205 0.00035886106 -0.057962455
0.057706617 -0.5153648 -0.26885 0.0034955086 0.41637897 -0.41013908 -0.11860759 0.14439043
0.11521258 0.06648859 -0.03984665 0.5747652 0.14823799 -0.4880516 -0.31836292 0.17707795
0.02197913 -0.10167105 0.17380579 0.07108145 -0.032841414 -0.017323252 -0.20340931 -0.50873065
-0.108578034 0.16648965 0.02882373 0.2636526 -0.019153813 -0.22629237 -0.18652296 -0.90562594
0.20040421 0.7794632 -0.2808727 -0.3015672

l1.weight f4 [100, 108]
00000000: 47a1 03bd 09ea 0b3e 705f a5bc 166c 033e
00000010: acb9 f63d c263 e9bd 70dc cd3c e97d 923d
00000020: ac4e b33d 02d3 b6bc 3b6d 11be ada7 3cbd
00000030: 57ab acbd 7e1d ab3e 8edc 0f3e 9131 0bbe
00000040: 6111 be3d e532 233e ab05 ab3c 308e 1f3d
00000050: 29ec 20bd 91e8 b9b9 8fae 1fbc 770a f23c
00000060: cd03 63bd bff5 c5bd 009d 80bd cc8f 9b3c
00000070: d4c0 e93d 3247 563e dc1c 783e 25d1 89bd
00000080: 45c5 553e d936 da3d ba6f 813c c344 a03d
00000090: e37e 2dbe cce9 d93d eb1d 983c 28d8 0c3e
000000a0: f202 48bd fb4f 92bc 55cd a03c e889 6e3c
000000b0: d2fd efbd c50d 2fbe f406 523d 678c 463e
000000c0: e038 45bd 41ef ad3d 88be 02be 556d a4bd
000000d0: 3b3c 81bd 4b91 edbd 711f 19bc 5064 783e
000000e0: 4f3c b73d bf44 0b3d 93e0 403d 0668 3fbd
000000f0: 0fb6 333e cce9 d63d d422 5fbe f646 693d
00000100: 8c51 c83b b15c 18be b386 56be 4f6c 3a3d
00000110: 1b77 8bbc cd37 0e3e cba8 f3bc bc74 13be
00000120: 1f27 b13d 3724 0fbc 5e37 8bbd 1dab 03be
00000130: d891 4dbe 997c 89be 396c 2abd dadd 383c
00000140: 3099 133e 7bec 41be c033 f73c b8ae 00be
00000150: 195f e83d 1749 06be 72db 00bd a0b6 91bd
00000160: 94a4 29bc 8b4f 843d c46e 7a3e 6283 bcbd
00000170: fce7 683e 8210 ff3e cf54 5a3e b8c0 0a3f
00000180: 7a2a 853e 2580 813e a25e cd3e 8ecd d83e
00000190: f22f 953e ce11 203e a8e8 033f 297d cd3e
000001a0: cf6e d53e 5b8b 9b3e 4488 e63e 18eb 433e
000001b0: 3fea fb3e 2bdd 37be 35f3 85be f44c c33e
000001c0: ac6c 30bf 91fa c9bd 5d42 92bf 7585 743e
000001d0: 5623 a23e f6af 32be 960d d1be e5b9 74be
000001e0: 2ba2 2a3e e3fd cbbb d11d c43c 1625 d6be
000001f0: 7fa3 7cbd cb60 cfbe ee8b 543e 7920 fa3e
00000200: 219b 83be 68f4 9dbd 35e3 193d 16c4 c8bd
00000210: d783 463d 2fe9 5b3e ac47 34be 7f6a 963e
00000220: 67c3 7b3e aa00 873e e130 c6bc 0544 4c3b
00000230: 39e5 43be 1bb0 b4be af0c c3be 6c86 b83e
00000240: 12ed ecbd 812c 20be 7dc3 7bbe 4dce cbbe
00000250: ac0c 43be 80e4 75be 0e32 4e3e 981f 3d3e
00000260: 0c6a f3bd dab5 243f 75e8 593e 4d9f 57bd
00000270: e8d1 afbe c651 68bc 840e 7b3d fe79 c23d
00000280: f7b6 333f 691f 1b3d 3a09 59bd b6c4 ecbd
00000290: f562 ac3d ee3c cc3d 9ee9 edbd 141c ebbd
000002a0: 67e0 cfbd 9c1b fbbd b068 3c3f 08e5 febd
000002b0: 12b5 31bf d493 9cbe c61a 3dbf 6924 163e
000002c0: 24ca 873f 6b0a 833e a589 5d3e d2fa 553e
000002d0: f1f6 17be a5b4 0bbe 575d 403e dc6f c33e
000002e0: 8fe0 58bd c122 16bf 676f c6be 98cd 6f3e
000002f0: ed4c b83d 0a0e 9fbd 8722 583f 7169 483e
00000300: 0a7d 94be 3ff1 05bf bb84 203e 4f24 f03e
00000310: 5d4c f1bd 5d04 66be eebe 43be 479d 28be
00000320: 6dbc a0be 59cd 253c 9f8b b9bd 0393 b5be
00000330: ceb8 43be f1eb 3bbe 93dc 0f3e 6b09 3cbe
00000340: 3a87 b9bd 6457 093e f5b6 d2be 47b5 ba3a
00000350: d31c 973c aee9 113e e64f 43bd f5ea 93bd
00000360: 7635 223e 7690 2fbd 54fc 4abe 5b67 993d
00000370: 653a 1cbd e731 20be d5f2 613d 8652 6b3e
00000380: 2277 833d dc2c 053c cbb0 18be f726 38bd
00000390: 39ea 90bc 525e c53d 0265 f5bc 5286 20be
000003a0: e404 22be 76c7 56bd 6191 38bd 5ab8 c33e
000003b0: 8065 9e3b 095f a0bc 3c33 293e 52ff 7d3c
000003c0: b2d8 983c 0a27 973d 3868 a93d fa83 45be
000003d0: 6b42 a7bd 2cd4 8e3d d68e dc3a 48c6 fabb
000003e0: de50 193e d74b 0d3e 0796 ca3d 90e6 32be
000003f0: fed7 41bd 420e 9a3d d9e0 b63d 1abb a23c
-0.032136228 0.13663496 -0.02018711 0.128342 0.12047133 -0.113959804 0.025129527 0.07152922
0.0875524 -0.022317413 -0.14201824 -0.046058346 -0.08431118 0.33420938 0.14048979 -0.13593127
0.092806585 0.15937383 0.020876726 0.03895396 -0.03928772 -0.00035459225 -0.009746208 0.029546006
-0.055423547 -0.09666013 -0.062799454 0.018989466 0.11413732 0.20925596 0.24229759 -0.06729344
0.20876034 0.106549926 0.015800346 0.07825615 -0.16942935 0.10640296 0.018568953 0.13754332
-0.048830934 -0.017860403 0.01962916 0.014559247 -0.11718334 -0.17095096 0.051276162 0.19389497
-0.048149943 0.084929 -0.12767994 -0.08028666 -0.06310316 -0.11599978 -0.009345875 0.24257016
0.0894705 0.03400111 0.04708917 -0.046730064 0.17549919 0.10493812 -0.2179063 0.05695244
0.006113237 -0.14879109 -0.20949821 0.045513447 -0.017024567 0.13888474 -0.029743573 -0.144
0.0865004 -0.008736662 -0.0679767 -0.12858243 -0.20075166 -0.26852873 -0.041607115 0.011283362
0.14413905 -0.18937866 0.030176044 -0.1256665 0.113462634 -0.13113819 -0.03145928 -0.07114911
-0.01035418 0.06460484 0.24456316 -0.09204747 0.22744745 0.49817282 0.21321414 0.54200315
0.2600897 0.2529308 0.40111262 0.42344326 0.29138142 0.15631792 0.5152688 0.40134552
0.41686103 0.30379757 0.45025837 0.1913265 0.49202153 -0.17955463 -0.26162115 0.38144648
-0.6891582 -0.09862245 -1.1426502 0.23879035 0.31667584 -0.17449936 -0.40830678 -0.23899038
0.16663425 -0.006225334 0.023939999 -0.4182517 -0.06167936 -0.40503535 0.20756504 0.488529
-0.2570429 -0.077126324 0.037570197 -0.098030254 0.048465576 0.21475671 -0.17605466 0.29378125
0.24586259 0.26367694 -0.02419323 0.0031168472 -0.1913041 -0.35290608 -0.38095614 0.36040056
-0.11568655 -0.15641977 -0.24586292 -0.39805833 -0.19047803 -0.24012947 0.20136282 0.18469083
-0.11885461 0.64339983 0.21280082 -0.052642155 -0.34339833 -0.014179653 0.06129314 0.094959244
0.7020106 0.037871752 -0.052987315 -0.11560957 0.08417312 0.09972559 -0.116168246 -0.11479965
-0.10150223 -0.122611254 0.7359724 -0.12446028 -0.69416916 -0.30581534 -0.7386898 0.14662327
1.0608563 0.25593886 0.21634538 0.20896462 -0.14840294 -0.13643129 0.18785606 0.3817128
-0.05294853 -0.5864678 -0.38756868 0.23418272 0.089990474 -0.077663496 0.84427685 0.19571473
-0.29001647 -0.5232124 0.15675633 0.469027 -0.11782143 -0.22462602 -0.19115803 -0.16466247
-0.31393757 0.0101197595 -0.09059834 -0.35463724 -0.19113466 -0.18351723 0.14048986 -0.18362968
-0.090589955 0.13412243 -0.4115521 0.0014244699 0.018446362 0.14249298 -0.04768362 -0.07222549
0.15840706 -0.042862378 -0.19822818 0.074904166 -0.038141627 -0.15644036 0.055163223 0.22980699
0.06419207 0.008128371 -0.14911191 -0.044959035 -0.017689811 0.09637131 -0.02995539 -0.15676239
-0.15822178 -0.052436315 -0.04506052 0.38226587 0.004833877 -0.019576566 0.1652345 0.015502768
0.018658016 0.07380493 0.08271831 -0.19288626 -0.08166965 0.06974062 0.0016827236 -0.0076530315
0.14972255 0.13798462 0.09891897 -0.17470765 -0.047325127 0.07522251 0.08929605 0.019864608

l1.bias f4 [100]
00000000: 53fa d4bd df0d 3d3c 9fb7 8b3e c7d6 04be
00000010: 1fb3 4fbd a17b 06be baf7 2e3d e286 e93d
00000020: 49e2 aebd 8860 19be 6a65 583e 7a65 19be
00000030: 2033 9b3d 32db 873e 22ac ac3c c575 c5bd
00000040: c6f9 8c3d b4be 663d 036f 47be 4b37 2d3e
00000050: 673a 83be af9d 55be a4a2 dfbd 17f9 943e
00000060: 05c8 f43c e1da cebc d1d0 32be a4d6 78bd
00000070: 06bc cf3d 1deb 343e f6e7 b9bc bcf2 2ebe
00000080: 4cc9 2ebe 890e 17bc 034f 94be 13ad 8d3d
00000090: a6ec 72be b390 f73d 0068 bdbd 2d96 e4bd
000000a0: 74bc e13c d6f4 353e 623d 9d3d e68a a13e
000000b0: ad62 ad3d b7b6 9f3d ca88 ff3c 32d5 173e
000000c0: a7ff 473d 91a4 f2bd 34ba cabd c61d 99bd
000000d0: eaa8 7b3b 0a6f f3bd b880 c93b cf3c 8f3e
000000e0: f667 a63c f841 a63d 3c33 433d 566b 463e
000000f0: 74f3 8c3e e18b 27bd 0b59 93bd b75b d8bd
00000100: a5a4 2c3e 6b69 51be f181 84bd e8ab c33e
00000110: 1107 b1bd 6e64 463e 7ca6 e6bb ac15 a13d
00000120: cea8 07be 33ac cdbd 96d6 463e 35dd e83c
00000130: cc26 3f3c 8b69 003e e4b4 36be 50d6 863e
00000140: d98d 71be 9feb b5bd 83f5 c03d d867 0fbe
00000150: cba0 0dbc 9c3d 923e aab8 913d 39a4 95bc
00000160: f815 833d e2c7 693e 2fc7 3d3e 18e6 4d3e
00000170: f9c2 9ebc e714 b0bc 166e 4abe 50ce 80ba
00000180: 129a 663e b53a ebbc 8462 c9bd d08e 2a3c
-0.10399308 0.011538952 0.2728853 -0.12972556 -0.050707933 -0.13133098 0.04271672 0.1140268
-0.08539254 -0.1497823 0.21132436 -0.14980116 0.07578111 0.2653442 0.021078173 -0.096416034
0.06883578 0.056334212 -0.19475941 0.16915624 -0.25630495 -0.20860933 -0.10919693 0.2909629
0.029880533 -0.025250854 -0.1746247 -0.060751572 0.101432845 0.17667814 -0.022693615 -0.17084783
-0.17068976 -0.009219774 -0.2896653 0.06917777 -0.23723087 0.12088146 -0.09248352 -0.11161456
0.027555682 0.17769179 0.076777235 0.31551284 0.084660865 0.07798522 0.031193156 0.14827421
0.048827793 -0.11847795 -0.09898797 -0.07476382 0.0038400241 -0.118864134 0.0061493777 0.2797608
0.020313244 0.08118051 0.047656283 0.19376883 0.2752949 -0.040904883 -0.07194718 -0.10564368
0.16859682 -0.2045037 -0.06470097 0.38217092 -0.08643926 0.19374248 -0.0070388895 0.07865462
-0.13247988 -0.1004261 0.19417796 0.028425792 0.011666965 0.12540261 -0.17842442 0.26335382
-0.23589267 -0.08882832 0.09421828 -0.14004457 -0.008644293 0.2856263 0.071153 -0.018266784
0.064006746 0.22830155 0.18533014 0.20107305 -0.01938008 -0.021494342 -0.19768557 -0.0009827111
0.2251971 -0.028714517 -0.098332435 0.010410026

l2.weight f4 [100, 100]
00000000: d127 5c3e d3ba c5be ac15 86be c856 2dbd
00000010: 661f 9c3e f096 00be 84ff 76bd 1d30 003d
00000020: 85bf 3cbe 3a05 64bd b7d3 bd3d 0ad9 ec3e
00000030: 4ba5 81bd 3cac 20bd 2556 793e eb6c 953e
00000040: eb70 013c df63 34be 59e9 033e a165 35be
00000050: 84fd d63e 28a4 87bd 0923 523e 5bb9 16be
00000060: 598d 9e3e 88da 053e 58ec 8abd e9bf 0a3e
00000070: 2fe5 5dbd 6b7f 8dbe d0d8 ac3c 5d21 26be
00000080: ece0 d43e d74b 1cbe 5bce 8a3d dc8b babd
00000090: 8d61 193d 272d 3ebd 07dd 813e 498d cabd
000000a0: b96e 11bd 6505 18be 4d8c 99be 2ba0 9ebe
000000b0: 3e7c 1bbd d379 c03d 090e 4a3e 02be b13d
000000c0: cd84 673e 641e abbd 84ad 143e 43c4 c1bc
000000d0: 9c19 c2bd 7987 3ebd 2474 69be 14fa 103e
000000e0: e889 a73e c93a 98be 3170 7abe 9926 113d
000000f0: 9847 6c3e 14cb 35be 3f4f debd 80a4 73be
00000100: fa51 82bd e87e 103e 637b ddbe 8881 87be
00000110: 4fd5 253e af07 64bd 6f15 dcbe 6df2 16be
00000120: 8426 133e 3d1a 5fbb 3906 efbd 948b 02be
00000130: 35d7 8f3e c8ca 01bf b41f 6ebd 54d2 e1be
00000140: 3185 fd3d a75b 0c3e c776 113e 5661 fe3d
00000150: 999a 293d ef58 4e3e 2946 6c3e f2b0 f7bb
00000160: cf96 8d3e 27e9 40be 073e 983e 961f 71be
00000170: 2970 02be 2356 7e3d c76c b3bd 6610 413e
00000180: 1094 14be 31e3 bb3e bd18 b5bd df7a 7e3e
00000190: 5006 94bd bcdd 193f 1992 6a3e daa2 99be
000001a0: 486b a7be f10e 903d c225 dd3d 403a ec3d
000001b0: 4d7e 01be f756 1d3e f2e5 1e3d f00d a4bc
000001c0: e247 f9bc 0548 4c3e f043 86bd ea23 85be
000001d0: 6487 33bd b47d dc3d 9f13 8abe 1dcb 3a3e
000001e0: 191c 3cbe cb9b 5c3e 207e 653d 2a0c 053e
000001f0: b1b4 babd 5f45 1cbe 91dd 923e 0435 32be
00000200: 95a6 783e 78a9 1b3e 3c67 143e 928d 403b
00000210: 59a9 d9be 9d17 9b3e 379c bfbd 5b6a 653e
00000220: b995 b83d d939 a23b dd14 debd eabb 363e
00000230: 24d2 66be 03a1 7a3e cdc5 1f3e 0047 39be
00000240: 4d40 7dbd 86e5 9b3d 5b8f 9b3d b58d 103d
00000250: 45b5 88be e7ca ddbe ae39 36bc 1b62 02be
00000260: 2f57 cebd 5887 ea3c 3a51 193e b87e 50bc
00000270: 1bad 9f3d efea c53e 3641 e63d cbaf cfbd
00000280: 3b9e 3c3d e330 ccbc 2e39 3b3e e96d e8bc
00000290: acbd f23e f698 983d f925 063f 45a6 b13e
000002a0: 9fa3 83bd 7898 213c 1af2 1b3e 1b6a 6dbe
000002b0: 6b0b 2dbf 247e 3cbe c735 a63c f694 fcbc
000002c0: b075 36be 43b3 e7be 4cc8 263e e933 8c3e
000002d0: b300 58be 566d 80be dffe 613d 802c 5a3d
000002e0: a42c 25be 683d 57bc 7d51 9dbe 1081 9d3d
000002f0: 4267 c9bb d9a3 043f 400c cebd 3564 173e
00000300: d3ab f83d 8301 093e 8ded 753d d7ec 41bc
00000310: 2db3 acbd 70b0 58be 8c6e 5cbd 071e 023e
00000320: 8ea0 253f f7d1 e7bd 12cf 07bf f1b4 a33d
00000330: adaa 4dbe 1760 ec3e 9b29 10bf a494 2bbf
00000340: be3c 8b3e 1c25 233f 0836 86bf 9872 703d
00000350: 088b b6be 2912 54bf eec0 31bf c993 db3d
00000360: c479 61bf 2c36 86bf 1828 45bd 5475 17be
00000370: fef0 c5bd df20 bd3e 5ae6 a63e 0721 543e
00000380: 647a 8fbf 405a 983e 3506 eb3d 1bb0 c33d
00000390: 1807 263e 6ccd e0bf eaf8 8f3f 6f89 603e
000003a0: 3ee3 833f 9e0e ce3e cec4 a03e 46f7 b7be
000003b0: 2d0d 333d f6e3 c2bd 8266 553e 6392 df3d
000003c0: 280b 963e c7f7 38bc b08c ef3d b942 32bf
000003d0: e0dd e7bd 96bf a73f 48b8 2cbf 59d6 3ebe
000003e0: 4c85 773f fdfc 193f 154a aabe 768b 1ebd
000003f0: ced7 463f bd35 6abf 3b7e f93e af67 b03e
0.21499564 -0.38619098 -0.2618841 -0.04231909 0.30492705 -0.12557578 -0.060302272 0.031295884
-0.18432434 -0.055669047 0.09268897 0.46259338 -0.06330355 -0.039226755 0.24349268 0.2918466
0.007900457 -0.17616223 0.12881984 -0.1771455 0.41990292 -0.06623107 0.20521177 -0.14719145
0.30967215 0.13071644 -0.0678336 0.1354977 -0.054173645 -0.27636275 0.021099478 -0.16223665
0.41577852 -0.15263306 0.067776404 -0.09108707 0.037446547 -0.04642978 0.25363943 -0.09890229
-0.035505984 -0.14845808 -0.29989854 -0.30981573 -0.037960283 0.09398236 0.19731916 0.08678819
0.22609253 -0.08355406 0.14519316 -0.023653155 -0.09477541 -0.046515916 -0.2279821 0.14157897
0.32722402 -0.2973235 -0.2445686 0.0354372 0.23074186 -0.1775325 -0.10854959 -0.2379322
-0.06363292 0.14110911 -0.432582 -0.26466012 0.16194652 -0.05567139 -0.42985103 -0.14740916
0.14370161 -0.003404274 -0.11671109 -0.12748557 0.28093877 -0.50700045 -0.058135703 -0.4410578
0.1237892 0.13706838 0.14205466 0.12420909 0.0414072 0.20151113 0.23073639 -0.0075589353
0.2765412 -0.1883894 0.29734823 -0.23547205 -0.12738098 0.062093865 -0.08760982 0.18853912
-0.14509606 0.3669677 -0.08842609 0.24851559 -0.072277665 0.60103965 0.22907294 -0.30007058
-0.32699037 0.070341 0.10798217 0.11534548 -0.12645836 0.15365206 0.03879351 -0.020026177
-0.030429784 0.19949348 -0.06555927 -0.26003963 -0.04383029 0.107661635 -0.26968095 0.18241544
-0.18370093 0.21543805 0.056028485 0.12992921 -0.091164954 -0.15260838 0.28684667 -0.17403036
0.24282296 0.15201366 0.14492506 0.0029381257 -0.42512015 0.30291453 -0.093559675 0.22403853
0.09012932 0.0049507436 -0.10843823 0.17845121 -0.225411 0.24475484 0.15602799 -0.1809349
-0.0618289 0.076121375 0.07595702 0.035291392 -0.26700798 -0.43318865 -0.01112215 -0.12732737
-0.10075223 0.02862899 0.14972392 -0.012725525 0.07796689 0.38655803 0.11242907 -0.10140952
0.046049338 -0.024925655 0.18283531 -0.028372722 0.47410333 0.0745105 0.5240169 0.34697166
-0.064276926 0.009863012 0.15229073 -0.23185007 -0.6759555 -0.18407494 0.020289315 -0.030832749
-0.17818332 -0.45253953 0.16287345 0.27383354 -0.21094017 -0.25083417 0.055174705 0.053265095
-0.1613031 -0.013137199 -0.30726233 0.07690632 -0.0061463425 0.5181251 -0.1006093 0.1478432
0.12142148 0.13379483 0.060041 -0.011836252 -0.084326126 -0.21161056 -0.053816363 0.12706767
0.6469811 -0.113193445 -0.5305034 0.07993496 -0.20084639 0.4616706 -0.56313485 -0.6702368
0.2719478 0.637285 -1.0485239 0.058703035 -0.35652947 -0.8284021 -0.6943501 0.10721547
-0.88076425 -1.0485282 -0.04813394 -0.14790851 -0.09665106 0.3693914 0.3259762 0.20715724
-1.1209226 0.29756355 0.11475793 0.09555074 0.16213644 -1.756269 1.1247838 0.21927427
1.0303724 0.40245527 0.3140015 -0.35930842 0.043713737 -0.09516136 0.20839885 0.10916593
0.29305387 -0.0112895435 0.11696756 -0.6963306 -0.11321616 1.3105342 -0.6746869 -0.18636455
0.9668777 0.60151654 -0.33259645 -0.03870722 0.7767304 -0.9148825 0.4872912 0.34454104

l2.bias f4 [100]
00000000: 4dfd b3be 49cc da3e 194b 073e c20b 87be
00000010: 504d 44bc b73c 153e 059e aabd e6e0 1e3e
00000020: 3328 903d e49d ea3d 474e b63d 9571 de3e
00000030: b122 e63e f6ac 9fbe 4449 a43e d343 c0bd
00000040: f196 ec3e a728 303e bf42 55be 9759 54bd
00000050: 2af9 543e f3f8 b33e 2eb3 933e 5c6b 1c3e
00000060: bbf6 1e3e b6bc 8abe 73d5 423e 2478 cebe
00000070: 74d5 803d 8321 56bd a89c e93d 9dc0 4abe
00000080: 4d1b b73e ec92 783d 88be a8bd a2e7 35be
00000090: cf88 c3bd bc14 073e 9498 a2bb df7b 0dbd
000000a0: ac80 c3be 9efa e03d b7b5 bbbd 21a0 81be
000000b0: 9a61 1c3e 3043 9abd a5b8 a13e 427a 833d
000000c0: a756 1dbe 9f16 1dbe f0f7 cebe a09e 1c3e
000000d0: 6a36 90be 8ca7 a43d d4fc 613e c02d 8bbd
000000e0: ff3b c73e aee6 bcbe 4c28 d43e 8fba a93e
000000f0: dfbc 093e 6958 6fbd a8f9 f9bc 5f05 c9bd
00000100: 685c abbe 2c3d 63be 6b3d 253e 9c4a 1dbe
00000110: d1d0 1c3d 6b94 f2bc 1ad4 c6bd acd0 4c3c
00000120: e7a2 20bd 83fe 41be b7bc 9d3d 8eea 163d
00000130: ff59 d53e e7a4 c7bd e5a3 4dbe 6739 01be
00000140: d425 2ebe d45f e63c 88cf 8e3d 1eae ae3d
00000150: ca4e 0cbe b8cd f3be 8053 503e 15c9 553e
00000160: f3a5 ebbd ad01 6cbe 58cc 2abe 8f0f d2bd
00000170: 6cb0 3a3e 64b2 153d 53a3 5b3e 3ae8 a83e
00000180: 9e3a e8bd 8922 613e 63e4 e53e f9b8 4ebe
-0.3515419 0.42733982 0.13212241 -0.26376158 -0.011981323 0.14573942 -0.08330921 0.1551548
0.070389174 0.114558965 0.08901649 0.4344603 0.44948342 -0.31186646 0.32087147 -0.093879364
0.4620891 0.17203008 -0.20826243 -0.051843252 0.20798174 0.3515087 0.2884764 0.1527533
0.15523808 -0.270971 0.19026737 -0.40326035 0.06290713 -0.052278053 0.11406833 -0.19800039
0.35763016 0.06068699 -0.08239466 -0.17764142 -0.095475785 0.13191503 -0.0049620364 -0.03454196
-0.38184106 0.109853014 -0.09165519 -0.2531748 0.15271607 -0.07532346 0.31586185 0.06419803
-0.15365086 -0.1534066 -0.40423536 0.15294886 -0.28166515 0.080397695 0.22069103 -0.067958355
0.3891296 -0.36894745 0.41436994 0.33150145 0.13450955 -0.058433924 -0.030514553 -0.098154776
-0.33468938 -0.22191304 0.1613671 -0.15360492 0.03828508 -0.029611787 -0.09708424 0.012500923
-0.039217856 -0.18944745 0.0770201 0.036844783 0.41670224 -0.097482495 -0.20082052 -0.12619554
-0.17006618 0.028121866 0.06973177 0.08529304 -0.1370193 -0.47617888 0.20344353 0.20877488
-0.11506262 -0.23047514 -0.16679513 -0.10256874 0.18231362 0.03654708 0.21449022 0.32989675
-0.11339305 0.2198583 0.44900808 -0.20187749

l3.weight f4 [18, 100]
00000000: bad5 acbd 423e 8fbe e63f 30bf 5faa 773e
00000010: 0c1a eb3e 5dd7 d6be 92dc 143e 3312 4ebe
00000020: 7f76 94bc 49b0 a1be c799 99bd a1fc b9be
00000030: 3618 43be bf9e 0a3f cbf2 d9bd 053f a1bd
00000040: 2f8c 68be 9dca eabd 04e1 2cbd 1e95 383f
00000050: 070f 96be 1144 dcbd dc76 e8bd 04aa dbbd
00000060: cae8 97be db5c 8e3e c27f f8be e3f9 c13e
00000070: a418 94be 44ec d53e 6ed1 a4be d8be 7c3e
00000080: bf90 70be 3281 f73e 2c00 c53e a82f 5c3e
00000090: 64c0 433e 7867 c9bd 3b25 bd3d af8e 83be
000000a0: 6f2b bf3e b5d2 95be 8511 aa3d b03d 033e
000000b0: 6ac7 a1be 50b1 d33e 81b2 b83e 31d1 953e
000000c0: 0fbf ea3e 5ae9 5f3e e32c 5c3e 2c62 a6be
000000d0: 0074 843e b939 1abf f76c e6be 53aa 973e
000000e0: 6919 6fbe ddcf ba3d 65d4 73be f88b fabd
000000f0: a811 e23d 2a52 07bf 16a8 ef3e 448d 6f3e
00000100: 035f c33e cbd2 e53e 5f5b bcbe 7e04 513e
00000110: 03c0 f5be dde0 ebbe b682 cd3d 16c0 20be
00000120: 3561 a43d 3b5f 043e 128c 83be 7268 dfbd
00000130: b24e 33be 09e9 4e3e 1065 95be dedd 823e
00000140: 5a4a fa3e e433 f3bc 3395 01bf 551f c7be
00000150: d5ad 213e 48e4 413e aab5 07be d90c f1be
00000160: af59 473d 0c72 033e 365a 463b f4d4 e83d
00000170: 1af2 7f3d c2ab 3fbe fb88 60be 8cc2 10be
00000180: 92f1 813d b33d 973e 007e 87bd 6e2c a93e
00000190: b276 d23d 591b d03d 55f4 11bf e0f3 6e3d
000001a0: d203 1a3f 8076 86be d9f1 a73e 2e01 28bd
000001b0: c2c7 9abe 6cbf efbe 4a48 bc3d 3e9f 46be
000001c0: 744f b8bd d014 c93e 9070 aabe 74ed be3d
000001d0: 7d40 9bbe b67d a0be ba66 583d 03f4 c93e
000001e0: 1ba7 88be 0f1e 98be 0ad2 b9be a98b d8bd
000001f0: 27a2 a4be 5644 3f3d 7b9b 0fbf 116b ab3e
00000200: bcea 7abd 3b38 b73e 7f89 fdbe c721 803e
00000210: fea6 debd e6da fa3e 7f57 673e ff3e e33d
00000220: 8f36 553e e524 c23d c22d 773e 7f73 00bf
00000230: a726 623e bd7c b9be 7c00 573d 63f9 3b3e
00000240: 02eb 80be af68 c73e 655a d03e 477a 6b3e
00000250: e571 103f c60b 9c3e a735 f23e 17f2 c7be
00000260: b8cb c53d a7fc 76be 0e3c 33bf c962 313e
00000270: 2063 43be 490f ab3e 16b8 83be 3d96 d3be
00000280: 0f65 4b3e 3625 1bbf 4c89 4b3e 1d31 a43d
00000290: 1703 9f3e 771b ea3e 72a7 4fbe 0b16 cf3e
000002a0: 42cc d9be 9a3c bfbe b483 5e3e 9c2a c3bd
000002b0: 7d57 d9bd e5b4 a03e 152d 23be 3ecf 8dbe
000002c0: bfeb b6bd 4cf1 963e 8fd3 97be b535 403e
000002d0: 4ec5 e83e 16a9 ccbe 1728 e63c 528c afbe
000002e0: 6032 353d 7aeb b03e 3cb7 7bbe a735 1ebe
000002f0: cdf8 3d3e 465c 943e 7726 07be 873e 023c
00000300: 1856 46be 6a8d 65be 99d2 cabd 23e1 f1bd
00000310: 687e 7c3b ac60 883e d2dc 49be 4ff4 a83e
00000320: d240 933e 8e7d e4be cf9e 1ebf 1e2b ac3d
00000330: e035 133e 90e7 c8be 17ba 8a3e df98 75be
00000340: 93eb a1be e476 99be dbdc 08bd 9e95 89bd
00000350: 36ab c23d b87a 023f a443 60be 6fe7 15bd
00000360: f3f7 15be 46e8 53be 993e 513e 0dcc 393f
00000370: f36b 65be 60ea fcbd 0b9d 7dbe ed07 96be
00000380: 19e1 ffbd 804a babd 0c00 32bf 92cf f63e
00000390: 6691 24be 4e49 e43e 880c 9bbe d884 503e
000003a0: cc7e 6abe 407c b33e 96cb d13e 80b0 9fbd
000003b0: 2f2d 5a3e bab4 8ebe eeb3 023d 00b2 1bbe
000003c0: e747 bbbd 4fc8 42be f4fc f6bb b404 6e3e
000003d0: 5eeb 82be b7a5 0b3f 9220 ac3e 105c f13e
000003e0: f05d d23e ad4b 963e 8dd2 5e3e a142 efbe
000003f0: 7f71 3dbe f21c 0ebe 4bee e5be bbe1 ee3c
-0.084392026 -0.27977186 -0.688475 0.24186085 0.4591831 -0.41961184 0.14537266 -0.2012413
-0.01812291 -0.31579807 -0.07500034 -0.36325553 -0.19052204 0.5414848 -0.10642012 -0.07873348
-0.22709726 -0.11464427 -0.04220678 0.72102535 -0.2930834 -0.1075517 -0.113507956 -0.10725787
-0.2966979 0.27805218 -0.4853497 0.3788596 -0.2892505 0.4178182 -0.32191032 0.24682176
-0.23492716 0.48340756 0.38476694 0.21502554 0.1911636 -0.09834188 0.09235617 -0.25694796
0.37337825 -0.2926232 0.08304123 0.128165 -0.31597453 0.41346216 0.36073688 0.29261163
0.4584889 0.2186636 0.21501498 -0.32496774 0.2586975 -0.6024433 -0.4500501 0.29622135
-0.23349537 0.09121678 -0.23811491 -0.12233728 0.11038524 -0.5285975 0.46807927 0.23393732
0.38158426 0.44887385 -0.3678846 0.2041187 -0.47998056 -0.46069995 0.10034697 -0.15698275
0.08026353 0.12926953 -0.25692803 -0.10908593 -0.17510489 0.20206083 -0.29178667 0.25559896
0.4888485 -0.02968783 -0.50618285 -0.38891092 0.15788968 0.18934739 -0.13252893 -0.47080114
0.048669513 0.12836474 0.0030266172 0.113687426 0.062486745 -0.18717864 -0.21927254 -0.14136714
0.06344904 0.2953926 -0.066158295 0.3304171 0.102765456 0.10161466 -0.57013446 0.058338046
0.6016208 -0.26262283 0.32801703 -0.04101675 -0.30230528 -0.4682573 0.091934755 -0.19396684
-0.089995295 0.3927369 -0.33289003 0.09322634 -0.30322638 -0.3134591 0.052832343 0.3944398
-0.2668999 -0.29710433 -0.3629306 -0.10573513 -0.32154962 0.04669603 -0.5609662 0.33480123
-0.061259016 0.35785088 -0.49518964 0.2502577 -0.10871695 0.4899513 0.22591971 0.11096
0.20821594 0.09479693 0.24138549 -0.50176233 0.22085057 -0.3622798 0.052490696 0.18356852
-0.25179297 0.38947055 0.40693966 0.22995864 0.5642379 0.30477732 0.47306558 -0.39051887
0.09657997 -0.24119817 -0.7001351 0.1732284 -0.19080782 0.334101 -0.25726384 -0.4132556
0.1986277 -0.60603654 0.19876593 0.0801718 0.31057045 0.4572408 -0.20278719 0.40446505
-0.4253865 -0.37350923 0.21729928 -0.095296115 -0.1061239 0.31388012 -0.15935166 -0.27697176
-0.08931684 0.2948097 -0.29653594 0.18770488 0.45463032 -0.39972752 0.028095288 -0.34286743
0.044237494 0.34554654 -0.24581617 -0.15450154 0.18551941 0.2897665 -0.13198267 0.007949478
-0.1936878 -0.22417226 -0.099034496 -0.118105195 0.0038527492 0.26636255 -0.19713143 0.32998893
0.2876039 -0.4462704 -0.6196107 0.084066615 0.1437602 -0.39239168 0.270951 -0.23984097
-0.3162504 -0.2997352 -0.03341375 -0.0671799 0.09505312 0.50968504 -0.21900803 -0.036597665
-0.14645366 -0.20694074 0.20434035 0.7257698 -0.2240446 -0.12349391 -0.24766938 -0.29302922
-0.12494106 -0.09096241 -0.6953132 0.4820524 -0.1607109 0.44587177 -0.30282998 0.20363176
-0.22899932 0.35055733 0.40975636 -0.077973366 0.21306299 -0.27872258 0.031909876 -0.1520462
-0.09144574 -0.19021724 -0.0075374786 0.23243982 -0.25570196 0.54549736 0.336186 0.4714055
0.41087294 0.2935461 0.21760006 -0.4673052 -0.18500327 -0.1387823 -0.44908366 0.029160371

l3.bias f4 [18]
00000000: b77d 273d e769 efbd dfa0 01bf c455 bbbe
00000010: 1e9d be3d 63cb 94bd 8f65 01bd c1b5 d4be
00000020: 4cca 2bbe a61c 78be e3d1 ed3b a955 b3be
00000030: b86e bcbe deaa a53e ee41 e7bd e9e3 96be
00000040: 215e e2be 65aa bbbe
0.040891375 -0.11690121 -0.50636095 -0.3658887 0.093073115 -0.072653554 -0.031590994 -0.41544917
-0.16776389 -0.24229679 0.0072576865 -0.3502629 -0.36803222 0.32356924 -0.11291872 -0.29470757
-0.4421244 -0.36653438
