data/result/d_470.pt (torch, 94638 bytes, 7 tensors)

D_attr_matrix.weight f4 [36, 5]
000000 13 4e 83 3d ba d1 e8 be 83 48 26 be 9c a5 aa 3d
       0.06411376 -0.4547251 -0.16238599 0.08332369
000010 25 8c 97 bd f5 e4 cc be b9 01 a6 be ed ac 32 3e
       -0.07399777 -0.4001843 -0.3242319 0.17448778
000020 11 0a df be 9c 2c dd 3e 47 48 64 3e 63 24 84 3b
       -0.43562368 0.43198097 0.22293197 0.004032658
000030 9c 96 dc bc 5e 0f a7 bc 51 82 b1 3c 12 fc aa bd
       -0.026927285 -0.02039307 0.021668585 -0.0834886
000040 5a ec d3 be 52 97 92 3e 49 0f 0a 3e cb 2e 34 be
       -0.4139126 0.28631073 0.13482393 -0.17595975
000050 35 2d 6c 3c 85 44 4c be dc 57 2b bb 11 0d f7 3d
       0.014415075 -0.19948013 -0.0026144898 0.12063039
000060 3d 68 de 3d 0f 03 4b bf 30 e2 4b bf c7 f5 60 3e
       0.108597256 -0.7930154 -0.7964201 0.21968757
000070 50 99 0f 3f a2 33 00 bf 6a e8 69 b9 2e 02 f0 bd
       0.5609331 -0.50078785 -0.00022307193 -0.11719166
000080 8d e5 6f bc 1e e8 09 3f 20 96 3f 3c 94 f9 13 3f
       -0.0146421315 0.5386981 0.011693507 0.578027
000090 c3 c2 70 be 40 66 00 3f 11 99 19 be dc 6b b6 be
       -0.23511796 0.5015602 -0.14999796 -0.35629165
0000a0 cd ad df be b4 69 10 3e f7 c5 07 3e be 88 86 be
       -0.43687287 0.14102823 0.13259111 -0.262762
0000b0 f7 83 15 3d ef ce 30 be 7e d2 df 3d b9 3a c4 be
       0.036502805 -0.17266439 0.1092882 -0.38326052
0000c0 71 b5 95 bd 9c 5a 21 3e 2f 5c 37 3e 84 f1 ee 3d
       -0.07309998 0.15757221 0.17906259 0.11667159
0000d0 8a ea 90 3d d6 75 f2 3c c6 bb 7e 3d e1 3a 70 3b
       0.07075985 0.029597204 0.062190793 0.0036656188
0000e0 3d a6 c5 3e b1 be ea bd 9f 0d 8a be 5d 25 9a be
       0.38603392 -0.11462153 -0.26963517 -0.3010663
0000f0 7b e6 dd bd b5 2a 09 3d 0f 01 89 bd f4 eb 2c bc
       -0.10834976 0.033487994 -0.06689655 -0.0105543025
000100 b0 83 dd bc e4 99 66 be 96 ee d5 3e e2 12 d0 3d
       -0.027040333 -0.22519642 0.4178359 0.101598516
000110 25 97 3d 3f 24 dd 52 3f 6b e7 0b 3e 69 f1 80 3e
       0.74058753 0.82368684 0.13662498 0.2518418
000120 66 36 5b bc 29 4a 41 bc 09 a4 cf be c4 d3 0e be
       -0.013379669 -0.011797466 -0.40554836 -0.1394797
000130 11 d3 78 3e bf 77 34 3e 39 12 83 3c c2 9a 8a 3e
       0.24299265 0.17623805 0.0159999 0.27071196
000140 6a 99 00 3c bd 86 01 3d 8f 55 91 bc fa f1 31 3e
       0.007849077 0.031622637 -0.017740993 0.17377463
000150 1c fe 3c bc 10 9e 55 be e3 eb 2e bf b4 85 a7 3e
       -0.011535194 -0.20861077 -0.68328685 0.32719195
000160 69 a2 c8 3e 09 eb 14 3d 0e 3a 56 3d 69 9c 74 3b
       0.3918641 0.03635696 0.05230146 0.0037324673
000170 72 e0 84 bc 7e 2a 1f bd 3d ec b7 bd 31 37 f7 be
       -0.016220305 -0.038858883 -0.08980606 -0.48284295
000180 0c 80 1e bd 88 30 a6 3e 98 21 a2 3e b3 d3 0c bf
       -0.038696334 0.324589 0.31666255 -0.5501053
000190 b9 92 17 bd 52 b1 f9 bc e8 9a 28 bb f2 59 4a 3d
       -0.03700516 -0.03048006 -0.0025727097 0.049402185
0001a0 d3 b8 83 be c7 12 bb 3e 80 5b e9 3e 86 ce 13 3f
       -0.25726947 0.36537763 0.4557762 0.57737005
0001b0 73 c6 5e 3d 53 b0 62 3e bb 0c 62 be 7d cf 09 3d
       0.054388475 0.22137575 -0.22075169 0.033645142
0001c0 68 b8 33 3c fd 51 47 bb 9c 9b b8 bc 60 eb 25 bc
       0.010969259 -0.003041386 -0.022535138 -0.010126919
0001d0 57 87 1e 3f bf ab 11 bf 7a f4 01 3d 5c 3d 2a 3f
       0.6192526 -0.5690269 0.03172729 0.66499877
0001e0 a9 97 12 be f9 e8 db bd 0a 21 17 3d 14 54 c6 be
       -0.14315666 -0.107377954 0.036896743 -0.38736022
0001f0 04 9d c3 bc a7 a4 c2 3d 39 13 b1 bb 4e 91 18 bf
       -0.023878582 0.09504061 -0.005403903 -0.5959672
000200 df 30 33 be 81 b8 b8 3e b6 f8 51 3d 27 9c 5c 3d
       -0.17499112 0.36078265 0.05126258 0.053859856
000210 01 23 23 be 08 4e 51 bd eb b5 7d bd de f8 78 be
       -0.15931322 -0.051099807 -0.06194107 -0.24313685
000220 f1 f7 c7 be 7d 34 23 bd e3 86 03 3f d4 1d b5 3e
       -0.39056352 -0.03984498 0.51377696 0.3537432
000230 cd 87 8d 3d f1 d8 31 3d b4 58 b4 ba 4f 72 3d bd
       0.069106676 0.043419782 -0.0013759346 -0.04625159
000240 ae a4 89 3d 01 2a 00 bf 09 87 8b be 66 6e 37 3b
       0.06720863 -0.5006409 -0.2725146 0.0027989387
000250 48 8c d4 3e ba e2 d3 be 56 82 00 be f0 44 13 3e
       0.41513276 -0.41383916 -0.12549719 0.14381766
000260 8b ce e0 3d 93 37 8d 3d 1b 09 27 bd fe 38 17 3f
       0.10976895 0.068953656 -0.040780168 0.5907134
000270 b2 6a 16 3e 06 0a 01 bf d9 ef af be 7b e7 38 3e
       0.14689139 -0.5040592 -0.34362677 0.18057053
000280 1d c5 0a 3c 08 c4 ce bd 99 05 29 3e b5 6b 82 3d
       0.008469847 -0.10095984 0.16506042 0.063682
000290 a2 c5 dd bc 29 1c 7d bc 4a 52 55 be f6 64 02 bf
       -0.027071778 -0.015448608 -0.20832172 -0.50935304
0002a0 d7 b0 d8 bd c0 cb 28 3e 52 d3 9e 3c db c1 86 3e
       -0.105806045 0.16483974 0.019387875 0.26319775
0002b0 81 ee 9e bc ff ed 66 be 36 83 3c be b0 76 62 bf
       -0.019400837 -0.22551726 -0.18409428 -0.8846235
0002c0 69 98 50 3e 3d 31 4a 3f 76 c4 90 be 86 34 9a be
       0.2037064 0.7898138 -0.28274888 -0.30118197

l1.weight f4 [100, 108]
000000 85 97 ff bc 7e 63 0c 3e 6a 25 ae bc 7d 03 04 3e
       -0.03120018 0.13709828 -0.021258075 0.12891956
000010 dc 38 f5 3d 5a 52 e9 bd e1 12 cd 3c 54 0d 8a 3d
       0.11973736 -0.113926604 0.025033416 0.067408234
000020 34 87 b4 3d 9a 00 a4 bc ea 23 10 be d8 12 3e bd
       0.088148504 -0.020019818 -0.140762 -0.04640469
000030 00 25 a5 bd 50 7f ab 3e 51 08 0f 3e 82 ff 09 be
       -0.08063698 0.3349557 0.13968016 -0.13476375
000040 20 e2 bd 3d 26 c6 23 3e aa 57 a7 3c 49 18 18 3d
       0.092716455 0.15993556 0.020427544 0.037132535
000050 e9 50 1e bd 21 86 87 b9 5b c0 57 bc e1 18 f6 3c
       -0.03865138 -0.0002584914 -0.01316842 0.03004116
000060 2c 4b 5e bd 93 1e c6 bd 16 51 80 bd f3 3e a5 3c
       -0.05427091 -0.096738 -0.06265466 0.020171618
000070 85 90 dd 3d 23 9e 57 3e 35 a8 77 3e 98 f1 81 bd
       0.108185805 0.21056418 0.2418526 -0.063449085
000080 ca 46 55 3e 10 c0 e3 3d 3f a3 a2 3c 31 9c 9e 3d
       0.20827785 0.111206174 0.019853232 0.07744635
000090 6a cd 2d be aa 22 dd 3d af 42 a9 3c 19 15 0e 3e
       -0.1697289 0.10797627 0.02066168 0.13875236
0000a0 86 1c 4a bd 1d 59 6e bc 48 f5 8e 3c 82 c3 6b 3c
       -0.04934361 -0.014547613 0.017450944 0.014389874
0000b0 67 dd fc bd 53 dd 2a be f5 b9 5c 3d 92 25 46 3e
       -0.12346917 -0.16685991 0.05388828 0.1935027
0000c0 da f0 59 bd ab a8 ae 3d 0b 8d 07 be 50 02 9c bd
       -0.05320821 0.085282646 -0.13237397 -0.076176286
0000d0 78 d1 76 bd 96 4d ea bd 78 a2 19 bc 7e d2 78 3e
       -0.06025836 -0.114405796 -0.0093771145 0.24299046
0000e0 93 d7 bc 3d 6c 4a f3 3c 75 27 57 3d 49 ad 34 bd
       0.09220805 0.029698573 0.052527864 -0.04411057
0000f0 dc 6a 32 3e 73 29 d5 3d f4 6f 55 be 22 b0 69 3d
       0.17423576 0.104082964 -0.20843488 0.05705274
000100 ba 07 31 ba c2 bb 15 be 45 2f 59 be 78 17 3b 3d
       -0.00067531655 -0.14622405 -0.21209438 0.04567668
000110 64 1b 75 bc ac 9d 0d 3e f8 0f d5 bc 78 e5 0d be
       -0.014960144 0.13829678 -0.026008591 -0.13857067
000120 88 6e b3 3d 53 b9 55 bc a3 2d 80 bd f1 96 02 be
       0.087613165 -0.013044673 -0.062587045 -0.12752892
000130 e9 89 4d be a2 0c 89 be 80 ee 28 bd 4e b3 0f 3c
       -0.2007214 -0.2676745 -0.041243076 0.008770777
000140 a3 12 1c 3e 45 46 41 be d4 e3 05 3d 41 1a fa bd
       0.15241484 -0.18874462 0.032687977 -0.12212039
000150 58 f8 e0 3d c7 17 04 be ac 64 02 bd b8 0d 94 bd
       0.10984868 -0.12899695 -0.03183429 -0.07229179
000160 84 7a 25 bc 87 7e 84 3d 45 97 82 3e 2a 35 b6 bb
       -0.010100011 0.06469446 0.25506034 -0.005560537
000170 af 23 58 3e b5 c2 e4 3e 48 7a 63 3e 68 e7 f3 3e
       0.21107362 0.446798 0.22214615 0.47637486
000180 e7 84 55 3e 98 d3 8a 3e 81 a8 ab 3e 6b bc b6 3e
       0.2085148 0.27114558 0.33526996 0.35690627
000190 19 c6 89 3e 96 fb 58 3e 12 b5 34 3f 72 29 b5 3e
       0.2690895 0.21189722 0.7058879 0.35383183
0001a0 bb c3 d5 3e 13 9b 86 3e 4f 57 f2 3e 01 e7 b4 3e
       0.41750893 0.26290187 0.47332236 0.35332492
0001b0 32 9e 01 3f 68 a1 3c be 8f 51 90 be bc ac cb 3e
       0.5063201 -0.18420947 -0.28187224 0.39780223
0001c0 da 5a 34 bf 47 0c cc bd 0d e2 94 bf 91 37 8a 3e
       -0.7045113 -0.09963279 -1.1631485 0.2699552
0001d0 46 00 b2 3e 01 02 4d be 65 cb ce be ff 19 77 be
       0.34765834 -0.20020296 -0.40389553 -0.2413101
0001e0 4e ce 1b 3e 00 35 92 bb b0 5e ee 3c 28 2f de be
       0.15215418 -0.0044618845 0.029097885 -0.43395352
0001f0 63 0e 82 bd 07 2f d8 be 58 1a 5a 3e 56 a3 01 3f
       -0.063504 -0.4222338 0.21299112 0.50639856
000200 e4 a3 87 be 3e 04 95 bd 97 a8 a0 3d ee 6b db bd
       -0.26492226 -0.072762 0.07844656 -0.10713945
000210 bd da 2c 3d 5b 9a 60 3e 29 7d 33 be 7f 11 9a 3e
       0.042200793 0.21933882 -0.17528214 0.30091473
000220 f8 30 87 3e 50 18 8f 3e 19 ce e2 bc f2 31 08 3c
       0.26404548 0.27948236 -0.027686166 0.008312689
000230 62 dd 45 be 44 22 ae be 68 ab c0 be 4d 26 c2 3e
       -0.19322732 -0.34010518 -0.37630773 0.37919846
000240 0a ed e5 bd 7d c4 28 be 79 db 84 be a8 19 d4 be
       -0.11226852 -0.16481204 -0.25948694 -0.41425824
000250 79 06 46 be f4 92 78 be a6 23 53 3e 4e 12 41 3e
       -0.19338407 -0.24274808 0.20619068 0.18854639
000260 5c ba f3 bd 8f f1 22 3f 3e 74 5a 3e 4e 36 46 bd
       -0.119007796 0.6364984 0.21333405 -0.048391633
000270 a9 47 ac be 58 95 a5 bc 56 8b 78 3d dc e8 b1 3d
       -0.33648422 -0.020212814 0.060679756 0.086869925
000280 7f 5b 33 3f 59 77 23 3d 99 8b 67 bd ee 90 f6 bd
       0.70061487 0.03990874 -0.056529615 -0.12039362
000290 0e e7 95 3d 52 03 08 3e 0d 74 0b be f8 76 1a be
       0.07319461 0.13282517 -0.13618489 -0.15084445
0002a0 b0 4a d7 bd 16 80 01 be 27 a6 3d 3f fe 12 03 be
       -0.105122924 -0.12646517 0.74081653 -0.12800214
0002b0 74 a7 33 bf b4 89 a2 be a3 21 3f bf 36 87 13 3e
       -0.7017739 -0.31745684 -0.746607 0.14407048
0002c0 08 ec 89 3f a4 b9 88 3e 3c 67 71 3e 63 59 6b 3e
       1.0775156 0.26704133 0.23574537 0.22983317
0002d0 7c fc 1a be bf c7 1e be 6a ca 55 3e a2 2a c4 3e
       -0.15135378 -0.15505885 0.20877996 0.38313776
0002e0 6c db 4b bd 24 cf 16 bf 4a a4 c7 be 78 48 76 3e
       -0.049769804 -0.5890982 -0.3899253 0.24051082
0002f0 22 18 aa 3d 42 4e ab bd 32 0f 57 3f 62 27 45 3e
       0.08305384 -0.08364536 0.8400756 0.19253305
000300 ed 2f 90 be 02 19 0f bf d9 cf 23 3e e2 91 02 3f
       -0.28161564 -0.55897534 0.15997256 0.5100385
000310 41 6b f8 bd f2 a0 69 be 13 df 35 be f8 37 2a be
       -0.12129832 -0.22815302 -0.17760877 -0.16622913
000320 e5 d3 98 be 3a 35 20 3d 64 01 b3 bd 3a f4 a9 be
       -0.29849163 0.03911326 -0.087404996 -0.33194143
000330 2f 4a 1c be 16 7a 3a be c6 7d 19 3e 3c 8b 32 be
       -0.15262674 -0.18210635 0.14989385 -0.17435926
000340 64 6c d6 bd 4d 9f 11 3e d7 e4 e0 be a9 a9 96 3c
       -0.104698926 0.14220925 -0.4392459 0.018391447
000350 e2 92 80 3c 45 9d 22 3e cd 72 9a bc 31 03 01 be
       0.01569504 0.15880306 -0.01885357 -0.12598874
000360 9c 4f 21 3e 7a 62 28 bd bc 00 49 be b2 92 98 3d
       0.15753025 -0.04110954 -0.19629186 0.07449855
000370 95 22 1a bd 10 47 21 be 09 d2 74 3d 7e 28 6b 3e
       -0.037630636 -0.15749764 0.059770618 0.22964665
000380 5f bd 77 3d 20 6c 3c 3c dd 2b 1a be e1 95 2e bd
       0.060483333 0.011500388 -0.15055795 -0.042623404
000390 83 ac ab bc e7 c1 bf 3d 31 dd ff bc ee bd 23 be
       -0.020956283 0.09363156 -0.031233402 -0.15990421
0003a0 c5 de 1f be 25 62 5d bd e5 a6 3f bd 53 63 c5 3e
       -0.15612324 -0.054048676 -0.046790022 0.3855234
0003b0 6c f3 df 3b 0a 8e b3 bc 6d fe 28 3e cb c5 8f 3c
       0.006834438 -0.021918315 0.16503306 0.01755037
0003c0 65 37 88 3c 29 2a 92 3d a4 84 a6 3d c7 a1 49 be
       0.016627977 0.07136948 0.08130768 -0.1969062
0003d0 3e 65 a9 bd 47 52 84 3d 26 ca 81 3b 0a 3d 41 bc
       -0.082712635 0.06461006 0.0039608655 -0.011794338
0003e0 6d e4 1b 3e 42 b1 0d 3e 7d 6d c7 3d 66 4b 32 be
       0.15223856 0.1383715 0.0973768 -0.17411575
0003f0 f1 7a 49 bd 17 49 94 3d f9 fb b7 3d 54 3f a1 3c
       -0.04918951 0.07240503 0.08983607 0.019683518

l1.bias f4 [100]
000000 79 8e d6 bd 03 c9 75 3c 76 e9 8a 3e 85 9f 05 be
       -0.10476393 0.015001538 0.27131242 -0.13049133
000010 d8 8e 45 bd 5b 1d 08 be e2 82 35 3d fb d0 ee 3d
       -0.04823193 -0.13292448 0.044314273 0.116609536
000020 b5 71 bc bd 0e c9 1a be 68 75 58 3e 67 3f 1b be
       -0.092013754 -0.15115759 0.21138537 -0.15160905
000030 49 7a 99 3d 01 fa 87 3e 13 b4 bf 3c 18 e8 c2 bd
       0.07494027 0.26557925 0.023401296 -0.095169246
000040 86 3d 93 3d 13 8e 6b 3d c1 61 40 be fa 3d 2e 3e
       0.07189469 0.05750854 -0.1878729 0.1701583
000050 78 d5 83 be fc 2b 5c be 8b 1d da bd bf e0 92 3e
       -0.257488 -0.21501154 -0.10650166 0.28687093
000060 3f 10 03 3d ad aa e0 bc f9 d5 39 be 47 1f 85 bd
       0.031997915 -0.027425135 -0.1814803 -0.06500106
000070 9b 1a c7 3d 29 9f 37 3e 28 67 d3 bc 4d e5 31 be
       0.097218715 0.17931809 -0.025806025 -0.17372628
000080 a9 68 30 be 84 a6 3f bc a1 ce 94 be 4a d2 8b 3d
       -0.17227425 -0.011697415 -0.29063895 0.06827219
000090 21 3d 71 be 1c c3 f7 3d 54 32 b3 bd 25 1d f5 bd
       -0.23558475 0.12097761 -0.08749834 -0.119684495
0000a0 de f5 d6 3c b5 b0 36 3e 48 e3 9c 3d d5 29 a2 3e
       0.026240285 0.17840846 0.07660538 0.3167254
0000b0 58 a2 b1 3d 29 d7 9a 3d 67 f2 14 3d 34 9a 15 3e
       0.08673543 0.0756057 0.036363985 0.14609605
0000c0 19 39 41 3d 70 0c f9 bd 47 95 c2 bd ff 58 8f bd
       0.047173593 -0.121605754 -0.09501129 -0.069993965
0000d0 8d d5 4c 3a e5 f7 f0 bd fe 5c c8 3a a0 37 8c 3e
       0.0007813804 -0.11766032 0.0015286503 0.27386189
0000e0 9c cf 94 3c 77 a7 a8 3d 95 63 2b 3d 1d 04 4e 3e
       0.018165402 0.082350664 0.041843016 0.20118757
0000f0 09 af 8d 3e 83 46 1e bd 5a 31 96 bd c0 c4 d3 bd
       0.27672604 -0.038641464 -0.07333632 -0.103402615
000100 de 83 2f 3e 1a ec 4c be 5b aa 86 bd 4c fd c6 3e
       0.17140147 -0.2001194 -0.065754615 0.38865125
000110 ec c1 ad bd 85 32 3e 3e c9 e0 b8 bb 49 d1 a4 3d
       -0.08484253 0.18573959 -0.005642031 0.080477305
000120 ed 6f 0b be de 53 c6 bd 52 12 48 3e 9f 60 f2 3c
       -0.13616915 -0.09683965 0.19538239 0.029587088
000130 c6 f5 28 3c d7 45 00 3e c0 48 39 be e3 28 86 3e
       0.010312503 0.12526642 -0.18094158 0.2620307
000140 f7 bc 72 be be bf b7 bd f1 00 b8 3d 6f 4e 0b be
       -0.23704897 -0.08972119 0.089845546 -0.13604139
000150 02 94 2e bc d2 a8 92 3e ba d6 93 3d e0 8a 6a bc
       -0.010655405 0.28644425 0.0721869 -0.014315337
000160 79 23 86 3d 7d 9a 6b 3e 2b 19 3f 3e bf 0c 59 3e
       0.065497346 0.23008151 0.18661945 0.21196268
000170 c3 63 ba bc 5f 4c be bc 34 7c 4c be 54 27 c4 bb
       -0.022752648 -0.023229776 -0.19969255 -0.0059861336
000180 15 8e 64 3e 3b c9 ca bc dc ed ce bd e7 dd 83 3c
       0.22319825 -0.024754157 -0.10103962 0.016097022

l2.weight f4 [100, 100]
000000 71 c7 63 3e 55 2d cd be 44 4e 78 be 6d e5 14 bd
       0.2224405 -0.40073648 -0.24248606 -0.03635161
000010 b7 a2 94 3e 7c 41 0d be 48 5e 31 bd b6 fe 4f 3d
       0.29030392 -0.13794512 -0.043302804 0.05078002
000020 eb c9 2d be 25 14 a1 bd a0 02 a9 3d 9f 9b f1 3e
       -0.16971557 -0.078651704 0.08252454 0.47189042
000030 e7 eb 84 bd 34 90 20 bd f6 45 7f 3e b7 2e 8d 3e
       -0.06490307 -0.039200023 0.24929032 0.27574703
000040 c7 72 93 3c 4f c0 4e be 76 47 03 3e 7a 05 3c be
       0.017999066 -0.20190547 0.12820229 -0.18361464
000050 a5 cd dc 3e 2a 1b 9b bd d8 75 52 3e c7 41 1b be
       0.43125644 -0.075735405 0.20552766 -0.15161811
000060 42 58 aa 3e c6 c8 f3 3d 84 36 7e bd cc 2c 0c 3e
       0.3327046 0.11903529 -0.06206371 0.13688964
000070 d6 90 71 bd 35 85 a4 be 56 9a 2b 3d 30 e0 2b be
       -0.058976017 -0.3213288 0.041895233 -0.1678474
000080 93 bd cc 3e aa da 14 be 44 3d ae 3d c2 48 b2 bd
       0.39988384 -0.14536539 0.08507779 -0.08705284
000090 44 26 3b 3d 15 61 5b bd e2 0b 88 3e dc d4 b3 bd
       0.04569079 -0.05355938 0.26571566 -0.08780834
0000a0 ce d6 d3 bc f8 ba 1e be ce 1c 98 be 7b 64 a8 be
       -0.025859263 -0.1550101 -0.29709476 -0.3288916
0000b0 fc e7 00 bd 72 da a4 3d d4 f2 52 3e b5 7d c0 3d
       -0.031471238 0.08049478 0.20600444 0.09398977
0000c0 cd 66 8c 3e ea ac d1 bd f4 63 1f 3e 2a 91 c6 bc
       0.2742218 -0.10238059 0.15565473 -0.024239141
0000d0 2f 50 7d bd e5 8a 5c bd 6d ae 67 be 37 7e 1e 3e
       -0.061844047 -0.053843398 -0.22625132 0.15477835
0000e0 96 b9 b5 3e c5 8b a0 be d3 82 5e be 51 e2 07 3d
       0.35493153 -0.31356636 -0.21729593 0.033174817
0000f0 01 e4 5f 3e d7 4e 34 be 87 ad fa bd cd 39 83 be
       0.2186432 -0.176082 -0.12240129 -0.25630036
000100 9f e9 8e bd 32 e0 1f 3e 1b d6 e1 be 2b 7f 88 be
       -0.069781534 0.15612867 -0.44108662 -0.2665952
000110 94 cb 31 3e 89 10 6a bd 74 ea d8 be a5 6b 25 be
       0.17362815 -0.057144675 -0.42366374 -0.16154344
000120 53 28 ea 3d 6e b7 5b bc 16 f0 eb bd 59 71 0e be
       0.114334725 -0.013410432 -0.11520402 -0.13910426
000130 a7 e2 8c 3e 11 4c 11 bf 31 d2 6e bd 99 fb dc be
       0.27516672 -0.56756693 -0.058305923 -0.43160704
000140 62 46 fe 3d 00 d9 c6 3d ba 6d 25 3e 5c 26 07 3e
       0.12415768 0.09709358 0.16155139 0.13198227
000150 32 18 89 bc 2b 82 4c 3e c4 af 6f 3e da 3f f4 bb
       -0.01673517 0.1997153 0.23406893 -0.0074539008
000160 f0 6a 8a 3e 93 44 41 be cf e7 a1 3e 2e e7 79 be
       0.27034712 -0.18873815 0.31622168 -0.24404594
000170 d8 97 d8 bd 04 88 87 3d 48 1e b1 bd 11 9e 4c 3e
       -0.10575837 0.0661774 -0.08648354 0.19982173
000180 64 a1 20 be e6 cf ce 3e 00 e6 c4 bd 9d 8f 86 3e
       -0.15686566 0.4039299 -0.096141815 0.26281443
000190 2f c7 d7 bd ad b4 1a 3f c2 9e 81 3e af 34 9c be
       -0.10536038 0.6043194 0.25316435 -0.30508944
0001a0 32 cb a6 be b6 60 98 3d 40 8d 09 3e 84 8d e4 3d
       -0.325769 0.07440321 0.13432789 0.111598045
0001b0 75 c1 e7 bd 3f 38 24 3e 55 b2 56 3d 92 cc 14 bd
       -0.11316196 0.16037081 0.052416164 -0.036327906
0001c0 b8 e0 b8 bc e2 df 5a 3e ce 13 97 bd f4 9b 85 be
       -0.022568092 0.21374467 -0.07376824 -0.26095545
0001d0 c9 73 0e bd 92 c7 e6 3d d8 c8 8c be 9b 93 44 3e
       -0.03477839 0.11268534 -0.27496982 0.19196932
0001e0 d7 42 44 be 56 8c 70 3e 91 1d 3e 3d 21 4d 0d 3e
       -0.19166122 0.23491034 0.046414915 0.13798954
0001f0 29 8a bd bd 50 8a 16 be 83 9d 9d 3e e0 30 37 be
       -0.092548676 -0.147012 0.30784234 -0.17889738
000200 e7 ae 7a 3e a1 cf 24 3e be b5 0c 3e 2f 1d a8 3c
       0.24480782 0.16094829 0.13741204 0.020521728
000210 4f 94 d9 be f2 02 9c 3e 50 a3 d5 bd 41 11 68 3e
       -0.42495963 0.30470997 -0.1043154 0.22662832
000220 5d 7a a2 3d c8 6a 4f 3c 73 01 f6 bd 77 09 3f 3e
       0.07933495 0.012659736 -0.12011995 0.18655954
000230 06 a2 7a be 23 d1 84 3e 19 a8 0d 3e de ed 38 be
       -0.2447587 0.2594081 0.13833655 -0.18059489
000240 6a 35 ac bd a7 aa 66 3d 91 09 93 3d 2b 52 dd 3c
       -0.084086254 0.05631509 0.07179559 0.02701672
000250 46 2c 84 be 93 1c dd be 56 be 93 bc 2c 09 12 be
       -0.25815028 -0.43185863 -0.018035095 -0.14261311
000260 dc 04 c4 bd 61 e8 27 3d f2 f2 16 3e c6 10 89 bc
       -0.09571239 0.0409931 0.14741114 -0.016731631
000270 b6 00 92 3d 6b 43 cf 3e f6 4b f6 3d 45 02 9f bd
       0.07129042 0.40481123 0.12026207 -0.07764105
000280 04 b6 75 3d f0 cd 1e bd 8a 87 42 3e 93 5f b6 bc
       0.059988037 -0.038770616 0.18997017 -0.02226237
000290 7b f8 f7 3e dd 9d 78 3d 89 6a 10 3f d9 48 b5 3e
       0.48431763 0.060697425 0.5641256 0.3540714
0002a0 5e 3e 81 bd 4b 19 87 3c c9 9c 2e 3e 94 c3 70 be
       -0.06310724 0.016491553 0.17051996 -0.23512107
0002b0 4b ab 2e bf b5 c5 40 be af eb 6b 3c c1 c4 36 3b
       -0.6823012 -0.18825419 0.014399453 0.002788827
0002c0 1b 12 31 be 19 3e df be f2 c0 23 3e c2 0d 97 3e
       -0.17292063 -0.43602064 0.15991572 0.29502684
0002d0 35 20 6a be 34 a0 87 be 5b 81 71 3d d1 6a 2f 3d
       -0.22863849 -0.26489413 0.058961254 0.042826477
0002e0 c9 39 1c be 46 1a c6 3c 95 6b 94 be b1 18 a5 3d
       -0.15256418 0.02418245 -0.2898833 0.0806135
0002f0 2f 5b 15 bb 48 e7 02 3f 1b 05 a3 bd f5 81 25 3e
       -0.0022789945 0.5113416 -0.07959958 0.16162856
000300 b8 45 da 3d e5 b0 fd 3d dc c1 23 3d 7a f3 bc bc
       0.10657829 0.123872556 0.0399798 -0.023065317
000310 61 8b 9d bd 41 0a 7a be a4 40 41 bd 44 3e bb 3d
       -0.076926 -0.24417974 -0.047180787 0.091427356
000320 56 b4 29 3f a5 1a dd bd 2d b4 0a bf 2e 28 a9 3d
       0.66290796 -0.10796098 -0.54181176 0.08259617
000330 74 27 82 be a8 16 f9 3e e4 44 1f bf a8 ab 31 bf
       -0.25420725 0.48650098 -0.62214494 -0.6940255
000340 13 16 95 3e 12 92 36 3f 88 ab 8f bf 56 20 7d 3d
       0.29118404 0.71316636 -1.1224222 0.061798416
000350 f5 62 b8 be 0f 2e 57 bf c9 e3 47 bf d9 03 d9 3d
       -0.36012998 -0.84054655 -0.7808195 0.10596437
000360 12 8f 69 bf 13 47 8b bf 83 d5 5a bd f5 c2 16 be
       -0.9123393 -1.0881065 -0.053426277 -0.14722808
000370 46 96 c1 bd 5a 1a d6 3e 04 25 a4 3e 40 01 52 3e
       -0.094524905 0.4181698 0.3205949 0.2050829
000380 46 c7 8e bf 28 68 98 3e 88 87 1a 3e 66 d2 be 3d
       -1.1154563 0.29766965 0.15090764 0.09317474
000390 52 5a 25 3e d9 e7 e9 bf cb ed 90 3f 48 75 86 3e
       0.16147736 -1.8273879 1.1322569 0.26261353
0003a0 68 da 83 3f 71 85 fa 3e 28 30 a4 3e 74 11 c1 be
       1.0301027 0.48929933 0.3206799 -0.37708628
0003b0 cd 6d 2b 3d 98 51 c7 bd 6f 9c 41 3e 90 67 09 3e
       0.04185276 -0.0973236 0.18907331 0.13418412
0003c0 72 49 94 3e 46 0b 12 bc a6 c4 f5 3d 9b 3c 48 bf
       0.28962284 -0.008913821 0.12000398 -0.78217477
0003d0 40 62 e5 bd 7a 7e b0 3f 98 eb 3e bf 4e b2 2b be
       -0.1120038 1.3788598 -0.7457824 -0.16767237
0003e0 a8 88 80 3f 16 81 1d 3f db e3 a7 be 52 37 4b bd
       1.0041704 0.61525095 -0.32791027 -0.049613304
0003f0 05 25 3e 3f 54 31 63 bf 5f 5b 27 3f b0 e0 b1 3e
       0.7427524 -0.88747144 0.65373796 0.34741735

l2.bias f4 [100]
000000 72 03 b7 be 67 7b e0 3e 9c cb 07 3e ff df 86 be
       -0.35744816 0.4384415 0.13261265 -0.2634277
000010 6d 19 45 bc cb 6e 12 3e ef a3 a7 bd ed 42 1c 3e
       -0.012029988 0.14300077 -0.08185565 0.15259905
000020 ae 4e 98 3d 0a 4f f2 3d a8 1a bb 3d a9 32 e1 3e
       0.07436882 0.11831482 0.09135944 0.43983963
000030 9b 0a ea 3e f4 ce a0 be 39 c1 a5 3e f5 42 d3 bd
       0.45711216 -0.31407893 0.3237398 -0.103155054
000040 2a 5b f7 3e 51 43 31 3e 7d 76 67 be 22 31 5a bd
       0.4831174 0.17310835 -0.22603793 -0.053269513
000050 73 ab 55 3e a0 82 b9 3e 04 95 99 3e 1f 34 26 3e
       0.20866184 0.3623247 0.29996502 0.1623082
000060 a8 4b 1f 3e d8 06 8e be d3 2b 41 3e 65 a5 ce be
       0.15556204 -0.27739596 0.18864374 -0.4036056
000070 13 d2 59 3d 44 cd 51 bd ca a5 f7 3d 22 c9 52 be
       0.053178858 -0.051221147 0.12092169 -0.20584539
000080 11 e0 b8 3e 28 af 6f 3d 1e 98 a5 bd 4f 03 36 be
       0.3610845 0.05851665 -0.08085655 -0.177747
000090 db 74 cb bd e7 3e 0b 3e 43 07 08 bc df 96 f3 bc
       -0.09934398 0.13598214 -0.008302513 -0.029735027
0000a0 ad 46 ca be 3e 1f e3 3d 33 84 cc bd 32 d4 82 be
       -0.39507046 0.11089943 -0.099861525 -0.25552517
0000b0 c5 8e 24 3e 58 d9 a8 bd d7 2f a0 3e b7 02 84 3d
       0.16070087 -0.0824458 0.312865 0.0644583
0000c0 fc f5 1d be 4e 40 34 be 2f 44 d1 be 6d 25 1d 3e
       -0.15425867 -0.17602655 -0.40872332 0.15346308
0000d0 85 e8 90 be 81 5c c2 3d fd 13 62 3e cd fa 8c bd
       -0.28302398 0.094903 0.22077937 -0.06883774
0000e0 ef 33 ca 3e e0 59 c3 be ed f2 d8 3e 77 99 ad 3e
       0.39492747 -0.38154507 0.42372838 0.33906147
0000f0 29 80 07 3e 02 b6 6f bd 29 46 f4 bc 22 71 cd bd
       0.13232483 -0.058523186 -0.029818611 -0.10031344
000100 fe 50 b1 be c4 07 64 be 8d a6 30 3e e8 d8 1c be
       -0.34632105 -0.22268587 0.17251034 -0.15317118
000110 9b 0a 16 3d aa 35 e7 bc 19 e0 b6 bd bf bc 24 3c
       0.036631208 -0.028223831 -0.08929462 0.010054766
000120 86 7d 31 bd 0a 9b 4b be 75 fa 9e 3d c9 f6 3b 3d
       -0.0433326 -0.19883361 0.07762615 0.04588965
000130 bb d4 d9 3e d2 41 d6 bd 9d 04 50 be a8 43 08 be
       0.42545113 -0.10461773 -0.2031426 -0.13307059
000140 e1 99 2d be 59 cd e7 3c dd e4 a6 3d b1 aa b3 3d
       -0.16953231 0.02829616 0.08149121 0.08772791
000150 fd ee 09 be da 21 f6 be bc 34 4d 3e e8 a4 58 3e
       -0.13470073 -0.48072702 0.20039648 0.21156657
000160 37 da 04 be c9 1c 7a be ed 1c 27 be 44 8f e2 bd
       -0.12973867 -0.24425043 -0.16319628 -0.11062482
000170 c3 35 35 3e f7 52 29 3d ef a8 66 3e ec 51 a3 3e
       0.1769629 0.041338887 0.2252538 0.3189844
000180 2e 56 f6 bd 01 6c 61 3e f7 62 e9 3e 04 24 55 be
       -0.12028156 0.22013856 0.45583317 -0.2081452

l3.weight f4 [18, 100]
000000 e9 aa a2 bd 00 b5 91 be 0d 40 35 bf 9a 93 7f 3e
       -0.07942755 -0.28458405 -0.7080086 0.2495865
000010 04 94 f1 3e e8 86 de be c6 38 15 3e 3b 4c 53 be
       0.4718324 -0.434623 0.14572439 -0.20634548
000020 68 13 be bc 68 5c a5 be 76 3c a0 bd b8 65 bc be
       -0.023202613 -0.32297063 -0.07824032 -0.36796355
000030 1d 11 4b be db d6 0e 3f 24 ff e9 bd c8 23 97 bd
       -0.19830747 0.55796593 -0.11425617 -0.073798716
000040 b2 42 6d be f1 ac f4 bd ae 1b 16 bd 5c 18 3c 3f
       -0.23169973 -0.119470485 -0.03664749 0.7347467
000050 33 77 98 be 56 b7 e5 bd 07 68 00 be b9 c7 e5 bd
       -0.29778442 -0.11216609 -0.12539683 -0.11219735
000060 0d 26 9a be 54 c8 90 3e 37 2f 01 bf da 5e c9 3e
       -0.30107155 0.28277838 -0.5046267 0.39330178
000070 7b 95 96 be 71 80 da 3e aa 45 a7 be 29 d5 80 3e
       -0.2941092 0.42676118 -0.32670337 0.25162628
000080 e6 57 75 be ea 3c 00 3f 5a 9d c8 3e 32 3d 5a 3e
       -0.23959312 0.5009295 0.3918255 0.21312407
000090 76 4e 4f 3e d6 54 d3 bd d2 b7 cb 3d de d4 8b be
       0.20244774 -0.103189155 0.0994717 -0.27310842
0000a0 56 88 c1 3e 17 11 9b be 06 6c b4 3d 7d b5 0a 3e
       0.3779933 -0.30286476 0.08809666 0.13545795
0000b0 b4 4c a4 be 7e 7d d6 3e 4e 87 c1 3e e3 82 9f 3e
       -0.3208977 0.41892618 0.37798542 0.31154546
0000c0 16 cf f3 3e 1f d2 64 3e 5f fc 60 3e f6 a6 ac be
       0.47618932 0.2234578 0.21971272 -0.3372113
0000d0 db e0 86 3e 2b 68 1b bf 40 93 f2 be 04 76 9a 3e
       0.26343426 -0.6070582 -0.47377968 0.30168164
0000e0 da 11 74 be 2c 77 c6 3d 17 bb 78 be cb bf 01 be
       -0.23834935 0.09690699 -0.24290119 -0.1267082
0000f0 b3 e1 df 3d 7a 76 0c bf c3 93 f5 3e 57 43 70 3e
       0.109317206 -0.5486828 0.47964296 0.23463188
000100 74 f8 c5 3e 98 9e eb 3e a7 be be be f7 9c 57 3e
       0.38666117 0.46019435 -0.3725483 0.21055971
000110 7a 01 ff be 40 51 f2 be 72 46 bc 3d bc 0d 1c be
       -0.49805814 -0.47327614 0.09193124 -0.15239614
000120 35 36 ad 3d 21 07 09 3e 32 78 82 be cc 45 e9 bd
       0.08457605 0.13381626 -0.25482327 -0.11390266
000130 b9 35 37 be ca db 53 3e de 99 9e be fc 0b 85 3e
       -0.17891587 0.20689312 -0.30976766 0.25985706
000140 02 80 fe 3e c0 71 23 bd 94 86 02 bf 05 37 ce be
       0.49707037 -0.039903402 -0.509866 -0.40276352
000150 4e 68 21 3e a2 58 44 3e 7e b5 05 be 03 8a f4 be
       0.15762445 0.19174436 -0.13057515 -0.47761545
000160 06 a4 56 3d 9e 63 09 3e 8f 38 f5 3b e2 74 f3 3d
       0.05240252 0.13416907 0.007483549 0.11887528
000170 65 24 67 3d 38 b4 49 be db 6f 64 be a8 10 16 be
       0.056431193 -0.19697654 -0.22308294 -0.14654791
000180 d2 c8 8f 3d 4d 81 a0 3e 7e d4 93 bd c4 8b ab 3e
       0.07020725 0.3134865 -0.07218264 0.3350507
000190 63 33 dc 3d 7d 5c c6 3d eb 43 17 bf fb e1 82 3d
       0.10751989 0.096856095 -0.5908801 0.063907586
0001a0 35 f3 1c 3f 9c 7e 8e be 6f 4a a9 3e 1c b4 3b bd
       0.61308604 -0.2783097 0.330646 -0.045826063
0001b0 f2 5c 9d be 90 91 f4 be 42 fc bc 3d aa 7b 4b be
       -0.30734974 -0.47767305 0.09227802 -0.19871393
0001c0 a1 f7 c3 bd ed c8 d2 3e d6 76 b0 be 18 4f c9 3d
       -0.09568716 0.4116892 -0.34465665 0.09829539
0001d0 fe cd 9d be c4 04 a3 be b9 2d 6d 3d 4c 72 d2 3e
       -0.30821222 -0.31839573 0.057904933 0.41102827
0001e0 23 33 8b be bb ac 9a be ea 13 bb be 65 2a e1 bd
       -0.27187452 -0.30209908 -0.3653863 -0.10994414
0001f0 aa eb a6 be a3 84 53 3d 44 91 14 bf 6f 02 b5 3e
       -0.32601672 0.051640164 -0.5803416 0.3535342
000200 8d b8 87 bd 71 90 bc 3e ad d6 ff be 8a 6f 82 3e
       -0.06626997 0.3682895 -0.49968472 0.25475723
000210 5a df e8 bd de 05 02 3f b3 35 6d 3e 0c 79 e8 3d
       -0.11370726 0.507902 0.23165016 0.11351213
000220 9f 65 5c 3e b0 31 b8 3d 0a 6e 7c 3e 4e ab 01 bf
       0.2152314 0.08993852 0.24651352 -0.50652015
000230 37 42 67 3e 4a 44 be be d9 9c 6b 3d e1 c1 41 3e
       0.22583853 -0.37161475 0.05752263 0.18921615
000240 2a 26 83 be 08 78 c9 3e 5d 75 d9 3e cb 67 7e 3e
       -0.25615054 0.3934939 0.42472354 0.24844281
000250 19 86 15 3f 95 8f 9e 3e f9 ba f4 3e df 4d cf be
       0.5840774 0.3096892 0.477989 -0.40489098
000260 90 e2 cf 3d af 15 7c be 3c 42 39 bf 1d 29 3b 3e
       0.10150635 -0.24617647 -0.7236669 0.18277402
000270 6b 2e 48 be 94 99 ad 3e de 25 86 be 08 24 d6 be
       -0.19548957 0.33906233 -0.26200765 -0.41824365
000280 37 f9 49 3e c4 43 20 bf 81 71 5a 3e 53 f9 a5 3d
       0.19723974 -0.626034 0.21332361 0.081041954
000290 6a 30 a1 3e 2d 2d f0 3e f1 b3 54 be 67 7b d1 3e
       0.3148225 0.46909466 -0.20771767 0.4091446
0002a0 14 9d e3 be 66 20 c5 be d9 29 5f 3e ab 65 cf bd
       -0.4445578 -0.3850128 0.21793307 -0.101268135
0002b0 f6 06 c8 bd 4d 3b a3 3e 3f 13 23 be cf 54 90 be
       -0.09766953 0.3188118 -0.1592531 -0.28189704
0002c0 ad 2d c5 bd d1 41 99 3e e7 1d 9f be 0b f9 45 3e
       -0.096278526 0.29933026 -0.310775 0.19333284
0002d0 f9 7b ed 3e bd 0f d1 be f8 de ac 3c 09 b7 b7 be
       0.46383646 -0.4083232 0.021102414 -0.35881832
0002e0 6e f1 39 3d f5 0e b2 3e 73 87 71 be b2 e9 21 be
       0.04539626 0.34777036 -0.23586826 -0.15811804
0002f0 fc 3b 45 3e de b0 96 3e 83 5b fe bd 20 6b 51 3c
       0.19261163 0.29431814 -0.12419798 0.012781888
000300 99 b4 4b be b9 0d 71 be 80 46 d7 bd e5 93 fc bd
       -0.19893111 -0.23540391 -0.10511494 -0.12332896
000310 0d c8 13 3c 6a dd 91 3e bd 33 4f be 3b 83 ab 3e
       0.009019864 0.28489238 -0.2023458 0.33498558
000320 22 4a 96 3e c3 3c e7 be 0e 41 24 bf 46 71 bc 3d
       0.29353434 -0.45163545 -0.64161766 0.09201293
000330 b4 96 23 3e 58 85 d1 be 4c 61 8b 3e aa 7e 7b be
       0.15975457 -0.40922046 0.2722267 -0.24560037
000340 3f c3 a4 be a9 25 9b be 03 f1 1a bd 40 58 95 bd
       -0.3218021 -0.3030217 -0.037827503 -0.07292223
000350 18 3d b4 3d 1a 2a 06 3f ef ca 6a be c1 cc fc bc
       0.08800715 0.5240799 -0.22928976 -0.030859353
000360 03 93 1b be 47 9f 59 be 5b db 56 3e 24 68 3d 3f
       -0.151928 -0.21252166 0.20982115 0.7398703
000370 04 19 6b be 56 12 04 be 22 3c 82 be 96 d7 98 be
       -0.22958761 -0.1289762 -0.25436503 -0.2985198
000380 ef 72 03 be 11 33 af bd a7 52 36 bf a8 5e fd 3e
       -0.12836812 -0.08554662 -0.7121987 0.4948628
000390 bd 65 2a be 2a 84 e9 3e d3 04 9e be 7f 2f 56 3e
       -0.16640373 0.45608646 -0.30863056 0.20916556
0003a0 a8 24 70 be c6 75 bf 3e 1d 37 d5 3e 07 34 98 bd
       -0.23451483 0.37394542 0.4164361 -0.074317984
0003b0 05 f7 63 3e 80 97 91 be cc 3d 24 3d 15 44 27 be
       0.22262199 -0.28435898 0.040097997 -0.16334565
0003c0 88 0e b0 bd f0 94 4d be fa 99 e4 ba 53 cc 75 3e
       -0.085965216 -0.20076346 -0.0017440908 0.24003725
0003d0 d1 f1 85 be b8 5f 0b 3f ee c9 b6 3e 74 b5 f9 3e
       -0.26161054 0.5444293 0.35700935 0.4877125
0003e0 35 46 db 3e a2 0e 99 3e d5 71 64 3e e9 8b f4 be
       0.42827 0.29893976 0.22309048 -0.47762993
0003f0 2f ab 37 be 62 ba 13 be 5b b9 f3 be a9 7e 26 3d
       -0.17936395 -0.14426568 -0.47602352 0.040648136

l3.bias f4 [18]
000000 5c 9f 14 3d 39 a7 f9 bd ba 07 03 bf a8 a3 bd be
       0.03628479 -0.12190098 -0.51183665 -0.37038922
000010 eb 34 b3 3d 50 c0 9f bd 63 38 11 bd 8e 0b d7 be
       0.08750328 -0.078003526 -0.035454165 -0.42001003
000020 07 88 31 be b5 cc 7c be 8b a8 0b 3b bb b1 b5 be
       -0.17337047 -0.24687465 0.0021310176 -0.3548716
000030 96 f5 be be 01 36 a3 3e fe 09 f1 bd 0d e0 99 be
       -0.37296742 0.3187714 -0.11769484 -0.3005375
000040 ea 54 e5 be f1 36 be be
       -0.44791347 -0.37151292
