data/result/d_490.pt (torch, 94638 bytes, 7 tensors)

D_attr_matrix.weight f4 [36, 5]
00000000: bfa3 843d 4dd7 e7be 2606 25be c0a9 a73d
00000010: ea4a 99bd f95b ccbe 7735 a5be db90 333e
00000020: 3734 ddbe 9557 dc3e b69f 633e 3d70 723b
00000030: dc35 d0bc 0b1c 8fbc b307 a93c 5612 afbd
00000040: f9a0 d3be a188 8e3e 71c6 0c3e f936 40be
00000050: b63c 623c b3ec 4abe f0a9 f4bb 9f6f ee3d
00000060: 969a dc3d 3135 4bbf feee 4bbf 5b2f 5e3e
00000070: 1149 0f3f 02ad 00bf 7f50 21ba b1ce efbd
00000080: 014b 80bc 56ca 093f 0135 403c bbb3 133f
00000090: e088 70be 966d 003f 078f 1abe 065e b6be
000000a0: 7c27 dfbe de3b 0f3e ca1e 0b3e 8eb6 85be
000000b0: 5ff3 113d df75 2fbe 9efd db3d 8a57 c5be
000000c0: d9d3 92bd a2b0 213e 0971 353e 35f0 ec3d
000000d0: 5ebc 8b3d 034e fb3c 9343 5a3d 8881 243b
000000e0: 276e c53e b92f e9bd 59fb 87be 7c43 9abe
000000f0: 86b6 dbbd 7972 033d 0e86 87bd 5367 4fbc
00000100: 1e6f dabc 6be4 67be bca1 d63e 480f ce3d
00000110: cd44 3e3f 280e 533f fbae 0a3e 0b49 803e
00000120: 1be6 80bc f962 f5bb 01e7 cebe e53c 0fbe
00000130: 503f 793e 2c6d 333e 8a05 003c fa14 8c3e
00000140: df6c ea3b 0a1a f33c c156 2fbc 0344 313e
00000150: fdca 89bb a89d 58be 59b9 2dbf bc32 ac3e
00000160: 98a8 c63e e7c8 403d beec 533d 01a0 0d3b
00000170: e51d 83bc 6b5e 12bd 78df b5bd 8f8d f1be
00000180: 1e97 57bd 1079 933e 2a2a 9f3e 054f 0dbf
00000190: 7a81 fbbc 993a d8bc 0400 2abb 2de1 423d
000001a0: e141 83be b346 b93e f2b6 e03e 07f4 103f
000001b0: d103 4c3d fa32 643e 4cf2 5ebe 67f9 023d
000001c0: c068 ac3c c432 0abb 72e1 c1bc 164b c3bb
000001d0: e141 1e3f 6599 11bf b5cb fd3c 5e5e 2c3f
000001e0: edcd 0ebe 881c d3bd c313 0b3d 26c9 c5be
000001f0: 0364 bdbc ecf0 be3d 03c6 22bc b682 17bf
00000200: 0f2a 37be a82e b83e a1ac 2f3d 32f5 5a3d
00000210: eea1 22be f1e7 59bd 6963 6bbd 171c 7cbe
00000220: b5ba c6be b887 20bd 779c 023f bbce b43e
00000230: c828 9d3d a291 3a3d 784d ccba 6f8a 64bd
00000240: 2ac6 893d e1bb febe 7106 8cbe 11fb 9fbb
00000250: 72bb d03e cb37 d6be 39aa 08be 7561 123e
00000260: 9abb f63d bb94 9d3d a466 22bd f999 163f
00000270: b884 153e 4270 02bf e291 b3be ea5e 3e3e
00000280: 0028 bf3a ce1a ccbd 3239 213e af9a 773d
00000290: 62ab c9bc b067 12bc 913a 59be 46a9 02bf
000002a0: 6f4c d1bd ce62 203e 31bf b03c 6ec2 863e
000002b0: 0648 a9bc 9c5d 66be 9763 3bbe 1086 5ebf
000002c0: 25a9 4c3e ae71 4d3f a6a9 8ebe bd48 98be
0.064765446 -0.4528145 -0.16115627 0.08186674 -0.07484992 -0.3991392 -0.32267353 0.17535727
-0.432039 0.4303557 0.22228894 0.0036993169 -0.025416307 -0.017469427 0.020633554 -0.08548419
-0.4133375 0.27838615 0.13747574 -0.1877097 0.01380842 -0.19816856 -0.007466547 0.11642384
0.107716724 -0.7937804 -0.7966155 0.21697752 0.55970865 -0.5026399 -0.00061536575 -0.11709345
-0.015660765 0.53824365 0.011731387 0.5769612 -0.23489714 0.50167215 -0.15093623 -0.3561861
-0.43584812 0.13987681 0.13585964 -0.2611584 0.035632487 -0.17134808 0.10741733 -0.3854335
-0.07169313 0.15790036 0.177189 0.11569253 0.068230376 0.030676847 0.0532871 0.002510162
0.38560602 -0.113860555 -0.2655895 -0.30129611 -0.10728173 0.03209159 -0.06617366 -0.012658912
-0.026664313 -0.22645728 0.4192027 0.100615084 0.7432373 0.82443476 0.13543312 0.25055727
-0.015734723 -0.007488605 -0.40410617 -0.13988073 0.24340558 0.17522115 0.007813821 0.27359754
0.0071540917 0.029675502 -0.010701836 0.173111 -0.0042051063 -0.21153891 -0.67860943 0.33632457
0.38800502 0.047066595 0.051739447 0.0021610262 -0.016005466 -0.035734575 -0.08880514 -0.47178313
-0.05263435 0.288033 0.31086856 -0.551987 -0.030701388 -0.026395129 -0.002593995 0.047578026
-0.256362 0.36186752 0.43889576 0.56622356 0.049808327 0.22285071 -0.21772116 0.03197613
0.021046042 -0.0021087388 -0.023667071 -0.0059598787 0.61819273 -0.56874686 0.030980924 0.6733149
-0.13945742 -0.10308176 0.033954393 -0.38630027 -0.023118978 0.09323296 -0.009934905 -0.59183824
-0.17887138 0.35973096 0.04288924 0.053456493 -0.15882084 -0.053199712 -0.05746785 -0.2462009
-0.3881432 -0.03919193 0.51019996 0.35313973 0.07673794 0.045549043 -0.0015587052 -0.055796083
0.0672725 -0.49752715 -0.27348664 -0.0048822244 0.4076801 -0.41839442 -0.13346185 0.1429499
0.12047501 0.07694384 -0.039648667 0.58828694 0.1460141 -0.5095254 -0.35072237 0.18590894
0.0014584064 -0.0996605 0.15744475 0.060450252 -0.024617855 -0.008935854 -0.21213748 -0.5103954
-0.10219657 0.15662691 0.021575542 0.26320213 -0.020664226 -0.22496647 -0.1829971 -0.86923313
0.19986399 0.80251586 -0.27863806 -0.29742995

l1.weight f4 [100, 108]
00000000: b477 02bd 22fb 0c3e b00d a7bc 5a79 023e
00000010: 798d f73d 34cc eabd e9a3 ba3c 8035 913d
00000020: 7875 b93d 2028 cbbc a675 0dbe 1b4e 3dbd
00000030: e64f a8bd 4a8b ab3e 51bc 0e3e c70c 09be
00000040: 171e be3d b2f4 243e 13f9 a23c d8cf 0d3d
00000050: a4a8 1cbd 7fab a6b9 505c 53bc 514b f83c
00000060: 0fdb 5dbd 8ab0 c6bd e873 80bd 8f32 a93c
00000070: a320 d73d 0ae9 573e 9aa6 773e 1f1b 7ebd
00000080: 10ea 543e 18d0 dc3d 1585 9f3c de31 a13d
00000090: 232f 2ebe e018 dd3d 76fc 923c 4529 0e3e
000000a0: 2c61 43bd 7faa 54bc 8fa3 903c 2600 673c
000000b0: ad8b 05be bacd 26be da7c 633d f12c 453e
000000c0: 87ca 6bbd 2eba b03d 479a 08be 62a7 8ebd
000000d0: 6f66 63bd 435e e8bd 95d3 0fbc ae5b 793e
000000e0: dccb c03d 746c de3c c634 583d 4d23 2fbd
000000f0: 4a06 323e f0be d43d 3aba 52be b30d 6b3d
00000100: 5043 33ba 0a95 16be 1a22 5bbe 7054 3c3d
00000110: bf55 66bc 60cf 0d3e 92ee bcbc bbb3 0abe
00000120: 5887 b43d 4c89 87bc b6e0 74bd 2466 01be
00000130: 14b6 4dbe 0f36 89be c04d 29bd d204 d93b
00000140: 1627 233e 04b1 40be f7cb 083d f807 f6bd
00000150: 7bbf db3d 9ceb 07be 7454 04bd fb95 8cbd
00000160: b95c 20bc 95c3 843d c073 903e 65bd e9bc
00000170: 56a0 9d3e 3f00 cd3e 42fa 773e 4a47 f03e
00000180: 0426 7e3e 85b4 903e b602 be3e 36cd f93e
00000190: 92b5 893e bb87 423e be8d 293f 1efc b73e
000001a0: 47fd d13e 813e 973e 2d0c 003f 881b 823e
000001b0: b908 033f f1a5 40be 3ead 95be 7633 cf3e
000001c0: 85f0 35bf 635d c8bd 600b 96bf 52e2 903e
000001d0: f7a7 b93e 24d0 59be 529e cabe 2743 79be
000001e0: 80de 103e 7ab5 3abb 7a00 0e3d b3e6 e4be
000001f0: 186c 86bd 7f3f e0be 8202 5f3e b2f2 053f
00000200: d27d 8abe 3d5e 8dbd f54f ce3d 57ef e7bd
00000210: 7c98 253d 2d85 643e ff7a 31be ac74 9c3e
00000220: 1b23 8c3e f7c1 933e faba fbbc 24ce 2a3c
00000230: 1da3 48be 008d abbe 999b c0be 4ada c73e
00000240: 921b dfbd 3f7e 2bbe 49f2 85be 5b21 d9be
00000250: ddfe 3ebe daba 6fbe 2860 493e ae00 443e
00000260: 9801 f6bd 0a0c 243f 9f0b 5b3e 022d 80bd
00000270: 39f0 adbe 1892 b9bc f096 843d fde0 b33d
00000280: 66a6 343f b986 2c3d 4639 73bd 5db4 febd
00000290: 498b 8d3d d218 1a3e 9e41 17be 2fb1 2cbe
000002a0: 4ee5 dbbd 6e59 04be 03f7 3b3f 7441 06be
000002b0: 6ac1 32bf 8748 a3be 5865 3fbf cd90 103e
000002c0: 5d95 8a3f 35ff 893e c84a 7a3e ee8c 753e
000002d0: ac1c 1bbe fe56 26be b3fe 5f3e 27f7 c23e
000002e0: f00d 3fbd 285b 16bf 341a c7be 87bc 773e
000002f0: ea15 933d 811f b5bd b887 563f 70ba 433e
00000300: 219f 8dbe 32f3 15bf 7722 273e 7831 093f
00000310: 4846 ffbd 3c11 6dbe a7c6 2ebe 8637 17be
00000320: 8934 9dbe 8e15 963d a0ea a3bd ae8e a3be
00000330: b95c 2dbe 7e5a 37be 991f 1c3e 8106 45be
00000340: 2bff cebd de55 263e 5309 d5be 5b6b 053d
00000350: 5fd4 db3c 863e 253e 2344 81bc d3db c1bd
00000360: 04e1 1f3e 737c 2abd 2cf8 48be 46aa 973d
00000370: 5dc6 16bd 10c1 20be db30 793d abfc 693e
00000380: e815 7b3d b222 5f3c 692c 1ebe 27ec 2fbd
00000390: 57b1 95bc 1fe7 bf3d 3c21 ffbc 80c1 25be
000003a0: b511 20be b3f8 65bd 5b32 3dbd a83d c73e
000003b0: 24a6 cf3b 1745 b2bc 68e7 293e fa32 8c3c
000003c0: 8547 873c 62a6 923d d427 a73d ba3d 4abe
000003d0: f80e aabd 849a 813d 79e0 7f3b fd32 5dbc
000003e0: bfe7 1b3e fba2 0f3e 1d56 c33d d38b 33be
000003f0: f1c1 47bd 4e5a 943d 2589 bb3d 0063 a03c
-0.03185244 0.13767675 -0.020392269 0.12741604 0.12087531 -0.1146473 0.022783237 0.070902824
0.090556085 -0.024799407 -0.1381441 -0.046217065 -0.082183644 0.33504707 0.13939025 -0.1338378
0.09283083 0.16108969 0.019894158 0.034622043 -0.038246766 -0.00031789762 -0.012900427 0.030309351
-0.05416399 -0.09701641 -0.06272107 0.020653991 0.10504272 0.21084991 0.24184647 -0.062037583
0.20792413 0.10781878 0.019472638 0.078708395 -0.17010169 0.1079576 0.017942648 0.1388293
-0.047700092 -0.012980103 0.017656116 0.0140991565 -0.13041563 -0.16289416 0.05553899 0.19255425
-0.057566192 0.08629261 -0.13340102 -0.069655195 -0.05551761 -0.11346104 -0.008778472 0.2435138
0.09413883 0.027151324 0.052784704 -0.042758275 0.17385212 0.10387981 -0.20578852 0.05738611
-0.00068383384 -0.14705291 -0.21399727 0.045978963 -0.014058529 0.13848639 -0.023062978 -0.13545124
0.08814877 -0.01654496 -0.059784614 -0.1263662 -0.20088989 -0.26799056 -0.041333914 0.006622889
0.15932879 -0.18817526 0.03339764 -0.12013239 0.107298814 -0.13273472 -0.032307103 -0.06864544
-0.009787732 0.06482617 0.2821331 -0.028532693 0.3078639 0.4003925 0.2421656 0.4692939
0.2481919 0.28262725 0.37111443 0.48789376 0.2689634 0.1899709 0.66231906 0.35934538
0.41013548 0.29539874 0.5001858 0.2541163 0.51185185 -0.18813302 -0.29233736 0.4046895
-0.7107013 -0.09783437 -1.1722221 0.2829767 0.3626096 -0.21270806 -0.39573914 -0.24342023
0.14147377 -0.0028489516 0.034668423 -0.4470726 -0.06563586 -0.43798444 0.217783 0.5232345
-0.27049118 -0.0690274 0.10073844 -0.11324947 0.040428624 0.22316428 -0.17332076 0.30557764
0.27370533 0.2885892 -0.030728806 0.010425124 -0.19593473 -0.33506012 -0.37618712 0.3903373
-0.108939305 -0.16747378 -0.2616141 -0.4240826 -0.1865191 -0.23411122 0.19665587 0.19140884
-0.12012023 0.6408087 0.21391152 -0.062585846 -0.33972338 -0.02265267 0.064741015 0.087831475
0.70566404 0.04212067 -0.059380792 -0.12436745 0.06911332 0.1504853 -0.14771125 -0.16864465
-0.10737096 -0.1292474 0.73423785 -0.13110906 -0.69826376 -0.3189127 -0.74764013 0.14117737
1.0826832 0.2695252 0.2444259 0.23979542 -0.15147656 -0.16244122 0.21874504 0.38079187
-0.04664415 -0.58732843 -0.3888718 0.24193011 0.07181914 -0.088438995 0.8380084 0.19114089
-0.27660468 -0.5857421 0.16321741 0.5359111 -0.12464577 -0.23151106 -0.17067967 -0.14767274
-0.30704144 0.0732833 -0.080037355 -0.31944793 -0.16929902 -0.17905614 0.15246429 -0.19240762
-0.10107263 0.16243693 -0.41608676 0.032573085 0.026834665 0.16137132 -0.01577956 -0.09465756
0.1561318 -0.04162259 -0.1962592 0.07405524 -0.036810268 -0.15698647 0.060837608 0.22850291
0.06130019 0.013619112 -0.15446629 -0.04294982 -0.018273039 0.09370255 -0.031143777 -0.16187096
-0.15631755 -0.05614538 -0.0461906 0.38914227 0.006336944 -0.02176146 0.1659218 0.017114151
0.016513595 0.07160641 0.081618935 -0.1975011 -0.08303636 0.063283 0.0039043708 -0.013500926
0.15225123 0.14027016 0.09537909 -0.17533807 -0.04876894 0.07243787 0.091570176 0.019578457

l1.bias f4 [100]
00000000: c2f4 d7bd fb6f 973c 6840 8b3e 4483 04be
00000010: 19b7 40bd 7b6e 09be 3024 3d3d f6cf f23d
00000020: b5a2 c5bd b410 1cbe aa34 5a3e 2cc8 1abe
00000030: 636c 9f3d 87cd 873e b9fb cb3c c3a2 c0bd
00000040: 05b7 973d be84 713d c5de 3abe ef4d 303e
00000050: f646 83be 0ec3 5fbe 7764 dabd 454e 923e
00000060: 3446 093d 728f eabc 99eb 3dbe f7d4 85bd
00000070: 7017 bd3d 08b6 383e c657 d7bc d61c 33be
00000080: 334d 30be 389f 60bc 15a2 95be 2ad0 8e3d
00000090: cd24 72be 2885 f83d 34e7 aabd 6d89 01be
000000a0: ae8b c73c 9042 383e 9083 993d 4924 a33e
000000b0: d87b be3d b9ac 983d e8ab 1c3d 6d74 183e
000000c0: b815 3a3d 4e51 febd 7a19 babd e5d0 86bd
000000d0: 2da0 06ba 997e eebd ca5a 56ba c7f0 893e
000000e0: 73c7 913c 7f9f a43d 0539 1a3d 7073 4a3e
000000f0: 70bb 8d3e e987 11bd 3b73 98bd 7ad0 cfbd
00000100: 0b44 2f3e 2ea3 45be 6e28 84bd 38d8 c63e
00000110: 7fd7 acbd 67f7 3a3e ae06 d1bb 1c45 a93d
00000120: c657 0fbe 4fd9 c0bd 2f60 493e 99fd fd3c
00000130: 3b3d 153c a7d7 013e 1615 3dbe 5826 873e
00000140: c836 70be d3e9 bbbd 6aad b53d 6f85 02be
00000150: bd95 50bc 9c5a 933e 2a6b 983d 3c0f 44bc
00000160: 86b5 883d c74b 6b3e 9059 403e acc8 573e
00000170: e2d9 c7bc bb62 c1bc 1919 4dbe 211e ffbb
00000180: 4796 603e c533 c6bc 0f92 d0bd 1f71 9c3c
-0.10544731 0.018486014 0.27197576 -0.12940699 -0.047049616 -0.13421051 0.04617709 0.11856072
-0.096501745 -0.15240747 0.21309152 -0.15115422 0.07784345 0.26523992 0.024900304 -0.09406044
0.07407955 0.058964483 -0.18249042 0.1721723 -0.25640076 -0.21851751 -0.106636934 0.2857534
0.033514217 -0.028632853 -0.18546905 -0.065347604 0.09232986 0.1803819 -0.02628697 -0.17491469
-0.17216949 -0.013709836 -0.2922522 0.06973298 -0.23646851 0.121347725 -0.0834488 -0.1265008
0.024358597 0.17994142 0.07495797 0.3186362 0.09300965 0.07454819 0.03824988 0.14888163
0.04543087 -0.124178514 -0.090868905 -0.06582812 -0.00051355624 -0.1164524 -0.0008176981 0.2694151
0.0177953 0.08038234 0.037652034 0.19770598 0.27682066 -0.035530005 -0.074438535 -0.101471856
0.171158 -0.1930053 -0.06453024 0.38836837 -0.0843954 0.18258439 -0.00637897 0.08265135
-0.13998327 -0.09416448 0.19665597 0.031004714 0.009108837 0.12679921 -0.18465075 0.2639644
-0.23458397 -0.09175458 0.08870967 -0.12746213 -0.012731013 0.28780067 0.07442315 -0.011966523
0.06675248 0.22978126 0.18784165 0.21072644 -0.024395887 -0.023606649 -0.20029105 -0.007785574
0.21932326 -0.024194608 -0.101841085 0.01909691

l2.weight f4 [100, 100]
00000000: aa9e 5b3e 772b d4be fee6 79be 46d8 01bd
00000010: 7af0 8d3e bdae 09be 1013 28bd e909 713d
00000020: 1c46 1abe cef5 b5bd b7e8 993d f79f f03e
00000030: bd1a 8ebd 69a5 1cbd 58be 803e ed71 883e
00000040: d2f6 fb3c 3963 5ebe 88ad 053e e56f 42be
00000050: 2e96 e03e 465f 9ebd 291d 4c3e 395d 20be
00000060: 1911 b43e a8ea e33d 5bb6 7ebd 743a 0e3e
00000070: 5ece 85bd 7dbf a1be 4f31 593d a2a9 2bbe
00000080: 89ae cf3e 9fd1 0dbe fcd6 d13d 695c 9ebd
00000090: 7a94 433d c8c3 77bd dd8a 893e 2183 93bd
000000a0: d42e 9fbc 9e3e 24be 22f2 97be 04a1 b7be
000000b0: 5cf9 f7bc 985a a63d 28be 543e 5927 d03d
000000c0: d658 953e 7ba5 cfbd d154 2a3e 08bb bbbc
000000d0: 3c66 bfbc 8e0b 75bd 3fe0 5fbe 4e93 2a3e
000000e0: b4fb bb3e 2be2 a6be 4215 4dbe ed6c 4b3d
000000f0: 9527 573e cb2b 2fbe e2f7 06be 9566 84be
00000100: 3302 99bd 1ef8 273e 4737 e3be 7cd6 89be
00000110: db0a 3f3e 385f 76bd 51ee d2be 6d66 16be
00000120: 7135 e03d 2053 a2bc 7d9d 00be d0c5 10be
00000130: bcab 913e 8c5b 1bbf f128 62bd 0d6a dcbe
00000140: 9a55 003e e6a2 963d 6820 303e 7245 0d3e
00000150: 67bd 88bd 88a8 393e 234b 6f3e 5c01 3fbc
00000160: d4a6 873e fd6c 42be 154f a33e 9f6e 7fbe
00000170: 12a4 d7bd 3614 7a3d 0d6e adbd 930b 503e
00000180: d26b 29be 9242 d43e 804d ccbd 90b1 893e
00000190: bf72 01be 5c59 1c3f 38d8 8c3e 9e73 9cbe
000001a0: 2260 abbe bcf7 933d fc72 1b3e 52c3 d63d
000001b0: ab29 e2bd 704f 2f3e 4340 633d dfb2 33bd
000001c0: 6c9b a3bc 713f 5f3e aa82 aebd 86e9 84be
000001d0: 90b0 5abd 048f d93d db60 8dbe cc5f 463e
000001e0: 00e5 45be 1908 7e3e 9f80 483d 1721 103e
000001f0: fa00 ccbd 4d43 10be bcb2 a03e 0015 36be
00000200: d064 763e 1e6b 0e3e c242 103e 8064 1a3d
00000210: c93c e1be 9e7a a43e 1c34 e9bd dae2 583e
00000220: 8b29 a03d 1949 723c c685 f1bd 1ecf 3f3e
00000230: b4cf 7fbe 07f9 843e 0f5a f13d 5c37 36be
00000240: d0b9 b0bd 5b16 503d 290e 8f3d 6d91 b93c
00000250: b383 6cbe ea4b e0be cfc1 afbc c767 12be
00000260: 2c91 bebd bee5 263d fc12 163e 03ff cbbc
00000270: 1e01 8a3d 60ea d53e 67c3 f93d 58a3 9dbd
00000280: 37ec 873d e90a 39bd 04ac 473e 6463 d1bc
00000290: 5742 f93e fa29 543d 3e1c 173f cd6f b53e
000002a0: 70cc 68bd dc04 863c 0be7 393e 4b7f 79be
000002b0: 3d29 30bf 0249 51be 7efb 353c ff93 9c3c
000002c0: b678 30be feee d9be d10c 233e 4e24 9f3e
000002d0: 0ee2 6ebe dbc0 88be e440 6e3d 90e1 233d
000002e0: b5ff 0bbe 61c7 5a3d 32f0 90be 3a94 b73d
000002f0: e66d 5cbb 91ac ff3e 2199 7fbd a766 293e
00000300: 9ce7 d63d e965 f13d 40ba f63c 23e2 b6bc
00000310: fbed 9bbd 807e 88be c4c4 f1bc b23f 8e3d
00000320: d0a9 2e3f 8a7d d7bd 0892 0bbf 76fd b03d
00000330: 9acb 85be e401 f73e 9233 22bf aa86 2bbf
00000340: 2e47 9a3e b08f 2a3f b868 8fbf feb9 853d
00000350: 3014 b6be 02f4 5bbf 8661 55bf b8ac de3d
00000360: 9419 6bbf a437 8dbf efb3 8bbd 654b 16be
00000370: 4c0a bdbd aa3c e73e 6cc6 a53e 4ebb 4e3e
00000380: 1257 92bf 4ffd 893e 1164 293e abe0 c13d
00000390: 8951 373e 4c97 f0bf 0b3f 953f f637 843e
000003a0: 3cc4 893f 9c05 f43e 6ab9 a43e db67 c4be
000003b0: 6233 193d de5c c1bd bec9 343e c165 173e
000003c0: 5d1c 953e 8848 c4bb 4052 f23d fb96 4fbf
000003d0: 0a5a 03be ea26 b43f eaa4 3ebf fc25 2fbe
000003e0: 0bae 823f 69c3 1c3f 73e7 afbe b946 5dbd
000003f0: 993e 4d3f 675e 6bbf 145d 2c3f f53f be3e
0.21447244 -0.4143941 -0.24404523 -0.031700395 0.27722532 -0.13445564 -0.041033804 0.05884734
-0.15065807 -0.08884774 0.0751509 0.46997043 -0.06938694 -0.038243685 0.2514522 0.26649418
0.030757342 -0.21717538 0.13054478 -0.18987997 0.43864578 -0.07733016 0.19932999 -0.15660562
0.35169294 0.111287415 -0.062185626 0.13889486 -0.06533502 -0.31591406 0.05302554 -0.16763929
0.40562847 -0.13849495 0.10246083 -0.077324696 0.04774902 -0.060489446 0.26863757 -0.07202745
-0.01943151 -0.16039512 -0.2967692 -0.35865033 -0.030270271 0.08122748 0.20775664 0.10163755
0.2916934 -0.10138985 0.16633917 -0.022916332 -0.023364179 -0.059825473 -0.21862887 0.16657755
0.36715472 -0.32594427 -0.2002764 0.049664427 0.21011193 -0.1710655 -0.13180497 -0.25859514
-0.074711226 0.16403243 -0.4437811 -0.2692145 0.18656485 -0.0601494 -0.41197446 -0.1468751
0.10947693 -0.019815028 -0.12560077 -0.1413796 0.28451335 -0.60686564 -0.055214826 -0.4304966
0.12532654 0.07355289 0.17199862 0.13796023 -0.06676751 0.18130696 0.23368506 -0.011658039
0.26494467 -0.18986888 0.31896272 -0.24944542 -0.10529341 0.06105443 -0.08468256 0.20316915
-0.16545036 0.4145704 -0.099757195 0.26893282 -0.12641428 0.6107385 0.27508712 -0.3055696
-0.3347178 0.07224986 0.15180582 0.10486473 -0.11043104 0.17120147 0.055481207 -0.043871757
-0.019971572 0.21801545 -0.08521016 -0.25959414 -0.05339104 0.10622981 -0.27612957 0.19372481
-0.19325638 0.24807777 0.048950788 0.14075123 -0.09961124 -0.14088173 0.31386364 -0.17781448
0.24061894 0.1390805 0.14087966 0.0376935 -0.43991688 0.321248 -0.11386892 0.21180287
0.07820424 0.014787936 -0.117930934 0.18731353 -0.24981576 0.25971243 0.117847554 -0.17794555
-0.08629191 0.05080257 0.06985123 0.022652352 -0.23097114 -0.43807918 -0.02145472 -0.142974
-0.09305033 0.040746443 0.1465568 -0.024901873 0.06738494 0.41780376 0.12195473 -0.07697171
0.06636851 -0.04517642 0.19499213 -0.025560088 0.48683426 0.051797844 0.5902747 0.3543686
-0.05683559 0.016359739 0.18154542 -0.24364965 -0.68812925 -0.20438007 0.011107324 0.019113539
-0.17233548 -0.4256515 0.15922858 0.31082386 -0.2332842 -0.26709637 0.058167353 0.040010035
-0.13671763 0.0534128 -0.28308254 0.08963819 -0.003363484 0.49936345 -0.062401894 0.16543065
0.10493395 0.11787016 0.030118108 -0.022324627 -0.076137505 -0.26659012 -0.02951277 0.06945743
0.68227863 -0.105219916 -0.545197 0.08642094 -0.26131898 0.4824363 -0.6335994 -0.67002356
0.3013243 0.666255 -1.1203833 0.06529616 -0.35562277 -0.859192 -0.83351934 0.10872787
-0.91835904 -1.1032605 -0.06821429 -0.14677198 -0.092304796 0.4516347 0.32377946 0.20188639
-1.1432822 0.26951072 0.16542079 0.0946668 0.17902197 -1.8796172 1.1659864 0.25823945
1.0763011 0.4766053 0.3217271 -0.38360485 0.037402518 -0.09441541 0.17655084 0.1478491
0.29123202 -0.0059900917 0.11832094 -0.8108975 -0.12827316 1.4074376 -0.7447039 -0.17104334
1.0209364 0.6123567 -0.3435627 -0.054022525 0.8017364 -0.9194092 0.67329526 0.3715817

l2.bias f4 [100]
00000000: ec38 b9be 09d6 e13e e1a9 063e a0a1 87be
00000010: 6ca6 50bc 9bb5 123e d0bb a3bd e538 1d3e
00000020: 28cf 993d dc8c f43d 36a5 b83d 3fd6 e23e
00000030: 0534 ec3e 6cb7 a0be c0ff a43e 4916 e3bd
00000040: 16f8 fc3e 4cac 323e 62a7 6abe aeaa 5dbd
00000050: cd28 553e ff28 bc3e a79d 9c3e dd3b 2a3e
00000060: 400a 203e dc47 8fbe 23ac 3f3e a971 cebe
00000070: 38ec 483d 2fdc 57bd c550 f93d 4964 55be
00000080: cddf b93e a13e 7a3d 926d a4bd b083 38be
00000090: 34a9 ccbd 2bde 0b3e 4c7c 07bc ae3a 06bd
000000a0: 949d cdbe c2a2 e33d 91dc d7bd 33b4 83be
000000b0: 8d9e 253e 054e aabd b5d0 a03e dd3d 863d
000000c0: a6eb 1bbe ae88 3cbe 16e8 d0be 15e7 1b3e
000000d0: 4e26 92be 9e9b d13d 9e39 603e a6cb 8cbd
000000e0: 04be ca3e 3133 c6be 091f da3e 5c4f ae3e
000000f0: 384c 083e 11c3 71bd d590 e1bc f545 cbbd
00000100: 8e76 b5be 1e21 61be 8491 353e 320a 20be
00000110: d5ac 0a3d c159 f1bc 790f bbbd 185c ad3b
00000120: 0692 34bd e19b 4ebe 1279 9a3d a97a 4b3d
00000130: 3a85 da3e 6c85 dfbd 9482 51be fbd7 0abe
00000140: 1b2f 2cbe 79c3 db3c 7ff4 ab3d 2b72 b23d
00000150: e516 08be a14a f6be 370a 4e3e 0a4e 593e
00000160: a5f3 06be 6204 82be 61ff 27be ba54 e4bd
00000170: 8d3d 363e dbd6 1d3d 8217 6a3e 0507 a13e
00000180: 725e fdbd ea72 633e 7696 eb3e 8c8e 58be
-0.3617624 0.44108608 0.13150741 -0.26490498 -0.012734991 0.1432709 -0.07994807 0.15353735
0.07510215 0.11940929 0.090158865 0.44304082 0.46133438 -0.3138994 0.32226372 -0.11088235
0.49408025 0.17448539 -0.22915414 -0.05411785 0.20816346 0.36750028 0.3058903 0.16624399
0.1562891 -0.27984512 0.18718009 -0.4032109 0.0490534 -0.052700218 0.12173609 -0.20839037
0.3630356 0.061094884 -0.080287114 -0.18018985 -0.099932104 0.13658969 -0.008269381 -0.032770805
-0.40159285 0.11115028 -0.105401166 -0.2572342 0.16173764 -0.08315662 0.3140923 0.06554768
-0.15226611 -0.18411514 -0.40802068 0.1522487 -0.2854485 0.1023476 0.21896979 -0.0687478
0.39598095 -0.3871093 0.42601803 0.3404492 0.13310325 -0.05902392 -0.027534882 -0.099254526
-0.35442013 -0.2198529 0.17731291 -0.15628889 0.03385623 -0.029461743 -0.091338105 0.0052905194
-0.04408457 -0.2017665 0.075426236 0.049677525 0.4267977 -0.1091412 -0.20459968 -0.13558953
-0.16814844 0.026826607 0.08396243 0.08713182 -0.13289984 -0.48103812 0.20121084 0.21221176
-0.1317888 -0.2539397 -0.16406013 -0.11148973 0.17796917 0.03853498 0.2286053 0.31450668
-0.1237153 0.22211805 0.4601323 -0.21148127

l3.weight f4 [18, 100]
00000000: 1ad7 a1bd 53dd 91be c76c 39bf f7e9 803e
00000010: e3eb fb3e 8f17 e9be 9126 1c3e 5ff1 53be
00000020: 01a3 c4bc 8d14 aebe 1d2f 9fbd 3583 bcbe
00000030: 4954 4dbe bd36 133f 4fbd eabd 5b4b 96bd
00000040: fc88 6dbe f98a f5bd 66ba 11bd aabd 403f
00000050: 91a4 98be f946 e6bd 17ad 04be 5347 e6bd
00000060: 67b1 9fbe a3ee 903e c034 06bf 19f5 d23e
00000070: cbdd 96be 85eb e13e 8a64 a7be 98f9 803e
00000080: c4a8 75be 8e5d 033f a500 cd3e eeed 5c3e
00000090: 8382 583e 604c d4bd a0ec cf3d 149b 8fbe
000000a0: 27ac c13e 5301 a5be 896b b53d 789f 0c3e
000000b0: 6971 a4be eee6 dd3e d1ea ca3e 6159 a83e
000000c0: 4699 fe3e 1b38 653e 7948 613e 1073 b6be
000000d0: 4d0b 873e 037a 1bbf 13c3 f7be af53 9b3e
000000e0: 2f61 74be d8d7 c83d d501 79be 00cd 01be
000000f0: b87b f83d 2bea 10bf 463e fd3e 062f 733e
00000100: f344 c63e 63af f13e d1e4 bebe 0209 593e
00000110: 2c4f 02bf 3e82 fabe 530b a33d ecf2 21be
00000120: 970f ab3d 5eff 083e 2b2b 88be 3ae5 e9bd
00000130: cee6 36be 9454 543e 8c6b a5be a207 853e
00000140: 65d0 023f 2c6a 56bd 346a 02bf 125a d4be
00000150: 3d1e 293e 17f5 423e 0e39 0dbe b657 f5be
00000160: 5081 553d b75d 0a3e 78ed b23a f5eb f43d
00000170: 4a9d 623d 00bb 52be a136 64be 10f3 16be
00000180: dfdb 923d 7cb6 a73e d137 97bd 60b1 ab3e
00000190: 67df dd3d e1ac c43d a5b8 1bbf b681 853d
000001a0: 110c 223f dbb3 99be 597e ad3e 3e17 3fbd
000001b0: 3fdc 9dbe f072 fdbe 8e54 c43d f04a 4cbe
000001c0: 3448 c6bd 7859 dc3e 7389 b1be 365b cb3d
000001d0: c54c 9ebe 007d a3be 2e35 713d 0acf dc3e
000001e0: 3db0 8bbe e62b 9bbe c8cb babe e0df e1bd
000001f0: 13f4 abbe 0855 573d 6bd2 19bf 5a00 c03e
00000200: 38c8 89bd cc64 c43e e314 00bf d3b7 823e
00000210: 24d9 eabd b160 053f 9c06 753e 37e4 f43d
00000220: d4de 623e bd64 b63d b6b7 7d3e 0abf 01bf
00000230: 1540 683e 65aa c7be c699 6f3d eb27 433e
00000240: 056a 83be fd20 d03e 112f e33e 1038 883e
00000250: af37 1b3f 3d0a 9f3e 9132 f53e 77bd d9be
00000260: a3ce d13d 7a11 7dbe 14ca 3bbf c0eb 3e3e
00000270: 1dfe 48be c20b ae3e 198d 86be 78c1 d6be
00000280: d14c 563e c5ca 24bf 7261 6b3e b7c4 ae3d
00000290: 7458 a13e abd4 f63e e8a4 55be 86d7 d13e
000002a0: aed4 e9be ef0a cdbe 9b33 5c3e fba4 eabd
000002b0: a286 c4bd 8dc2 a33e 3b20 30be 31e3 90be
000002c0: d0cd c9bd 1c85 993e 112d a5be 0e6e 473e
000002d0: 85ad f43e 9934 d7be 1f69 9a3c e117 bebe
000002e0: 4969 5f3d 0137 b13e 81f3 74be 2308 22be
000002f0: ea63 473e 2fe4 963e 55e0 02be f941 613c
00000300: 039b 4cbe 23a1 7bbe c2d4 dabd 5b0e ffbd
00000310: a1cf 203c f377 993e 0c3f 50be 9902 ac3e
00000320: 27b7 963e 2c81 e7be c43a 28bf 1d2e c13d
00000330: fd9c 3c3e 95b4 dbbe b15c 8e3e 3f53 7cbe
00000340: a60c a5be 42d0 a2be 7141 1dbd c5ec 96bd
00000350: 3c4d b13d 3498 0a3f 3e90 6ebe 676d f7bc
00000360: 6416 1cbe ff34 5abe 146d 573e b294 423f
00000370: 34af 6bbe 7697 04be acce 82be 1a28 99be
00000380: 247a 0fbe 261e aebd 42ae 3abf 24a3 033f
00000390: 033a 2bbe 9d56 f23e 857d 9ebe 7ae4 563e
000003a0: deb1 70be 35fc c63e b93c da3e d936 8abd
000003b0: 9fb2 6d3e 2aee 91be b555 2f3d 1e90 2cbe
000003c0: da04 afbd 669a 63be 863d 87ba c4f1 773e
000003d0: 9c78 86be 8a53 0e3f 9f1b c03e cf79 003f
000003e0: 35d8 e63e 324e 993e 4a12 653e 057c febe
000003f0: 27ec 36be b23f 14be bfa3 f8be a4f1 463d
-0.079023555 -0.2848917 -0.72431606 0.251785 0.49203405 -0.45525786 0.15249087 -0.20697545
-0.024003508 -0.34000054 -0.07772658 -0.36818853 -0.20051683 0.575054 -0.11461889 -0.07338592
-0.23196787 -0.119893976 -0.035578154 0.75289404 -0.29813054 -0.11244006 -0.12956654 -0.11244073
-0.31190035 0.28307065 -0.5242424 0.4120262 -0.2946609 0.44125 -0.32693893 0.25190425
-0.2399016 0.5131463 0.40039554 0.21575138 0.21143536 -0.1036613 0.101525545 -0.28048003
0.37826654 -0.32227573 0.08858401 0.13732708 -0.32117775 0.43340248 0.39632276 0.3288069
0.49726313 0.22384684 0.22000302 -0.3563466 0.2637581 -0.6073305 -0.48391017 0.30337283
-0.23865198 0.09806794 -0.24317105 -0.12675858 0.121329725 -0.5660731 0.49461573 0.23748407
0.3872448 0.47204122 -0.37283948 0.21194842 -0.50902057 -0.48927492 0.07961144 -0.15815324
0.08352583 0.13378665 -0.26595435 -0.114206746 -0.17861483 0.20735389 -0.32308614 0.25982386
0.51099235 -0.052347347 -0.50943303 -0.41474968 0.16515441 0.19038807 -0.13791296 -0.4791848
0.052125275 0.13512312 0.0013651093 0.11959068 0.055325784 -0.20579147 -0.22286464 -0.14741158
0.07170843 0.32756412 -0.07383693 0.33533764 0.10833626 0.096032865 -0.6082862 0.06518881
0.6329966 -0.3002003 0.33885458 -0.046653025 -0.30832097 -0.49501753 0.0958644 -0.19950461
-0.096817404 0.4303701 -0.34675178 0.099295065 -0.30917946 -0.31931305 0.058888607 0.43126708
-0.27282897 -0.3030693 -0.36483598 -0.11029029 -0.3358465 0.052571326 -0.600867 0.37500268
-0.06727642 0.38358152 -0.5003187 0.25530872 -0.114671975 0.52100664 0.23928303 0.11957591
0.22155315 0.08905933 0.24777111 -0.5068213 0.22680695 -0.38997188 0.05849626 0.19058196
-0.25666824 0.40650168 0.44371846 0.26605272 0.6063184 0.310625 0.47890142 -0.42527363
0.10244491 -0.24713698 -0.7335522 0.18644619 -0.19628187 0.33993345 -0.26279524 -0.4194448
0.2092774 -0.643719 0.22986391 0.08533614 0.31512797 0.48209128 -0.20863688 0.40984744
-0.45670074 -0.40047404 0.21504061 -0.11457249 -0.09595992 0.31984368 -0.17199795 -0.28298333
-0.09853709 0.29984367 -0.32260945 0.19475576 0.47788635 -0.42032316 0.018848954 -0.37127593
0.054543767 0.34612277 -0.23921014 -0.15823416 0.19471708 0.29470965 -0.12780888 0.013748639
-0.19981007 -0.24573188 -0.106851116 -0.1245391 0.009815128 0.29974326 -0.2033655 0.33595732
0.2943661 -0.45215738 -0.6571467 0.094326235 0.18419261 -0.4291121 0.27805093 -0.24641131
-0.32236212 -0.31799513 -0.038392488 -0.07369379 0.086573094 0.54138494 -0.23297212 -0.030203534
-0.15242916 -0.21309279 0.21037704 0.7600814 -0.23016053 -0.12948403 -0.25548303 -0.29913408
-0.14011437 -0.08501844 -0.72922146 0.5142081 -0.16721348 0.47331706 -0.3095514 0.20985594
-0.23505351 0.38864294 0.42624453 -0.067487426 0.2321267 -0.28502017 0.042806346 -0.16851851
-0.08545847 -0.22226867 -0.0010318018 0.2421332 -0.26263893 0.5559622 0.37521073 0.50185865
0.45086828 0.2994247 0.22370258 -0.49703994 -0.17863522 -0.14477423 -0.48562428 0.04857029

l3.bias f4 [18]
00000000: a683 133d 84a5 fbbd a328 03bf b1ce bdbe
00000010: d0f5 b03d b9f4 a0bd be28 11bd a62f d7be
00000020: 1261 32be 12d5 7dbe adb4 b13a 2aee b5be
00000030: a353 bfbe 4bea a23e b819 f2bd df31 9abe
00000040: 80e3 e5be a068 bebe
0.03601422 -0.12287429 -0.5123388 -0.37071756 0.08640635 -0.07859177 -0.035439245 -0.4202854
-0.17419842 -0.24788311 0.0013557874 -0.35533267 -0.37368497 0.31819376 -0.11821312 -0.30116174
-0.4490013 -0.37189198
