data/result/d_520.pt (torch, 94638 bytes, 7 tensors)

D_attr_matrix.weight f4 [36, 5]
0	0x3d896924	0.06709507
1	0xbee693cb	-0.45034632
2	0xbe231a0f	-0.1592791
3	0x3da716ac	0.08158621
4	0xbd9d82f6	-0.076909944
5	0xbecde91a	-0.40216905
6	0xbea47931	-0.32123712
7	0x3e36214d	0.1778614
8	0xbedef171	-0.4354358
9	0x3ee045e4	0.43803322
10	0x3e62e39e	0.22157142
11	0x3b4befaa	0.0031118193
12	0xbcd100d2	-0.025513086
13	0xbc78bca9	-0.015181699
14	0x3cad3b83	0.021146541
15	0xbdafab32	-0.08577575
16	0xbed37f1a	-0.41307908
17	0x3e8cb225	0.27479663
18	0x3e17cf24	0.14825112
19	0xbe4df0db	-0.2011141
20	0x3c898949	0.016789095
21	0xbe497891	-0.19674899
22	0xbbf52c89	-0.0074821156
23	0x3de19da6	0.11016397
24	0x3dda3df0	0.10656345
25	0xbf4d88fd	-0.8028715
26	0xbf4b087e	-0.79309833
27	0x3e87f87a	0.2655676
28	0x3f0dc71b	0.55381936
29	0xbf0247c4	-0.50890756
30	0xbad2afe0	-0.0016074143
31	0xbdef92bf	-0.116979115
32	0xbc7ff868	-0.0156231895
33	0x3f09aec0	0.5378227
34	0x3c523c89	0.0128318155
35	0x3f14b10f	0.5808267
36	0xbe73c2a1	-0.23804714
37	0x3f028b6a	0.5099398
38	0xbe1a0c13	-0.15043668
39	0xbebc000e	-0.36718792
40	0xbede6251	-0.43434384
41	0x3e0d74cb	0.13814084
42	0x3e0e8433	0.13917617
43	0xbe850bb1	-0.25985482
44	0x3d101a33	0.035181236
45	0xbe2d7ff7	-0.16943346
46	0x3dd7b06e	0.10531698
47	0xbec7fabb	-0.3905848
48	0xbd8e9560	-0.06962085
49	0x3e22c987	0.15897189
50	0x3e33448c	0.17506617
51	0x3debbb17	0.11510294
52	0x3d871a3d	0.065968014
53	0x3cdfba42	0.027310494
54	0x3d46d039	0.04853842
55	0xbaad765c	-0.0013234126
56	0x3ec5049a	0.38480073
57	0xbded62c7	-0.11591106
58	0xbe83899a	-0.2569092
59	0xbe98622b	-0.29762396
60	0xbdd91a49	-0.106007166
61	0x3cf455ca	0.029826064
62	0xbd86f061	-0.065888174
63	0xbc72614b	-0.014793704
64	0xbcdb7eee	-0.026793923
65	0xbe6654c9	-0.2249328
66	0x3ed65b8e	0.41866726
67	0x3dd1b499	0.102395244
68	0x3f3e05f3	0.7422783
69	0x3f535b99	0.8256164
70	0x3e0fc224	0.14038903
71	0x3e7f13e6	0.24909934
72	0xbc9fcb5a	-0.019506145
73	0xbc8cea4c	-0.017201565
74	0xbece0db4	-0.4024483
75	0xbe11c570	-0.14235473
76	0x3e795ed6	0.24352583
77	0x3e31fa71	0.17380692
78	0x3c88ab95	0.01668338
79	0x3e8e02de	0.27736562
80	0x3c17eaaf	0.0092722615
81	0x3cf0dede	0.029403146
82	0xbc361f93	-0.011115926
83	0x3e309d53	0.17247514
84	0xbb343004	-0.002749444
85	0xbe6fcb47	-0.23417388
86	0xbf30bd05	-0.6903842
87	0x3eb79921	0.35859016
88	0x3ec3fdac	0.38279474
89	0x3d80473b	0.06263586
90	0x3d590b23	0.052989136
91	0x3ac6c36b	0.001516444
92	0xbc571a40	-0.013128817
93	0xbd085df5	-0.03329273
94	0xbdb2fdbc	-0.08739802
95	0xbeefd82b	-0.4684461
96	0xbd31228a	-0.04324583
97	0x3e877d81	0.2646294
98	0x3e9fe6fa	0.3123091
99	0xbf0bf302	-0.54667675
100	0xbcb2dfd7	-0.02183525
101	0xbcad2bae	-0.021138992
102	0xbad39a59	-0.0016144022
103	0x3d2e3034	0.04252644
104	0xbe826358	-0.25466418
105	0x3eaf54ff	0.34244534
106	0x3ecf9c87	0.40549108
107	0x3f0d9e8e	0.5532006
108	0x3d3a9dc6	0.04556062
109	0x3e6270d0	0.22113347
110	0xbe5ba2ad	-0.21448775
111	0x3ce8e548	0.028429642
112	0x3cbb1b2c	0.022840105
113	0x38ccce2b	9.76588e-05
114	0xbcd09861	-0.025463285
115	0xbad28c69	-0.0016063574
116	0x3f1d8ba7	0.6154122
117	0xbf1239e2	-0.5711957
118	0x3d178bbd	0.0369985
119	0x3f2eece2	0.68330204
120	0xbe0a8b8b	-0.13529794
121	0xbdc9f700	-0.09861565
122	0x3d083158	0.033250183
123	0xbec52b4b	-0.38509592
124	0xbcbcf396	-0.02306537
125	0x3dbcd4e5	0.09220294
126	0xbc823868	-0.015896037
127	0xbf163a37	-0.5868258
128	0xbe3b11d1	-0.18268515
129	0x3eb78c5b	0.3584927
130	0x3d245106	0.040116332
131	0x3d58cfaa	0.05293242
132	0xbe227683	-0.15865521
133	0xbd6a3da8	-0.057187706
134	0xbd7ad319	-0.061236475
135	0xbe7adc67	-0.2449814
136	0xbec3311e	-0.3812341
137	0xbd21afeb	-0.03947441
138	0x3f020d10	0.5080118
139	0x3eb7aba7	0.35873148
140	0x3da35806	0.079757735
141	0x3d4d1032	0.050064273
142	0x3a244242	0.00062659767
143	0xbd864d32	-0.065576926
144	0x3d8cea51	0.0688063
145	0xbf0103de	-0.50396526
146	0xbe93eddf	-0.2889242
147	0xbae3a211	-0.0017367025
148	0x3ecf7f34	0.40526736
149	0xbed89e3a	-0.42308217
150	0xbe110971	-0.14163758
151	0x3e111e6c	0.14171761
152	0x3df8b772	0.121443644
153	0x3dac9454	0.08426729
154	0xbd26e0d5	-0.04074176
155	0x3f1f9f2b	0.62352246
156	0x3e1462a6	0.14490756
157	0xbf077ba3	-0.5292303
158	0xbeb871f6	-0.36024445
159	0x3e3ef238	0.18647087
160	0x3ab0457e	0.0013448445
161	0xbdcb9995	-0.09941403
162	0x3e18c07e	0.1491718
163	0x3d6187fc	0.055061325
164	0xbcad70b6	-0.021171909
165	0xbc19e376	-0.00939261
166	0xbe5a26e4	-0.21303898
167	0xbf0287a6	-0.50988233
168	0xbdcd2913	-0.100176
169	0x3e10e647	0.14150344
170	0x3c9fe88f	0.019520072
171	0x3e86f9f6	0.2636258
172	0xbc9a9978	-0.018872008
173	0xbe65a98d	-0.2242796
174	0xbe398bc8	-0.18119729
175	0xbf5b7ab8	-0.8573413
176	0x3e4a70a3	0.1976953
177	0x3f509d6c	0.81490207
178	0xbe8d82c0	-0.27638817
179	0xbe969462	-0.29410082

l1.weight f4 [100, 108]
0	0xbd09b2d6	-0.033617817
1	0x3e0d53b9	0.13801469
2	0xbca66bdb	-0.020315101
3	0x3e0056ea	0.12533155
4	0x3dfb7e03	0.12279894
5	0xbdeaf486	-0.114724204
6	0x3caa3de5	0.020781467
7	0x3d97230e	0.07379733
8	0x3dbd1ea5	0.092343606
9	0xbce62682	-0.028094534
10	0xbe0e99b9	-0.13925828
11	0xbd3f38c3	-0.04668499
12	0xbda46da6	-0.08028726
13	0x3eac060e	0.3359837
14	0x3e0e1d2a	0.13878313
15	0xbe0a5d38	-0.13512123
16	0x3dbe0735	0.092787184
17	0x3e23101e	0.15924117
18	0x3ca34c0f	0.019933729
19	0x3d10bf7c	0.035338864
20	0xbd1ba330	-0.037997425
21	0xb65ec0b7	-3.3192753e-06
22	0xbc6084f0	-0.01370357
23	0x3cf8e041	0.03038037
24	0xbd5a1327	-0.05324092
25	0xbdc69a98	-0.09697455
26	0xbd7f3179	-0.06230304
27	0x3cb22556	0.021746319
28	0x3dd484fa	0.10376926
29	0x3e58e585	0.21181305
30	0x3e77255a	0.24135342
31	0xbd7147eb	-0.058906477
32	0x3e541785	0.20712097
33	0x3dddab37	0.10823672
34	0x3ca3789d	0.019954974
35	0x3da0fdc3	0.07860901
36	0xbe2e46e8	-0.17019236
37	0x3de08efb	0.10964771
38	0x3c93d689	0.018046634
39	0x3e0e7e36	0.13915333
40	0xbd348605	-0.044073123
41	0xbc33a273	-0.010964024
42	0x3c60ba5a	0.013716305
43	0x3c678d5c	0.014132824
44	0xbe0ca966	-0.13736495
45	0xbe249bd4	-0.16075069
46	0x3d76a4f7	0.060215916
47	0x3e44c60b	0.19216172
48	0xbd797602	-0.060903557
49	0x3db040a9	0.08606083
50	0xbe09eff0	-0.13470435
51	0xbd8331e2	-0.06405999
52	0xbd4f4ea6	-0.050612114
53	0xbde4b809	-0.111679144
54	0xbc0cd403	-0.008595469
55	0x3e79883c	0.24368376
56	0x3dc53907	0.09630018
57	0x3cd2e775	0.025745133
58	0x3d5d930a	0.054095306
59	0xbd2c9fe0	-0.042144656
60	0x3e312962	0.17300943
61	0x3dd34a53	0.103169106
62	0xbe50b266	-0.20380554
63	0x3d6b5b29	0.057459984
64	0xb90b2daa	-0.00013273084
65	0xbe165ab3	-0.14683037
66	0xbe5be528	-0.21474135
67	0x3d3bb182	0.04582358
68	0xbc5bb04d	-0.013408733
69	0x3e0d512c	0.13800496
70	0xbc9f53d5	-0.019449154
71	0xbe06e0e3	-0.13171725
72	0x3db79b70	0.08965194
73	0xbca2c14c	-0.019867562
74	0xbd62bdf0	-0.05535692
75	0xbe0027a8	-0.12515128
76	0xbe4d811c	-0.20068783
77	0xbe89627d	-0.26832953
78	0xbd2b36d1	-0.041800324
79	0x3be81a12	0.007083186
80	0x3e28ad91	0.1647246
81	0xbe40af10	-0.18816781
82	0x3d0db54c	0.034596726
83	0xbdf0d6ae	-0.11759697
84	0x3ddc68fb	0.10762211
85	0xbe09bf7b	-0.1345195
86	0xbd051dd9	-0.032499168
87	0xbd86c24f	-0.0658003
88	0xbc201237	-0.009769968
89	0x3d846099	0.06463737
90	0x3e9ba4be	0.30399126
91	0xbce03317	-0.027368112
92	0x3e930fbc	0.28722942
93	0x3eda80ba	0.42676336
94	0x3e83b2ad	0.25722256
95	0x3f015d18	0.50532675
96	0x3eb4cdac	0.35313165
97	0x3e9876d8	0.2977817
98	0x3ed030c9	0.4066222
99	0x3ee77028	0.45202756
100	0x3e85fcdc	0.2616948
101	0x3e60bdaa	0.21947351
102	0x3f2b4502	0.6690217
103	0x3ec146b4	0.37749255
104	0x3eddfb53	0.43355808
105	0x3e97173f	0.29509923
106	0x3f0160d0	0.5053835
107	0x3e465106	0.19366845
108	0x3f05854d	0.52156526
109	0xbe46df0c	-0.19421023
110	0xbe9f027b	-0.3105658
111	0x3ed4d7ab	0.41570792
112	0xbf389eff	-0.7211761
113	0xbdc15ba8	-0.0944131
114	0xbf977a76	-1.1834247
115	0x3e986d57	0.2977092
116	0x3ec1c574	0.37845957
117	0xbe6979d4	-0.2280038
118	0xbecbe129	-0.3982022
119	0xbe7e51a2	-0.24835828
120	0x3e11f4b0	0.14253497
121	0x3aeb6b60	0.0017961077
122	0x3d21ecf9	0.039532635
123	0xbeeef603	-0.46672067
124	0xbd8cff1d	-0.068845965
125	0xbeebee73	-0.4608036
126	0x3e66c192	0.22534779
127	0x3f0bf22c	0.546664
128	0xbe8e5d27	-0.27805445
129	0xbd81f0da	-0.06344767
130	0x3df6d21f	0.12051796
131	0xbdf90449	-0.121590205
132	0x3d24433c	0.040103182
133	0x3e6b59fd	0.22983547
134	0xbe2f77ce	-0.17135546
135	0x3ea1c960	0.3159895
136	0x3e98905e	0.29797643
137	0x3e9f85bc	0.3115672
138	0xbd12ddcd	-0.035856057
139	0x3c837773	0.016048169
140	0xbe4cf6b3	-0.20015983
141	0xbea7479e	-0.32671827
142	0xbec00827	-0.3750622
143	0x3ec8a966	0.3919174
144	0xbdd4dd6a	-0.10393794
145	0xbe266c16	-0.16252169
146	0xbe83c790	-0.25738192
147	0xbedb2a66	-0.42805785
148	0xbe2740f2	-0.16333368
149	0xbe56dde1	-0.20983078
150	0x3e2e4dde	0.17021891
151	0x3e47db79	0.19517316
152	0xbe1124b8	-0.14174163
153	0x3f257996	0.6463865
154	0x3e61a1ba	0.2203435
155	0xbd9d8a26	-0.07692365
156	0xbeb071f5	-0.34461942
157	0xbcde9f09	-0.027175443
158	0x3dabf3af	0.08396088
159	0x3dd8d64e	0.105877504
160	0x3f3990a6	0.7248634
161	0x3d3cec3f	0.04612374
162	0xbd80487e	-0.06263827
163	0xbe05b629	-0.1305777
164	0x3d820a58	0.06349629
165	0x3e37bf24	0.17944008
166	0xbe2ce34b	-0.1688358
167	0xbe45ca5c	-0.19315475
168	0xbde3ea00	-0.11128616
169	0xbe0931d8	-0.1339792
170	0x3f3a4947	0.7276806
171	0xbe0b28f0	-0.13589835
172	0xbf321fa4	-0.6957953
173	0xbea488d3	-0.3213564
174	0xbf3faa37	-0.748691
175	0x3e0bd470	0.13655257
176	0x3f8b624e	1.0889375
177	0x3e8b8bf1	0.27255204
178	0x3e8a1fbc	0.26977336
179	0x3e884f1b	0.26622853
180	0xbe1d559d	-0.1536469
181	0xbe3f0a71	-0.18656327
182	0x3e7c7707	0.2465478
183	0x3ebdc54f	0.37064597
184	0xbd2b0ee8	-0.041762263
185	0xbf13ecf0	-0.5778341
186	0xbec2fd82	-0.38084036
187	0x3e722908	0.23648465
188	0x3d1d6d4f	0.038434323
189	0xbdc68d1d	-0.09694884
190	0x3f54c456	0.83112085
191	0x3e407dea	0.18798032
192	0xbe871406	-0.26382464
193	0xbf1e2786	-0.6177906
194	0x3e2c4600	0.16823578
195	0x3f113cc1	0.5673333
196	0xbe04ea2f	-0.12979959
197	0xbe7251a9	-0.23663963
198	0xbe2274dd	-0.15864892
199	0xbe2382bc	-0.1596784
200	0xbe9ff827	-0.31244013
201	0x3db56cc6	0.088586375
202	0xbd851946	-0.06498961
203	0xbe990b22	-0.29891306
204	0xbe2f7e93	-0.17138128
205	0xbe27f8dd	-0.16403528
206	0x3e134ac7	0.14383994
207	0xbe274481	-0.16334726
208	0xbdd34940	-0.10316706
209	0x3e2f0459	0.17091502
210	0xbedf6f63	-0.4363967
211	0x3d31cd8f	0.043408927
212	0x3d1dcc49	0.0385249
213	0x3e1e5241	0.15461065
214	0xbd425b91	-0.047450606
215	0xbdd60eb4	-0.10452023
216	0x3e23182c	0.1592719
217	0xbd271607	-0.04079249
218	0xbe498904	-0.19681174
219	0x3d9efab6	0.07762663
220	0xbd251011	-0.040298525
221	0xbe227e4b	-0.1586849
222	0x3d74b185	0.05973961
223	0x3e6d5016	0.23175082
224	0x3d8b9b7f	0.06816768
225	0x3c17e203	0.009270194
226	0xbe1fbbdb	-0.15599005
227	0xbd2adeca	-0.041716374
228	0xbc93b6c3	-0.018031484
229	0x3dbcb98c	0.09215078
230	0xbd04db9d	-0.032436002
231	0xbe2a2034	-0.16613847
232	0xbe1e8bd9	-0.15483035
233	0xbd73077c	-0.05933331
234	0xbd400ec9	-0.0468891
235	0x3ec96857	0.39337417
236	0x3c0113a4	0.007878218
237	0xbcbfafb8	-0.023399219
238	0x3e251d3b	0.16124432
239	0x3c9a0b15	0.018804112
240	0x3c8204ae	0.015871372
241	0x3d8faf9a	0.07015915
242	0x3da4ff78	0.08056539
243	0xbe4cdc0a	-0.20005813
244	0xbdad8759	-0.08473081
245	0x3d7594d3	0.059956383
246	0x3bb09e42	0.0053899596
247	0xbc8ccb72	-0.017186854
248	0x3e1d8aa4	0.15384918
249	0x3e0dfc91	0.13865878
250	0x3dbf17a3	0.0933068
251	0xbe2c8045	-0.16845806
252	0xbd4c3a25	-0.04986014
253	0x3d8b476b	0.06800731
254	0x3daeb6b7	0.08530944
255	0x3c7d92b3	0.01547687

l1.bias f4 [100]
0	0xbdd90238	-0.10596126
1	0x3cc19d1b	0.023634484
2	0x3e8ad2b1	0.2711387
3	0xbe02da3e	-0.12778565
4	0xbd397d82	-0.04528571
5	0xbe0b4c3f	-0.13603304
6	0x3d468171	0.04846329
7	0x3df860ee	0.12127863
8	0xbdcbbba3	-0.09947898
9	0xbe1d66d1	-0.15371253
10	0x3e5d2844	0.21597391
11	0xbe1d02b7	-0.15333067
12	0x3da5ad8b	0.08089741
13	0x3e88499b	0.26618657
14	0x3ce4b6c5	0.027919183
15	0xbdbcfb3c	-0.09227607
16	0x3d998e93	0.07497897
17	0x3d8046a3	0.06263473
18	0xbe369955	-0.17831929
19	0x3e317a9d	0.1733193
20	0xbe82fd58	-0.2558391
21	0xbe62aac8	-0.2213546
22	0xbddae741	-0.106886394
23	0x3e92a85f	0.28644082
24	0x3d15896a	0.036508
25	0xbcec4c24	-0.0288449
26	0xbe412cdd	-0.1886477
27	0xbd880dcc	-0.066432565
28	0x3db4ffe0	0.08837867
29	0x3e3b7546	0.18306455
30	0xbce8503a	-0.028358568
31	0xbe362bc7	-0.17790137
32	0xbe31bbe0	-0.17356825
33	0xbc8859be	-0.016644355
34	0xbe96ede0	-0.2947836
35	0x3d8f0803	0.0698395
36	0xbe718585	-0.2358609
37	0x3dfd7be2	0.123771444
38	0xbda5b1bc	-0.08090541
39	0xbe04c3f5	-0.12965377
40	0x3cb121d7	0.021622581
41	0x3e3a3c58	0.18187082
42	0x3d97aedb	0.07406398
43	0x3ea3b45a	0.31973535
44	0x3dc619fd	0.096729256
45	0x3d93f124	0.07223728
46	0x3d2764f2	0.040867753
47	0x3e18f0d6	0.14935622
48	0x3d2c9bbf	0.04214072
49	0xbe020044	-0.12695414
50	0xbdb47080	-0.0881052
51	0xbd81e4b3	-0.06342449
52	0xbb65e360	-0.0035078153
53	0xbde95d34	-0.1139473
54	0xbb9bdcff	-0.0047565694
55	0x3e87ce89	0.2652476
56	0x3c92bd5e	0.017912563
57	0x3da2f567	0.07956963
58	0x3d07b69a	0.033133127
59	0x3e4733c6	0.19453344
60	0x3e8e5ccf	0.27805182
61	0xbd0ebac7	-0.034846094
62	0xbd9f304e	-0.07772885
63	0xbdca77f0	-0.098861575
64	0x3e2f9c0c	0.17149371
65	0xbe403075	-0.18768485
66	0xbd7f307d	-0.0623021
67	0x3ec6dd52	0.3884073
68	0xbda60307	-0.08106046
69	0x3e38f035	0.18060382
70	0xbbbb45d6	-0.005715112
71	0x3daabe11	0.083370335
72	0xbe127816	-0.14303622
73	0xbdb9b071	-0.09066857
74	0x3e4be714	0.19912368
75	0x3d0a32d7	0.03373989
76	0x3bdf1129	0.0068074656
77	0x3e04bdda	0.12963048
78	0xbe3fc473	-0.18727283
79	0x3e87e41c	0.2654122
80	0xbe6dc373	-0.23219089
81	0xbdc12749	-0.09431321
82	0x3daf92cc	0.08572921
83	0xbe008fbe	-0.12554833
84	0xbc890abc	-0.016728751
85	0x3e941e46	0.28929347
86	0x3d9f16be	0.077680096
87	0xbbf2c3d0	-0.0074085966
88	0x3d8cbd1d	0.06872008
89	0x3e6c0274	0.23047811
90	0x3e42f120	0.19037294
91	0x3e586171	0.21130921
92	0xbcdddeb1	-0.027083727
93	0xbcd3c80d	-0.025852228
94	0xbe4f9c0f	-0.20274375
95	0xbc04670c	-0.008081209
96	0x3e5b5ea6	0.21422824
97	0xbcce7fd9	-0.025207447
98	0xbdd1c3b2	-0.10242404
99	0x3cac74e7	0.021051837

l2.weight f4 [100, 100]
0	0x3e2a8406	0.16651925
1	0xbed8d7de	-0.42352194
2	0xbe720b6b	-0.23637168
3	0xbcc5fc5e	-0.02416819
4	0x3e7eff9d	0.24902196
5	0xbe02ac82	-0.12761119
6	0xbce9ae05	-0.028525362
7	0x3d8cc1f4	0.06872931
8	0xbe063a86	-0.13108262
9	0xbdd83174	-0.105563074
10	0x3d8dfb61	0.06932712
11	0x3ef0ebd8	0.47054935
12	0xbda49b1f	-0.080373995
13	0xbd2df286	-0.042467616
14	0x3e66e7e0	0.22549391
15	0x3e81467e	0.25249094
16	0x3d47f941	0.04882169
17	0xbe7b3107	-0.24530421
18	0x3e147a1d	0.14499708
19	0xbe4c5966	-0.19955978
20	0x3ee79186	0.45228213
21	0xbd71fe20	-0.059080243
22	0x3e4990f3	0.196842
23	0xbe2add62	-0.16686013
24	0x3ebdb315	0.3705069
25	0x3dcc935b	0.09989043
26	0xbd595bcd	-0.053066064
27	0x3e124721	0.14284946
28	0xbd98d8a9	-0.074632
29	0xbea1bfec	-0.31591737
30	0x3dcbbdb2	0.09948291
31	0xbe2a2acf	-0.16617893
32	0x3ecd4a13	0.40095577
33	0xbde222aa	-0.11041768
34	0x3e02a11e	0.12756774
35	0xbda2d1fc	-0.079502076
36	0x3d5d0ed6	0.053969227
37	0xbd8faf4f	-0.07015859
38	0x3e8ca187	0.27466986
39	0xbd6277b5	-0.055289943
40	0xbc13fbee	-0.009032233
41	0xbe2dbb0b	-0.16965882
42	0xbe996310	-0.2995839
43	0xbecbf34f	-0.39834067
44	0xbd1c7dda	-0.03820596
45	0x3dbf9feb	0.09356674
46	0x3e789342	0.24274924
47	0x3ddd93d5	0.10819212
48	0x3e9b7be9	0.30367973
49	0xbdfe7c20	-0.12426019
50	0x3e3fe97a	0.18741408
51	0xbc99a0a7	-0.018753363
52	0x3d0ed1d1	0.034868065
53	0xbda3bd4c	-0.0799509
54	0xbe640b60	-0.22269964
55	0x3e2e514d	0.17023201
56	0x3ec51699	0.38493803
57	0xbead4c24	-0.33847153
58	0xbe335fd6	-0.17517027
59	0x3d8f71fc	0.07004163
60	0x3e4b1a73	0.19834308
61	0xbe29afa9	-0.16570915
62	0xbe045495	-0.1292289
63	0xbe878798	-0.26470637
64	0xbdaa1d85	-0.08306412
65	0x3e2e4cc0	0.17021465
66	0xbee5dffb	-0.44897446
67	0xbe8c5f33	-0.2741638
68	0x3e5777aa	0.21041742
69	0xbd84fde3	-0.064937375
70	0xbecaf598	-0.39640498
71	0xbe01ac44	-0.1266337
72	0x3dd715b4	0.105021864
73	0xbd35e4d0	-0.044407666
74	0xbe0f4205	-0.13990028
75	0xbe128fb0	-0.14312625
76	0x3e9910d0	0.2989564
77	0xbf2a2f04	-0.6647799
78	0xbd483e0c	-0.048887298
79	0xbed97cee	-0.42478126
80	0x3e055b0d	0.13023014
81	0x3d0fb5d0	0.0350855
82	0x3e344342	0.17603782
83	0x3e1460d6	0.14490065
84	0xbe07b9c3	-0.13254456
85	0x3e1ae91d	0.15127988
86	0x3e6cf751	0.23141219
87	0xbc889050	-0.016670376
88	0x3e796fec	0.24359101
89	0xbe44ffaa	-0.19238153
90	0x3ea756b0	0.32683325
91	0xbe860d94	-0.26182234
92	0xbde85828	-0.113449395
93	0x3d5ca9bf	0.05387282
94	0xbdaef787	-0.08543306
95	0x3e543815	0.20724519
96	0xbe35e60a	-0.17763534
97	0x3edbf6c1	0.42961696
98	0xbdab8c81	-0.08376408
99	0x3e8c6c1f	0.2742624
100	0xbe14ddc3	-0.1453772
101	0x3f1d75bf	0.6150779
102	0x3e9a1281	0.30092242
103	0xbe9ce8f7	-0.30646488
104	0xbeaa83ff	-0.3330383
105	0x3d7f5e28	0.062345654
106	0x3e3816f0	0.179775
107	0x3dc01579	0.093790956
108	0xbdd4ce1f	-0.10390877
109	0x3e2ffb99	0.1718582
110	0x3d9361d8	0.071963966
111	0xbd6e62a5	-0.058199544
112	0xbc1a59ff	-0.009420871
113	0x3e6d7ef0	0.23192954
114	0xbdbc60b7	-0.091981344
115	0xbe7fbded	-0.24974795
116	0xbda29ab8	-0.079396665
117	0x3dd821ad	0.10553298
118	0xbe9b6720	-0.30352116
119	0x3e4cb78a	0.1999189
120	0xbe4c4bfe	-0.19950864
121	0x3e78e52d	0.24306174
122	0x3d3481cd	0.0440691
123	0x3e19dfc6	0.15026769
124	0xbddf0d3f	-0.10891198
125	0xbe08b41f	-0.1334996
126	0x3e99d0d7	0.30042145
127	0xbe36923d	-0.17829223
128	0x3e735e6f	0.23766492
129	0x3de06415	0.10956589
130	0x3e12d998	0.14340818
131	0x3d657bde	0.056026332
132	0xbed83121	-0.42224982
133	0x3ea2bb5d	0.31783572
134	0xbe04ef6e	-0.1298196
135	0x3e4b1c07	0.1983491
136	0x3d95cc45	0.07314352
137	0x3cc17685	0.023616085
138	0xbdfb83cb	-0.12280997
139	0x3e4a6e0c	0.19768542
140	0xbe86191f	-0.2619104
141	0x3e87e9b8	0.265455
142	0x3db478b9	0.088120885
143	0xbe22941a	-0.15876809
144	0xbdbd4515	-0.09241692
145	0x3d06fcea	0.03295604
146	0x3d866c07	0.06563573
147	0x3c39b6e1	0.011335106
148	0xbe44f57c	-0.1923427
149	0xbeddd71f	-0.43328187
150	0xbd0f8537	-0.035039153
151	0xbe173f10	-0.1477015
152	0xbd9bd478	-0.076088846
153	0x3cf940b6	0.030426364
154	0x3e09b81d	0.1344914
155	0xbca8ca07	-0.020604147
156	0x3d6db7f8	0.058036774
157	0x3edae72e	0.427545
158	0x3dfdef18	0.12399119
159	0xbe00fcc0	-0.12596416
160	0x3d9ccbe1	0.07656074
161	0xbd6f5bf6	-0.05843731
162	0x3e487c97	0.19578777
163	0xbd1f55c5	-0.038900156
164	0x3efbf93c	0.49213588
165	0x3cd14b19	0.025548505
166	0x3f1b07c5	0.6055873
167	0x3eb8aa5c	0.36067474
168	0xbd2dc823	-0.042427193
169	0x3c6a0646	0.014283722
170	0x3e4f9f46	0.20275602
171	0xbe71e147	-0.23621093
172	0xbf2ff37a	-0.6873089
173	0xbe56daf2	-0.20981959
174	0x3c703a16	0.014662286
175	0x3c936d2b	0.017996391
176	0xbe270daa	-0.16313806
177	0xbece54a3	-0.40298948
178	0x3e1e673a	0.15469065
179	0x3ea9aafc	0.33138263
180	0xbe78fac3	-0.24314408
181	0xbe86e9f5	-0.2635037
182	0x3d7950f9	0.060868237
183	0x3d00ff31	0.03149337
184	0xbdd45fd2	-0.10369839
185	0x3d9f1235	0.077671446
186	0xbe890aca	-0.26766044
187	0x3dc8b58a	0.09800251
188	0x3b451861	0.0030074345
189	0x3ef83da4	0.48484528
190	0xbd35e450	-0.04440719
191	0x3e323159	0.17401637
192	0x3dcc8bbb	0.09987589
193	0x3def0d83	0.11672499
194	0x3c9419c9	0.018078702
195	0xbcf87b07	-0.030332102
196	0xbd9c7b64	-0.076407224
197	0xbe96d52b	-0.2945951
198	0xbcb34e5e	-0.021887954
199	0x3d357603	0.044301998
200	0x3f34eb2b	0.7067134
201	0xbdc5a4ae	-0.09650551
202	0xbf09a47e	-0.5376662
203	0x3dbc528e	0.091954336
204	0xbe81081e	-0.25201505
205	0x3f07394d	0.5282181
206	0xbf270e81	-0.65256506
207	0xbf2d172e	-0.67613494
208	0x3ea220aa	0.31665546
209	0x3f3452dc	0.70438933
210	0xbf969081	-1.1762849
211	0x3d904cfd	0.07045934
212	0xbeb77a54	-0.35835516
213	0xbf61e2d0	-0.88236713
214	0xbf66b804	-0.90124536
215	0x3de398a2	0.11113097
216	0xbf6cd8ce	-0.9251832
217	0xbf909acc	-1.129724
218	0xbda91737	-0.08256381
219	0xbe18c6b3	-0.14919548
220	0xbdb72719	-0.08943004
221	0x3f01d190	0.5071039
222	0x3ea7550b	0.3268207
223	0x3e46fdef	0.19432805
224	0xbf98297b	-1.1887659
225	0x3e8e21e6	0.27760237
226	0x3e31c010	0.17358422
227	0x3dc45260	0.09586024
228	0x3e4aa51e	0.1978955
229	0xbffe99ab	-1.9890646
230	0x3f99b11c	1.2007174
231	0x3e8a9cc7	0.27072737
232	0x3f905fbb	1.1279215
233	0x3ef64ccc	0.48105466
234	0x3ea5f492	0.32413155
235	0xbec52556	-0.38505048
236	0x3d16a00b	0.036773723
237	0xbdc41f06	-0.0957623
238	0x3e353a95	0.17698129
239	0x3e1d4045	0.15356548
240	0x3e972774	0.29522288
241	0xbb329fd5	-0.0027255912
242	0x3df22940	0.11824274
243	0xbf5b3fc5	-0.8564418
244	0xbe1ac343	-0.15113549
245	0x3fbd0846	1.476815
246	0xbf470151	-0.77736384
247	0xbe36395b	-0.17795317
248	0x3f870a0d	1.0549942
249	0x3f1c6b4c	0.6110122
250	0xbebb423d	-0.36573973
251	0xbd632d38	-0.055463046
252	0x3f5ba01a	0.8579117
253	0xbf6f663d	-0.9351538
254	0x3f35bac9	0.70988137
255	0x3ece5136	0.40296334

l2.bias f4 [100]
0	0xbebd48d9	-0.3696964
1	0x3ee5d7ec	0.44891298
2	0x3e040825	0.12893732
3	0xbe8a00c9	-0.26953724
4	0xbc5358a5	-0.0128995525
5	0x3e0fe3a7	0.14051686
6	0xbda47d44	-0.08031705
7	0x3e218fd7	0.15777527
8	0x3da50241	0.080570705
9	0x3df513a2	0.11966635
10	0x3dbbae2d	0.09164081
11	0x3ee60f52	0.44933563
12	0x3eef6d7d	0.4676322
13	0xbea0372d	-0.31292096
14	0x3ea549e9	0.3228295
15	0xbdfbe1c3	-0.1229892
16	0x3f01644d	0.5054367
17	0x3e368fb8	0.17828262
18	0xbe70c1a6	-0.23511371
19	0xbd61961a	-0.05507479
20	0x3e57096a	0.20999685
21	0x3ec05adf	0.3756933
22	0x3ea04a43	0.31306657
23	0x3e3142a5	0.17310579
24	0x3e216d59	0.15764369
25	0xbe934421	-0.28762916
26	0x3e3cd594	0.18440849
27	0xbecd85f0	-0.4014125
28	0x3d4abaf8	0.049494714
29	0xbd5d2738	-0.05399248
30	0x3e03e0a4	0.12878662
31	0xbe5c7ec7	-0.21532737
32	0x3eb88fa9	0.36047104
33	0x3d8201f5	0.063480295
34	0xbda72137	-0.08160632
35	0xbe3cb85f	-0.18429707
36	0xbdcad6eb	-0.099042736
37	0x3e0fcdb4	0.14043313
38	0xbc0efad1	-0.0087267915
39	0xbd104f1e	-0.035231702
40	0xbed262c1	-0.41090968
41	0x3de5abc9	0.11214406
42	0xbdebf458	-0.11521214
43	0xbe8617ac	-0.26189935
44	0x3e2df53d	0.16988082
45	0xbda62c73	-0.08113947
46	0x3ea24d5e	0.3169965
47	0x3d8a2705	0.06745724
48	0xbe1bc302	-0.15211108
49	0xbe47617b	-0.1947078
50	0xbed2a5a1	-0.4114199
51	0x3e1bd593	0.15218191
52	0xbe9558b8	-0.2916925
53	0x3de0a05a	0.10968085
54	0x3e5dd1d3	0.21662073
55	0xbd8ba5aa	-0.06818707
56	0x3ecdfa59	0.40230063
57	0xbec8d125	-0.39222065
58	0x3ede6665	0.43437496
59	0x3eb110e9	0.34583214
60	0x3e093455	0.1339887
61	0xbd79768e	-0.06090408
62	0xbcd6feca	-0.02624454
63	0xbdceb723	-0.10093524
64	0xbebb1b3e	-0.36544222
65	0xbe5d7424	-0.21626335
66	0x3e3c0a26	0.18363246
67	0xbe25a184	-0.16174895
68	0x3cf9b786	0.030483019
69	0xbcec43a6	-0.028840851
70	0xbdb0c834	-0.08631936
71	0x3bcc2dd9	0.0062310514
72	0xbd3a2a61	-0.045450572
73	0xbe5052e6	-0.20344123
74	0x3d983dcf	0.07433664
75	0x3d66cb1c	0.056346044
76	0x3edce1df	0.43141076
77	0xbdedb193	-0.11606135
78	0xbe53594b	-0.20639531
79	0xbe0ffcb9	-0.1406125
80	0xbe2a1360	-0.16608953
81	0x3cd31c33	0.025770282
82	0x3db6346b	0.08896717
83	0x3db0ac84	0.08626655
84	0xbe048344	-0.12940699
85	0xbef8051d	-0.484414
86	0x3e4fbf35	0.20287783
87	0x3e578f4a	0.21050754
88	0xbe084465	-0.1330734
89	0xbe879275	-0.26478925
90	0xbe23d86d	-0.16000529
91	0xbdec92bb	-0.11551424
92	0x3e39af87	0.18133365
93	0x3d0d9a00	0.034570694
94	0x3e6ff5c1	0.23433591
95	0x3ea05104	0.3131181
96	0xbe03e3b4	-0.1287983
97	0x3e659d1a	0.2242321
98	0x3eef48af	0.4673514
99	0xbe5edc10	-0.21763635

l3.weight f4 [18, 100]
0	0xbd9aa0cc	-0.07550201
1	0xbe9387b4	-0.2881447
2	0xbf3edc59	-0.74554974
3	0x3e8439b0	0.25825262
4	0x3f026247	0.5093121
5	0xbef33f08	-0.47509027
6	0x3e249658	0.16072977
7	0xbe57ea53	-0.21085481
8	0xbce8abf3	-0.028402304
9	0xbeb6abde	-0.35678
10	0xbda26d03	-0.079309486
11	0xbebe2b92	-0.37142617
12	0xbe53c57d	-0.20680805
13	0x3f1770d4	0.5915654
14	0xbdee6c3e	-0.11641739
15	0xbd8f5342	-0.06998302
16	0xbe70dc17	-0.23521458
17	0xbdfcea90	-0.12349427
18	0xbcfcedbf	-0.030875085
19	0x3f45620d	0.7710274
20	0xbe9a63c5	-0.30154243
21	0xbdecef4d	-0.115690805
22	0xbe0d7af1	-0.1381643
23	0xbded24e7	-0.11579304
24	0xbea4a3ee	-0.32156318
25	0x3e9298f2	0.28632313
26	0xbf0b8158	-0.5449424
27	0x3edb06f9	0.42778757
28	0xbe98e64a	-0.29863197
29	0x3eea734d	0.45791093
30	0xbea90e30	-0.33018637
31	0x3e82ac41	0.25522044
32	0xbe7916bf	-0.24325083
33	0x3f05ebfa	0.52313197
34	0x3ed1e81e	0.40997404
35	0x3e5fafb3	0.21844368
36	0x3e60e535	0.21962436
37	0xbddbd856	-0.10734622
38	0x3dded975	0.108813204
39	0xbe963675	-0.29338422
40	0x3ec3566e	0.38151878
41	0xbeaf51e2	-0.3424216
42	0x3dbcb10a	0.09213455
43	0x3e1269c0	0.14298153
44	0xbea626c9	-0.32451466
45	0x3ee5c9ea	0.4488061
46	0x3ed4007e	0.41406626
47	0x3eb23102	0.34803015
48	0x3f03c1f9	0.51467854
49	0x3e68bbd9	0.22727908
50	0x3e64a24e	0.2232754
51	0xbebfdbba	-0.37472326
52	0x3e88d073	0.26721534
53	0xbf1c4f39	-0.61058384
54	0xbf005520	-0.5012989
55	0x3e9c61bc	0.30543315
56	0xbe77da2a	-0.24204317
57	0x3dd3189f	0.103074305
58	0xbe7c4c13	-0.24638395
59	0xbe053ffd	-0.13012691
60	0x3dfd95af	0.123820655
61	0xbf157d60	-0.5839443
62	0x3f02ad58	0.5104575
63	0x3e70ac52	0.23503235
64	0x3ec82f8f	0.39098784
65	0x3ef79208	0.483536
66	0xbec092f8	-0.37612128
67	0x3e5e2dea	0.21697202
68	0xbf058775	-0.52159816
69	0xbf01d5af	-0.5071668
70	0x3da6801f	0.08129906
71	0xbe1c130c	-0.15241641
72	0x3dade572	0.08491029
73	0x3e0c1d74	0.1368311
74	0xbe8a52aa	-0.27016193
75	0xbdf14b80	-0.117819786
76	0xbe3a2bc9	-0.18180765
77	0x3e5809b7	0.21097456
78	0xbeab3853	-0.3344141
79	0x3e869e0d	0.26292458
80	0x3f06206f	0.5239324
81	0xbd84558e	-0.06461631
82	0xbf03247c	-0.51227546
83	0xbedb165b	-0.42790493
84	0x3e31a98d	0.17349835
85	0x3e43aa0b	0.19107835
86	0xbe1600e2	-0.14648774
87	0xbef80b26	-0.48446006
88	0x3d619b54	0.055079773
89	0x3e0ec7f4	0.13943464
90	0xbb5584bc	-0.0032580337
91	0x3dfd046f	0.12354361
92	0x3d4eec1f	0.05051815
93	0xbe5aa32d	-0.21351309
94	0xbe6775b1	-0.2260349
95	0xbe1b7818	-0.15182531
96	0x3d9dac0a	0.076988295
97	0x3eb0f287	0.34560034
98	0xbda2f42c	-0.07956728
99	0x3ead5ea2	0.33861262
100	0x3de5b627	0.112163834
101	0x3dbd16e9	0.092328854
102	0xbf216b69	-0.6305452
103	0x3d8febbc	0.07027385
104	0x3f2671d5	0.65017444
105	0xbea4221e	-0.3205728
106	0x3eb200be	0.3476619
107	0xbd4ed8e3	-0.050499808
108	0xbe9fde72	-0.312244
109	0xbf02d63e	-0.5110816
110	0x3dc575b5	0.096415915
111	0xbe501602	-0.20320895
112	0xbdcf9cdc	-0.101373404
113	0x3ee58f5f	0.44835946
114	0xbeb3e10f	-0.35132644
115	0x3dd3aa84	0.10335258
116	0xbea05568	-0.3131516
117	0xbea58b25	-0.3233272
118	0x3d80a80b	0.06282052
119	0x3ee6da00	0.45088196
120	0xbe8dbb0a	-0.27681762
121	0xbe9d34f0	-0.3070445
122	0xbebc2378	-0.3674581
123	0xbde80ae8	-0.11330205
124	0xbeb0a397	-0.3449981
125	0x3d673bef	0.05645364
126	0xbf1f3cbb	-0.6220204
127	0x3ec95279	0.39320734
128	0xbd92b6c9	-0.0716377
129	0x3ecd2c05	0.40072647
130	0xbf00f561	-0.5037442
131	0x3e845dbf	0.25852773
132	0xbdf30f32	-0.11868133
133	0x3f08779b	0.53307503
134	0x3e7e2993	0.24820547
135	0x3e00b78b	0.12570016
136	0x3e683775	0.22677405
137	0x3dae6343	0.085150264
138	0x3e8189a2	0.25300318
139	0xbf02de0a	-0.51120055
140	0x3e6c51d3	0.23078088
141	0xbed153d1	-0.4088426
142	0x3d802a25	0.062580384
143	0x3e486955	0.19571431
144	0xbe85061e	-0.2598123
145	0x3ed708b7	0.41998836
146	0x3eec5c61	0.4616423
147	0x3e92147e	0.2853126
148	0x3f1ff795	0.62487155
149	0x3ea10ebf	0.31456563
150	0x3ef72a95	0.48274675
151	0xbee3c212	-0.44484
152	0x3dda3a35	0.10655633
153	0xbe80900d	-0.25109902
154	0xbf401699	-0.7503448
155	0x3e43cbf6	0.19120774
156	0xbe4cd3b6	-0.20002636
157	0x3eb00d45	0.34385124
158	0xbe8869c4	-0.26643193
159	0xbed9031e	-0.4238519
160	0x3e5893d6	0.21150145
161	0xbf29498c	-0.6612785
162	0x3e7cc712	0.24685314
163	0x3dad4153	0.08459725
164	0x3ea2e500	0.31815338
165	0x3efcb3a2	0.493558
166	0xbe59a22a	-0.21253267
167	0x3ed3e16f	0.4138293
168	0xbef0cc35	-0.47030798
169	0xbed5ad0c	-0.41733587
170	0x3e68fbb5	0.22752269
171	0xbdd9bbbd	-0.10631511
172	0xbdb9b604	-0.0906792
173	0x3ea5efe9	0.324096
174	0xbe373e31	-0.17894818
175	0xbe93163c	-0.287279
176	0xbdd60230	-0.10449636
177	0x3e9b30ec	0.30310762
178	0xbea9e827	-0.3318493
179	0x3e4c2ce0	0.19938993
180	0x3efb7667	0.4911377
181	0xbedd3136	-0.43201607
182	0x3c53f4b1	0.012936757
183	0xbec4e8cd	-0.38458863
184	0x3d83f953	0.06444039
185	0x3eb1ba41	0.34712413
186	0xbe78c372	-0.24293306
187	0xbe251cb4	-0.1612423
188	0x3e4d0fae	0.20025513
189	0x3e987cfd	0.29782858
190	0xbe020658	-0.12697732
191	0x3c927b07	0.01788093
192	0xbe5117e1	-0.20419265
193	0xbe825439	-0.25454882
194	0xbde54828	-0.11195403
195	0xbe0453e9	-0.12922634
196	0x3c663979	0.0140517885
197	0x3ea276f7	0.31731388
198	0xbe544758	-0.2073034
199	0x3eae0ce5	0.33994213
200	0x3e98f7c6	0.29876536
201	0xbee96e5d	-0.45592013
202	0xbf2d7c0b	-0.677674
203	0x3dcf1f92	0.101134434
204	0x3e50efd0	0.20403981
205	0xbee59867	-0.44842836
206	0x3e919687	0.28435156
207	0xbe806ac1	-0.25081447
208	0xbea6fc99	-0.32614592
209	0xbea991b2	-0.3311897
210	0xbd2a368e	-0.041555934
211	0xbd9f9dd3	-0.077937745
212	0x3da7ef26	0.08199911
213	0x3f0e73d8	0.55645514
214	0xbe79362f	-0.24337076
215	0xbcd69729	-0.026195126
216	0xbe2008bf	-0.15628336
217	0xbe5e54b3	-0.21711998
218	0x3e5b5789	0.21420111
219	0x3f474777	0.7784342
220	0xbe6fc497	-0.23414837
221	0xbe088be6	-0.13334617
222	0xbe84f6d2	-0.2596956
223	0xbe9b1719	-0.3029106
224	0xbe1b4c33	-0.15165786
225	0xbda6501e	-0.0812075
226	0xbf3f204d	-0.7465866
227	0x3f078020	0.5292988
228	0xbe2feb37	-0.17179571
229	0x3efb8e0f	0.4913182
230	0xbea0b96b	-0.31391463
231	0x3e5ae754	0.21377307
232	0xbe74b806	-0.23898324
233	0x3ed019b2	0.40644604
234	0x3edf3ff3	0.43603477
235	0xbd873c1b	-0.06603261
236	0x3e75d54f	0.24007152
237	0xbe94130d	-0.28920785
238	0x3d4fdfa1	0.05075038
239	0xbe371f35	-0.17882998
240	0xbda71cae	-0.08159767
241	0xbe78fd13	-0.2431529
242	0x3b494bf5	0.003071544
243	0x3e7e30a5	0.24823244
244	0xbe88b5c8	-0.26701188
245	0x3f118e57	0.5685782
246	0x3ec963ab	0.39333853
247	0x3f048f47	0.51781124
248	0x3ef005ca	0.46879417
249	0x3e9b4259	0.30324057
250	0x3e691241	0.2276087
251	0xbf03b343	-0.51445407
252	0xbe32810e	-0.17432043
253	0xbe18334e	-0.14863321
254	0xbf00c56d	-0.5030125
255	0x3d821510	0.063516736

l3.bias f4 [18]
0	0x3d06380a	0.032768287
1	0xbe01e593	-0.12685232
2	0xbf042571	-0.5161963
3	0xbebfaca9	-0.37436417
4	0x3da6741b	0.08127614
5	0xbda9e725	-0.082960404
6	0xbd1dd7f5	-0.03853603
7	0xbed92154	-0.4240824
8	0xbe3701c6	-0.1787177
9	0xbe810c57	-0.25204727
10	0xbb26aa86	-0.002543123
11	0xbeb7cc52	-0.35898072
12	0xbec12a94	-0.37727797
13	0x3ea0f959	0.31440237
14	0xbdf96b3b	-0.12178656
15	0xbe9c5ec7	-0.3054106
16	0xbee84f82	-0.4537316
17	0xbec02526	-0.37528342
