data/result/d_590.pt (torch, 94638 bytes, 7 tensors)

D_attr_matrix.weight f4 [36, 5]
000000 41 6d 90 3d 65 a8 e4 be 9e 13 1f be f4 3a a0 3d
       0.070520885 -0.44659725 -0.15534827 0.078237444
000010 6c 77 a2 bd fe 61 cf be 74 66 a3 be 35 aa 38 3e
       -0.07932934 -0.4050445 -0.31914103 0.18033679
000020 5d ba df be 84 20 e4 3e c4 0c 62 3e 71 aa 21 3b
       -0.4369687 0.44556057 0.22075182 0.0024668241
000030 a5 00 f5 bc 26 00 66 bc 10 d3 c2 3c 79 2c af bd
       -0.029907534 -0.014038121 0.023782283 -0.08553404
000040 5d ee d3 be 62 91 8e 3e aa 71 38 3e 9b 91 6b be
       -0.41392794 0.27845293 0.1801211 -0.23004763
000050 7a e9 a7 3c df c4 46 be d4 ad 01 bc 26 0b ca 3d
       0.020497072 -0.19411038 -0.007914979 0.09865408
000060 bd 98 d7 3d 7f 7a 51 bf be 23 49 bf 5f f1 8c 3e
       0.105271794 -0.8182754 -0.78570163 0.27527902
000070 69 bf 0a 3f e0 39 05 bf 17 37 b3 ba ac bd ee bd
       0.5419832 -0.52041435 -0.0013673034 -0.11657271
000080 83 aa 69 bc 92 54 09 3f 4c 1a 41 3c 9c a8 17 3f
       -0.014261845 0.5364467 0.011786055 0.5924165
000090 ba 6c 7d be ca 4e 08 3f 2f 3c 14 be ce 2d c8 be
       -0.24748507 0.5324522 -0.14476083 -0.39097446
0000a0 78 b0 dc be a5 e7 09 3e 19 06 13 3e 32 d1 83 be
       -0.43103385 0.13467272 0.14357795 -0.2574554
0000b0 3a bd 0d 3d 81 fd 2a be 26 5b d1 3d 3a 1b cc be
       0.03460429 -0.16698267 0.10222463 -0.39864522
0000c0 47 ee 87 bd 7b 22 25 3e 68 88 2f 3e e9 cd e8 3d
       -0.06637245 0.16126435 0.17141879 0.11367399
0000d0 65 bb 7c 3d 11 c8 d1 3c 86 c4 26 3d 0e 9c e3 bb
       0.06170215 0.025608094 0.040714763 -0.0069460934
0000e0 9a c6 c2 3e cb fe f7 bd 14 61 6d be 74 f7 92 be
       0.38042146 -0.12109145 -0.23181564 -0.28704417
0000f0 04 f4 d4 bd 29 bb c8 3c 83 c0 86 bd d7 c4 7a bc
       -0.10398105 0.024503307 -0.065796874 -0.015305719
000100 d0 08 e3 bc ad d0 61 be 73 c8 d3 3e 95 97 df 3d
       -0.027714163 -0.2205226 0.41363868 0.10917584
000110 37 66 3b 3f f7 be 54 3f 9a f4 14 3e 78 78 7c 3e
       0.7320284 0.8310389 0.14546433 0.2465533
000120 d9 db db bc 7a 54 8d bc 22 69 cd be 8a 02 0a be
       -0.02683823 -0.017252196 -0.40119272 -0.13477531
000130 54 03 7a 3e 8d b5 2d 3e 85 23 9f 3c a3 59 8f 3e
       0.24415332 0.16963787 0.019426117 0.27998075
000140 ba 4e 64 3c 71 de ec 3c 6f 89 55 bc 35 d8 2f 3e
       0.0139347855 0.028914662 -0.013033255 0.1717232
000150 75 69 cc bb c6 38 a2 be 99 2f 38 bf 31 e5 dd 3e
       -0.0062381574 -0.3168394 -0.7194763 0.43338922
000160 a0 67 be 3e 5d 9e 0f 3e 75 05 61 3d 43 45 7a 3b
       0.37188435 0.14025255 0.054936845 0.0038188256
000170 64 6a 5b bc 36 57 ef bc 20 46 ac bd f0 4a e6 be
       -0.013392065 -0.02921639 -0.08411813 -0.44979048
000180 16 60 1f bc c4 4d 4b 3e 1e f9 99 3e 1e 66 0a bf
       -0.0097274985 0.19853884 0.30072874 -0.5406207
000190 3b 7b 2a bc 4c 9e 97 bc db 3d bc 39 b8 63 03 3d
       -0.010405357 -0.018508099 0.0003590424 0.03207752
0001a0 52 da 80 be 84 15 a9 3e a9 a6 ca 3e 8f a3 0b 3f
       -0.25166565 0.33024228 0.39580277 0.54546446
0001b0 9d 53 27 3d df da 5e 3e 55 bd 55 be 0f bd ae 3c
       0.040851224 0.2176318 -0.20873006 0.021330385
0001c0 52 ad c6 3c 81 16 44 bb fb 69 d0 bc e5 2b c0 3b
       0.024252567 -0.002992064 -0.02544116 0.0058646076
0001d0 1d e2 1c 3f 2a 69 14 bf cf 03 1e 3d 23 f3 31 3f
       0.6128252 -0.5797297 0.03857785 0.6951162
0001e0 3c 80 03 be fd 99 ba bd 9f c1 01 3d bc 23 c4 be
       -0.12841886 -0.09111402 0.031678792 -0.38308513
0001f0 ef 6f bd bc 74 66 ae 3d 93 50 c9 bc 0f 1a 15 bf
       -0.023124663 0.08515635 -0.024574554 -0.5824289
000200 1a b9 43 be 4f be b7 3e 36 bb 34 3d 86 58 62 3d
       -0.1911358 0.3588738 0.04412385 0.055260204
000210 8c 10 23 be 15 05 80 bd e1 75 8b bd a0 eb 82 be
       -0.15924281 -0.06250969 -0.06809593 -0.25570393
000220 b7 1f c5 be 27 ac 27 bd c5 76 00 3f 68 a0 bf 3e
       -0.3850076 -0.04093566 0.5018123 0.37427068
000230 44 f9 a8 3d 5e 11 3b 3d 20 d5 98 b9 92 a0 78 bd
       0.08250669 0.04567086 -0.0002915049 -0.060700007
000240 5c ef 87 3d 86 0e 03 bf 5f b2 9e be 36 17 d7 39
       0.06637451 -0.51194036 -0.3099546 0.0004102529
000250 93 ea cf 3e 0f fd e2 be 72 98 1d be e0 06 0f 3e
       0.40608653 -0.44333693 -0.15390185 0.13967466
000260 13 22 0b 3e 06 0b bd 3d 9b 3e 2e bd 36 cd 24 3f
       0.13587217 0.09230618 -0.042540174 0.6437563
000270 b0 dd 13 3e 54 5a 0e bf 14 39 c0 be 0e 0e 4a 3e
       0.14440036 -0.5560658 -0.37543547 0.19731924
000280 a9 d0 9a ba d0 c3 ca bd 36 4e 0b 3e c3 c9 35 3d
       -0.0011811453 -0.099006295 0.13604054 0.044381868
000290 55 bf be bc 0e 0d 9b 3b 66 40 5a be e8 a7 02 bf
       -0.023284594 0.004731781 -0.21313629 -0.51037455
0002a0 43 eb cf bd cb f3 c9 3d bc f3 a4 3c 99 8f 87 3e
       -0.101522945 0.09860953 0.020135753 0.26476744
0002b0 91 e8 f2 bc 7d a2 64 be b2 3e 35 be 44 c9 54 bf
       -0.029651912 -0.2232761 -0.17699698 -0.83119607
0002c0 94 5b 4a 3e d0 43 55 3f 7e 83 8d be 66 16 95 be
       0.19761497 0.833066 -0.27639383 -0.2911865

l1.weight f4 [100, 108]
000000 c4 5d 13 bd 0e dc 0e 3e 78 38 a1 bc 1a 7b fa 3d
       -0.035978094 0.13951132 -0.019680247 0.12230511
000010 14 ac 00 3e 1b 9f ec bd 28 66 97 3c 37 51 9f 3d
       0.12565643 -0.115537845 0.01848133 0.077791624
000020 0b b3 bb 3d 96 73 fa bc c0 13 15 be ee d0 42 bd
       0.09165009 -0.030572694 -0.14558315 -0.047562532
000030 96 fa 94 bd 08 31 ad 3e 8e 38 0a 3e 20 70 0f be
       -0.07274358 0.3382647 0.13498136 -0.14007616
000040 9d 9d bf 3d 5a 2f 1d 3e 24 0b 9e 3c 5a 65 20 3d
       0.09356234 0.15350094 0.019292422 0.039159156
000050 aa f7 16 bd 11 02 99 b8 9b 1b 7f bc 5a 69 fe 3c
       -0.036857285 -7.2959934e-05 -0.0155705465 0.031056095
000060 0f 07 57 bd 8e b6 c7 bd 21 06 80 bd 8b 81 c3 3c
       -0.052496966 -0.097516164 -0.06251169 0.023865482
000070 dc b4 d1 3d 42 80 5c 3e c7 f8 76 3e ee 9f 5a bd
       0.10239574 0.21533301 0.24118339 -0.053375177
000080 e8 d3 52 3e e7 6c dc 3d ed 7a 99 3c 36 d3 9f 3d
       0.20588648 0.10762959 0.018735373 0.07803957
000090 c2 4b 2f be 3e 50 e6 3d 7f 4a 96 3c d6 d7 0f 3e
       -0.17118743 0.11245774 0.01834607 0.14047179
0000a0 d0 0a 20 bd c5 e1 b3 bb 9b 1d 23 3c 34 5e 5c 3c
       -0.03907281 -0.0054895603 0.009955789 0.013450194
0000b0 75 2f 10 be e3 8a 1d be 3e 74 83 3d 92 31 3a 3e
       -0.14080603 -0.15385012 0.06418656 0.18182972
0000c0 29 c1 92 bd 73 0e b3 3d 29 00 0c be 4f 11 6f bd
       -0.071657486 0.0874299 -0.13671936 -0.058366116
0000d0 9e ca 3c bd fc e2 dc bd 23 f8 04 bc 61 e4 7a 3e
       -0.04609167 -0.10785481 -0.008115801 0.24501182
0000e0 5f 87 d2 3d d3 13 84 3c 81 66 5f 3d 37 ef 16 bd
       0.10279726 0.016122734 0.054541115 -0.036849227
0000f0 a0 e7 2f 3e f7 5f d1 3d 70 59 4b be b6 2d 6f 3d
       0.17178202 0.10223382 -0.19858336 0.058393203
000100 72 c4 16 3a 3f 95 18 be cd 15 60 be 42 39 3e 3d
       0.00057513185 -0.14900683 -0.21883316 0.046441324
000110 82 e6 2f bc 52 9e 0e 3e 5f 95 33 bc 31 5f fd bd
       -0.01073611 0.13927582 -0.010960906 -0.12371672
000120 74 3e b9 3d 39 1f df bc fa 5f 40 bd 1c 3e fc bd
       0.09045115 -0.027236568 -0.04696653 -0.12316534
000130 41 e1 4d be 31 06 8a be 82 11 2c bd 81 ec 97 3b
       -0.20105459 -0.2695785 -0.042008884 0.0046363478
000140 91 1f 2b 3e aa 71 3f be 00 22 20 3d a3 e3 e2 bd
       0.1671126 -0.18695703 0.039094925 -0.110785745
000150 42 7e d4 3d 08 9c 07 be b2 d8 09 bd 66 04 8c bd
       0.10375644 -0.13243115 -0.033653922 -0.068367764
000160 d7 fc 10 bc 35 97 85 3d cc 4f a2 3e 31 93 bb bc
       -0.008849344 0.06522981 0.31701505 -0.022897335
000170 15 d2 30 3e 8d ac 0e 3f d2 34 8d 3e be 4c 0c 3f
       0.1726764 0.5573204 0.2757936 0.548046
000180 90 18 ae 3e 9c 90 a4 3e 4e c5 c6 3e e5 b7 1c 3f
       0.34003115 0.32141578 0.38822407 0.612181
000190 cc b3 9d 3e 36 ea 07 3e 4f 7a 0e 3f 00 1c cf 3e
       0.30801237 0.13272938 0.5565538 0.4045105
0001a0 9b a0 e7 3e d9 80 a4 3e 2b f6 f8 3e 28 d4 b0 3e
       0.4523972 0.32129553 0.4862531 0.34536862
0001b0 c7 f2 0a 3f 16 b2 50 be 12 5a b0 be 8c 8f e0 3e
       0.542767 -0.20380434 -0.34443718 0.43859518
0001c0 7b 68 3e bf 3c 95 bf bd c6 e5 9b bf e4 00 b3 3e
       -0.74378175 -0.09354636 -1.2179496 0.34961617
0001d0 a7 9c e2 3e 67 f8 90 be 8f ff c2 be e3 0e 82 be
       0.4426014 -0.28314516 -0.380856 -0.25401983
0001e0 0a 33 e0 3d 64 c1 d3 3b f5 30 53 3d fa d0 fe be
       0.10947235 0.006462263 0.05156036 -0.4976881
0001f0 3f db 96 bd b9 46 fe be 51 ac 72 3e d9 30 15 3f
       -0.073660366 -0.49663332 0.23698546 0.5827766
000200 00 51 94 be 1c a3 60 bd 7a 1d 1d 3e ae b6 09 be
       -0.28968048 -0.054843053 0.15343276 -0.13448593
000210 61 4e 21 3d 84 e2 74 3e 09 df 2a be fd d4 a8 3e
       0.03938139 0.23914534 -0.16686644 0.32974997
000220 28 bd aa 3e 69 e9 ae 3e 43 9f 34 bd 6f c2 e0 3c
       0.3334744 0.34162453 -0.044097196 0.027436463
000230 10 9e 52 be dd 37 9d be 27 ea ba be 72 7c ca 3e
       -0.20568109 -0.30706683 -0.3650677 0.3954807
000240 43 36 c5 bd 31 fd 1f be 43 83 81 be 95 c7 de be
       -0.0962949 -0.15623929 -0.25295457 -0.43511644
000250 fa 73 d8 bd b4 67 1a be ee 0f dc 3d 05 d3 4c 3e
       -0.10568996 -0.15078622 0.10745226 0.20002373
000260 42 eb 4e be 0a f0 23 3f 77 fe 5e 3e 7a be 90 bd
       -0.20206931 0.64038146 0.21776758 -0.070675805
000270 5b bf ab be 51 aa 23 bd 60 7e 05 3e c4 7c 0b 3e
       -0.3354443 -0.03995735 0.1303649 0.13621813
000280 72 dd 3f 3f ae e5 54 3d 9c 9e 8b bd ff d0 0f be
       0.74947274 0.051976852 -0.06817362 -0.1404457
000290 ff 8e 49 3d 94 76 72 3e 6e 34 45 be f4 d8 72 be
       0.049208637 0.23678046 -0.19258282 -0.23715574
0002a0 59 d4 e8 bd 04 2b 0f be 92 a1 2c 3f 57 a0 11 be
       -0.11368627 -0.13981253 0.67434037 -0.14221321
0002b0 35 91 26 bf 0c 23 ad be 8d 32 43 bf f2 aa 05 3e
       -0.6506532 -0.338158 -0.7624901 0.13053492
0002c0 41 a9 8e 3f d6 62 94 3e 6e fa a2 3e e7 e2 a1 3e
       1.1145402 0.28981656 0.31831688 0.31618425
0002d0 8e ac 14 be 91 c1 70 be 39 92 98 3e 04 0f c4 3e
       -0.1451895 -0.2351134 0.2979906 0.38292706
0002e0 e4 3d 0c bd 8d fb 16 bf b0 80 cb be 9c 9f 85 3e
       -0.03423871 -0.58977586 -0.39746618 0.26098335
0002f0 e9 11 60 3c 53 c3 e2 bd 10 d5 50 3f 0d 5d 38 3e
       0.013676145 -0.110724114 0.8157511 0.18004246
000300 e9 42 77 be bf 2e 32 bf c1 fc 33 3e 8c 51 24 3f
       -0.24146618 -0.6960258 0.17576887 0.6418693
000310 a4 17 0d be bd a1 7a be e6 37 22 be e5 4c 0c be
       -0.1377855 -0.24475761 -0.15841636 -0.13701208
000320 00 c3 ab be 2c 64 0a 3e f1 0f 42 bd a9 29 96 be
       -0.3354721 0.13514775 -0.047378484 -0.2932866
000330 b9 9f 2e be 6b c9 18 be fa dc 34 3e 30 b3 1f be
       -0.17053117 -0.14920585 0.17662421 -0.15595698
000340 d6 bc 1b be e7 66 45 3e de 72 df be 31 a9 46 3d
       -0.15208754 0.19277535 -0.43642324 0.048501197
000350 f0 a3 60 3d 7c 2e 14 3e a5 0a f0 bc c6 bd cd bd
       0.054843843 0.14470857 -0.02930195 -0.10045962
000360 a9 6f 28 3e 2a 91 16 bd 5e e0 46 be 26 db ab 3d
       0.16448845 -0.036759533 -0.19421527 0.083914086
000370 a2 bc 3e bd a7 3c 27 be fa dd 83 3d 2e 87 6c 3e
       -0.046566613 -0.16331731 0.06438823 0.23098442
000380 b6 18 a0 3d bd 50 eb 3b 4b 30 1f be b1 fb 13 bd
       0.07817213 0.0071812556 -0.15545766 -0.036128704
000390 89 7d d6 bc 82 5f af 3d d2 53 10 bd 37 1a 2c be
       -0.026182907 0.085631385 -0.035236187 -0.16806875
0003a0 99 ae 19 be 3d 29 6c bd 63 18 52 bd 1a 0b c9 3e
       -0.1500801 -0.057656515 -0.05129279 0.39266282
0003b0 b9 ea 5d 3c a5 03 ee bc f1 f4 1b 3e 12 9f cc 3c
       0.013544732 -0.029054472 0.15230156 0.024978194
0003c0 dc 30 55 3c fc 6f 85 3d c2 64 9b 3d f6 f8 53 be
       0.013012137 0.065155 0.075875774 -0.2070044
0003d0 0d 5d ab bd 5d 21 5b 3d c3 93 2b 3c 42 4c d0 bc
       -0.083673574 0.053498615 0.010472241 -0.025426988
0003e0 21 fe 23 3e 1c 9b 12 3e 68 75 c9 3d a7 f2 24 be
       0.16014911 0.14316982 0.098368466 -0.1610819
0003f0 e0 74 5e bd 4d 32 6e 3d 84 01 a8 3d bc 5b 43 3c
       -0.05431068 0.05815344 0.08203414 0.011923727

l1.bias f4 [100]
000000 43 ee dc bd 12 0f 01 3d da dd 88 3e f4 94 f8 bd
       -0.10787632 0.031508513 0.2673176 -0.121377856
000010 3e 8f 25 bd 52 f4 0f be 14 48 59 3d 12 1c 02 3e
       -0.04041981 -0.14058045 0.053047255 0.1270602
000020 44 79 e1 bd eb 77 20 be 3b c1 60 3e d9 a3 20 be
       -0.11009458 -0.15670745 0.21948712 -0.15687503
000030 7a c6 a6 3d 77 33 89 3e f7 71 08 3d 05 61 a9 bd
       0.08143325 0.26797077 0.03331181 -0.08270458
000040 d1 86 a2 3d 3e e4 8b 3d 20 b7 2b be 65 b0 32 3e
       0.079358704 0.06830643 -0.16769075 0.17450102
000050 55 61 82 be 58 1b 6b be 77 18 d3 bd 25 24 90 3e
       -0.25464883 -0.2295965 -0.10307401 0.28152576
000060 98 d4 2e 3d 43 20 12 bd c0 c9 4a be 9e 67 8f bd
       0.042683214 -0.0356753 -0.19803524 -0.07002185
000070 c8 dd a2 3d a2 72 41 3e 29 0a 08 bd 13 36 3c be
       0.07952458 0.18891385 -0.033212814 -0.18380003
000080 f9 be 34 be fd 47 c3 bc dc 85 98 be ee fe 95 3d
       -0.17650975 -0.023838038 -0.29789627 0.073240146
000090 b4 8b 6c be d1 77 fe 3d bd f4 93 bd b7 aa 0d be
       -0.23100168 0.12425197 -0.072244145 -0.13834654
0000a0 39 cf 83 3c b1 f4 38 3e 8d d7 91 3d 48 4e a5 3e
       0.016090022 0.18062092 0.07121191 0.32286286
0000b0 8b b1 db 3d 87 39 89 3d 14 01 44 3d bf 25 21 3e
       0.10727223 0.067004256 0.04785259 0.15737055
0000c0 a7 fe 17 3d 2f 0c 09 be 0c d3 a6 bd 4f 1f 69 bd
       0.03710809 -0.13383554 -0.08145723 -0.056914624
0000d0 4a 8c 11 bc 29 5b df bd a7 34 35 bc 54 6c 83 3e
       -0.008883545 -0.10906059 -0.011059917 0.25668585
0000e0 64 3d 1d 3c ec 88 9f 3d 22 b1 bb 3c 03 b5 4b 3e
       0.009597156 0.07789788 0.022911612 0.19893269
0000f0 4a e6 8f 3e 6b 80 fe bc 32 e2 a7 bd af b3 bb bd
       0.28105384 -0.031067094 -0.0819744 -0.09165131
000100 79 01 34 3e 3c 5d 33 be 45 67 7a bd 2f 68 c7 3e
       0.17578687 -0.17516035 -0.06113364 0.38946673
000110 44 8a 9a bd 48 52 2d 3e a1 42 85 bb 9c 73 b5 3d
       -0.07545903 0.16925919 -0.0040667807 0.08859941
000120 40 9d 17 be 73 f1 a7 bd 11 0b 51 3e fb c0 1f 3d
       -0.1480608 -0.0820035 0.20414378 0.0390024
000130 7d fa 51 3b 3b 13 0a 3e 17 b2 40 be 17 e2 89 3e
       0.0032040172 0.13483898 -0.18817936 0.26930305
000140 c8 0f 6b be fe 7a cb bd 99 41 a1 3d 66 48 f7 bd
       -0.22955239 -0.09935568 0.0787384 -0.12074356
000150 5b 4f c6 bc 56 a4 95 3e 53 93 a3 3d ef e6 ad 3a
       -0.024207762 0.2922694 0.07987084 0.0013267676
000160 84 ec 95 3d 0e 6f 6d 3e 7b c3 46 3e 66 06 58 3e
       0.073205024 0.23186895 0.19410507 0.21096191
000170 a2 3e 05 bd 64 ed f5 bc 3a 72 54 be 3f f7 07 bc
       -0.032530434 -0.030020423 -0.20746699 -0.008298694
000180 52 c3 58 3e 21 53 bf bc 16 f5 da bd 06 3e ff 3c
       0.21168259 -0.023355069 -0.10691278 0.031157505

l2.weight f4 [100, 100]
000000 9f 44 0a 3e e6 fa eb be 36 40 71 be 1a 29 90 bc
       0.1350274 -0.46089858 -0.23559651 -0.017597724
000010 a7 06 3a 3e 35 76 0b be 8e df 95 bc cb 5a b2 3d
       0.181666 -0.13619311 -0.018295076 0.08708724
000020 5c 91 a1 bd 2d c2 fc bd 31 cb 4a 3d 55 75 02 3f
       -0.07889053 -0.123417236 0.049510185 0.50960284
000030 ca 83 c1 bd 1f d0 4c bd f6 de 8c 3e 3a 78 56 3e
       -0.09448965 -0.050003167 0.27513856 0.209443
000040 85 15 81 3b fa 9c 8b be f9 19 0d 3e 70 09 58 be
       0.003939333 -0.272682 0.13779439 -0.2109735
000050 5d 73 fb 3e b6 e5 98 bd f5 95 47 3e 2c 39 36 be
       0.49111453 -0.07465689 0.19490798 -0.17795247
000060 37 12 d1 3e 47 cc c6 3d 2a 4d 23 bd dc 48 18 3e
       0.4083421 0.097069316 -0.03986851 0.14871544
000070 42 73 a9 bd 50 22 98 be ce cf 32 3e bd c0 32 be
       -0.08273937 -0.29713678 0.17462084 -0.17456336
000080 90 77 ae 3e c2 f9 9f bd 9f 84 2d 3e b1 05 80 bd
       0.34075594 -0.078113094 0.16945122 -0.062510855
000090 0d 5c ad 3d 73 47 d0 bd 96 b3 9c 3e 0f d4 99 bc
       0.08464823 -0.10169878 0.30605763 -0.018777875
0000a0 e8 2e 3e 3c 56 f8 3d be f8 57 a3 be 4f 99 f1 be
       0.011607863 -0.18551764 -0.31903052 -0.47187278
0000b0 85 f1 ee bc 32 d6 97 3d 28 e8 84 3e 12 e7 00 3e
       -0.0291679 0.074139014 0.2595837 0.12588146
0000c0 07 90 a2 3e 1e 55 28 be 9f 90 62 3e 2e 2d 02 bc
       0.3175051 -0.1643872 0.22125481 -0.007945342
0000d0 27 50 1f 3e 50 27 fd bd 94 ad 36 be 75 c4 67 3e
       0.1555792 -0.12361014 -0.17839652 0.22633536
0000e0 78 21 ce 3e 7a 4e b2 be e5 07 16 be d6 a9 d2 3d
       0.4025991 -0.34825498 -0.14651449 0.102863
0000f0 8f 04 39 3e 64 c0 18 be ea 10 05 be 07 68 8c be
       0.18068145 -0.14917141 -0.12994733 -0.27423117
000100 79 d3 c6 bd 07 19 3a 3e a6 ce ed be 15 8a 8f be
       -0.09708304 0.1817361 -0.46446723 -0.28035036
000110 03 cc 83 3e c2 60 ac bd 28 7a c1 be a5 f5 05 be
       0.25741586 -0.084168926 -0.3778851 -0.13081987
000120 ff 84 96 3d 82 fc c0 bd 70 3c 1f be 85 b5 49 be
       0.07349586 -0.09423162 -0.15550399 -0.1969815
000130 ae 59 92 3e 5c 75 51 bf 84 8a 1f bd 14 2b d1 be
       0.28584045 -0.818197 -0.03895046 -0.40853179
000140 13 43 0a 3e 7a 44 98 bd 82 ce 44 3e c6 90 29 3e
       0.1350215 -0.07434936 0.19219401 0.16559133
000150 b2 63 8d be 6c 23 1e 3e 0a 04 67 3e e4 df 12 bd
       -0.27615124 0.154432 0.22560135 -0.03585805
000160 f5 b5 76 3e a8 27 46 be 2c 80 b9 3e 27 9a 90 be
       0.24092849 -0.19351065 0.362306 -0.2824261
000170 fa f2 ae bd d0 a3 2e 3d 0d 56 9e bd 9b 7c 68 3e
       -0.08542438 0.042636693 -0.07731257 0.22703783
000180 e6 51 43 be 8e b1 ed 3e ff 82 b8 bd ba 6e 9a 3e
       -0.1907421 0.46424526 -0.090093605 0.30162603
000190 34 e6 59 be 3a 2a 1c 3f 05 c7 a8 3e 04 cc 9e be
       -0.21279222 0.6100193 0.3296434 -0.31015027
0001a0 4b cb a6 be 84 0f 36 3d be 75 6b 3e 4c 81 a8 3d
       -0.32576975 0.04444839 0.22994134 0.082277864
0001b0 de e4 ac bd d6 87 32 3e ed d3 e2 3d 3e 43 b0 bd
       -0.084420905 0.1743463 0.11075578 -0.086065754
0001c0 d8 e4 83 3c ae 90 7f 3e 80 cc de bd 51 7b 68 be
       0.016100332 0.24957535 -0.10878849 -0.22703291
0001d0 a9 80 fe bd b2 c4 e5 3d 53 4f c5 be 75 8e 5c 3e
       -0.12426884 0.11219157 -0.38537082 0.21538718
0001e0 25 96 59 be dc e5 75 3e 05 1f 47 3d de 29 39 3e
       -0.21248682 0.24013466 0.048613567 0.18082377
0001f0 db af e3 bd 72 d5 0a be 22 aa 9d 3e dd b6 3b be
       -0.11117526 -0.13557985 0.30793864 -0.18331476
000200 5b 19 73 3e db a8 8e 3d ca a6 0b 3e 50 9a bd 3d
       0.23740141 0.069658004 0.13637844 0.092579484
000210 b0 5b ca be 29 f6 92 3e 04 f1 2b be f3 a1 16 3e
       -0.39523077 0.2870343 -0.16791159 0.14710216
000220 ea 85 78 3d 4c 79 2e 3d 88 97 13 be da 59 66 3e
       0.060674585 0.042596146 -0.14413273 0.22495213
000230 fc 31 98 be f6 59 86 3e 87 85 05 3d 18 ff 17 be
       -0.29725635 0.2624051 0.032598045 -0.14843404
000240 4c d1 c6 bd 71 6c 20 bb 60 68 3b 3d d7 b2 e1 3a
       -0.09707889 -0.0024478699 0.045753837 0.0017219436
000250 5d 80 e9 bd 58 0d d3 be c1 f0 5f bd 33 5e 48 be
       -0.114014365 -0.41221118 -0.05467296 -0.19567184
000260 fc c2 6e bd d4 37 b6 3c f3 7e fc 3d 65 1a f0 bc
       -0.05829142 0.022243418 0.12328901 -0.02930946
000270 29 c3 4f 3d 5d c5 e2 3e 9c 16 f1 3d 03 7f 5e be
       0.05072323 0.442912 0.117718905 -0.21728139
000280 c4 12 c3 3d 7f e7 ab bd 0c 12 53 3e f9 e5 66 bd
       0.09525064 -0.08393764 0.20612353 -0.056371663
000290 99 1f 02 3f 3c f9 63 bb dd 5b 21 3f a3 d0 be 3e
       0.50829464 -0.0034786006 0.630308 0.37268552
0002a0 7c c4 3d bc 47 4e ee 3a 97 ca 74 3e 36 1a 66 be
       -0.01158249 0.0018181287 0.23905407 -0.22470936
0002b0 bc 0a 30 bf 44 a8 47 be 3b 1a c7 3c 71 ff 5a 3d
       -0.6876638 -0.19497782 0.0243045 0.053466264
0002c0 36 49 19 be 18 fd b7 be b9 af 0c 3e 91 82 b5 3e
       -0.14969334 -0.35935283 0.13738908 0.35451177
0002d0 ae 69 8c be 49 31 95 be 2e bb a2 3d cc b8 08 3c
       -0.27424377 -0.29139164 0.07945858 0.00834484
0002e0 c1 45 2e bd e1 50 ee 3d c0 1b 71 be da f3 01 3e
       -0.04254699 0.1163652 -0.23545742 0.12690678
0002f0 56 ad b7 3c b1 45 ee 3e fe e6 19 bd 5e d6 4e 3e
       0.02242152 0.46537545 -0.037573807 0.20198962
000300 5a 3e 83 3d 8b e6 c2 3d 36 93 90 bb 11 5c 8b bd
       0.06408377 0.09516629 -0.00441208 -0.0680467
000310 7d 63 94 bd 0e d9 a9 be ba 43 2a bd 23 94 71 bb
       -0.072455384 -0.33173412 -0.041568495 -0.0036861978
000320 a5 7c 3d 3f 4a f6 a8 bd c3 78 08 bf 55 19 df 3d
       0.7401832 -0.08250101 -0.5330927 0.108935036
000330 64 63 8b be 5a 1b 20 3f 0d dc 31 bf 94 bd 3f bf
       -0.27224267 0.62541735 -0.69476396 -0.7489865
000340 f2 95 ac 3e 75 21 50 3f d6 35 9f bf 76 49 a9 3d
       0.3370815 0.8130105 -1.2438304 0.08265965
000350 86 b8 b6 be d5 77 6c bf 22 a4 87 bf 6e 0a ed 3d
       -0.35687655 -0.9237035 -1.0596964 0.11574255
000360 0c d4 6a bf b2 b2 9a bf 0d 61 bd bd 79 2a 1d be
       -0.9172981 -1.2085783 -0.092470266 -0.15348233
000370 53 6a a5 bd b5 71 20 3f 65 68 aa 3e bf 27 3a 3e
       -0.0807692 0.62673503 0.33282772 0.18179224
000380 7d 0d a8 bf 11 8f 9d 3e e0 f9 3f 3e 92 e5 cb 3d
       -1.3129116 0.30773214 0.18747663 0.099558964
000390 f6 73 6b 3e 50 2c 09 c0 27 00 a3 3f 13 cc aa 3e
       0.22993454 -2.1433296 1.2734421 0.3335882
0003a0 7f 3d 9d 3f 54 8b 18 3f dc e9 a5 3e b2 9e ce be
       1.2284392 0.595876 0.32404983 -0.4035545
0003b0 d8 1d fe 3c df 3c c4 bd 6a ad 27 3e 64 06 24 3e
       0.03102009 -0.09581923 0.16374746 0.16018063
0003c0 e1 c1 97 3e 39 1d 17 3b 9e 20 f2 3d 4c 87 6d bf
       0.29640105 0.002305819 0.118226275 -0.9278457
0003d0 ee 76 3d be ac b3 cf 3f 71 98 54 bf cf d5 46 be
       -0.185024 1.6226707 -0.8304511 -0.19417499
0003e0 51 43 96 3f ac 27 25 3f 40 40 c7 be 34 53 85 bd
       1.1739293 0.6451366 -0.38916206 -0.0651001
0003f0 0e ca 63 3f 16 7b 85 bf 8d 37 41 3f 1d 48 d0 3e
       0.88980186 -1.0428188 0.7547539 0.40680018

l2.bias f4 [100]
000000 75 35 c4 be f8 ab ef 3e b4 3d fd 3d d2 ad 90 be
       -0.38322034 0.4681089 0.123652846 -0.28257614
000010 ce 68 86 bc 7e 26 0f 3e 81 53 a4 bd 78 1d 2c 3e
       -0.016407397 0.13979527 -0.080237396 0.16808116
000020 4a b6 c9 3d 0e ff fb 3d a1 d2 c3 3d ac 1a ed 3e
       0.09849222 0.12304507 0.09561659 0.46309412
000030 b0 96 f9 3e bc 5a a1 be 0f 63 a6 3e 71 7d 13 be
       0.48747778 -0.31514537 0.3249745 -0.14403321
000040 41 4f 01 3f 34 7c 3f 3e 26 ca 81 be ad d4 6e bd
       0.50511557 0.18699723 -0.2534954 -0.058308292
000050 a0 c9 57 3e 67 fa c5 3e 1c c0 a8 3e 7b 83 3e 3e
       0.21073008 0.38667604 0.32959068 0.18604843
000060 b7 8a 21 3e 5b dc 9a be f7 3d 3d 3e 0a b6 cb be
       0.15775572 -0.30246243 0.18480669 -0.39787322
000070 1b 51 76 3d c8 15 69 bd 68 93 12 3e c9 95 6f be
       0.060135942 -0.056905538 0.14314044 -0.23396982
000080 92 1d b3 3e a8 26 87 3d 6e 52 b3 bd 0b b8 3d be
       0.34983498 0.0659917 -0.087559566 -0.18527238
000090 49 fc d4 bd 51 0e 1a 3e a5 29 8b bc 80 b2 04 bd
       -0.10399682 0.15044524 -0.016987631 -0.032396793
0000a0 bb de db be ad d0 e1 3d 7a 38 09 be 0d 99 8b be
       -0.42943367 0.1102613 -0.1340045 -0.27265206
0000b0 eb 87 44 3e fd 28 ac bd 2b 15 a3 3e c8 ef 95 3d
       0.19192474 -0.084062554 0.31852087 0.07321125
0000c0 e1 39 1b be e7 db 5f be de 80 d4 be c6 49 1b 3e
       -0.15158798 -0.2186123 -0.41504568 0.15164861
0000d0 5f f9 9b be 6c 47 ff 3d aa 3b 56 3e 50 47 8c bd
       -0.30463693 0.124647945 0.20921198 -0.06849539
0000e0 ee 78 d4 3e ba 8d d3 be c5 77 ea 3e a7 fe b6 3e
       0.41498512 -0.41319066 0.45794502 0.3574116
0000f0 eb 5b 09 3e c1 0e 80 bd bd 13 d8 bc 9d a2 d7 bd
       0.1341397 -0.06252814 -0.0263766 -0.10529063
000100 91 96 c5 be 46 9e 5b be 6a 7f 46 3e 83 81 32 be
       -0.38591436 -0.21447095 0.19384542 -0.17432217
000110 2f b7 d4 3c 51 39 cd bc f5 46 ba bd 43 26 05 3c
       0.025966255 -0.025051745 -0.09095565 0.008126798
000120 21 4f 52 bd 33 71 5a be 4f 47 a2 3d 33 b1 92 3d
       -0.051344994 -0.21332245 0.07923757 0.07162704
000130 24 9f e2 3e de 30 00 be b8 11 52 be 5d 5d 25 be
       0.4426204 -0.12518641 -0.20514572 -0.16148897
000140 86 1d 27 be 4f fa f7 3c aa 39 d4 3d f7 26 b0 3d
       -0.16319856 0.030270724 0.10362561 0.08601182
000150 93 58 01 be 9f 29 fc be fb 69 55 3e 02 bb 54 3e
       -0.12631445 -0.49250504 0.2084121 0.20774463
000160 a1 76 12 be cf 35 93 be 60 7a 24 be 75 95 00 be
       -0.14303066 -0.2875199 -0.16062307 -0.12557013
000170 65 5b 40 3e bd b2 08 3d 83 be 7f 3e 89 58 9b 3e
       0.18784864 0.033373583 0.24975018 0.30340984
000180 5a 06 10 be ae ee 66 3e c3 6b f9 3e 08 a3 67 be
       -0.14064923 0.22551987 0.48715028 -0.22620785

l3.weight f4 [18, 100]
000000 c2 ca 84 bd 37 a9 98 be fd 0f 4a bf c3 ea 8c 3e
       -0.064839855 -0.298166 -0.78930646 0.2752286
000010 b5 36 0b 3f d2 7c 03 bf 32 fd 2f 3e ec f0 63 be
       0.5438035 -0.51362336 0.1718643 -0.22259873
000020 35 a2 29 bd 69 1d c5 be 02 3a aa bd c7 4a c3 be
       -0.04141446 -0.38499 -0.08311845 -0.38142988
000030 03 b9 63 be 5b e3 1f 3f c8 dd f1 bd b3 df 74 bd
       -0.22238545 0.6245629 -0.118098795 -0.05978365
000040 b5 0e 7b be d0 d8 09 be da 8c 92 bc a5 5e 4f 3f
       -0.24517329 -0.13461614 -0.017889429 0.8100379
000050 89 d2 9f be b1 a9 00 be 75 db 1f be 40 7c 01 be
       -0.31215313 -0.12564732 -0.1561106 -0.12645054
000060 1d 2c a9 be 0d bf 97 3e 5a 43 16 bf 4b c0 ea 3e
       -0.33041468 0.29637948 -0.5869652 0.45849833
000070 9e e8 9e be 43 fa fa 3e 61 4a ae be 7c 1a 88 3e
       -0.31036848 0.4901906 -0.34041122 0.26582706
000080 57 06 82 be e1 73 0b 3f 23 2a da 3e 87 ae 57 3e
       -0.25395462 0.5447369 0.42610273 0.2106267
000090 c8 b0 71 3e 5d 13 f3 bd bd c7 04 3e 7c b2 a2 be
       0.23602593 -0.11868928 0.12966819 -0.31776798
0000a0 11 70 c8 3e 1b ee be be c8 21 d2 3d e1 b1 21 3e
       0.39148 -0.37291035 0.102603495 0.15790512
0000b0 7f a5 ab be ff 0b f1 3e 85 72 e6 3e 20 63 c7 3e
       -0.335247 0.47079465 0.45009246 0.38942814
0000c0 09 90 0c 3f 92 35 73 3e 6f 02 6f 3e 84 e2 d0 be
       0.5490728 0.23750904 0.23340772 -0.40797818
0000d0 25 16 8e 3e a9 dc 1e bf 54 ac 0a bf ad dd 9c 3e
       0.2775127 -0.6205545 -0.541692 0.30637875
0000e0 18 3c 81 be 3d 44 ef 3d 34 41 83 be 9c 19 10 be
       -0.2524116 0.11682937 -0.25635684 -0.14072269
0000f0 7c df 01 3e 23 2a 1e bf fa 80 0a 3f ee 15 72 3e
       0.12682909 -0.61783046 0.5410305 0.23641178
000100 1b d0 cd 3e f9 43 01 3f 18 b8 c5 be 2c 96 6c 3e
       0.40197834 0.50494343 -0.38617015 0.23104161
000110 6b 92 0b bf 3e 9b 0a bf 5d 82 85 3d 37 ab 0f be
       -0.5452029 -0.5414313 0.065190054 -0.14030157
000120 bc 79 b3 3d 15 ea 15 3e 38 4c 8b be 2b d3 03 be
       0.08763453 0.14640076 -0.27206588 -0.12873523
000130 90 10 45 be 09 41 63 3e 8c 1f b8 be 24 b4 8b 3e
       -0.192446 0.22192778 -0.35961568 0.27285874
000140 cb 26 0d 3f 18 a0 bb bd 4c a8 05 bf 3d 25 e6 be
       0.5513732 -0.09161395 -0.52209926 -0.44950286
000150 8d 1d 3f 3e dd cc 42 3e f9 07 1d be 0b a2 fe be
       0.18663616 0.19023462 -0.15335073 -0.49733004
000160 14 dc 84 3d fb 64 1b 3e b6 19 89 bc 93 4f 0a 3e
       0.06487289 0.1517524 -0.016735893 0.13506918
000170 c2 30 17 3d 0e 8a 6a be 64 04 72 be ee 0a 2b be
       0.036911733 -0.22904226 -0.23634487 -0.16703388
000180 7f 58 ba 3d bf 1c c1 3e b9 1b c3 bd 08 81 b2 3e
       0.090989105 0.37717244 -0.09526772 0.34864068
000190 26 33 fd 3d 2b e0 a6 3d 10 6a 2c bf e3 a2 ae 3d
       0.123632714 0.081482254 -0.6734934 0.08527162
0001a0 a2 d3 2f 3f 5d c8 b7 be 5b af b7 3e a2 ff 7d bd
       0.686823 -0.35895053 0.35875973 -0.06201137
0001b0 39 75 a5 be 4c 77 09 bf db 94 c1 3d 2c 2d 5b be
       -0.32315996 -0.5369766 0.0945222 -0.2140395
0001c0 12 35 e8 bd f7 10 f9 3e 19 fd b9 be db 63 eb 3d
       -0.11338247 0.48645756 -0.3632591 0.11493655
0001d0 2f 23 a6 be 96 80 ab be af eb 96 3d 37 35 fe 3e
       -0.32448718 -0.3349654 0.07369172 0.49649975
0001e0 10 b6 93 be 1d 04 a3 be fb 0a c1 be 10 89 fa bd
       -0.2884984 -0.31839076 -0.3770369 -0.12233174
0001f0 55 b7 b5 be dc 8f 8a 3d dd 0d 2a bf e3 c7 dc 3e
       -0.35491434 0.0676572 -0.66427404 0.4312125
000200 05 98 ad bd 5f 02 e0 3e 27 9e 03 bf 51 39 89 3e
       -0.08476261 0.4375181 -0.51413196 0.2680154
000210 54 f4 05 be 07 00 0f 3f b0 11 88 3e a7 ea 03 3e
       -0.13081485 0.55859417 0.26575994 0.12882482
000220 4b a2 74 3e c6 e3 96 3d e5 46 89 3e 32 fa 04 bf
       0.23890035 0.07367663 0.268119 -0.5194427
000230 6d f0 77 3e 4f 72 e0 be ff 10 98 3d 7f d3 57 3e
       0.24212809 -0.4383721 0.07425117 0.21076773
000240 0e ed 89 be 7e 0a e0 3e 1e 4d fe 3e d2 d3 a6 3e
       -0.2693867 0.43758005 0.4966821 0.3258348
000250 12 d7 29 3f 0b d1 a6 3e 3e c5 fc 3e 94 d0 f6 be
       0.66343796 0.32581362 0.49369234 -0.48206007
000260 5f d5 f1 3d 6c 5b 86 be ea 62 49 bf 0d ee 51 3e
       0.118082754 -0.26241624 -0.78666556 0.20500965
000270 69 21 58 be 70 89 b5 3e 92 ec 8d be 62 73 df be
       -0.21106495 0.3545642 -0.2771955 -0.43642718
000280 55 5f 5c 3e 29 70 31 bf 60 25 90 3e 53 48 b7 3d
       0.21520741 -0.6931177 0.28153515 0.089493416
000290 ff b0 a7 3e 32 21 04 3f b6 fe 64 be 9b 40 da 3e
       0.32752225 0.5161315 -0.2236279 0.42627415
0002a0 5d fe fc be 0e c9 e6 be 37 7c 54 3e dd 24 d1 bd
       -0.49412814 -0.45075268 0.20750509 -0.10212109
0002b0 15 5e a0 bd 9a 34 ac 3e 2d 7c 3b be 7c 4d 99 be
       -0.07830445 0.33633882 -0.18309088 -0.29941928
0002c0 fc 16 f6 bd bd 2c a0 3e 85 cf b6 be 35 a5 58 3e
       -0.12016103 0.31284133 -0.357052 0.21156771
0002d0 a8 e7 03 3f a5 9b eb be a4 ae 30 bb 0b d1 d0 be
       0.51525354 -0.46017185 -0.0026959563 -0.40784487
0002e0 df e6 a4 3d ab 2e b2 3e 1e 1c 7d be c5 67 2f be
       0.08051848 0.3480123 -0.24717757 -0.17129429
0002f0 be 16 5b 3e b8 2d 9d 3e b0 a4 09 be 86 5b f5 3c
       0.21395394 0.30698943 -0.1344173 0.029950868
000300 4e 62 5e be ac 51 8a be eb 58 00 be 7c c1 14 be
       -0.21717188 -0.27015436 -0.1253392 -0.14526933
000310 8d b9 d5 3c 03 29 b1 3e fa 31 5f be ee e4 b3 3e
       0.026089454 0.34601602 -0.21796408 0.35135597
000320 73 4e 9f 3e 69 2b ef be dd 8f 37 bf 5b 8c f2 3d
       0.3111454 -0.46712807 -0.7170389 0.11843177
000330 65 9b 7a 3e 14 68 f8 be 53 a0 94 3e fe e4 86 be
       0.24473341 -0.48516905 0.29028568 -0.26346582
000340 3f 91 ac be 83 42 b4 be e8 00 47 bd ab 56 b8 bd
       -0.33704564 -0.35206994 -0.04858485 -0.090009056
000350 c8 ac 90 3d ab 22 16 3f 2a 2c 88 be 45 91 71 bc
       0.070642054 0.5864665 -0.26596195 -0.014744108
000360 d7 85 2b be d1 87 6a be 7d 94 66 3e 23 93 51 3f
       -0.16750275 -0.22903372 0.22517581 0.8186514
000370 dd b5 7b be 7c 0b 14 be 00 22 8a be 53 bc a0 be
       -0.24581094 -0.14457506 -0.26979065 -0.3139368
000380 97 d9 28 be eb 40 8f bd eb db 47 bf aa 27 0f 3f
       -0.16489254 -0.06994804 -0.78069943 0.559199
000390 22 d1 3c be cf d9 06 3f c3 36 a7 be 9e da 66 3e
       -0.18439153 0.526761 -0.32658967 0.22544333
0003a0 32 58 80 be 39 08 e3 3e 7a 20 e8 3e b0 d1 98 bd
       -0.25067288 0.4434221 0.45337278 -0.0746187
0003b0 66 70 83 3e 94 4d 9a be ad 00 93 3d 23 18 49 be
       0.2567169 -0.30137312 0.07177863 -0.19638114
0003c0 8f 1d 90 bd 08 e7 8c be 2b e5 6f 3c 12 0f 87 3e
       -0.07036888 -0.27520013 0.01464204 0.26378685
0003d0 cd 39 8f be 98 55 15 3f 9e c3 da 3e 6f 29 0d 3f
       -0.27973786 0.5833373 0.4272737 0.5514135
0003e0 f7 14 01 3f 68 f5 a0 3e 84 ac 74 3e aa 7d 0b bf
       0.50422615 0.3143723 0.23893934 -0.54488623
0003f0 53 74 26 be af b1 23 be 87 4d 0a bf d8 17 c5 3d
       -0.16255312 -0.1598575 -0.5402455 0.096236885

l3.bias f4 [18]
000000 27 f3 ba 3c 45 85 0d be 57 05 07 bf d9 f0 c4 be
       0.022821022 -0.1382037 -0.5274252 -0.38465002
000010 0e a1 8c 3d c0 12 c1 bd a3 64 48 bd f2 6f de be
       0.06866656 -0.094274044 -0.0489241 -0.43444782
000020 4f 8e 44 be 54 1f 87 be ef c2 75 bc f4 97 bd be
       -0.19194911 -0.2639109 -0.015000089 -0.37029994
000030 e0 d5 c6 be 34 18 9b 3e 16 a3 07 be 64 ad a2 be
       -0.3883505 0.30291903 -0.13245806 -0.31772912
000040 16 49 ef be c3 f0 c5 be
       -0.46735448 -0.3866025
