data/result/d_640.pt (torch, 94638 bytes, 7 tensors)

D_attr_matrix.weight f4 [36, 5]
00000000: c806 963d f054 e3be 13bd 1cbe b628 9b3d
00000010: 1264 a5bd bc73 d0be 2a2d a2be 75f7 393e
00000020: 1181 dfbe 132d e53e 7826 613e f992 553b
00000030: 17e2 fcbc fa44 cebc 72d2 d23c 524e b0bd
00000040: 6fcc d3be 4257 903e e814 393e 6cb4 74be
00000050: b402 bd3c b6d6 44be f36d b7bb bf3b bc3d
00000060: 3a8e d53d cdbe 52bf d70b 49bf 4c43 883e
00000070: 5bf4 093f 93d5 05bf b68d 3fba 62f9 efbd
00000080: 6e17 65bc b243 093f 246d 513c 24e2 173f
00000090: 479e 7cbe b432 0a3f ae0c 17be 2131 cfbe
000000a0: 15d6 dbbe 0c57 083e abd7 133e 1523 83be
000000b0: 67b1 0c3d 065b 28be 284a cc3d 4e4e cfbe
000000c0: 99bc 7fbd b7e3 253e c865 2d3e 3b32 e83d
000000d0: fbda 763d c8a8 c53c 97ef 1c3d 4c8a 4ebc
000000e0: 23a2 c03e 3fb7 02be 1874 63be 86b2 90be
000000f0: 61bb d2bd 2651 a23c 45e3 85bd 4ef4 4ebc
00000100: 0483 c7bc 4cb4 5dbe 87e6 d03e 83fc ea3d
00000110: 4b28 373f 6270 553f a0d9 0d3e 9ddd 7a3e
00000120: 29b1 02bd 5c38 81bc f214 ccbe 5087 09be
00000130: 2ebc 7a3e 4f1c 2b3e 7b09 aa3c 540a 913e
00000140: 1da0 393c 9596 f03c 90c2 7dbc e19c 2f3e
00000150: ab75 e7bb c16b b4be 5a0c 3dbf 3751 f73e
00000160: 0add ba3e 96bd 343e aadb 653d 3a38 793a
00000170: 08f5 a2bb ec31 e0bc 7983 a9bd 406f e7be
00000180: dd4a 69bc 062e 2c3e 62e5 9a3e 6b89 07bf
00000190: 06d8 79bc 1afd 89bc 95eb d83a 1329 c63c
000001a0: 6f3d 80be a5ad 963e 4fe0 be3e 6e38 0a3f
000001b0: 3a20 0e3d d3ba 5d3e 7e88 52be 152a 8c3c
000001c0: 862a 923c 61ab 09bb a15a c6bc 554d f23b
000001d0: 1a75 1c3f b90c 16bf 945f 333d ddb7 313f
000001e0: 612e fcbd 5ad1 aebd 5de4 ff3c e851 c3be
000001f0: 5963 c3bc eff3 9a3d aa91 11bd 4463 15bf
00000200: 459a 4cbe f7d2 b93e bfb0 333d 21b9 6e3d
00000210: f46c 23be 824a 82bd dcde 81bd 110e 85be
00000220: d4d2 bdbe 1dfd 28bd f086 fd3e 5b20 c43e
00000230: 2025 9c3d f763 4a3d 6803 163a 37a0 84bd
00000240: 099a 983d ac52 05bf 4df9 a2be f4f6 263a
00000250: 4ad0 d13e 827f e7be 3d5a 1cbe d1d9 0d3e
00000260: 45f5 003e 6b85 ae3d 97fa 36bd 54d0 263f
00000270: 6d3a 133e e385 0fbf 9205 bfbe aedc 4d3e
00000280: d8c7 be3a 5bd6 c9bd 1310 ff3d 70cc 183d
00000290: ee9a 18bc 07af e2bb 733d 5cbe 398d 01bf
000002a0: fd37 cebd 866b 9d3d 6bc2 d23c 48da 873e
000002b0: aaae dabc f02d 64be aeaa 33be c225 52bf
000002c0: c8da 453e 08a9 593f 8183 8bbe 68c7 92be
0.07325512 -0.4440074 -0.15306501 0.07576124 -0.080757275 -0.40713298 -0.31675082 0.18160804
-0.43653157 0.4476095 0.21987331 0.0032588823 -0.030869527 -0.025179375 0.025735114 -0.086086884
-0.41366908 0.28191572 0.18074381 -0.2389695 0.023072578 -0.1922253 -0.0055978238 0.09191083
0.10427518 -0.8232239 -0.7853369 0.26613843 0.5388848 -0.52279013 -0.00073071884 -0.11717488
-0.013982637 0.5361892 0.012782369 0.5932944 -0.24669753 0.53983617 -0.1475093 -0.4046717
-0.4293677 0.13314456 0.1443774 -0.25612703 0.03434887 -0.16440973 0.09975082 -0.4048943
-0.06243572 0.16200148 0.16933358 0.11337706 0.06026743 0.024128333 0.03831443 -0.012606215
0.376237 -0.12765215 -0.22212255 -0.28261203 -0.10289646 0.019814085 -0.06537489 -0.012631489
-0.024354465 -0.21650809 0.40800878 0.11473944 0.7154586 0.8337461 0.13852549 0.24498601
-0.031907234 -0.015773945 -0.3985973 -0.13430524 0.24485847 0.16710018 0.020756474 0.28328192
0.011329678 0.029368678 -0.015488282 0.17149688 -0.0070635877 -0.3523846 -0.7384697 0.4830415
0.36496764 0.17650446 0.05611769 0.00095069746 -0.0049730577 -0.027367555 -0.082770295 -0.45202065
-0.01423904 0.16814432 0.3025313 -0.5294406 -0.015249258 -0.016844321 0.0016549701 0.024189508
-0.2504687 0.29429355 0.3728051 0.53992355 0.034698702 0.21653299 -0.2055988 0.01710991
0.017842542 -0.002100669 -0.024213137 0.0073944726 0.6111618 -0.58613163 0.043792322 0.6942118
-0.123135336 -0.085360244 0.031236822 -0.38148427 -0.023851084 0.07566058 -0.035539307 -0.5835459
-0.19980724 0.36293766 0.04386973 0.05828202 -0.15959531 -0.063618675 -0.06341335 -0.25987294
-0.37074912 -0.041257013 0.49517012 0.38305935 0.076242685 0.04941174 0.00057225535 -0.06475871
0.07451255 -0.5207927 -0.31830826 0.00063691963 0.40979224 -0.45214468 -0.15268798 0.13852622
0.12593563 0.08521541 -0.044672575 0.65161633 0.14377756 -0.5606367 -0.37308937 0.20103714
0.0014555408 -0.09855338 0.12454238 0.03730434 -0.009314282 -0.0069178375 -0.21507816 -0.50606114
-0.10069273 0.07686524 0.025727471 0.26533723 -0.026694614 -0.22283149 -0.17545578 -0.82088864
0.1932174 0.85023546 -0.27248767 -0.2866776

l1.weight f4 [100, 108]
00000000: 7447 1fbd ff2c 103e 055d 98bc 940b f43d
00000010: a2d0 033e 3c7c eebd 6540 853c 6a1a a33d
00000020: 25a6 bc3d 79c9 0abd 257f 0fbe 2577 3fbd
00000030: 2b45 96bd 8919 ad3e 326c 0a3e 2570 0dbe
00000040: 1660 c03d db47 203e 0556 943c ea20 0e3d
00000050: 91c6 11bd 8fce d9b9 9a5d 8fbc 524e 033d
00000060: f4ce 53bd 8eaf c9bd 03c6 7ebd b50f c53c
00000070: c81e cb3d 6a2b 5b3e fc00 773e 10ec 45bd
00000080: b84a 523e 3ca0 dd3d 24d0 973c 4a4b a03d
00000090: ad35 30be 3e68 e93d 041a 833c 65ef 0f3e
000000a0: 5135 14bd a992 57bb 85ad f63b f3f7 513c
000000b0: 1b92 12be 0620 1ebe c23a 8b3d 39b6 3a3e
000000c0: 8fda 95bd 373e b13d 0204 05be a7ee 4ebd
000000d0: 8f80 24bd fc6c d5bd 4eaf e2bb 0bb4 7b3e
000000e0: 88a3 d53d 5041 663c bd59 6f3d a26b 1abd
000000f0: fe45 2e3e 69bf cf3d 33f4 3ebe 65a9 713d
00000100: c3b4 febb bcfd 16be 8a47 5fbe 6bc9 3f3d
00000110: 7d15 39bc efb1 0d3e c30b d6bb 9dc8 f3bd
00000120: 5657 b73d e87d 03bd 7a7c 2bbd 1a76 00be
00000130: 955c 4ebe 5540 88be e6c9 1dbd ef73 c138
00000140: 481e 2d3e 8849 3ebe d825 333d b989 d6bd
00000150: 6bdb cb3d d128 08be c91a 0ebd 60e8 88bd
00000160: 5e5e 03bc d9be 863d f760 ae3e b234 1d3a
00000170: 34df b03e 34c8 d73e 775a 9b3e bded 0c3f
00000180: 6ae7 993e 90ec ae3e 8fff c23e a079 f43e
00000190: 9d05 9c3e b595 543e 3df7 3c3f 1c05 d43e
000001a0: f71f f33e 387c aa3e 98c7 0a3f f3cc a13e
000001b0: 1d5c 0e3f 59ea 58be b3a2 bdbe 4b8c e73e
000001c0: cb03 42bf 8b3c b7bd 6029 9ebf ebe2 c03e
000001d0: 405a f33e 5054 9ebe 189e cdbe 4872 86be
000001e0: f504 f63d d6bb 813c 5a08 5b3d 253e 02bf
000001f0: 75dc a1bd b4c1 02bf 776d 7b3e b226 193f
00000200: e4b8 98be e80b 43bd 4ca5 273e 5c3e 13be
00000210: 6c1f 2d3d cdae 7d3e f833 27be 351a b03e
00000220: dc77 bc3e 80a8 bd3e e66a 52bd 86c1 193d
00000230: 5af7 57be fb00 95be 3221 b7be a427 cb3e
00000240: 9282 b7bd 1593 17be c341 80be d9cb e0be
00000250: e0ad a0bd a998 f8bd 94c3 9b3d 7f64 523e
00000260: bc10 6bbe 0509 253f 94c4 5c3e 2f87 8ebd
00000270: 3791 adbe b703 44bd d6cf 213e bcb6 223e
00000280: 7b08 453f 484a 6e3d 76fd 95bd 9a75 17be
00000290: 7d66 483d 800e 853e a7ea 50be 9384 7dbe
000002a0: 19dc f1bd b5c5 15be b725 273f fee8 17be
000002b0: 94ce 22bf d726 b1be fce6 44bf 06b6 ff3d
000002c0: f33a 903f f6f2 983e 53b9 b33e 20d1 b23e
000002d0: 3318 12be ec7d 89be d798 a93e a6dd c43e
000002e0: ca42 e2bc bc8d 17bf d2e4 cdbe 2c29 8b3e
000002f0: 2752 d0ba 132c fabd c743 4d3f d9f3 313e
00000300: 78ee 67be cb06 3ebf 95bd 3a3e 72bf 2e3f
00000310: 952e 14be 02f1 80be 1568 07be 6be5 10be
00000320: 6c0c bfbe 1a1a 273e 00cb 9cbc 4ec7 8ebe
00000330: c8d2 15be 05e8 02be 4c07 393e 584c dfbd
00000340: e523 43be f502 443e 7202 f3be 1301 363d
00000350: bd79 643d bdd6 053e 8500 53bd e329 b4bd
00000360: 76f9 263e 03de 06bd 96e4 41be 0733 aa3d
00000370: 7ef8 3abd 144d 2bbe 0af4 8b3d cdca 6e3e
00000380: 5aa7 ac3d 1215 d83b bd35 2cbe 627a 06bd
00000390: 532b aabc d957 a83d 1a00 2abd d5ab 31be
000003a0: 9321 15be da24 80bd b09c 60bd 2c36 cc3e
000003b0: 8ac4 973c 1217 0bbd 43ec 123e 1090 f93c
000003c0: c9bf 2f3c d53b 7b3d 4d22 913d 632b 58be
000003d0: c64f 9dbd e105 623d 2724 763c b870 0bbd
000003e0: cc45 293e 5042 123e 679c cb3d 72d9 21be
000003f0: e0a1 6ebd 4758 503d a994 a73d e1a8 303c
-0.038886502 0.14079665 -0.018599043 0.11916271 0.12872556 -0.116447896 0.016266057 0.079640225
0.09211377 -0.033883546 -0.14013346 -0.046744484 -0.073374115 0.33808544 0.13517836 -0.13812311
0.09393327 0.1565241 0.018107424 0.034699358 -0.03558976 -0.00041543363 -0.017500687 0.032057114
-0.051711038 -0.098479375 -0.062200557 0.024055341 0.099179804 0.2140328 0.2412147 -0.04832083
0.20536315 0.10821578 0.018531866 0.0782686 -0.17207976 0.11396836 0.016003616 0.14056166
-0.03618366 -0.0032893813 0.0075280094 0.012815463 -0.14313547 -0.15441903 0.067983165 0.18233575
-0.07317077 0.08654445 -0.1298981 -0.050520565 -0.040161666 -0.10421178 -0.0069178706 0.245804
0.10431582 0.014053658 0.05843519 -0.037700303 0.17018887 0.101439305 -0.18647842 0.058999438
-0.0077730133 -0.1474523 -0.21804634 0.046822947 -0.011296627 0.13837408 -0.006532164 -0.11903498
0.08952205 -0.032102495 -0.041866757 -0.12545052 -0.20152505 -0.2661158 -0.038522623 9.2245515e-05
0.16906083 -0.18582737 0.043737262 -0.10475487 0.0995396 -0.1329682 -0.034693513 -0.06684947
-0.008018104 0.0657937 0.34058353 0.0005996927 0.3454529 0.4214493 0.30342457 0.5505026
0.30059367 0.34164858 0.380856 0.47749043 0.30473033 0.20760234 0.73814756 0.41410148
0.47485325 0.33297896 0.54210806 0.31601676 0.55609304 -0.21183147 -0.37038192 0.45224223
-0.7578704 -0.089470945 -1.2356377 0.37673125 0.47529793 -0.309237 -0.40159678 -0.26259065
0.12012664 0.015836637 0.05347476 -0.50876075 -0.07903377 -0.5107682 0.24553476 0.5982467
-0.2982856 -0.047618777 0.1637165 -0.14379257 0.042266294 0.24773712 -0.16328418 0.34394994
0.36810195 0.37042618 -0.051371478 0.037538074 -0.21090451 -0.2910231 -0.35767514 0.3967868
-0.08960451 -0.14802201 -0.25050172 -0.43905523 -0.07845664 -0.121384926 0.07605663 0.20546149
-0.22955602 0.6446689 0.21559364 -0.06959378 -0.33899853 -0.047855105 0.1580194 0.1589002
0.76966065 0.05817631 -0.073237345 -0.14790955 0.048925865 0.25987625 -0.20402013 -0.24757604
-0.118095584 -0.146262 0.65291923 -0.14834973 -0.63596463 -0.34599945 -0.76914954 0.1248589
1.126799 0.29872864 0.3510233 0.34925175 -0.14267044 -0.26853883 0.3312442 0.38450354
-0.027619738 -0.59200644 -0.4021364 0.2717985 -0.0015893624 -0.12215438 0.80181545 0.17378177
-0.22649562 -0.74229115 0.18236382 0.6826087 -0.14470895 -0.25183874 -0.13223298 -0.14150016
-0.37314165 0.1631855 -0.019139767 -0.27886432 -0.14631188 -0.12783821 0.1806919 -0.10903233
-0.19056661 0.19141753 -0.47462803 0.04443462 0.05578016 0.13070197 -0.051514167 -0.08797052
0.163061 -0.03292657 -0.18934855 0.08310514 -0.045647137 -0.16728622 0.06833656 0.2331955
0.08430357 0.0065943087 -0.16817375 -0.032831557 -0.020772612 0.082198806 -0.041504003 -0.17350705
-0.14563589 -0.06257029 -0.05483693 0.3988508 0.018526334 -0.03395755 0.14347939 0.030464202
0.0107268775 0.061336357 0.070866205 -0.211103 -0.07681231 0.055181388 0.015023268 -0.034043044
0.16530532 0.14283109 0.09941941 -0.15805605 -0.058259845 0.050865438 0.081826515 0.010782451

l1.bias f4 [100]
00000000: 2711 e0bd 4ac3 1c3d c419 873e eb77 e8bd
00000010: d5ac 16bd 15a0 12be 9156 673d 7bf0 043e
00000020: 7c6d eabd 6e9d 22be b256 623e e926 25be
00000030: 2e1d af3d dc99 893e 9afb 163d 06cf 91bd
00000040: 2842 aa3d 79c8 933d 9317 26be d9dd 373e
00000050: d572 7ebe 439b 6dbe bbf5 d1bd dfbe 903e
00000060: 0b62 3c3d 3fc9 13bd 5040 51be 3326 8dbd
00000070: 271a 993d d2fe 443e 2f90 14bd f98e 3ebe
00000080: b1f3 36be 79c8 dbbc 23b5 9abe 17f0 8e3d
00000090: 118e 6bbe ddc9 063e 5cdf 89bd 0c92 12be
000000a0: b5fb 343c bcfd 403e 022a 883d e241 a63e
000000b0: f519 e73d ef3b 833d 8ba8 503d 9fe8 1d3e
000000c0: 9e43 0c3d 5ffb 0cbe e578 9ebd 09ef 5dbd
000000d0: 5d19 48bc 0c17 dbbd 2cea 81bc 78cc 803e
000000e0: a42c 4d3c b7bf 933d 593a 0a3c 28f3 4c3e
000000f0: 0f03 913e 23e4 02bd e956 b0bd 676d b4bd
00000100: 31e4 313e c6d7 2ebe 4b6e 61bd 2a8f c63e
00000110: 6187 94bd 67b8 273e 651d 32bb d040 b93d
00000120: c692 1bbe 26ba a0bd 9e25 543e 3f29 2d3d
00000130: 7dae 263a 6f40 0d3e 6e67 44be fa73 8a3e
00000140: 38a0 69be eaf8 d0bd 93ba 983d ee45 f4bd
00000150: 220a d0bc dc34 973e da4f ab3d b26d c43b
00000160: 8c34 9c3d f21f 6b3e 9156 4a3e e65d 5f3e
00000170: 776f 15bd 8ff7 06bd f10d 58be 59c9 11bc
00000180: 4d37 5a3e 8ecd c6bc 4ee9 dfbd 5824 153d
-0.109407715 0.03827218 0.26386845 -0.113509975 -0.03678592 -0.14318879 0.05647904 0.12982361
-0.11446664 -0.15880367 0.22103384 -0.16128124 0.085504875 0.26875198 0.03686104 -0.07119565
0.083133996 0.072159715 -0.1621993 0.17955722 -0.24848492 -0.23203759 -0.102519475 0.28270623
0.04599194 -0.036080595 -0.2043469 -0.068920515 0.07475691 0.19237831 -0.036270317 -0.18609227
-0.17866398 -0.026828991 -0.3021632 0.06979387 -0.23003413 0.13162942 -0.067320555 -0.14313525
0.01104634 0.18846792 0.06648637 0.3247214 0.11284248 0.06407916 0.050941985 0.15420769
0.034244172 -0.13767765 -0.077379026 -0.05418304 -0.012213078 -0.10697755 -0.015858732 0.25155997
0.01252285 0.07214301 0.008436763 0.20014632 0.28322646 -0.03195585 -0.08610327 -0.08809929
0.17372204 -0.17074499 -0.055036824 0.387811 -0.07252384 0.16378938 -0.0027178165 0.09045565
-0.15192708 -0.07848005 0.20717475 0.042275663 0.0006358398 0.1379411 -0.1918008 0.27041608
-0.22815025 -0.102037266 0.07457461 -0.119274005 -0.025395457 0.29532516 0.0836484 0.005994522
0.0762721 0.22961405 0.19759585 0.21813163 -0.036483254 -0.032950934 -0.21099068 -0.008898103
0.21310158 -0.024267938 -0.10933171 0.036411613

l2.weight f4 [100, 100]
00000000: f1c6 963d c664 f8be 6920 4cbe d8c2 c4bc
00000010: d1a2 123e 3e5a 16be a605 8eba 9ae8 c43d
00000020: 5a52 56bd 209e fcbd 16a7 2a3d 668b 0e3f
00000030: 86e4 c4bd 3292 3fbd 5ef0 993e 6ba7 2b3e
00000040: 9f40 05bd 2441 91be d393 023e 1eee 58be
00000050: a79b 043f cfbb d5bd d5b6 403e ee1d 35be
00000060: fac9 e63e 8ce5 d13d bb4d b1bc e3a1 123e
00000070: ab8e b2bd f1fb 9dbe 9188 123e 510c 41be
00000080: e3db 9b3e 24ab 56bd 9c67 4b3e 647e 4bbd
00000090: c46a cd3d d8ae ddbd a53b aa3e 13bc 2f3d
000000a0: 9e08 913c eb82 3ebe c9b1 aebe 5752 07bf
000000b0: ec47 fcbc dd79 573d 91f5 983e b9e0 043e
000000c0: 3e09 b83e 660a 35be 6e27 6f3e 5425 59bc
000000d0: 1fd3 6b3e 234c 14be c5d5 23be cf96 843e
000000e0: 464a de3e 1575 aebe 2d5f 06be ffa9 043e
000000f0: 20b5 383e f786 19be 856f edbd 8805 97be
00000100: 8394 c5bd 8d65 393e 7357 f7be ec5d 8dbe
00000110: 23d6 9e3e 05c7 e3bd a76f bfbe 0121 09be
00000120: 230e 723d b78a cabd b5a4 1bbe b6c2 4bbe
00000130: 2905 9c3e b022 6cbf 1c1a 2abd 8e36 cebe
00000140: 06cf 023e 82ce 14be 352f 5a3e b0fd 2c3e
00000150: e39f bbbe 0861 043e 4671 6d3e 7cf8 25bd
00000160: 3840 6e3e da31 3dbe f057 c63e bab1 93be
00000170: ec41 e3bd c49e d13c 89a3 dcbd d2a8 663e
00000180: f813 3ebe 26a8 f73e d13d d7bd fd2c 953e
00000190: a14e 77be 6424 1a3f e0a2 b13e 80e4 9fbe
000001a0: 7b01 acbe 4645 e73c 2bb0 843e 6fcd 813d
000001b0: 707c b9bd 24c7 4a3e 8d98 0c3e 9664 b7bd
000001c0: 4e29 ef3c 24b8 823e bc2c c6bd d19e 61be
000001d0: 2b06 54be 75a4 dd3d 621a eabe e31d 623e
000001e0: 3bd8 56be d224 713e 8188 593d f331 503e
000001f0: 5cde 09be c0a3 00be 28bd 993e ca60 3ebe
00000200: 7ecd 703e c979 823d 9168 163e 47ce d53d
00000210: 63e8 cfbe 0be6 913e 7a2e 50be 73da 0e3e
00000220: 6db4 823d e5ee 443d 4b80 1fbe 1ed0 623e
00000230: 68c6 9fbe 0146 863e 4628 3e3b 3da7 0abe
00000240: df53 93bd 0775 27bc d7cc 243d 63d9 62bc
00000250: 5c71 63bd aae9 cfbe 1185 6bbd 27d9 49be
00000260: a3ac 85bd 4cce da3a 03e0 ec3d 3e3a 44bd
00000270: 91d2 573d 73d7 e93e 8795 eb3d b54b a1be
00000280: 54bc d13d f117 babd d7a2 513e 2c83 98bd
00000290: ea95 033f 51d7 52bc bd92 203f 199d be3e
000002a0: 5fd6 633c fab6 84bc f9c8 803e dfd6 61be
000002b0: 0104 33bf 850b 51be 287b 203d 0fe9 bc3c
000002c0: 052f 1cbe 9bd0 abbe a1a6 023e 3794 be3e
000002d0: a52e 90be 139d 91be b5f3 9a3d 68ef 0fbb
000002e0: 196d e43c 2220 253e f59a 63be 4fc8 0e3e
000002f0: f751 153d 8052 e83e e82b 17bd 6232 573e
00000300: 436e 233d 1688 aa3d 915e bdbb bfce acbd
00000310: 8bfb 84bd 7a36 aabe 1674 f5bc 44c2 99bc
00000320: 94fb 523f 92ee 9cbd 0de6 10bf 253d ee3d
00000330: 14bb 92be e9a8 2c3f 1cd1 3ebf 1f62 3bbf
00000340: 58d8 b63e 1928 473f a40f aabf fc2b ba3d
00000350: cad8 b8be 3c79 79bf 9c39 96bf 54a3 f63d
00000360: 2059 79bf a03d a1bf f8ea f6bd 5a3c 1cbe
00000370: 4f3e 9bbd 4c13 2e3f 77ec a93e cd3d 303e
00000380: 20fa abbf 85f9 903e 7339 743e 8b75 d33d
00000390: 803a 823e 3319 12c0 2005 ac3f 06ba b83e
000003a0: adbc a73f abdc 213f 69ed a73e 4f21 e5be
000003b0: f391 df3c 2ca2 cabd fca0 133e 96fd 533e
000003c0: d8de 963e 9243 353b 62fd ea3d 0b13 80bf
000003d0: 6f91 68be 52cf df3f 1b09 6bbf 2cd2 45be
000003e0: 5ac7 943f 938a 273f 96da dabe 7dbb 8ebd
000003f0: 83cf 7b3f 7540 87bf e637 6a3f 09cd ee3e
0.07362164 -0.48514384 -0.19934238 -0.02401869 0.14319922 -0.14682862 -0.0010835424 0.09614678
-0.05232463 -0.123348475 0.04166325 0.55681455 -0.096139 -0.046770282 0.30066198 0.16763084
-0.03253233 -0.2837001 0.12751703 -0.21184584 0.51800007 -0.10436212 0.18819745 -0.17687199
0.4507597 0.10248861 -0.02164351 0.14319567 -0.08718618 -0.3085628 0.14309908 -0.18852355
0.30441198 -0.052409306 0.19863743 -0.049681082 0.100301296 -0.108243644 0.3324863 0.04290397
0.017704304 -0.18604629 -0.34120014 -0.52860016 -0.030796014 0.052606452 0.29874852 0.1297635
0.3594455 -0.17679748 0.23354885 -0.013253529 0.23029755 -0.14482169 -0.15999515 0.25896308
0.4341604 -0.34073702 -0.13122244 0.12955473 0.18037844 -0.14992891 -0.11593536 -0.29496408
-0.09647467 0.18105145 -0.48308906 -0.2761072 0.31022748 -0.11121944 -0.3738987 -0.13391496
0.059095513 -0.09889739 -0.1519955 -0.19898495 0.30472687 -0.9224043 -0.041528806 -0.40275997
0.12774286 -0.14531901 0.2130707 0.16893649 -0.3664542 0.1292764 0.23187742 -0.040520176
0.23266685 -0.18476048 0.38738966 -0.28846532 -0.11096558 0.0255884 -0.10773379 0.22525337
-0.18562305 0.48370475 -0.105098374 0.29135886 -0.24151088 0.6021178 0.34694576 -0.3122902
-0.3359488 0.028231274 0.25915655 0.063380115 -0.09056938 0.19802529 0.13730069 -0.08954732
0.0291945 0.25531113 -0.09676501 -0.2203324 -0.20705478 0.10822383 -0.45723253 0.22081713
-0.20980923 0.23549202 0.053108696 0.20331554 -0.1346373 -0.12562466 0.30027127 -0.1859161
0.23515889 0.06370885 0.14688326 0.10439735 -0.40606984 0.2849582 -0.2033023 0.1395052
0.0638207 0.04807939 -0.15576284 0.22149703 -0.3120606 0.26225284 0.0029015704 -0.13540359
-0.071937315 -0.010220773 0.040234413 -0.013845774 -0.05552803 -0.4060796 -0.05749995 -0.19711743
-0.065270685 0.0016693561 0.11566164 -0.047907107 0.052691046 0.45672187 0.115031295 -0.31503072
0.10240999 -0.09086598 0.20472275 -0.07446894 0.51400626 -0.012868718 0.62723905 0.3722923
0.0139060905 -0.016200531 0.2515333 -0.22054623 -0.69927984 -0.2041455 0.03917995 0.02306035
-0.15252312 -0.3355759 0.12758876 0.37222454 -0.28160587 -0.2844015 0.07566015 -0.0021962766
0.027884053 0.16125539 -0.2222708 0.13943599 0.03645512 0.45375443 -0.036907107 0.21015313
0.039900076 0.083267376 -0.0057790955 -0.08437871 -0.064932905 -0.33244687 -0.02996258 -0.01876939
0.8241513 -0.07662691 -0.5660103 0.11632756 -0.28658354 0.67445236 -0.74537826 -0.73196596
0.35711932 0.7779556 -1.3286023 0.090904206 -0.36102897 -0.97450614 -1.1736331 0.12042871
-0.9740162 -1.2596931 -0.120565355 -0.15257397 -0.07580244 0.67998195 0.3318822 0.17211075
-1.3435707 0.28315368 0.2385004 0.10325154 0.25435257 -2.282788 1.3439064 0.36079425
1.3104454 0.6322734 0.32798317 -0.44751975 0.027291274 -0.09894213 0.1441688 0.20702204
0.2946689 0.0027658683 0.1147411 -1.0005811 -0.22711729 1.7485144 -0.9181077 -0.19318455
1.1623337 0.6544582 -0.42744893 -0.06969354 0.9836351 -1.0566546 0.91491544 0.46640804

l2.bias f4 [100]
00000000: 4cc8 c3be 50d0 f23e 260a f53d 2889 93be
00000010: 1e5c 80bc 4348 0c3e 210b 9ebd cb44 2f3e
00000020: 7d47 d23d bfc5 f73d b03a c73d 6c56 ef3e
00000030: e6ab fc3e e947 a0be 3b66 a53e bc84 18be
00000040: 213d f53e 03c3 413e c737 82be f52d 61bd
00000050: aaa7 563e 7a77 c43e 133f b13e 85b9 413e
00000060: 0425 223e 05c1 99be f2df 3a3e 9e5b cabe
00000070: b6d9 833d f0ff 61bd acab 173e c1c6 75be
00000080: 2e85 b33e 1dda 903d 31ef afbd 1ec9 3fbe
00000090: a117 cdbd 2eec 193e ed63 91bc 7766 22bd
000000a0: 7223 debe abaa de3d 21f6 0fbe f8a8 8dbe
000000b0: cbfe 4c3e 3d3f a7bd a767 a63e eb57 973d
000000c0: 48da 18be 7a0a 67be 2422 d3be 0cc8 183e
000000d0: 990a 9fbe 0173 f53d dd29 523e 9720 85bd
000000e0: a6d5 d43e 8809 d6be b169 ed3e 22bf bb3e
000000f0: 94b3 053e 96ee 87bd 1bc2 b5bc ee7a cebd
00000100: 78a7 cebe 25e3 56be 6e63 423e 1c09 37be
00000110: cefa 9a3c e664 dfbc a210 bcbd 7627 f13b
00000120: eccd 59bd 4422 68be 5289 9d3d f6c3 a03d
00000130: 9a40 e63e a35b 03be c90c 56be a88e 33be
00000140: 9afa 25be 20af c73c ae9b ef3d 878c af3d
00000150: 2745 fbbd 6e9e febe 3964 533e f502 553e
00000160: e07f 1bbe 45ff 9cbe 3ca4 24be f33e 04be
00000170: f744 423e a758 e33c cce6 843e de45 943e
00000180: ef8a 11be 6aa0 6b3e 2876 fc3e 898d 5bbe
-0.38238752 0.47424555 0.11964826 -0.2881558 -0.015668925 0.1369944 -0.077169664 0.17116086
0.102675416 0.12098264 0.097279906 0.46745622 0.49349898 -0.31304863 0.32304558 -0.14894384
0.478982 0.18922047 -0.2543318 -0.05497547 0.20962396 0.38372403 0.34618434 0.18918426
0.15834433 -0.30030075 0.18249491 -0.39523023 0.064380094 -0.05517572 0.14811581 -0.240016
0.35062546 0.07072852 -0.08590544 -0.18729064 -0.100142725 0.15031502 -0.017747844 -0.0396485
-0.43386418 0.10872396 -0.14058734 -0.27667975 0.20019071 -0.081663586 0.32500955 0.07389816
-0.14927018 -0.2256259 -0.41236985 0.14920062 -0.31062773 0.11984826 0.20523782 -0.06500357
0.4156925 -0.41804147 0.463697 0.3666926 0.13056785 -0.066373035 -0.022187283 -0.10082041
-0.40362144 -0.20985086 0.18983242 -0.17874569 0.018918421 -0.027269792 -0.0918286 0.0073594404
-0.053174898 -0.22669321 0.076922074 0.078498766 0.44971162 -0.12827925 -0.20903315 -0.17534888
-0.16208878 0.024375498 0.116996154 0.08571725 -0.12269049 -0.49730247 0.206437 0.2080191
-0.15185499 -0.30663505 -0.16078275 -0.12914638 0.1897162 0.027752234 0.25957334 0.28959554
-0.14213155 0.23010412 0.49308896 -0.2144071

l3.weight f4 [18, 100]
00000000: a099 76bd a089 9abe a19c 54bf 7b66 913e
00000010: 3acd 123f ed08 0dbf 3bd1 3c3e 9261 69be
00000020: fcca 43bd 79cf d4be 9efb a8bd 523e c5be
00000030: 8d69 6bbe be39 283f 3ef3 e8bd f6ce 65bd
00000040: 31b4 7ebe 2fff 0fbe 6a03 41bc 1d2d 563f
00000050: 7a16 a2be 5144 04be a1cb 25be 6ae1 05be
00000060: 7e60 b2be 729c 993e 6e7d 1fbf d315 fb3e
00000070: 1782 a1be 348c 023f 796f b0be 3e67 8a3e
00000080: 1287 84be 02e7 103f a768 e33e ce42 5e3e
00000090: e09f 813e b1a2 fdbd e331 143e b17c aebe
000000a0: 413d ca3e 08c2 cebe 7006 da3d 6e34 293e
000000b0: c8f9 adbe 00db fd3e 9335 f83e dcff d83e
000000c0: 5405 163f 56ff 763e 31d3 723e de13 e1be
000000d0: f2de 8f3e 19c4 1fbf 34ec 13bf 3739 9a3e
000000e0: 626f 83be 81ec fc3d 9019 85be 47e0 14be
000000f0: 9df4 093e 717f 27bf bc70 113f fc50 6f3e
00000100: 9aac cf3e c48b 063f 3f99 c7be bfa9 733e
00000110: 51bc 13bf d50f 12bf 0785 b63d f3ba 19be
00000120: 7572 a43d 6139 193e d675 91be 77ee 08be
00000130: 54fa 49be 8bdd 663e c111 c5be e2a9 8d3e
00000140: 631b 143f bd35 e2bd 55a9 06bf 1811 f3be
00000150: d6e2 4b3e 3320 403e 1c47 1dbe ee67 febe
00000160: cc06 8d3d 0835 203e 6662 a0bc 8241 0f3e
00000170: d5a4 fc3c 4ec4 7abe c48e 76be e7d1 35be
00000180: d9e5 c73d 9f8b d33e 4718 d5bd 0a62 b43e
00000190: 73fd 033e 64cd 9d3d 70c2 36bf c321 bc3d
000001a0: ccd0 373f 9ce8 cabe 8db1 bd3e 6646 89bd
000001b0: 6696 a7be ec10 10bf 78e1 c93d 68b7 5fbe
000001c0: 3c6d f1bd 36a5 053f a1a5 babe b038 f53d
000001d0: dd7c a8be 9801 aebe 978b 9f3d 72a0 063f
000001e0: 2252 96be 8a64 a5be f053 c3be c925 00be
000001f0: 85e5 bfbe 54f1 933d 91b0 33bf 15c0 ee3e
00000200: 1417 babd 6848 eb3e 95c0 04bf b818 8b3e
00000210: f13f 0cbe 8ad1 153f 9485 913e bea3 083e
00000220: 6ef9 813e 2d31 8d3d 3bc2 8c3e b5ef 07bf
00000230: 9ab2 7c3e 4e79 efbe e301 a23d 7ffa 5e3e
00000240: c4e1 8bbe e6a2 eb3e acbe 073f 12c1 b83e
00000250: 74b2 333f 7a28 a93e 42dc fe3e 8cfa 03bf
00000260: ba73 fb3d eab8 88be 001c 52bf a60f 543e
00000270: 7b05 5dbe b0aa b73e 1e30 90be 550a e2be
00000280: e9da 653e 3570 3abf f363 9e3e fda8 b83d
00000290: ae6d a93e c825 0a3f 3675 69be a127 dd3e
000002a0: c08b 06bf 8a37 f4be dfb1 543e 62ac febd
000002b0: b32f a3bd beb1 ae3e 94ba 48be edc9 9bbe
000002c0: bcb0 02be 07fc a13e 0f59 c6be ae95 5d3e
000002d0: e1f2 093f e5da f4be 59c4 22bc c424 ddbe
000002e0: a988 c33d 88a3 af3e ebc9 7dbe 6574 36be
000002f0: 5ac4 603e d7b8 9e3e 1635 fbbd d3e1 0f3d
00000300: 60f4 63be f90c 93be a207 06be bf22 20be
00000310: ee75 ff3c 74b6 c23e 0349 63be c359 b63e
00000320: 19f0 a13e b579 f1be dd28 41bf c95e 013e
00000330: 92b9 8e3e ef9b 05bf 0caa 983e 2e97 89be
00000340: 04aa aebe db0e c2be 1340 38bd a376 c2bd
00000350: f104 893d 773d 1e3f bb0e 8bbe 11e2 27bc
00000360: 1607 30be 935b 70be b2d9 6a3e e2d5 583f
00000370: 8f45 80be a887 18be 67b7 8abe 53b1 a2be
00000380: 1c10 3ebe ebe7 85bd 4ce0 4fbf 398a 173f
00000390: 9eeb 41be ef7b 0c3f 2203 aabe 7bf6 6b3e
000003a0: aadc 82be 5a42 f53e 5e0e f13e a1d1 a1bd
000003b0: f0a5 8d3e 99f7 9cbe bdcd ab3d 7b32 5fbe
000003c0: 5323 87bd 63cc 9dbe ceeb 9c3c e781 8a3e
000003d0: 3513 92be 59f3 1a3f ce5b eb3e 26c7 143f
000003e0: 8df1 0a3f b72b a33e 3e36 793e 6d3f 13bf
000003f0: c199 21be cf2d 28be f0fe 12bf 1fd6 e33d
-0.060205102 -0.30183125 -0.83051497 0.283985 0.573444 -0.55091745 0.1843919 -0.22791126
-0.047801003 -0.4156454 -0.08251117 -0.3852411 -0.22989483 0.6571311 -0.1137452 -0.056105576
-0.24873425 -0.14062189 -0.011780599 0.8366259 -0.31657773 -0.12916686 -0.1619096 -0.1307427
-0.34839243 0.3000217 -0.62300766 0.49040088 -0.31544563 0.50995183 -0.34460047 0.27031893
-0.258843 0.5660249 0.4441578 0.21705171 0.25317287 -0.123845465 0.14472155 -0.34079507
0.39499858 -0.4038241 0.10645759 0.16523907 -0.3397963 0.49581146 0.48478374 0.42382705
0.5860188 0.2412084 0.23713376 -0.4396047 0.2809978 -0.62408596 -0.5778229 0.30121776
-0.25670916 0.12349797 -0.25996065 -0.1453868 0.13472219 -0.65428835 0.56812644 0.23370737
0.40561372 0.52557015 -0.38984105 0.23795222 -0.57709223 -0.5705541 0.08912092 -0.15012722
0.080296434 0.14963295 -0.28410214 -0.13372217 -0.19724399 0.2254545 -0.38490108 0.27668673
0.5785429 -0.11045406 -0.5260213 -0.4747398 0.1991075 0.18762283 -0.15359157 -0.49688667
0.06886062 0.1564523 -0.01957817 0.13989833 0.030840317 -0.24488947 -0.24077898 -0.17755853
0.09760637 0.4131746 -0.10405021 0.35231048 0.12889652 0.07705191 -0.7139044 0.09186127
0.71802974 -0.39630592 0.37049523 -0.067028806 -0.32731932 -0.5627582 0.09857458 -0.21847308
-0.11788413 0.52205217 -0.3645449 0.11973703 -0.32907763 -0.3398559 0.077902965 0.5258857
-0.29359537 -0.32303268 -0.38149977 -0.12514414 -0.37479797 0.07223764 -0.70191294 0.46630922
-0.09086433 0.4595368 -0.51856357 0.27167296 -0.13696267 0.58522856 0.28422225 0.13343713
0.25385612 0.06894145 0.27491936 -0.5310014 0.24677506 -0.46772236 0.07910516 0.21775244
-0.27320683 0.4602272 0.5302532 0.360848 0.7019417 0.33038694 0.49777418 -0.5155418
0.122779325 -0.26703578 -0.82073975 0.20709094 -0.21584122 0.35872412 -0.2816171 -0.44148508
0.22446789 -0.72827464 0.3093563 0.09016607 0.3309149 0.539639 -0.22798619 0.43194297
-0.5255699 -0.47698623 0.20770977 -0.12435223 -0.07968082 0.34119982 -0.19602424 -0.30427495
-0.12762731 0.31637594 -0.3873982 0.2163913 0.5388623 -0.47823253 -0.009934508 -0.43192112
0.0954755 0.34304452 -0.24784057 -0.17817838 0.21949902 0.31000397 -0.12265985 0.035127472
-0.2226119 -0.28720835 -0.13088849 -0.15638255 0.031184163 0.38029826 -0.2219582 0.35615358
0.31628492 -0.47163168 -0.7545298 0.12633814 0.27875954 -0.5219106 0.29817235 -0.26873153
-0.34114087 -0.3790196 -0.04498298 -0.094952844 0.066903956 0.6181254 -0.27159676 -0.0102467695
-0.17190203 -0.23472433 0.22934607 0.8470136 -0.2505307 -0.14895499 -0.2709305 -0.31775913
-0.18560833 -0.065383755 -0.81201625 0.59195286 -0.18937537 0.5487661 -0.33205515 0.23043244
-0.25558978 0.47902185 0.47081274 -0.07901312 0.27665663 -0.30657652 0.08388851 -0.217966
-0.065985344 -0.30819997 0.01915541 0.27052233 -0.2853028 0.6052757 0.4596848 0.58116376
0.5427483 0.3186929 0.24337098 -0.57518655 -0.15781309 -0.16423725 -0.57420254 0.11124825

l3.bias f4 [18]
00000000: d833 9e3c bd48 12be 8024 08bf d6d6 c6be
00000010: 109d 813d bf1b cbbd 033c 56bd f68a e0be
00000020: 7af3 49be 687a 89be 665a a5bc 91af bfbe
00000030: 1d2e c9be 7026 993e e6cd 0bbe 261d a5be
00000040: 8911 f2be 98fb c7be
0.01931183 -0.1428556 -0.53180695 -0.38835782 0.063287854 -0.099174015 -0.052303325 -0.4385602
-0.19721785 -0.268512 -0.020184707 -0.37438634 -0.39292994 0.29912138 -0.13652763 -0.322488
-0.47279003 -0.39059138
