data/result/d_690.pt (torch, 94638 bytes, 7 tensors)

D_attr_matrix.weight f4 [36, 5]
00000000: 9836 9a3d 1a7f e2be 5184 1abe 953e 963d
00000010: 5113 a5bd eb6c d1be 8fa3 a1be 9d51 3a3e
00000020: f1e5 dfbe 12ec e53e 3d44 613e d5b6 5c3b
00000030: 5e89 1abd f8b3 e3bc e88f 9e3c 69ad afbd
00000040: b723 d4be d975 933e 3657 443e 876d 7fbe
00000050: c6dd d23c 6eb0 43be efc7 08bc cecb b13d
00000060: fbd0 d43d 2225 54bf 34e7 47bf 027d 693e
00000070: ef25 083f 7031 07bf fbdc 403a 0b38 f1bd
00000080: a4f9 51bc c41d 093f 82fc 393c 1dea 183f
00000090: 2f0d 7fbe cdca 0c3f 4c21 16be 2e42 d5be
000000a0: 8f33 dbbe 905b 073e c221 133e fb20 83be
000000b0: dc8c 103d bf7a 26be 2da4 c83d 6af3 d0be
000000c0: 7649 77bd 40e1 263e d569 2c3e f3ce e73d
000000d0: 6cb8 713d c2e8 ce3c be99 2f3d 6b6c 83bc
000000e0: 9e50 be3e e5e8 08be eeab 61be 6038 8dbe
000000f0: 4e76 d1bd 6517 7b3c 4247 86bd e4ac bfbc
00000100: b76c c7bc dcbb 5cbe d5f5 ce3e 5197 ec3d
00000110: c565 313f 8c07 523f bc00 153e 1ee6 793e
00000120: b554 13bd edc9 98bc 409f cbbe cbca f5bd
00000130: afa2 7b3e d76f 283e 13c3 793c 3597 903e
00000140: 7c4f 673c 51ce f53c a77d a2bc 6e20 303e
00000150: 9402 4ebc 424e bcbe b5d0 3ebf 0812 003f
00000160: f229 b83e 1fa2 463e aee9 6c3d c732 8d3b
00000170: cc43 c9bb 23a0 ccbc b99e a5bd f996 e3be
00000180: 3fcf efbb 72ed 113e b837 983e f9a4 06bf
00000190: bf4a 3dbb 0c7d dfbb 8fd1 533b 42bb 843c
000001a0: ec4d 7fbe cefd 973e 6afb ba3e c389 0a3f
000001b0: 2788 f93c a32b 5d3e 7d50 50be 52e8 513c
000001c0: 45ab 343c d0ec 71bb 38c5 b4bc 678b e23b
000001d0: 8a3c 1d3f 250e 1abf 9a80 693d 4c2a 333f
000001e0: 4328 f5bd 7823 a9bd bfec f83c 6ae7 c2be
000001f0: 5308 c1bc a7cb 953d c218 1fbd c6b7 15bf
00000200: f27a 4fbe 57c3 bb3e cceb 1a3d 6631 693d
00000210: 60fb 23be 9d17 85bd 744f 91bd 2f0c 8abe
00000220: 9da2 bbbe ed1c 2fbd d001 fd3e 4c99 c53e
00000230: 1979 a73d d83a 2f3d 4234 9f3a 33eb 7cbd
00000240: 40d8 7a3d 14e5 07bf 52b0 a8be 0793 cebb
00000250: e39b cf3e 0862 eabe 3b04 1dbe 722a 0d3e
00000260: a11d 053e 7aa5 aa3d 36bd 32bd 1fcb 253f
00000270: 3d43 123e 2fc0 11bf 5b17 babe d08e 543e
00000280: bea4 a03a c75d cbbd 0d3b f93d 94ff 043d
00000290: 1ea6 22bc 90fc 453a 2179 59be f227 01bf
000002a0: ee9e debd 1d70 5b3d b0d6 df3c 2d84 883e
000002b0: f042 dfbc d23e 64be c639 32be 58d8 50bf
000002c0: 129d 433e adb3 5d3f da91 8abe 9e8d 91be
0.07529944 -0.44237596 -0.15089537 0.07336155 -0.08060325 -0.4090341 -0.31570098 0.18195195
-0.4373012 0.4490667 0.21998687 0.0033678312 -0.03772866 -0.027795777 0.01935573 -0.08577997
-0.41433498 0.28800848 0.19173893 -0.24944125 0.025740515 -0.19110271 -0.008348449 0.08681451
0.10391422 -0.8286916 -0.7808716 0.22801593 0.5318288 -0.5280981 0.00073571474 -0.117782675
-0.012815867 0.53561044 0.011351706 0.5973223 -0.24907373 0.5499695 -0.14661139 -0.41652054
-0.42812774 0.13218522 0.14368346 -0.256111 0.035290584 -0.16257761 0.09796939 -0.4081071
-0.060372792 0.16296864 0.16837247 0.11318769 0.05901377 0.025257472 0.04287123 -0.016042909
0.3717088 -0.13370092 -0.22038242 -0.27582073 -0.10227643 0.015325402 -0.0655656 -0.02339787
-0.024343831 -0.21556038 0.4042193 0.11552299 0.69295913 0.82042766 0.14551061 0.24404189
-0.035969455 -0.018650973 -0.39769936 -0.1200157 0.24573778 0.16448914 0.015244263 0.28240362
0.014118072 0.030005606 -0.019835306 0.17199871 -0.012573857 -0.36778456 -0.7453721 0.50027514
0.35969502 0.19397782 0.05784004 0.0043090316 -0.006142115 -0.024978703 -0.080869146 -0.4445112
-0.007318407 0.14250734 0.2973001 -0.5259548 -0.0028883663 -0.0068203267 0.0032320952 0.016202573
-0.24932069 0.29685825 0.3651994 0.5411646 0.03046043 0.21598677 -0.20343204 0.012811737
0.011027162 -0.0036914833 -0.022066697 0.0069135907 0.614205 -0.6017783 0.05700741 0.69986415
-0.1197057 -0.08258718 0.030386327 -0.3806718 -0.02356354 0.07314234 -0.03884197 -0.5848354
-0.20261744 0.3667247 0.03782253 0.056931876 -0.1601386 -0.064986445 -0.070952326 -0.2696242
-0.36647502 -0.042752195 0.49415445 0.3859352 0.081773944 0.042780727 0.0012146311 -0.06174774
0.06124139 -0.5308392 -0.32947022 -0.006304148 0.4054862 -0.45777917 -0.15333645 0.13785723
0.12999584 0.083323434 -0.043637477 0.64763063 0.14283462 -0.56933874 -0.36345944 0.20757604
0.0012256128 -0.09929996 0.12169466 0.0324703 -0.009927301 0.00075525884 -0.21237613 -0.50451577
-0.10870157 0.053573716 0.02732405 0.26663342 -0.027253598 -0.22289589 -0.17404851 -0.81580114
0.19102886 0.8660229 -0.270644 -0.28428358

l1.weight f4 [100, 108]
00000000: 8972 27bd eb22 113e 7c09 98bc 3add ef3d
00000010: f5ee 053e 3671 efbd 7087 6f3c 50b4 a63d
00000020: 7ad4 ba3d 7b38 12bd ef7b 13be 84fd 40bd
00000030: 036b 8bbd 7cde ad3e a360 083e e331 0dbe
00000040: 4cf0 c03d 5e14 213e 034f 8e3c dd74 063d
00000050: 0ec1 0dbd 7aeb 0dba 1fbf a1bc c23d 063d
00000060: c516 50bd f0b0 cabd b445 7ebd 7a16 ce3c
00000070: f8f0 c83d a803 5d3e d2e4 763e 46f9 31bd
00000080: 6c64 513e 3b21 d63d da1c 7b3c f700 a43d
00000090: 88dc 30be be1a eb3d f7c6 703c ba94 0e3e
000000a0: c2c4 0cbd 9e08 cbba e9f9 ce3b 9148 4c3c
000000b0: d0a0 13be c36b 1bbe 7433 8d3d ba74 363e
000000c0: 6d52 a3bd 2d53 b13d 7b93 02be 68ec 3fbd
000000d0: 0962 1cbd 2a41 cbbd 1728 d2bb 8d4c 7c3e
000000e0: 28c4 da3d d614 263c 45cf 723d 35d7 14bd
000000f0: f98b 2d3e 7369 ce3d f23b 3bbe 6b5c 743d
00000100: 8100 04bc da29 18be 0577 61be fdeb 403d
00000110: b7be 1dbc e241 0f3e eff8 1ebb a24f eabd
00000120: a32f bb3d 6d88 14bd 048e 19bd c313 febd
00000130: 6b98 4ebe d480 88be 8aa2 1dbd f082 bfba
00000140: 8c42 2d3e 1fbb 3dbe d125 423d 2534 cabd
00000150: 0d25 c13d a849 07be e322 11bd 936e 8abd
00000160: d536 f3bb d68c 873d d6b4 bb3e 7d7d 18bd
00000170: 4092 a13e d97c e13e 0835 9a3e fbfb 053f
00000180: 504d c53e c6df b73e 3a60 c73e 06d9 123f
00000190: ad68 9c3e 3767 703e 4af3 223f c901 e23e
000001a0: 5784 fd3e b2f9 ba3e 8798 053f c051 b23e
000001b0: 259a 113f 5dd6 5bbe 6683 c6be 7512 ee3e
000001c0: 9069 45bf 22e6 b8bd 44d0 9fbf 66c7 cd3e
000001d0: 34d2 013f cd66 aabe 1dc5 d1be abd2 87be
000001e0: e326 eb3d b46a 9b3c 7cb8 593d 23f9 02bf
000001f0: 69c1 a4bd db76 03bf cf08 7e3e 85f2 193f
00000200: 5308 9abe 42cc 3abd e811 2a3e d629 16be
00000210: e488 2f3d 371b 803e 7661 26be 2b9b b23e
00000220: 64c3 c63e 6da6 c33e 2dac 5abd b7a7 1e3d
00000230: 0b6c 59be 426f 94be f12b b9be 91f0 c63e
00000240: d7bb b3bd 0575 10be 1d34 79be 70c1 debe
00000250: 1668 8fbd 1bc0 e2bd 5e42 873d e2e9 533e
00000260: 3643 78be cb08 243f 9196 603e 8967 80bd
00000270: ebcf a9be 69ea 55bd 8836 4f3e b3d2 483e
00000280: 4a23 4b3f 11a8 773d 649c 94bd 3843 1abe
00000290: 2d14 283d c00a 933e 00db 5dbe 7dcd 86be
000002a0: 6a6f f0bd bb42 17be 1ea0 1f3f c029 19be
000002b0: 987d 1cbf eaff b6be a45e 47bf 2ced fd3d
000002c0: 11f4 913f b363 9f3e 064e c33e 5a9d c23e
000002d0: c7b7 0cbe 9cd6 99be 5e4d b93e 4f83 c83e
000002e0: db9e d3bc 1f88 19bf b1ce d2be d14e 933e
000002f0: c152 2a39 90cb 02be d43b 493f da69 283e
00000300: 1c9c 5cbe e08f 48bf 078d 3c3e 9576 383f
00000310: 9040 16be f70f 82be 8654 03be efa4 fbbd
00000320: d3de c9be da4d 413e afee 20bc 96dd 82be
00000330: 6fc3 1ebe 40f7 efbd 3713 373e 820d c8bd
00000340: b8bd 63be 5527 573e c29f fbbe 9b72 1d3d
00000350: dad6 6a3d f29f ff3d 4035 3bbd b625 e1bd
00000360: db59 243e fe05 f1bc 5e86 3bbe b013 a63d
00000370: cdc3 31bd 00db 2fbe c92d 8e3d cd6e 733e
00000380: b9b6 be3d 7281 243b 3dce 2cbe dfd0 ebbc
00000390: c5ef c4bc c26d 9e3d 2841 37bd 87a9 31be
000003a0: af69 11be e81e 7bbd 58f4 6fbd 39f6 cb3e
000003b0: 8a55 bb3c ee3c 1dbd b4ec 0c3e 52d2 103d
000003c0: 6a49 063c 683d 6d3d f59e 873d 4746 5cbe
000003d0: 5215 93bd c2d0 633d 2dc3 9d3c e6c3 2fbd
000003e0: f356 2e3e 6cbc 153e def2 d33d 826a 1ebe
000003f0: a92e 7dbd c3c1 2d3d a9ae 9f3d 7a52 1c3c
-0.040880714 0.14173476 -0.01855921 0.117121175 0.13079436 -0.11691515 0.014619693 0.08139861
0.09122558 -0.035698395 -0.14402746 -0.04711677 -0.0680752 0.33958805 0.13318114 -0.13788562
0.09420833 0.15730426 0.01737166 0.032826293 -0.03460794 -0.0005413812 -0.019744454 0.03277374
-0.050802965 -0.098970294 -0.062078193 0.025157202 0.09811586 0.21583426 0.24110726 -0.043450616
0.20448464 0.10455557 0.015326703 0.080079965 -0.17271626 0.1147971 0.014695874 0.13923922
-0.03436733 -0.0015490239 0.0063164127 0.012468473 -0.14416814 -0.15177827 0.068945795 0.17817965
-0.07974706 0.08658443 -0.12751572 -0.046856314 -0.03817943 -0.099245384 -0.0064134705 0.24638577
0.10681945 0.010136804 0.0592797 -0.03633805 0.16947927 0.100787066 -0.18284586 0.05965845
-0.008056761 -0.14859715 -0.22018059 0.047100056 -0.0096279895 0.13989976 -0.0024257263 -0.1144097
0.09139945 -0.03626292 -0.037488952 -0.12406113 -0.2017533 -0.26660788 -0.038485087 -0.0014611166
0.16919917 -0.18528412 0.047399346 -0.09873227 0.09430895 -0.13211691 -0.03543366 -0.067593716
-0.007422308 0.06618659 0.36661404 -0.03722905 0.31556892 0.44040564 0.30118585 0.52337617
0.38535547 0.35912913 0.38940603 0.573624 0.3054861 0.23476873 0.6365248 0.44141987
0.4951503 0.36518627 0.52185863 0.34827995 0.5687583 -0.21468492 -0.38772124 0.46498457
-0.771142 -0.09028269 -1.2485433 0.4019119 0.5071137 -0.33281556 -0.40970698 -0.26527914
0.114820264 0.018971778 0.053154454 -0.511614 -0.080447026 -0.51353234 0.24808048 0.6013568
-0.30084476 -0.04560495 0.16608393 -0.14664397 0.04285516 0.25020763 -0.16248116 0.3488401
0.38820946 0.3821291 -0.053386856 0.038734164 -0.21232621 -0.28991133 -0.36166337 0.38855413
-0.08776062 -0.1410714 -0.24336286 -0.43506956 -0.07002275 -0.110717975 0.066044554 0.20694688
-0.24244389 0.64075917 0.21932437 -0.06269748 -0.3316644 -0.052225504 0.20235646 0.19611625
0.7935072 0.060463015 -0.07256392 -0.15064704 0.041034866 0.2871914 -0.21665573 -0.2632865
-0.117400005 -0.1477155 0.62353694 -0.14957333 -0.6112914 -0.35742122 -0.77878785 0.123987526
1.1402608 0.31130752 0.38145465 0.38010675 -0.1374198 -0.30046546 0.3619184 0.3916268
-0.025832584 -0.5997333 -0.41173318 0.2877107 0.00016243292 -0.12772965 0.78606915 0.16446629
-0.21543926 -0.78344536 0.18413173 0.7205594 -0.14673066 -0.25402805 -0.12825212 -0.12287318
-0.39427814 0.18877354 -0.009822532 -0.25559682 -0.1550424 -0.11717081 0.17878424 -0.097682014
-0.2224034 0.21011098 -0.49145323 0.038439374 0.057333805 0.12481679 -0.04570508 -0.10993521
0.16049902 -0.029421803 -0.18312976 0.08109224 -0.04339962 -0.17173386 0.069423266 0.23772736
0.09312195 0.002510157 -0.16875549 -0.028786121 -0.024040112 0.077357784 -0.044739872 -0.17349826
-0.14200471 -0.06130877 -0.058582634 0.3983629 0.022867937 -0.038388185 0.1376217 0.035356827
0.008196214 0.05791989 0.066221155 -0.21511184 -0.07181801 0.05561901 0.019258106 -0.042911433
0.17025356 0.14622658 0.103490576 -0.15470317 -0.061812077 0.042421114 0.07796986 0.009541148

l1.bias f4 [100]
00000000: 9f95 e2bd dc98 243d 1892 853e d402 f0bd
00000010: a277 07bd 88a3 14be ee62 773d 976c 083e
00000020: 0bbb f8bd e773 25be d692 633e 9af4 26be
00000030: 4deb af3d 6bad 8a3e 206a 273d a269 50bd
00000040: 98de ad3d 922e 9c3d fb2d 22be 769b 383e
00000050: 0cbe 7bbe 3e32 72be cd56 cabd 18a2 8f3e
00000060: e238 4e3d b69e 1bbd ec14 58be 5859 90bd
00000070: a2b1 8d3d 433f 493e 722d 22bd 5ae0 42be
00000080: 1a80 38be dd06 01bd 0611 9abe fbd6 8c3d
00000090: e9eb 67be 89f0 083e 9d3d 7abd 35da 16be
000000a0: d0ab 113c 4735 423e 6140 843d e577 a73e
000000b0: 2e1f f53d 53a1 793d 5e3e 603d ccb3 203e
000000c0: 12fa fe3c b36b 10be 8368 97bd 3c85 4abd
000000d0: 11be 7dbc b7c5 d2bd c1ac a6bc 1c6a 7c3e
000000e0: 2afc 433c 2de2 893d 0e1b 04bb 082b 4b3e
000000f0: 394a 923e b0cd f4bc 3350 b8bd ec92 adbd
00000100: 0c8b 333e 9925 28be 9811 65bd 644f c63e
00000110: 7102 8ebd 49b2 1f3e d071 2b3b 5208 c13d
00000120: ec27 1cbe e2cc 96bd d64f 573e f398 3a3d
00000130: d2a3 3ebb 2afb 113e 726d 43be 92b3 8b3e
00000140: c859 63be 7d40 dabd 72a9 913d dfcb f1bd
00000150: 5219 ebbc a753 983e 0f6b a33d d913 293c
00000160: eb72 a43d ae66 683e a6a6 4c3e 21db 5e3e
00000170: 6ae8 1fbd 509a 13bd 5f49 5abe 8c73 0abc
00000180: e68a 5e3e b376 cfbc d019 e8bd 9598 313d
-0.11063694 0.04018484 0.26088023 -0.117192894 -0.033073075 -0.14515507 0.06039708 0.13322674
-0.121450506 -0.16157494 0.22223982 -0.16304246 0.08589802 0.27085432 0.040872693 -0.05088199
0.08489722 0.0762607 -0.15837853 0.18028054 -0.24584216 -0.23651978 -0.09879837 0.28053355
0.050347216 -0.037993155 -0.21101731 -0.07048291 0.069186464 0.19653039 -0.03959412 -0.19030896
-0.18017617 -0.031500686 -0.30091113 0.06876942 -0.22648586 0.13373007 -0.061093915 -0.14731677
0.008891061 0.18965636 0.06457592 0.3270866 0.11968838 0.060944866 0.054746978 0.15693587
0.031125102 -0.14103584 -0.07392981 -0.04944347 -0.01548721 -0.10291617 -0.020346047 0.24649853
0.011961976 0.06732593 -0.0020157727 0.19840634 0.28572252 -0.029883236 -0.08999672 -0.08475289
0.17533511 -0.16420592 -0.05592498 0.38732445 -0.069340594 0.15595354 0.0026160367 0.09425415
-0.15249604 -0.07363297 0.21026549 0.04555602 -0.0029089344 0.14255968 -0.19084719 0.2728544
-0.22202218 -0.106568314 0.07112397 -0.118064635 -0.028698597 0.29751322 0.07979404 0.010319673
0.08029731 0.22695419 0.19985446 0.21763279 -0.039040007 -0.036035836 -0.21317051 -0.0084504
0.21732673 -0.025325155 -0.11333048 0.043358404

l2.weight f4 [100, 100]
00000000: f9c8 0a3d 9f22 05bf 0997 45be 9df2 bebc
00000010: 065d cd3d f674 29be 18f0 393c aa47 9d3d
00000020: 0bc7 4ebd 02a7 eabd 2723 093d 86fe 1b3f
00000030: 122b d2bd 0dca 3cbd 0974 a43e c9a0 0d3e
00000040: 23f5 b0bd 1652 97be a175 083e e663 61be
00000050: fb86 093f e4e2 11be 6012 483e 4a0a 36be
00000060: 1f66 003f f2ac d73d 0788 62bc 79b3 143e
00000070: dda9 d4bd 4f72 a4be b5c5 1a3e 0f90 3cbe
00000080: 1dcb 853e 5057 16bc 69f1 6a3e bc6f 8fbd
00000090: 1ca4 f13d a4b1 02be 23dd bb3e c84b c63d
000000a0: 11f7 fd3c 1e72 4cbe 8bec b7be 8e58 0fbf
000000b0: c0be 7fbc ab73 8e3c 03d3 a83e e917 113e
000000c0: 8101 d03e 9623 3ebe e1b3 7b3e 8997 1abc
000000d0: 86af 8d3e d561 40be 5e1c 10be 2f3a 8c3e
000000e0: e55c e13e 3d48 acbe 7f12 ffbd 4326 1a3e
000000f0: 867b 373e d038 12be 9f6a ddbd feea a9be
00000100: a6f8 d2bd 5413 313e 774c ffbe f278 90be
00000110: cd82 bc3e 3ff0 04be c0a8 babe bec7 f1bd
00000120: ade3 6f3d b98f 16be a40d 22be 922b 69be
00000130: 71c8 a13e 38fc 82bf eb91 15bd eaaa d4be
00000140: e0a2 063e 8ac0 66be a387 703e ea49 393e
00000150: 337a d8be dd67 fd3d 9e70 6b3e 6439 e8bc
00000160: f08d 733e 391c 3ebe c27f e43e 12ec 97be
00000170: f061 edbd 7832 3d3b 96a9 fbbd ecd5 653e
00000180: 1ff7 3fbe f156 023f 1339 f5bd f4a5 953e
00000190: 48a2 82be 6c91 183f 059a b53e 0989 9dbe
000001a0: d91f b0be 82f4 8c3c f032 973e b2b5 633d
000001b0: 379d b7bd f15f 6a3e c2a5 213e 07ca c2bd
000001c0: 5952 213d 750a 893e 596d a4bd 8872 4dbe
000001d0: 7ce7 94be 46a3 db3d 9fef 0abf 990c 663e
000001e0: 561b 54be 186b 603e e7af 8f3d 2877 733e
000001f0: 46b4 13be f6b9 00be 64be 973e 8c35 3abe
00000200: 717c 743e 241b 8c3d bb69 1e3e 0569 e63d
00000210: 3ccd c0be 816f 883e 46e7 74be 0550 da3d
00000220: c2d9 823d 5194 553d 6f52 26be 0fd4 673e
00000230: abc3 a7be 4249 853e fd27 c3bc 2432 0ebe
00000240: 96de 8fbd f1af bcbc 01e9 2a3d 81e3 d1bc
00000250: e8be c23c fb0c cdbe 017a 7cbd aaf7 72be
00000260: ab0a 70bd 0c4f acbc 3a3f d73d fd56 7fbd
00000270: aa6a 4e3d 90df e43e 8df6 cb3d 1a7b babe
00000280: e55e dc3d 4572 cbbd aeb4 4f3e f8ca a8bd
00000290: e7fa 033f a448 debc 4b31 1d3f d76d bf3e
000002a0: 4065 fe3c c6e8 86bd 3bd8 893e 9987 62be
000002b0: 48f8 37bf 4038 3dbe bcf9 393d a518 a6bc
000002c0: c70c 19be d149 9ebe a2e6 fc3d 28bf c73e
000002d0: aa78 9ebe 0130 b1be d9a0 9e3d e005 26bc
000002e0: 0ac2 a23d 9e7e 353e 5e67 54be 4148 173e
000002f0: 34b6 273d d687 e13e 52e7 76bd e6cb 5e3e
00000300: a574 8d3b 3d8e 9c3d ffad 45bb e12b ebbd
00000310: a614 8cbd 1e71 9ebe e5a7 18bd 4665 02bd
00000320: fffa 5b3f e750 8dbd ba6c 0dbf 9ec9 013e
00000330: e02f 99be d72f 403f b356 4bbf ecb2 42bf
00000340: 792e cc3e 14af 523f 7b97 b2bf 0d16 ca3d
00000350: a34a babe ba22 82bf 9d5d a5bf 6de0 fd3d
00000360: b752 7bbf 0fee a6bf 16bd 0bbe a68a 1ebe
00000370: 6215 8abd 233c 463f 502f ab3e 2d38 2b3e
00000380: 8864 b7bf d773 913e 8548 873e fc7d df3d
00000390: 6431 973e a408 1ac0 467d b33f 91b3 c93e
000003a0: c732 b13f 6bcc 383f 8477 aa3e 0347 eebe
000003b0: b672 c43c 1877 d2bd f96a 003e 5f04 5c3e
000003c0: 504e 983e 96ce 833b 5b66 e23d 60ba 86bf
000003d0: bdbf 8abe 1563 f03f e6ab 76bf 8ddb 48be
000003e0: 96c4 9c3f 8621 243f b8da e4be 45bb 9fbd
000003f0: d3ce 883f 96af 8dbf b21f 713f bb96 003f
0.03388307 -0.5200595 -0.19295897 -0.023309046 0.100275084 -0.16548523 0.011348747 0.076796845
-0.05048279 -0.114576355 0.03348079 0.60935247 -0.10262121 -0.04609113 0.32119778 0.13830866
-0.08640506 -0.29554814 0.13326122 -0.22010764 0.5372159 -0.14246708 0.1953826 -0.17777362
0.50155824 0.105310336 -0.013826377 0.14521588 -0.10383961 -0.3211846 0.15114482 -0.18414329
0.26131526 -0.00917609 0.22943653 -0.070037335 0.117988795 -0.12763077 0.3669215 0.09682423
0.0310016 -0.19965407 -0.35922655 -0.559945 -0.015609443 0.01738914 0.3297349 0.14169277
0.40626147 -0.18568262 0.24580337 -0.009435543 0.27672976 -0.1878732 -0.14073321 0.2738814
0.44016185 -0.33648863 -0.124547 0.15053658 0.17918214 -0.14279485 -0.10811352 -0.33187097
-0.10301332 0.1729253 -0.49863026 -0.28217274 0.36818543 -0.12982272 -0.3645687 -0.11805676
0.058566738 -0.14703263 -0.15825516 -0.22770527 0.31598237 -1.0233221 -0.03651611 -0.41536647
0.1314807 -0.22534385 0.23489241 0.18094602 -0.4228073 0.12373326 0.22992179 -0.028347678
0.23784614 -0.18565454 0.4462872 -0.29672295 -0.11590946 0.0028869193 -0.12288205 0.22444886
-0.18746613 0.5091391 -0.11973777 0.29228175 -0.25514436 0.59596896 0.3546907 -0.30768612
-0.34399298 0.017206434 0.2953105 0.0555932 -0.08965533 0.22888161 0.15785888 -0.0951119
0.039385173 0.2676579 -0.08028669 -0.20063221 -0.2908286 0.10724501 -0.5427188 0.22465743
-0.20713553 0.21915853 0.070159726 0.23775923 -0.14424238 -0.12570938 0.29637444 -0.18184489
0.23875596 0.06841114 0.1547002 0.112505 -0.3765658 0.2664757 -0.23916349 0.10659794
0.0638919 0.0521434 -0.16242383 0.22639488 -0.3276647 0.26032454 -0.023822779 -0.13886315
-0.07024877 -0.023033114 0.041726116 -0.025621178 0.023772672 -0.40048966 -0.06163979 -0.23727289
-0.058603924 -0.021033786 0.105101064 -0.062338818 0.05039469 0.44701815 0.09959135 -0.36422044
0.10760287 -0.099339046 0.20283768 -0.08241838 0.5155472 -0.027134247 0.6140334 0.3738849
0.03105414 -0.06587367 0.26922783 -0.22122039 -0.7186322 -0.18478489 0.04540418 -0.020275423
-0.1494628 -0.30915692 0.12348677 0.39013028 -0.30951434 -0.34606937 0.07745523 -0.010133237
0.07947166 0.17724082 -0.20742556 0.14773656 0.040945247 0.44048947 -0.060279198 0.21757469
0.0043168836 0.07644317 -0.0030163524 -0.114829786 -0.06839876 -0.30945677 -0.03726949 -0.031834863
0.85929865 -0.069001965 -0.5524403 0.12674567 -0.29919338 0.75073 -0.7942917 -0.76054263
0.39879206 0.822984 -1.3952478 0.09867487 -0.36385068 -1.0166848 -1.2919194 0.123963214
-0.9817309 -1.30414 -0.1364635 -0.15482578 -0.0674236 0.7743551 0.33434534 0.16720648
-1.4327555 0.2840869 0.26422516 0.109127015 0.2952987 -2.4067774 1.4022605 0.3939481
1.3843621 0.7218692 0.33294308 -0.46538553 0.02398048 -0.102766216 0.12540807 0.21486042
0.29747248 0.0040224297 0.11054679 -1.0525627 -0.2709941 1.8780237 -0.96356046 -0.19615002
1.2247493 0.6411365 -0.4469812 -0.07799391 1.0688118 -1.106921 0.9418899 0.50229996

l2.bias f4 [100]
00000000: 8048 c7be a8c9 f53e 9307 e93d 57c2 93be
00000010: 35d8 8fbc dcb5 0b3e cbf7 a1bd c144 363e
00000020: 74ac e93d ada9 f93d 41cf d43d c3bc f33e
00000030: 0a83 013f bfe6 9fbe b88f a53e ea9b 16be
00000040: 3695 ef3e ebb3 4e3e 46ae 85be 85d8 62bd
00000050: b587 5c3e ffe4 c63e 2756 b53e 188f 473e
00000060: 69df 243e 6df0 96be c5e2 393e 89bc c8be
00000070: 71c2 923d a112 74bd 5646 223e ba91 81be
00000080: f97d b83e 3eca 8b3d 2acb babd 974c 3cbe
00000090: ff58 d5bd c37a 183e 16cd bbbc b19b 25bd
000000a0: 3e5e dfbe f554 dd3d 51cd 18be aa25 90be
000000b0: c0ba 5c3e 674c abbd 6baa a63e 5fea 9b3d
000000c0: bb98 16be abc0 72be e086 d6be 5d82 173e
000000d0: 0ab5 a1be 11c5 f13d f518 4a3e 1ae8 84bd
000000e0: 3b88 d93e a083 dbbe c159 f13e 7ee8 bf3e
000000f0: 1ebb 023e d89a 88bd b03a b9bc f247 dbbd
00000100: 2dd0 d7be f688 57be d6bc 4a3e b7a0 3fbe
00000110: 6d0a a03c f46b c5bc ae11 c1bd 3b14 1c3c
00000120: 77a7 6cbd 487c 6ebe 4a9f a63d 1168 af3d
00000130: b00b eb3e 78ac 0abe 66fe 4ebe dc9c 3ebe
00000140: c82f 27be 5956 e53c 6292 033e 70e2 b23d
00000150: 36e8 fcbd c3bb 01bf b477 593e c4df 5d3e
00000160: dfe9 22be d300 a7be b0f8 25be d883 0fbe
00000170: ea51 423e d956 e03c f4a8 893e 2571 8c3e
00000180: 7204 1bbe 36f0 6b3e 5978 013f 2339 45be
-0.389225 0.48005414 0.11378398 -0.28859207 -0.01755915 0.13643593 -0.07908591 0.17799665
0.11409846 0.12190566 0.10391093 0.4760495 0.50590575 -0.31230733 0.3233621 -0.14707914
0.46793526 0.20185821 -0.26109523 -0.05538227 0.21536143 0.38846585 0.35417292 0.1948818
0.16100849 -0.29480305 0.18152912 -0.3920634 0.07165993 -0.05958808 0.15847144 -0.25306493
0.3603361 0.06825684 -0.09120782 -0.18388592 -0.10417365 0.1489058 -0.022924941 -0.040431682
-0.4362659 0.1080722 -0.14922072 -0.28153735 0.21555614 -0.08364182 0.32551894 0.07613062
-0.147067 -0.2370631 -0.41899776 0.14795823 -0.31583434 0.118051656 0.19736083 -0.06489582
0.42486748 -0.4287386 0.4713879 0.37482065 0.12766692 -0.06670159 -0.022610992 -0.10707082
-0.42151013 -0.2104834 0.19798598 -0.18713652 0.019536221 -0.024099328 -0.094272 0.009526308
-0.057776894 -0.23289597 0.08135851 0.08564771 0.45907354 -0.13542354 -0.20214233 -0.18614525
-0.16326821 0.027995275 0.1284881 0.08734596 -0.12348978 -0.50677127 0.2123707 0.21667391
-0.15909527 -0.32617816 -0.16208148 -0.14015138 0.1897656 0.027385162 0.26886714 0.27430072
-0.15138415 0.23040852 0.5057426 -0.19260077

l3.weight f4 [18, 100]
00000000: 6e19 47bd 2edd 9fbe 6e3d 5cbf 1246 993e
00000010: 9361 173f e31b 14bf 27a8 423e 89a4 75be
00000020: 0094 79bd a489 dabe a022 b4bd 43ac cabe
00000030: bdbc 79be 8733 2c3f e7c3 f6bd ad73 3bbd
00000040: 22b8 84be 3af6 1cbe 8930 863a 8712 5b3f
00000050: c2d8 a7be 72a8 0ebe 3ecf 34be bc29 12be
00000060: 6fe7 aebe 99eb 9e3e b8ca 25bf 6f7f 013f
00000070: e25b a7be 04d2 063f a30a b6be b347 903e
00000080: 5c57 8abe e8a3 133f df21 e63e 5d60 653e
00000090: 5632 843e 7278 0bbe a8e2 2a3e f499 b3be
000000a0: 9e6f cf3e 3643 d7be a07f ef3d 3445 373e
000000b0: 2cc1 b3be 6c4e 013f 71e1 013f 56ac e53e
000000c0: 0d90 1a3f 60cc 803e 4a71 7d3e 4056 eabe
000000d0: 7dfa 943e a25f 22bf e175 1abf 1d33 9d3e
000000e0: 130d 89be 7f26 0c3e fd59 8abe cb66 20be
000000f0: 61ed 103e 8ead 2dbf ae5f 153f 5527 663e
00000100: 2b25 d53e d6c0 093f b4e6 ccbe c293 803e
00000110: 6641 17bf f0b4 15bf b350 db3d 983c 25be
00000120: add9 b03d 54dc 233e 6bcb 93be b0e7 14be
00000130: 9fc5 55be dbcd 713e e6d7 c9be 4402 933e
00000140: 7b5f 183f 300c f8bd 6a68 09bf 2611 f8be
00000150: 950d 553e c73c 463e f1d2 1abe 6297 ffbe
00000160: 0604 a33d 3bb2 2c3e 9d89 dfbc 80de 1a3e
00000170: 9ca8 973c 9588 80be e5e7 80be ea33 4fbe
00000180: 917b e23d d511 de3e 6492 f4bd 5ce5 b93e
00000190: dbc6 103e d76e 863d 5117 3ebf 407a d83d
000001a0: 0144 3d3f f14d d9be 4865 c03e a8ac a2bd
000001b0: 341e adbe 91c7 11bf 7a4e c53d 0799 6bbe
000001c0: 83ca 03be ce8d 0a3f 87a7 c0be 4986 063e
000001d0: c55c aebe 95f7 b3be a9e7 b53d c7a7 0c3f
000001e0: 9672 9cbe b23d abbe c6fa c8be 9fdd 0abe
000001f0: d245 bebe 5151 ab3d 5e62 3abf 97c0 f83e
00000200: b1b3 d3bd b6d9 f53e 7fca 07bf cebf 903e
00000210: 6741 19be 041f 193f a1e0 943e 4413 123e
00000220: 34da 833e 78b6 693d db5d 943e 8ea1 07bf
00000230: d332 843e 15bc f7be f5f2 b93d 92eb 6c3e
00000240: aeaf 91be 454a ee3e 691f 0d3f 4e89 c53e
00000250: e3d9 383f d4f8 ae3e 4b3a 023f 7014 09bf
00000260: a370 093e c88d 8ebe dcf3 57bf 5a26 603e
00000270: c15d 69be 2f3d bd3e d4fd 95be c854 e8be
00000280: c25b 6e3e 210a 40bf d448 a73e 8a7b ad3d
00000290: 2afc ae3e a7d7 0d3f 37ed 74be abbc e33e
000002a0: c18c 09bf 2fa6 fabe 34d5 433e c85e 15be
000002b0: cf3d 8abd 21d5 b43e d81a 4dbe 95f3 a1be
000002c0: 4143 12be c17d a73e 596b cdbe 2b93 693e
000002d0: 4eed 0c3f 93fd fabe a9d5 cabc 670f e2be
000002e0: 8f97 da3d b177 b13e c00d 7dbe cb13 47be
000002f0: 5ba1 6d3e 771a a43e 79da f4bd 16b0 403d
00000300: d615 70be df9c 96be 0b26 13be c446 3abe
00000310: 3c9d 2e3d 526f cc3e e025 6ebe 8789 bc3e
00000320: c0c7 a73e 6d3e f7be c1ad 47bf 5319 0f3e
00000330: 842f 993e 0ccf 0cbf 9cb8 993e 936a 8fbe
00000340: 491e b4be 0fc9 c5be b131 39bd a919 dabd
00000350: e525 693d bbf1 213f a8cd 90be 00ec 603a
00000360: e0c4 3bbe 9abf 7cbe ddd4 753e f8f9 5d3f
00000370: efea 85be 4bcb 23be 9f73 8ebe b53e a8be
00000380: 1592 38be 66d8 5cbd cb26 55bf 9fa4 1b3f
00000390: 993d 4dbe 6b03 113f af2a b0be 6464 783e
000003a0: c49b 88be a478 003f f3ac f23e 4575 b2bd
000003b0: 9ec0 903e 93eb a2be e79d cd3d e2d0 67be
000003c0: 262e 61bd a9ea a6be cb2d f73c 98ad 903e
000003d0: fd71 98be 8090 1c3f 4d95 f53e 042b 1a3f
000003e0: 07b6 0f3f 87c7 a83e 8c52 823e c57c 17bf
000003f0: 96f4 15be 6f77 33be e7db 18bf d20a 053e
-0.048608236 -0.31223434 -0.86031234 0.29936272 0.5913326 -0.5785505 0.19009458 -0.23988546
-0.06093216 -0.42683136 -0.08795667 -0.3958455 -0.24388404 0.67266124 -0.12049084 -0.045764614
-0.25921732 -0.15328303 0.0010237853 0.85575145 -0.3278256 -0.13931444 -0.17657182 -0.14273733
-0.34160945 0.31039122 -0.6476245 0.50585073 -0.3268729 0.5266421 -0.3555499 0.28179702
-0.27019775 0.57671976 0.44947717 0.22400041 0.25819653 -0.13620165 0.16688025 -0.35078394
0.40514845 -0.42043465 0.116942644 0.17897493 -0.35108316 0.5051029 0.5073462 0.44858044
0.60376054 0.25155926 0.24750248 -0.4576893 0.29097357 -0.63427174 -0.6033612 0.3070306
-0.26767787 0.1368656 -0.2702178 -0.15664212 0.14153053 -0.6784295 0.5834912 0.22475941
0.4162992 0.5380987 -0.40019763 0.2511273 -0.59084165 -0.58479214 0.107087515 -0.16136396
0.08635268 0.16002017 -0.28866133 -0.14541507 -0.20876168 0.23613684 -0.3942253 0.28712666
0.5952069 -0.121116996 -0.5367495 -0.48450583 0.20805962 0.19359122 -0.1511953 -0.49920183
0.07959752 0.16864865 -0.027287299 0.1512394 0.018513016 -0.25104204 -0.2517692 -0.20234647
0.11058725 0.4337298 -0.11941984 0.363078 0.14138357 0.0656411 -0.7425433 0.10570192
0.7393189 -0.42442277 0.3757727 -0.07943088 -0.33812106 -0.5694514 0.09634109 -0.23007594
-0.12870221 0.54122627 -0.37627813 0.13137163 -0.34055153 -0.35149828 0.08882076 0.5494351
-0.30556172 -0.33445507 -0.39253825 -0.13561104 -0.37162644 0.08365119 -0.72806346 0.48584434
-0.10337008 0.48017663 -0.5304336 0.28271335 -0.14966355 0.5981295 0.29077628 0.14265162
0.25752413 0.05705878 0.28977856 -0.5298089 0.25820026 -0.48385683 0.090795435 0.23136738
-0.28454345 0.46541038 0.55126053 0.38581318 0.7220747 0.34174216 0.508702 -0.5354681
0.13421874 -0.27842546 -0.84356475 0.2188963 -0.2278967 0.36960742 -0.29295218 -0.45377183
0.2327719 -0.75015455 0.3267275 0.08470829 0.3417676 0.55407184 -0.23918615 0.4447988
-0.537304 -0.48954913 0.191243 -0.14586937 -0.0675007 0.35318854 -0.20029771 -0.3163115
-0.14283468 0.3271313 -0.40120962 0.22810046 0.550496 -0.49021587 -0.024760084 -0.44152376
0.10673439 0.3466163 -0.24712276 -0.19441144 0.23206083 0.3205144 -0.11955733 0.04704293
-0.2344583 -0.29416558 -0.14369981 -0.18191057 0.04263042 0.3992868 -0.23256636 0.36823675
0.32769585 -0.48289815 -0.779995 0.13974504 0.29919064 -0.5500343 0.30023658 -0.28010997
-0.35179356 -0.38629958 -0.045213405 -0.106494255 0.056920905 0.63259476 -0.28281903 0.00085800886
-0.1833682 -0.24682465 0.24006982 0.8670955 -0.26155803 -0.15995519 -0.27822587 -0.32860342
-0.18024476 -0.05391731 -0.8326232 0.60798067 -0.20043029 0.5664584 -0.34407565 0.24257046
-0.2668134 0.50184083 0.47397575 -0.08713774 0.28271955 -0.31820354 0.10039883 -0.22638276
-0.05497565 -0.32600906 0.030173203 0.28257442 -0.29774466 0.6115799 0.4796547 0.60221887
0.56137127 0.32964727 0.25453603 -0.5917476 -0.14644083 -0.17526029 -0.59710544 0.12992409

l3.bias f4 [18]
00000000: 655f 163c 55fc 1dbe fdf5 0abf ab0d ccbe
00000010: 057d 523d 3bc4 e1bd b898 7fbd bfe5 e5be
00000020: e2e4 56be dd2e 8fbe a859 04bd 0564 c5be
00000030: b517 cfbe 61c4 933e af98 16be 2e12 abbe
00000040: 0a64 f8be 24a4 cdbe
0.009178017 -0.15428288 -0.542816 -0.39854178 0.05138876 -0.11023756 -0.062401503 -0.44901845
-0.2098575 -0.2796544 -0.032312065 -0.3855287 -0.40447775 0.28860763 -0.14706682 -0.33412308
-0.48513824 -0.40164292
