data/result/d_700.pt (torch, 94638 bytes, 7 tensors)

D_attr_matrix.weight f4 [36, 5]
00000000: 3ee4 9b3d 1656 e2be 5c14 1abe d8d6 953d
00000010: 9d8d a7bd 4aca d0be 6960 a1be 66c2 3a3e
00000020: 9a7f dfbe 445d e53e 4ed8 603e 70f3 633b
00000030: 7ce0 0dbd 1d8c c0bc 7613 eb3c fa0b adbd
00000040: 76c0 d4be a037 923e 963a 453e 0af9 7dbe
00000050: 4589 cb3c f75c 43be be36 c3bb 98f5 ae3d
00000060: 8c3f d43d 8e2d 54bf 8e9b 47bf b8ba 6a3e
00000070: edcc 073f fb69 07bf 0e36 2f3a 3f1b f1bd
00000080: 67e5 54bc 7016 093f 0bce 3b3c 5b92 193f
00000090: 55da 80be f2d3 0d3f c711 14be 7a95 d7be
000000a0: 46d3 dabe 2da3 063e 64ef 133e aab1 82be
000000b0: 83ff 0d3d da1f 27be ebe4 c93d d677 d1be
000000c0: dd49 79bd 32d2 273e fdd7 2b3e 5298 e73d
000000d0: 6086 703d f8b7 c63c 8b45 143d 56aa 7cbc
000000e0: 15de be3e dc0b 08be b985 5fbe 1cd0 8fbe
000000f0: 124c d1bd d2e2 683c 34fd 85bd 4122 66bc
00000100: 23f1 bdbc a17e 59be bb42 cd3e 2cc1 f33d
00000110: 158f 303f 38b5 523f 498e 093e a0c3 793e
00000120: c14b 17bd e698 37bc 953b cbbe e004 00be
00000130: e16f 7b3e 5ec2 273e 7cc9 5c3c 8f65 903e
00000140: a763 843c 0c72 fb3c 0cec a6bc 72f6 2f3e
00000150: d426 2bbc 4b16 b9be e40c 3fbf b518 013f
00000160: e7d2 b73e 47e9 463e 91b2 6c3d 9120 5d3b
00000170: 2fb3 c6bb 5f08 c7bc 6d96 a5bd 898c e4be
00000180: 3ffe 25bc ab47 173e d91f 993e afa0 05bf
00000190: 8d3c f4bb 958d 28bc d39e 4b3b 4f89 673c
000001a0: 0a04 7fbe de0f 943e a800 b93e efb8 0a3f
000001b0: 21ed f43c d11e 5b3e 6ae5 4fbe 1744 453c
000001c0: 3dc8 693c e5de 83ba 92bd a6bc d1ab 1a3c
000001d0: 3d53 1c3f 1371 19bf 801f 5e3d 9f1d 333f
000001e0: 0b40 f2bd 4614 a6bd 6104 f53c 2bbf c2be
000001f0: 0765 bfbc 6c8a 8f3d 854e 2fbd c736 16bf
00000200: cf44 53be 46c7 bb3e 8aa3 3e3d d6b0 613d
00000210: ce33 24be 37af 82bd 6d5b 8dbd 20f1 87be
00000220: 4e2d babe d50c 2dbd 8faf fb3e 48f9 c53e
00000230: 2f57 9b3d 7d49 5e3d dfb6 643b 5301 7fbd
00000240: 3cf8 953d cb26 07bf 499e a5be 2c71 55ba
00000250: cd0b d13e 81b9 e8be 4de8 19be 3c2f 0d3e
00000260: dd61 023e d792 a03d 616e 3abd cb98 263f
00000270: d737 123e baef 0ebf 1a34 bcbe 5325 523e
00000280: a6c3 173a 4bf9 c9bd bcc9 f23d 150a f33c
00000290: 180e 1bbc 060a 5cbb aeea 5bbe 6390 00bf
000002a0: 59b9 d8bd e005 5e3d ddc1 de3c f27c 883e
000002b0: 76c2 f1bc 3726 64be 9121 32be 7ccc 4fbf
000002c0: c795 433e 9920 5c3f f25b 8abe 1b4f 91be
0.07611893 -0.44206303 -0.15046829 0.07316369 -0.081813075 -0.40779334 -0.31518868 0.1823822
-0.4365204 0.4479772 0.21957514 0.0034782551 -0.034637913 -0.023504311 0.028695803 -0.0844955
-0.41553086 0.28558064 0.1926063 -0.24802032 0.024845729 -0.19078432 -0.0059574535 0.08542937
0.10363683 -0.8288201 -0.7797173 0.2292279 0.53047067 -0.5289609 0.0006683775 -0.11772775
-0.012994147 0.5354986 0.011462699 0.59988946 -0.25166574 0.5540153 -0.14459907 -0.4210623
-0.42739314 0.13148184 0.14446789 -0.25526172 0.034667503 -0.16320744 0.09858116 -0.4091174
-0.060861457 0.16388777 0.16781612 0.1130835 0.0587219 0.024257645 0.036199134 -0.015421471
0.3727881 -0.13285774 -0.21828355 -0.28088462 -0.102195874 0.014214234 -0.06542435 -0.014046253
-0.023186272 -0.21239711 0.40089974 0.11902079 0.68968326 0.8230777 0.13433184 0.24391031
-0.03693748 -0.011205887 -0.39693895 -0.1250186 0.24554397 0.16382739 0.013475772 0.28202483
0.0161608 0.03069403 -0.020376228 0.17183855 -0.010446269 -0.3614982 -0.74629045 0.50428325
0.35903093 0.19424926 0.05778748 0.0033741335 -0.006063841 -0.024295984 -0.08085332 -0.4463847
-0.010131418 0.14773433 0.2990711 -0.5219831 -0.0074535073 -0.010287662 0.0031070008 0.014131858
-0.24903885 0.28918356 0.36133313 0.54188436 0.029898228 0.21398474 -0.20302358 0.01204016
0.014268932 -0.0010060935 -0.020354066 0.009440378 0.6106451 -0.5993816 0.05422926 0.69967073
-0.118286215 -0.081093356 0.029909315 -0.38036475 -0.023363603 0.07008824 -0.04279949 -0.58677334
-0.20631717 0.3667547 0.04654268 0.055100285 -0.16035387 -0.06381076 -0.06902204 -0.2655115
-0.3636269 -0.042248566 0.49157378 0.3866675 0.07584988 0.054269303 0.0034899039 -0.062257122
0.073227376 -0.5279357 -0.32347324 -0.0008142169 0.40829316 -0.45454028 -0.15030022 0.1378755
0.12732644 0.078405075 -0.04551542 0.65076894 0.14279114 -0.55834544 -0.367585 0.2052205
0.0005789347 -0.09862002 0.11854884 0.029667893 -0.009463809 -0.003357531 -0.21476242 -0.50220317
-0.10582227 0.05420482 0.02719205 0.26657826 -0.029511672 -0.22280203 -0.17395617 -0.81171393
0.19100104 0.8598724 -0.27023274 -0.28380665

l1.weight f4 [100, 108]
00000000: 89bc 2abd b218 123e 4673 8fbc c969 ee3d
00000010: 72c0 063e ec0c f1bd 608b 783c 860d a53d
00000020: 83a9 ba3d e4ab 0fbd 1b1a 14be 6761 3ebd
00000030: ea5b 8bbd 45ad ad3e ce41 073e 2fc9 0ebe
00000040: 95ab c23d f46a 1f3e faf2 873c e4c1 0b3d
00000050: 78b4 0abd 19fc 9eba e1f3 95bc 7ed3 083d
00000060: b3b4 53bd fb31 ccbd 41cd 80bd 15f9 cc3c
00000070: ba9c ca3d 054b 5d3e da89 773e 923f 2bbd
00000080: d616 523e 9b33 db3d f619 8f3c 2283 a43d
00000090: 95bb 31be 0e2d e93d 1de5 7b3c 6d64 0e3e
000000a0: 0acb 0cbd 81fb e0ba 9384 cd3b 7273 3f3c
000000b0: 40be 13be 7552 1dbe c53c 8f3d 7074 393e
000000c0: ba8e 9fbd ab41 b13d 9130 03be 8e12 43bd
000000d0: 9f30 20bd e0d1 c9bd 6f1b bebb 0c37 7d3e
000000e0: 805c dc3d 1ee4 0a3c 8f4c 763d 19e5 0dbd
000000f0: 47c8 2d3e 7166 cf3d 787a 37be ca7f 773d
00000100: cfd5 2fbc 3113 17be bd6e 60be 68c0 433d
00000110: 7b65 30bc c837 0e3e 5ee6 f9ba 2cb2 e8bd
00000120: 33a4 c13d 6f52 17bd eb58 15bd 1d02 ffbd
00000130: 5960 4fbe a81d 88be 155f 1abd 3bd4 2abb
00000140: 3e5d 2e3e c39b 3cbe 1dce 493d 5014 c6bd
00000150: cd0a c13d ced6 06be 12b5 14bd 3b06 8bbd
00000160: 5b98 d7bb 5830 893d 7ed7 b43e c1ab 3f3d
00000170: 4022 8f3e 9047 003f 6687 a23e 34fc 113f
00000180: 7869 a43e e77b b73e 6cc7 c23e eabb 083f
00000190: e8a1 ac3e fe5d 433e f170 403f 1bc4 db3e
000001a0: 9e83 f63e 7efe b13e 8d4c 153f a402 8b3e
000001b0: 5d59 123f fe31 60be 9edb cabe 016d ef3e
000001c0: f52b 46bf c8c4 afbd 85ef 9fbf 17a6 cc3e
000001d0: f050 013f 4f9f a9be dd55 cfbe 1b95 89be
000001e0: 1d35 e43d ff18 b53c 3b64 6d3d ecb5 04bf
000001f0: 9321 abbd dfca 05bf 7680 813e 616d 1c3f
00000200: 927e 9cbe e7af 29bd 88b6 303e 1a5f 1bbe
00000210: 664d 373d 6a57 823e 8533 23be a984 b53e
00000220: af04 ca3e 9854 c73e a12d 6bbd 04f6 333d
00000230: 3dd5 5cbe 2f4a 92be 19e8 b7be e149 c43e
00000240: 91c0 abbd 87a8 06be 1c2b 76be 4804 ddbe
00000250: 9170 87bd c0ed dabd fa9c 7b3d 0eba 573e
00000260: 4098 7bbe f50a 253f c641 643e e4e3 84bd
00000270: 89ac abbe b729 65bd 6d91 4a3e e078 423e
00000280: 1e60 4a3f b0e8 813d 3601 9ebd 755d 1ebe
00000290: b5a6 2e3d ebe8 933e a8db 5fbe e4a7 87be
000002a0: 4e99 f8bd 2650 1bbe e66a 203f 7933 1dbe
000002b0: 0ab1 1dbf 015e b6be fe15 47bf be6e f63d
000002c0: 59e6 913f 08bf 9e3e 5f08 c63e 126c c53e
000002d0: e9ff 0abe b9c8 9cbe a9db bb3e a2f8 c63e
000002e0: b40e b4bc 63c8 18bf 7791 d1be 9b7d 923e
000002f0: 4b94 cfbb aa59 07be bf81 493f b976 2a3e
00000300: 6529 5ebe 1f7e 49bf 5783 403e 335d 393f
00000310: 0443 1abe 6315 84be e81f fcbd d83c ecbd
00000320: cfd2 c8be 5445 443e b1d0 6dbb 7855 85be
00000330: f983 1cbe 27c7 eabd 007b 403e 9dee b3bd
00000340: 865b 68be f2c2 5e3e d833 fabe c6c9 453d
00000350: 69bf 6f3d aa93 ef3d cf29 30bd 1405 d3bd
00000360: 3ad3 263e 261c f8bc a116 3dbe fea4 aa3d
00000370: a597 3bbd f40b 2fbe ad3f 8e3d 4a69 733e
00000380: 6f27 bd3d 3a16 233b d201 2cbe 0bff efbc
00000390: ea88 c7bc 47ec 9e3d c81b 33bd 2e96 2fbe
000003a0: 8c32 12be 033b 72bd 0d74 6dbd 6303 cb3e
000003b0: fb0a b73c 2320 1bbd 19ae 0a3e be45 0f3d
000003c0: f33e 163c 0790 6f3d 4335 893d a06c 5cbe
000003d0: b68e 95bd 0236 613d 72a7 993c b181 37bd
000003e0: 4ebf 2d3e 9dad 123e 441f cf3d b36b 20be
000003f0: 402b 7abd 0a2d 363d 9c18 a23d f5f9 363c
-0.041683707 0.14267233 -0.017511021 0.11641271 0.1315935 -0.11770043 0.015169948 0.0805922
0.09114363 -0.035076037 -0.14463083 -0.04647961 -0.068046406 0.33921257 0.13208696 -0.13943933
0.09505383 0.15568143 0.016595352 0.034120455 -0.033863515 -0.0012129574 -0.018304767 0.03340482
-0.051686 -0.099704705 -0.06289149 0.025021115 0.098931745 0.21610649 0.2417368 -0.041808672
0.20516524 0.10703202 0.017468434 0.08032824 -0.17356713 0.113855466 0.015374449 0.13905497
-0.03437332 -0.0017164798 0.0062719076 0.011685239 -0.14428043 -0.15363486 0.06994013 0.18110824
-0.07790895 0.08655103 -0.12811495 -0.047625117 -0.03910887 -0.098544836 -0.00580161 0.2472803
0.107598305 0.008477239 0.060131606 -0.034642313 0.16970931 0.10126961 -0.17917812 0.060424604
-0.010732128 -0.14753415 -0.21917243 0.047790915 -0.010766382 0.13888466 -0.0019065847 -0.113621086
0.09455147 -0.03694385 -0.036461752 -0.12451575 -0.20251597 -0.26585126 -0.037688334 -0.002606644
0.17027757 -0.18418793 0.04926883 -0.09671843 0.09425888 -0.13167879 -0.036305495 -0.06788298
-0.0065794415 0.06698674 0.35320657 0.046794657 0.27955818 0.50109196 0.31743926 0.57025456
0.32111716 0.35836717 0.38042772 0.53411734 0.33717275 0.19078824 0.75172335 0.42923054
0.4814729 0.34764475 0.5831993 0.27150452 0.5716761 -0.2189407 -0.3962068 0.4676285
-0.77410823 -0.08582455 -1.249497 0.39970466 0.50514126 -0.33129355 -0.40495196 -0.2687157
0.11142943 0.022106646 0.057956915 -0.5184009 -0.08356013 -0.5226268 0.2529332 0.611044
-0.30565315 -0.04142752 0.1725713 -0.15172997 0.044751547 0.25457317 -0.15937622 0.35452774
0.39456698 0.38931727 -0.057416562 0.04393579 -0.21565719 -0.28572223 -0.35919264 0.38337615
-0.083863385 -0.13150226 -0.24039882 -0.4316733 -0.06613267 -0.106898785 0.061429 0.21067068
-0.24569798 0.64469844 0.22290716 -0.06488779 -0.3353007 -0.055947986 0.19782038 0.18991423
0.79052913 0.0634321 -0.07715075 -0.15465339 0.042639453 0.2888864 -0.21861136 -0.26495278
-0.121386155 -0.15167293 0.62663114 -0.15351667 -0.61598265 -0.35618594 -0.7776793 0.12032841
1.1398422 0.3100512 0.38678262 0.38559014 -0.13574184 -0.3062189 0.36691025 0.38861567
-0.021979667 -0.59680766 -0.40931293 0.28611454 -0.0063348166 -0.13217798 0.787136 0.16646852
-0.21695478 -0.7870807 0.18800102 0.72407836 -0.15064627 -0.25797567 -0.12310773 -0.115350425
-0.39223334 0.19167072 -0.003628772 -0.2604177 -0.15284719 -0.114637665 0.18796921 -0.08785746
-0.22691163 0.21754053 -0.4886768 0.04828813 0.058532152 0.116980866 -0.04300862 -0.10303703
0.16291514 -0.03028686 -0.18465663 0.08332251 -0.045798916 -0.17094404 0.06945739 0.23770633
0.09236037 0.0024885074 -0.1679757 -0.029296419 -0.024357278 0.0775991 -0.043727666 -0.17147133
-0.14277095 -0.05913831 -0.057972003 0.3965102 0.022344103 -0.037872445 0.13542975 0.03497862
0.009170282 0.058486965 0.06699612 -0.21525812 -0.073026106 0.054983146 0.018756602 -0.044801418
0.16967508 0.1432404 0.10113385 -0.15666084 -0.061076403 0.044476546 0.0791485 0.011167993

l1.bias f4 [100]
00000000: 4795 e4bd e8a2 343d b202 863e 621f debd
00000010: adb9 07bd fafd 14be 748d 793d ba12 093e
00000020: f9cf f8bd b2ab 25be 9c17 643e cdee 28be
00000030: 8cd6 b33d 02b1 8a3e bc42 283d f7b0 4bbd
00000040: 5aa1 b13d 4617 9d3d 3dd3 1ebe ebf4 393e
00000050: f141 78be ab04 72be e63a cbbd 0817 913e
00000060: d89b 4f3d 32e6 1bbd eeed 59be b542 8bbd
00000070: dcc4 8b3d 0e66 493e f45e 23bd bc11 43be
00000080: 9b4d 39be ce56 01bd 930a 9cbe 29c4 8e3d
00000090: 4a1e 69be 4141 093e 0a1e 76bd bc08 18be
000000a0: 6f7a d53b a1aa 423e 50e5 7c3d aaba a73e
000000b0: ec96 f73d ad8b 783d 3e0c 633d 88cf 203e
000000c0: f6e8 f93c 5329 11be f4aa 94bd 47a9 47bd
000000d0: 4cf6 84bc 3634 d3bd 2a7a acbc 77c0 7a3e
000000e0: 441b 523c 48c5 873d 6ee6 94ba ede9 4b3e
000000f0: bf7b 923e 8c30 f9bc 8b9d b8bd 7589 abbd
00000100: fc05 323e a044 27be 18f9 56bd 6973 c53e
00000110: 8c32 8dbd da58 1e3e 5f91 7a3a 15d9 c13d
00000120: ad89 1fbe 9d02 96bd e85f 573e 1fad 3d3d
00000130: ea59 4dbb 5f91 113e 9081 44be d761 8b3e
00000140: 8dac 62be 2685 d9bd e77d 8f3d 1445 f0bd
00000150: f187 ecbc e8d3 983e f445 a93d 2a99 2f3c
00000160: 9d20 a53d 4362 673e c496 4d3e fb43 613e
00000170: f5fd 23bd 7177 15bd 75fd 5abe fcaa 19bc
00000180: 49f2 5d3e 0aa3 c2bc 48ad e8bd 12e1 323d
-0.11161285 0.044100672 0.2617393 -0.108458295 -0.03313606 -0.1455001 0.060925916 0.1338605
-0.12149043 -0.16178778 0.22274631 -0.16497345 0.08781156 0.2708817 0.041079268 -0.049729314
0.086733535 0.07670455 -0.15510269 0.18159835 -0.24243905 -0.23634593 -0.09923343 0.28337884
0.050685734 -0.03806133 -0.21282169 -0.06799833 0.06824657 0.19667837 -0.039885476 -0.19049734
-0.1809601 -0.031576924 -0.30476817 0.06971008 -0.2276546 0.13403799 -0.06008724 -0.14847082
0.0065148394 0.19010402 0.061742127 0.327596 0.12089333 0.06068008 0.055431597 0.15704167
0.030506592 -0.1417592 -0.07259169 -0.04874542 -0.016230725 -0.10312693 -0.021054346 0.24487482
0.012823883 0.06629425 -0.0011360177 0.19913454 0.28610036 -0.030418657 -0.09014424 -0.08375827
0.17385095 -0.16334772 -0.052483648 0.38564613 -0.06894407 0.15463582 0.0009558405 0.09465233
-0.15579863 -0.07324717 0.21032679 0.04630768 -0.003133411 0.14215611 -0.19190049 0.27223083
-0.22136135 -0.10621099 0.07006436 -0.117319256 -0.028873416 0.29849172 0.082652956 0.0107176695
0.08062861 0.22596078 0.20077044 0.21998589 -0.040037114 -0.03649086 -0.21385749 -0.009379145
0.21674456 -0.023759384 -0.11361176 0.043671675

l2.weight f4 [100, 100]
00000000: 4423 6a3c 7159 06bf bcc7 41be 8f9c c5bc
00000010: 3cad ba3d d9e4 2cbe 28e0 ab3c 1552 a13d
00000020: e4cf 48bd ad85 dbbd 5e7b 003d 1e4e 1b3f
00000030: f2b1 cdbd eade 24bd 26f2 a73e afbc 073e
00000040: 2f30 bbbd 91a6 98be 8a5d 073e 70ce 5ebe
00000050: e59d 0a3f bdb3 1bbe 37bb 473e 3810 31be
00000060: e8bd 023f 6350 d63d e739 ddbb 55cc 123e
00000070: 4ca8 d4bd 6d0f aabe 450a 0f3e dbd5 3abe
00000080: 7e1c 853e bbab e3ba 54fd 6f3e e56a acbd
00000090: 9809 f13d b30a 04be 38df bd3e 67ea e33d
000000a0: 9399 033d 7bd1 4cbe 3c34 b8be f310 13bf
000000b0: eb62 abbc da75 7f3c ef0c b23e 5199 113e
000000c0: 9022 d13e 4af1 48be 7728 7e3e de54 8cbc
000000d0: 987b 8e3e 0de2 4cbe 8e5f 14be 1e43 8c3e
000000e0: d99a e23e 16b6 adbe a11a 00be dca6 1f3e
000000f0: 2eed 383e 2031 14be b135 d8bd c78d aabe
00000100: baea d0bd 000c 313e cd8f 00bf fc16 90be
00000110: 3121 be3e 8e6a 0ebe 4060 bbbe 86ea febd
00000120: dc97 623d ac1a 1cbe eb71 20be 7ad9 67be
00000130: f43b a43e c9ad 84bf 2310 17bd f9d1 d4be
00000140: 0895 003e ad19 81be 2920 773e 317b 383e
00000150: ff0e e7be 7ae7 f83d a627 6e3e bf9c febc
00000160: 9704 6f3e 0d11 3cbe fac2 e83e 9b86 97be
00000170: 21e5 09be 5c61 2abb 12f8 00be b656 603e
00000180: 5f10 3fbe a166 053f 31a1 fbbd 4b47 963e
00000190: f1b4 89be 06f1 163f 84a8 b63e 0a01 9fbe
000001a0: 7058 aebe b474 d83b d210 993e eefa 2e3d
000001b0: 2b77 b7bd 8214 723e 024d 2a3e 6dd8 c8bd
000001c0: 10a7 3a3d 53f2 8b3e 45ff a7bd d297 48be
000001d0: 3cbd 9dbe 81cd e23d feef 0bbf 19aa 693e
000001e0: 225c 58be 3cbf 573e 686a 893d 5a04 7d3e
000001f0: 7f59 16be 3441 eebd 0e0a 903e 7a1c 3dbe
00000200: 43f7 733e 76c4 8e3d 2071 183e 2691 f43d
00000210: db41 bfbe 99ff 853e 4b9d 81be f3bc fb3d
00000220: 7c0e 773d 3d3b 6e3d 5a88 23be 2999 663e
00000230: effd aabe afbb 853e 201d f8bc e3d5 0cbe
00000240: 9842 74bd 0154 c9bc 8156 163d a089 17bd
00000250: 1a11 523d 76b0 c9be 4f82 88bd e526 6bbe
00000260: 2a3d 5bbd 40ab bebc 10c1 cc3d ecfa 8ebd
00000270: 7819 463d df51 e83e 9f87 c63d 54b6 b9be
00000280: 6474 e73d aa64 d3bd 3281 523e 2d51 c4bd
00000290: a310 053f c3f9 d9bc 4618 1d3f 259e c13e
000002a0: 48e0 153d 52ca a8bd 00f4 8c3e ce4d 55be
000002b0: be28 37bf fa43 29be 587b 5b3d 7165 c5bc
000002c0: aff5 18be bfd3 9abe e860 f33d 81ec c73e
000002d0: f1b8 a0be aca3 b3be 04fe a13d d9cc 7dbc
000002e0: 59c6 d43d 79cf 463e 75a5 4ebe 3238 1d3e
000002f0: ded8 473d 5738 e13e 0c82 5fbd b066 633e
00000300: 4959 adba a629 a03d 72ac 1ebc a003 f4bd
00000310: 37ad 86bd e743 a3be fc69 38bd 2326 37bd
00000320: 8594 653f b941 88bd 8c92 0abf 22ef 003e
00000330: 3dc8 95be ffec 413f 71d7 47bf cf87 4bbf
00000340: c54f ca3e f44c 593f 0c1c b8bf 86b5 c93d
00000350: 02da b8be 03de 84bf 2c8a a6bf d54b ff3d
00000360: d20d 82bf 028d a7bf f8c2 22be f991 1dbe
00000370: 4aef 8cbd 36a0 463f b00a a83e 0b3f 283e
00000380: 1118 b5bf 5898 923e c371 863e 82b6 dc3d
00000390: 3c2a 963e 7ce3 1bc0 ce51 b53f e8e2 cc3e
000003a0: 9955 b33f 11a0 393f f9ca a83e 39b0 edbe
000003b0: 1ef7 d13c 49b2 cfbd a95b 013e f7ce 5f3e
000003c0: 576d 953e 0d70 c13b bfc5 e23d 3f6d 87bf
000003d0: 9564 89be 57d6 f03f 0ab4 7cbf edcf 50be
000003e0: 0d9a a03f 6d5a 283f eb82 edbe 2feb a3bd
000003f0: 1acc 8c3f 8ad3 8bbf d115 783f de65 043f
0.014290635 -0.52480227 -0.18923849 -0.024122505 0.09115073 -0.16884173 0.02098091 0.07876984
-0.049026385 -0.10718856 0.031367652 0.6066607 -0.10043706 -0.04025165 0.32801932 0.13255571
-0.0914005 -0.2981458 0.13219276 -0.21758437 0.5414718 -0.15205283 0.1950501 -0.17291343
0.51071024 0.10464551 -0.0067512873 0.14335759 -0.103836626 -0.33214894 0.13968761 -0.18245642
0.259983 -0.0017369905 0.23436481 -0.08418826 0.11769408 -0.12894706 0.37084365 0.11128693
0.03212888 -0.20001785 -0.35977352 -0.5744774 -0.020921191 0.015592063 0.34775493 0.14218642
0.40846682 -0.19623294 0.24820124 -0.017130312 0.2782867 -0.20008107 -0.14489576 0.27394956
0.44258764 -0.33927983 -0.12510158 0.15590996 0.18059227 -0.14471865 -0.10557116 -0.33311293
-0.102010205 0.17289734 -0.5021942 -0.28142536 0.37134698 -0.13907835 -0.3659687 -0.124470755
0.055320606 -0.1524455 -0.15668456 -0.22641554 0.3207699 -1.0365535 -0.036880624 -0.41566446
0.12556851 -0.25214902 0.24133362 0.18015744 -0.4512863 0.12153526 0.23257312 -0.031080602
0.23341595 -0.1836588 0.45461255 -0.29594883 -0.13466312 -0.0025997972 -0.12594631 0.21908078
-0.18658589 0.52109724 -0.12286604 0.29351267 -0.2689586 0.5896152 0.35675442 -0.3105548
-0.34051847 0.006605709 0.29895645 0.042719774 -0.08958276 0.23640636 0.16630939 -0.09806905
0.04556948 0.27333316 -0.08202986 -0.19589165 -0.30808437 0.11074353 -0.54663074 0.22818793
-0.21128896 0.21069044 0.067097485 0.24708691 -0.14682578 -0.1163353 0.2813267 -0.18467894
0.23824792 0.06971066 0.14886904 0.11941747 -0.3735493 0.26171568 -0.25315318 0.122918986
0.060316548 0.058161963 -0.15969983 0.22519363 -0.3339686 0.26119754 -0.030287325 -0.13753466
-0.05963382 -0.024576189 0.03670359 -0.036996484 0.05128584 -0.39392442 -0.066654794 -0.22964056
-0.053525127 -0.023275018 0.09997761 -0.06981453 0.048364133 0.45374963 0.096938364 -0.36271918
0.113014966 -0.103219345 0.20557097 -0.095857956 0.5197851 -0.026608353 0.61365163 0.37815967
0.036590844 -0.082417145 0.27529907 -0.20830461 -0.7154654 -0.16529837 0.053584427 -0.024096223
-0.14937471 -0.30239674 0.11883718 0.39047626 -0.313911 -0.3508581 0.07909778 -0.015490734
0.10389394 0.19415082 -0.20180304 0.15353468 0.048790805 0.43988296 -0.05456738 0.22207141
-0.0013225462 0.07820444 -0.009684669 -0.11914754 -0.06576007 -0.31887743 -0.04502295 -0.044714104
0.8967975 -0.066531606 -0.5412986 0.12591222 -0.29254332 0.7575225 -0.7806311 -0.795041
0.39513984 0.84883046 -1.4383559 0.09849076 -0.36103827 -1.0380253 -1.3010917 0.12465636
-1.0160468 -1.3089907 -0.15894687 -0.15387715 -0.06881578 0.7758821 0.32820654 0.16430299
-1.414797 0.28631854 0.26258668 0.10776998 0.29329097 -2.4357595 1.416559 0.40016866
1.4010497 0.72509867 0.32967356 -0.4642351 0.02563053 -0.10141427 0.12632622 0.21856295
0.29184982 0.00590325 0.11072873 -1.0580214 -0.2683455 1.8815411 -0.9871222 -0.20391817
1.2547013 0.6576298 -0.46388945 -0.08003842 1.0999787 -1.0923932 0.9690829 0.51717937

l2.bias f4 [100]
00000000: 25a8 c6be 7877 f83e 37a7 eb3d de13 93be
00000010: ceb8 7fbc 13c8 0a3e a27c 9cbd df0c 363e
00000020: 2dcb e83d 618a fa3d 1642 d23d 7011 f43e
00000030: cb95 003f 0381 9fbe eafc a43e bfb4 15be
00000040: db7e f03e 6418 4b3e 2967 84be 5bae 5abd
00000050: 69d6 5b3e 0e95 c53e 59b2 b73e e4d1 493e
00000060: 2ec9 223e 73c6 98be dd99 393e 6634 c8be
00000070: f3b1 903d a4dc 64bd c735 243e d6c9 82be
00000080: f6e4 b73e 4ae2 923d f413 b5bd fe4e 3dbe
00000090: 7aca d0bd b732 143e b106 a0bc f4cb 30bd
000000a0: 8db3 debe 395f da3d ad83 16be 8d77 8fbe
000000b0: 4710 5d3e 1efb a7bd 3264 a83e 9acb 9b3d
000000c0: 3000 16be 19ef 71be 3ec2 d5be 1b4c 163e
000000d0: 59fe a0be c755 ef3d 9210 4c3e 1ffe 80bd
000000e0: d6d1 d83e 28d3 d9be a5ae f33e 389f c03e
000000f0: 9098 033e 620e 8cbd 7a94 a9bc 74ef d6bd
00000100: 5232 d7be 6a03 55be febd 4b3e 4c96 3fbe
00000110: 872f 713c c84b d4bc 8076 bdbd 35bf 323c
00000120: 6d15 67bd ccf9 71be cdef a53d 7ff8 b13d
00000130: c3f4 ea3e bfe8 0bbe 4d77 55be fe1a 41be
00000140: 5df1 24be 8e32 ca3c 39b0 053e 8d0b af3d
00000150: 6f9d f6bd fca8 01bf 4b09 563e 33c3 5f3e
00000160: 6a89 25be 1357 a8be 31d2 24be 7f96 0bbe
00000170: b52c 3d3e aca5 d33c 3317 8b3e c5c1 8b3e
00000180: 0f14 18be c77c 6d3e db86 013f 6c5c 3dbe
-0.3880016 0.48528647 0.11506503 -0.28726095 -0.015608026 0.13552885 -0.07640959 0.17778347
0.11366878 0.12233425 0.10266511 0.47669554 0.50228566 -0.31153116 0.32224208 -0.1461973
0.46971783 0.19833523 -0.25859955 -0.053388935 0.2146851 0.38590282 0.35878256 0.19708973
0.15897056 -0.29838905 0.181251 -0.39102477 0.07065191 -0.05587448 0.1603614 -0.25544614
0.3591687 0.071720675 -0.088416964 -0.18487164 -0.10194869 0.14472471 -0.01953444 -0.043163255
-0.4349636 0.106626935 -0.14698668 -0.28020898 0.2158824 -0.08202194 0.32888943 0.07607193
-0.14648509 -0.23626365 -0.41749758 0.1467747 -0.31444052 0.116862826 0.19928196 -0.0629847
0.42347592 -0.42543912 0.4759418 0.37621474 0.12851167 -0.06838681 -0.020700682 -0.10494891
-0.4203058 -0.20802084 0.19896695 -0.18709677 0.014720804 -0.025915042 -0.09251118 0.010909845
-0.056416918 -0.23630446 0.08102379 0.08689975 0.45889863 -0.13663004 -0.20846291 -0.18857953
-0.16107698 0.02468231 0.13055505 0.08547125 -0.12041747 -0.50648475 0.20901982 0.21851806
-0.161657 -0.32878932 -0.16095807 -0.13631628 0.18474086 0.025835834 0.27166137 0.27296272
-0.14851402 0.2319213 0.505964 -0.18492287

l3.weight f4 [18, 100]
00000000: 1b4c 4ebd c3c8 9ebe 6829 5fbf 1fb4 983e
00000010: 8ad1 193f f53b 17bf da36 4a3e e9c6 73be
00000020: f511 74bd 35dc e1be 347f afbd aea5 c9be
00000030: b287 78be 2cfb 2e3f 0671 f0bd fd07 44bd
00000040: 6caa 83be b36a 1bbe 3e5a 04ba e264 5d3f
00000050: 1fde a6be e67d 0cbe 918e 33be ad6a 10be
00000060: 6662 b4be e4d6 9d3e bdb9 28bf bd4d 043f
00000070: ca67 a6be a399 083f 7902 b5be 5058 8f3e
00000080: 4d65 89be 781d 163f 1c53 ea3e 0600 633e
00000090: c2d2 893e 80f1 09be 41fd 2a3e 5536 b8be
000000a0: 515a ce3e 970c ddbe d74a eb3d a8b9 353e
000000b0: e5ce b2be 640e 033f bf86 043f 9962 eb3e
000000c0: 256b 1d3f b579 7f3e da57 7b3e 3d26 efbe
000000d0: 7bdc 933e 9ad5 21bf 8064 1dbf 1a33 9b3e
000000e0: 620c 88be eee8 0a3e cb42 89be 8716 1ebe
000000f0: 366e 143e 416b 30bf 763d 183f 5915 6a3e
00000100: d92b d43e 6af8 0b3f 3cd3 cbbe 547d 7f3e
00000110: b6e5 1abf 9a13 19bf 1dfd fd3d c83c 17be
00000120: 25f4 a73d 8578 213e d77c 97be 6ecd 12be
00000130: e13b 53be 1ad3 6f3e 48c7 d0be bae8 913e
00000140: f83e 1b3f 23d7 05be c6be 08bf db19 fdbe
00000150: 54a6 5b3e d818 433e ef09 1dbe 7c43 fdbe
00000160: 1f38 9e3d 9d22 2b3e fef4 d3bc 94fa 183e
00000170: dc9e a23c 0200 84be ea5c 7fbe da33 50be
00000180: 3a9f df3d 185b e43e b7ff f2bd 5ef5 b83e
00000190: 6f33 0f3e 5b5e 8a3d e714 41bf 0fe5 d53d
000001a0: a0a8 3f3f 8be2 dfbe c07d c43e 3169 9fbd
000001b0: a803 acbe 830e 15bf a208 cb3d a8cd 69be
000001c0: 799f 01be 8d69 0d3f 32b9 bfbe aa9c 043e
000001d0: a35f adbe c813 b3be 57a3 b13d 940c 0f3f
000001e0: 9186 9bbe 3f43 aabe a5b9 c7be bf99 08be
000001f0: d5e7 c3be 7f3e a73d 5786 3dbf 4087 fe3e
00000200: 2635 d0bd c55f f93e 8a5b 07bf 5fc4 8f3e
00000210: 5395 17be 51eb 1b3f 53e5 983e 949f 103e
00000220: 6fbb 883e f951 703d 0bff 933e 1d16 09bf
00000230: a938 833e d9f6 fcbe 8f2c b63d 7374 6b3e
00000240: 0ec6 90be 69f9 f03e 60d5 0f3f 8280 cb3e
00000250: 9eac 3b3f 4ffc ad3e c9af 013f 2a70 0bbf
00000260: f872 073e 3091 8dbe bbde 5abf f94c 5d3e
00000270: ecb4 67be 4b2c bc3e 0ffe 94be cd68 e7be
00000280: 938c 723e b4ce 42bf ded5 ac3e 01cc b83d
00000290: aff0 ad3e 5852 103f 8fdc 72be 57f2 e23e
000002a0: a94b 0dbf d869 00bf e5c7 503e b795 08be
000002b0: a2e7 8fbd 87d6 b33e 614e 55be fb04 a1be
000002c0: 13f3 10be 6d61 a63e 813e d5be 9aa8 673e
000002d0: 1ab5 0f3f be9f ffbe 1cb1 bfbc 97b5 e6be
000002e0: 845e ea3d d8b2 af3e d57b 7fbe 0dfb 45be
000002f0: 91c9 6b3e 4ffe a23e 9205 edbd 3082 393d
00000300: fb49 6ebe 0983 9abe 0354 11be c96c 3bbe
00000310: fc99 263d addd d23e b6d7 6bbe b5b7 bb3e
00000320: 3ce5 a63e 0457 f6be 7a39 4abf 1a69 0d3e
00000330: e8b6 9e3e ebd1 0fbf d2e9 9c3e 7275 8ebe
00000340: 5421 b3be a4f5 ccbe ebdb 2cbd d9b7 d6bd
00000350: 1b6e 713d dbd7 243f af1d 90be 0dc4 77ba
00000360: 3d1a 3abe f32a 7bbe 5be5 733e 0a7c 603f
00000370: ebf4 84be b3f4 21be 5fee 8cbe e749 a7be
00000380: 3cc0 44be 6bbd 63bd 59b8 57bf 51ad 1e3f
00000390: 5556 4bbe 24fd 123f 4f58 afbe 3ed8 763e
000003a0: 7cb6 87be c06b 033f 7ae9 f63e 3521 babd
000003b0: f073 963e 0008 a2be 3461 cb3d 97ae 70be
000003c0: 1088 68bd a036 adbe d06f e83c b7b0 8f3e
000003d0: 68b9 97be 173f 1e3f 183e fa3e 65aa 1c3f
000003e0: 78d0 123f f8da a73e fc77 813e 4ffc 19bf
000003f0: 6cbb 17be 0ba2 31be 5181 1bbf 5da2 043e
-0.05036555 -0.31012544 -0.87172556 0.2982492 0.60085356 -0.5907586 0.19747487 -0.23806347
-0.059587438 -0.44113317 -0.08569184 -0.39384216 -0.24270514 0.6835201 -0.117403075 -0.04785918
-0.2571596 -0.15177421 -0.00050488475 0.8648206 -0.3259134 -0.13719901 -0.17534854 -0.14103194
-0.35231322 0.3082801 -0.65908414 0.5168112 -0.3250106 0.5335943 -0.3535345 0.27997065
-0.268351 0.58638716 0.45766532 0.22167978 0.26918608 -0.13471031 0.16698171 -0.35978952
0.4030328 -0.43173668 0.11488884 0.17746603 -0.34923473 0.51193833 0.51768106 0.45973662
0.61491615 0.24948771 0.24545231 -0.4670886 0.2887915 -0.63216555 -0.61481476 0.30312425
-0.26571947 0.13565418 -0.26808771 -0.15438281 0.14495167 -0.68913656 0.5946878 0.22859706
0.41439703 0.54675925 -0.39809597 0.24950153 -0.6050676 -0.59795535 0.12401793 -0.1476928
0.08200864 0.15768631 -0.29587433 -0.14336178 -0.2062831 0.23420373 -0.4077704 0.2849787
0.6064296 -0.1307035 -0.534161 -0.4943379 0.21450168 0.19052446 -0.1533582 -0.4946555
0.07725548 0.16712423 -0.025873657 0.14939338 0.01985114 -0.25781256 -0.24937788 -0.2033228
0.10919042 0.4460075 -0.1186518 0.361247 0.13984464 0.06756278 -0.7542252 0.1044408
0.74866676 -0.43727526 0.3837719 -0.077837355 -0.3359654 -0.5822527 0.09913756 -0.22832358
-0.1265849 0.5523918 -0.3744598 0.12950388 -0.33862028 -0.3497603 0.08673733 0.5587857
-0.30376104 -0.3325443 -0.39008823 -0.133399 -0.3826281 0.08166217 -0.7403311 0.49712563
-0.10166387 0.4870588 -0.5287405 0.28079507 -0.14803056 0.6090594 0.2986246 0.14123374
0.267055 0.058671925 0.2890552 -0.5354937 0.25629166 -0.4940708 0.088952176 0.2299364
-0.28276104 0.47065285 0.5618496 0.3974648 0.7331027 0.3398156 0.5065885 -0.54468024
0.13227451 -0.27649832 -0.8549611 0.21611394 -0.2262761 0.36752543 -0.2910008 -0.45197144
0.23686437 -0.76096654 0.33756918 0.09023286 0.3397269 0.56375647 -0.23716949 0.44325516
-0.55193573 -0.50161505 0.20388754 -0.13338362 -0.07026602 0.3512461 -0.2083068 -0.31449112
-0.14155225 0.32496205 -0.4164925 0.2262291 0.56135714 -0.4992656 -0.023399882 -0.45060417
0.11443809 0.34316134 -0.24949582 -0.1933405 0.2302611 0.31834647 -0.11573328 0.045290172
-0.23270409 -0.30178097 -0.14192204 -0.18303217 0.040674195 0.4118475 -0.23031506 0.36663595
0.32596767 -0.48113263 -0.7899395 0.13809624 0.3099892 -0.56179684 0.3064714 -0.2782398
-0.34986365 -0.4003116 -0.042201918 -0.10484285 0.058942895 0.6439187 -0.28147647 -0.0009451516
-0.18174072 -0.24528103 0.23817961 0.8768927 -0.25968108 -0.15816002 -0.27525613 -0.3267357
-0.19213957 -0.055600565 -0.8426567 0.6198321 -0.19857152 0.5741751 -0.34247062 0.24105927
-0.26506412 0.5133629 0.48225003 -0.09088365 0.29385328 -0.3164673 0.099306494 -0.235041
-0.056770384 -0.33830738 0.028373629 0.2806451 -0.2963364 0.6181502 0.488755 0.611975
0.5734935 0.32784247 0.25286853 -0.6015062 -0.1481759 -0.1734697 -0.60744196 0.12952562

l3.bias f4 [18]
00000000: 4f16 393c 9008 1cbe 7280 0abf 04d8 cabe
00000010: 1dad 573d 45a6 debd d592 77bd 65fb e4be
00000020: 4e3d 55be 8f3d 8ebe f6fc f6bc 2b3d c4be
00000030: 8b07 cebe 1cdb 943e 1898 14be 5319 aabe
00000040: c9b1 f7be ff77 ccbe
0.011296823 -0.15237641 -0.5410224 -0.39617932 0.052655328 -0.10871557 -0.060442764 -0.4472305
-0.20824167 -0.2778134 -0.030149918 -0.38327917 -0.4024013 0.29073417 -0.14511144 -0.33222446
-0.48377827 -0.399353
