data/result/d_720.pt (torch, 94638 bytes, 7 tensors)

D_attr_matrix.weight f4 [36, 5]
00000000: a608 a23d a486 e1be 75fa 17be 60c8 973d
00000010: 2a08 acbd bad9 d1be 6886 a0be ccff 3c3e
00000020: db12 e0be f17a e73e 585d 5f3e 43c3 9e3b
00000030: bece 71bd 2471 4fbc 60a4 823c 72db aebd
00000040: 1e12 d5be b624 963e f2c5 503e ac0e 85be
00000050: 7765 e43c d83a 41be 948d ecbb d8d0 a83d
00000060: 224d d13d b10f 54bf b434 47bf d533 6c3e
00000070: bb2b 073f afd9 07bf ecdb 60ba ba3e edbd
00000080: c390 78bc 988a 083f b398 3c3c 2d2c 1b3f
00000090: b371 82be b58c 103f 0732 12be c178 dfbe
000000a0: 95e6 d9be 76c4 043e cc9c 153e bc4d 82be
000000b0: e1ef 083d 87be 24be 9cce c53d f942 d2be
000000c0: c123 73bd c698 263e c079 2a3e c95f e43d
000000d0: f529 6a3d 27e0 eb3c 978c 6c3d 5a15 a1bc
000000e0: 1071 bc3e d1ca 0dbe 1a68 67be 94ce 8fbe
000000f0: c238 cdbd 15a5 493c bb90 83bd 2c58 43bd
00000100: fcf0 cdbc 3306 5cbe 9d4f ce3e aa74 f03d
00000110: 0e47 323f c00a 553f ec1f 3a3e 10f7 773e
00000120: 4e39 20bd af31 58bd 52e2 ccbe 47f3 e2bd
00000130: 6c61 793e fdfc 243e 4267 403c 48aa 913e
00000140: 59c8 f83b 4bdc e63c beac e9bc d4e8 2e3e
00000150: 2c17 d9bc b2e5 bcbe eb36 40bf f817 003f
00000160: df9e b63e 3036 4c3e 1535 723d 402c 133c
00000170: fe3e cbbc daf8 cabc 1468 a0bd cbe1 e4be
00000180: 8088 8ebc 90f2 f93d 327a 983e b2c3 05bf
00000190: 3c53 983b 0d86 4dbb e094 593b 0c1e 063c
000001a0: bac2 7cbe 06b3 b23e ae50 c33e acd8 0d3f
000001b0: e512 ef3c a6b1 5f3e a457 4dbe 84df e43b
000001c0: e0a2 003b fdd0 e6bb 0c7a 8bbc 97e4 2b3c
000001d0: 341a 1c3f 47c3 1ebf baa5 743d 3ae4 353f
000001e0: 9c1f f1bd d5de a0bd fb2b 003d 2ece c1be
000001f0: 14eb cbbc a2d9 8f3d b340 24bd 3b33 17bf
00000200: a76e 4fbe e643 bf3e 14f4 103d 4fda 493d
00000210: b18e 22be 5f5e 83bd a558 b9bd 9120 8fbe
00000220: 7007 c1be f32b 27bd 0943 fd3e 4bf2 c33e
00000230: 5115 b33d bea0 f03c b63a c63b d044 84bd
00000240: 7e01 823d a12c 0bbf eba8 b2be 0afa ef3a
00000250: 358e d13e 5965 f3be 06d7 21be 0a79 0b3e
00000260: 6d81 073e 9328 ca3d 61cf 40bd dc64 273f
00000270: 701b 103e 491d 10bf 816a b7be 58b4 503e
00000280: 0400 773c a84b c7bd 8f0b fb3d 0449 d63c
00000290: a66c 83bc 02d2 ad3b ed21 5bbe c17c 01bf
000002a0: 55b3 e6bd 3299 503d 9fac df3c 9cb7 873e
000002b0: 1c23 02bd cd72 62be 31e1 2fbe 914f 52bf
000002c0: 66bb 423e 4234 5f3f bc40 8abe 1760 91be
0.07911806 -0.44048035 -0.14841636 0.074112654 -0.08399995 -0.40986425 -0.31352544 0.18456954
-0.43764386 0.45210984 0.21812952 0.0048450544 -0.059035055 -0.012661252 0.01594752 -0.085379496
-0.41615385 0.29324883 0.2038801 -0.25987756 0.027880413 -0.18870103 -0.007219026 0.08242959
0.1021979 -0.82836443 -0.77814794 0.23066647 0.528011 -0.53066534 -0.0008577693 -0.1158423
-0.015171233 0.5333648 0.011511016 0.6061428 -0.2547737 0.564647 -0.14276896 -0.43646815
-0.42558733 0.12965569 0.14610595 -0.25449932 0.03343189 -0.16088305 0.09658548 -0.4106672
-0.05936027 0.16269216 0.16648006 0.11151082 0.05716892 0.028793408 0.057751264 -0.019663502
0.3680501 -0.138469 -0.22598305 -0.28087294 -0.10020591 0.012307425 -0.064240895 -0.04769151
-0.025139324 -0.2148674 0.40295115 0.11741002 0.6963967 0.8321953 0.1817624 0.2421534
-0.03911715 -0.052781757 -0.4001642 -0.11081558 0.2435357 0.16112132 0.011743369 0.28450227
0.0075922427 0.028181216 -0.028524753 0.17081004 -0.026500307 -0.36893994 -0.750838 0.50036573
0.35668084 0.19942546 0.059132654 0.008982718 -0.02481031 -0.024776865 -0.07832351 -0.44703516
-0.017399073 0.12204468 0.29780728 -0.5225173 0.004648594 -0.0031360418 0.0033200309 0.008185875
-0.24683657 0.3490221 0.3814749 0.5540874 0.029183814 0.21845111 -0.20052963 0.006984653
0.001962833 -0.0070439563 -0.01702597 0.010491512 0.6097748 -0.6201672 0.05972836 0.7105137
-0.11773607 -0.07855002 0.031291943 -0.37852615 -0.024892367 0.07023932 -0.040100764 -0.59062546
-0.20257054 0.3735649 0.03538902 0.04928046 -0.15874745 -0.06414484 -0.09050111 -0.27954534
-0.37700987 -0.040813398 0.49465206 0.38270792 0.087443 0.029373523 0.0060494794 -0.064584374
0.06347941 -0.54364973 -0.348945 0.001830877 0.40928808 -0.4753826 -0.15804681 0.13620391
0.13232966 0.0987102 -0.047072772 0.65388274 0.14072967 -0.56294686 -0.35823444 0.20381296
0.015075687 -0.09731227 0.12258064 0.026157863 -0.016043019 0.005304576 -0.2139966 -0.50580984
-0.112646736 0.05092735 0.027303992 0.2650727 -0.031771764 -0.22114106 -0.17175747 -0.8215266
0.190168 0.87189114 -0.27002513 -0.28393623

l1.weight f4 [100, 108]
00000000: 1a3d 34bd 9b44 113e 2c57 91bc b98e e93d
00000010: 0b35 093e d969 efbd 911d 583c e0a7 a73d
00000020: 40ed bd3d 9d2c 19bd 88eb 18be 4c12 45bd
00000030: 82ce 80bd 79d0 ae3e 35bb 063e ed19 0fbe
00000040: 9aab c03d 7cdc 1e3e 5442 903c 8de5 0b3d
00000050: 8584 0ebd 7de3 90b8 99d0 96bc 5596 043d
00000060: 6ec7 4ebd 12a2 cabd 6c52 7bbd 9cc6 d13c
00000070: f8f2 c63d 9721 5d3e 1965 763e 25c2 24bd
00000080: 546d 503e b3c8 d23d 0b94 633c deaf a13d
00000090: 1abf 30be 79b4 f03d 3c06 7c3c 06f5 0f3e
000000a0: 8535 0cbd a8f3 11bb fa01 d53b 014e 513c
000000b0: b22e 16be 40bd 1abe 4fdc 8e3d f10f 353e
000000c0: 22c0 a7bd ddad af3d dbec 06be 0b50 54bd
000000d0: 0e34 2cbd aaaa c2bd 2151 efbb 9d64 7c3e
000000e0: 94e3 e33d 1640 423b de41 773d 29fc fcbc
000000f0: 05bd 2c3e 70d3 cc3d 81e9 3abe 3808 743d
00000100: eb12 ddbb 3cf4 1abe ad9a 64be 2357 403d
00000110: 3e0d ecbb a81f 113e 813e f039 b62c e6bd
00000120: 9114 c53d 1ba7 1fbd 2731 0ebd 4da3 fabd
00000130: 2a42 4ebe f241 89be 7f90 23bd fe98 79ba
00000140: ce81 343e 1c91 3dbe 3096 523d c1cd bfbd
00000150: f0d3 bc3d a6b9 04be 91dc 10bd fb16 90bd
00000160: cefb f6bb 7d26 873d a6c2 ad3e 5b50 2e3c
00000170: 828a 9d3e ca87 1d3f a300 9b3e d5b6 003f
00000180: 31b9 f93e 36c2 b13e 5523 9a3e 4a77 263f
00000190: d5bf a23e c7da 093e 388a 0c3f 95e9 cd3e
000001a0: 44e8 023f e5ad a23e b5b0 173f 7d2c a43e
000001b0: 90e5 133f b72d 5fbe 1e41 cdbe 9883 f23e
000001c0: b5c4 47bf 9916 b7bd 03f3 a0bf d484 d43e
000001d0: 80af 053f 0d1a b1be ef49 cabe 2565 88be
000001e0: 8782 c93d 3883 9d3c 68c8 713d 90e2 05bf
000001f0: 059a a7bd e5eb 06bf ad0f 813e eca1 1d3f
00000200: 92a2 9bbe 53c0 2fbd 00aa 2c3e 9192 19be
00000210: 4908 353d e5fb 813e e790 25be c849 b63e
00000220: f755 cf3e d1f6 cb3e 7bf2 64bd 5c3d 1f3d
00000230: 58e4 5bbe 4765 95be 8d06 bcbe 45a3 c33e
00000240: 1c86 aebd 50a5 07be c70c 72be 4445 dcbe
00000250: 0a20 8fbd aac4 e3bd c45d 853d ff9f 563e
00000260: bc80 77be 3b76 243f 64f1 633e 40d8 7bbd
00000270: bf3c aabe 0b60 61bd db74 5b3e 07e8 523e
00000280: 1a2f 4d3f 0478 813d e647 98bd 7fba 1dbe
00000290: 4155 023d 89ee 9d3e cbc8 69be 3020 90be
000002a0: d85e f5bd 30ff 19be dd57 203f 6cc5 1bbe
000002b0: 6cc7 1dbf 518d babe 6a41 49bf 005d fa3d
000002c0: b629 933f 1a9f a23e 1f57 cb3e 7de3 ca3e
000002d0: 9726 07be b118 a2be b808 c13e 5c83 ca3e
000002e0: 5454 bfbc 1695 1abf fd0f d5be e7fa 963e
000002f0: 92c7 dabb 5a78 06be 22cc 483f b14f 293e
00000300: 4a82 5dbe c0bb 4dbf ea11 3f3e 6b73 3d3f
00000310: 51f0 18be 3478 83be 49f5 07be ba2f cfbd
00000320: 108f c6be 69c6 523e 233b 81bb 71d8 7bbe
00000330: a5d5 2cbe f338 cabd 1ee8 3c3e 347c a5bd
00000340: 01cc 69be aea1 493e 94e8 f8be a916 0d3d
00000350: 0605 5c3d 4da8 003e fb31 17bd 2dff 04be
00000360: 378e 273e 9d09 dcbc 0918 39be f2e1 ac3d
00000370: c415 3fbd 97ce 32be 59c7 923d ba1e 753e
00000380: 30db bd3d 8ee5 2a3b 8cb8 28be 958f cfbc
00000390: a29d d5bc ccdf 953d 6d69 3cbd fa1b 30be
000003a0: 9cb7 0ebe f5df 70bd 8f28 7cbd 7a07 cb3e
000003b0: 1060 d63c 789b 2abd 38fa 083e ccd3 1f3d
000003c0: 7513 d03b c0fa 613d 6e3a 813d 3daf 5fbe
000003d0: e59f 95bd 004a 573d 54c9 b73c 56fb 4abd
000003e0: e3bc 313e 9b7b 153e c98d d43d e781 1cbe
000003f0: 9830 84bd e0b1 123d 6846 a03d 414b 033c
-0.044003583 0.14186327 -0.017741762 0.11404175 0.1339914 -0.11690111 0.013190643 0.081863165
0.092737675 -0.037396062 -0.14933598 -0.048113152 -0.06289388 0.34143427 0.13157351 -0.13974734
0.094077304 0.15513796 0.017609753 0.034154464 -0.03479435 -6.908828e-05 -0.018410014 0.03236993
-0.05048316 -0.09894194 -0.0613579 0.0256074 0.09714311 0.21594845 0.24062003 -0.040224213
0.20354205 0.102921866 0.013890277 0.07894872 -0.172604 0.117531724 0.015382346 0.14058313
-0.034230728 -0.0022270475 0.0065004798 0.012774945 -0.1466625 -0.15111256 0.06975614 0.17681862
-0.08190943 0.08578084 -0.1317629 -0.051834147 -0.04204183 -0.09505208 -0.0073033725 0.24647756
0.111273915 0.002964025 0.06036555 -0.030881958 0.1686898 0.10001266 -0.18253137 0.05957815
-0.00674664 -0.1513223 -0.22324629 0.0469581 -0.007203727 0.14172232 0.00045822936 -0.11238997
0.09623063 -0.038977724 -0.034714844 -0.122381784 -0.20142427 -0.26808125 -0.039932724 -0.0009521394
0.17627642 -0.18512386 0.05141276 -0.09365416 0.09220111 -0.12961444 -0.0353666 -0.07035633
-0.0075373417 0.06599138 0.33937567 0.010639275 0.30769736 0.6153532 0.30273923 0.5027898
0.48774102 0.34718484 0.3010508 0.6502577 0.3178698 0.13462363 0.54898405 0.4021727
0.5113566 0.31773296 0.5925401 0.32065192 0.5777216 -0.21794783 -0.40088743 0.47366023
-0.78034526 -0.08939857 -1.2574161 0.4150759 0.52220917 -0.34590188 -0.39509532 -0.26639667
0.09839349 0.019227609 0.059029013 -0.5229883 -0.08183674 -0.52703696 0.25207272 0.615752
-0.3039747 -0.042908024 0.16861725 -0.14997317 0.044197354 0.25387493 -0.16168557 0.35603166
0.40495273 0.39836743 -0.05589531 0.038876876 -0.21473825 -0.2917883 -0.36723748 0.38210502
-0.08521673 -0.13246655 -0.23637687 -0.43021595 -0.06988533 -0.11121495 0.06512025 0.20959471
-0.24170202 0.64242905 0.22260052 -0.06148553 -0.3324947 -0.055023234 0.21431296 0.20596324
0.80149996 0.06321719 -0.074355885 -0.15403174 0.031819586 0.3084605 -0.22830503 -0.28149557
-0.11980981 -0.15038753 0.6263407 -0.15212029 -0.6163242 -0.3643594 -0.7861544 0.122247696
1.1497104 0.3176201 0.39714906 0.39626685 -0.13198315 -0.31659463 0.37701964 0.39553344
-0.02335564 -0.6038374 -0.4161376 0.29488298 -0.0066766227 -0.13131848 0.7843648 0.16534306
-0.21631733 -0.8036461 0.18659177 0.7400424 -0.14935423 -0.25677645 -0.13277163 -0.10116525
-0.38781023 0.205835 -0.003943817 -0.24594285 -0.16878374 -0.098741435 0.1844792 -0.080803305
-0.22831728 0.19690582 -0.48614943 0.03444544 0.05371573 0.12564202 -0.0369129 -0.12987967
0.16362844 -0.026860053 -0.18075575 0.08441533 -0.046651617 -0.1746162 0.07166929 0.23937503
0.09270322 0.0026076767 -0.16476649 -0.02533702 -0.026076142 0.073180765 -0.04599898 -0.17198172
-0.13937229 -0.058807332 -0.061562117 0.39654142 0.026168853 -0.041652173 0.13376701 0.039020345
0.0063499757 0.055170774 0.06309973 -0.21844192 -0.07305888 0.052560806 0.022434868 -0.0495561
0.17357211 0.14597933 0.10378606 -0.15283929 -0.06454581 0.035814166 0.07825929 0.008013547

l1.bias f4 [100]
00000000: f8ff e2bd d429 2f3d a654 843e 63d4 02be
00000010: be73 22bd 0306 16be 2ba0 783d 72df 083e
00000020: cb24 fabd 65f4 25be 477b 653e 90e1 2abe
00000030: bf4f ac3d a29e 8b3e 19e1 293d f7c0 c0bc
00000040: cb8e aa3d 26fd a03d fa16 24be 4474 3b3e
00000050: 7f6e 7bbe 4a55 74be 4924 cdbd 8c63 913e
00000060: f131 4d3d 175c 12bd be91 55be d5e8 91bd
00000070: 53d6 8d3d f89a 4a3e afb3 25bd b55a 40be
00000080: e5dc 37be bb92 01bd 2e2c 9cbe 9b63 8e3d
00000090: 916f 67be 7968 0d3e adeb 79bd 52ca 13be
000000a0: b89e d23b d3ad 433e b7ef 813d dbf4 a63e
000000b0: 0d86 fa3d 8cc4 7b3d f9a0 5f3d 374f 203e
000000c0: 414b f43c a9d8 0dbe c784 9cbd 941d 53bd
000000d0: 0204 68bc 8b25 d6bd 115a 96bc 1b90 7d3e
000000e0: 9b2e 813c ab7a 863d 73bb 3cbc 9228 493e
000000f0: ca9e 923e 2950 01bd d079 b8bd 7a29 b2bd
00000100: 9e7f 313e 9e70 26be 38b8 57bd c278 c53e
00000110: 7bdb 8bbd 3d45 1b3e b082 013c 2b5e c63d
00000120: 493a 1dbe 36b9 95bd 2dd7 573e 8f95 3a3d
00000130: 3d21 50bb a0cc 133e 76f7 44be af99 8b3e
00000140: 1cc2 60be ed7d d8bd 8c26 953d 516c f4bd
00000150: 5a56 e9bc ce21 983e b242 9f3d f639 1f3c
00000160: 3580 a63d 1538 613e d157 4b3e 14d5 603e
00000170: f127 1dbd 2ec0 17bd 3f8c 58be d456 fbbb
00000180: f006 5f3e 82b5 dfbc c96f edbd a935 333d
-0.110839784 0.0427645 0.25845832 -0.12776332 -0.03966116 -0.14650731 0.060699623 0.13366488
-0.12214049 -0.1620651 0.22410308 -0.16687608 0.08413648 0.27269465 0.041474435 -0.023529513
0.08328017 0.07860784 -0.1602439 0.1830607 -0.2455387 -0.2386066 -0.100166865 0.2839626
0.050096456 -0.035732355 -0.20856377 -0.07124487 0.06925645 0.19785678 -0.040454563 -0.18784602
-0.17955358 -0.031634074 -0.30502456 0.06952592 -0.22601153 0.13809384 -0.061015774 -0.14432648
0.006427612 0.19109277 0.0634455 0.32608685 0.122325994 0.06146674 0.054596875 0.15655218
0.02982104 -0.1385218 -0.07642513 -0.05154188 -0.014161112 -0.104563795 -0.018353494 0.24762003
0.015769294 0.06566366 -0.011519301 0.19644383 0.2863677 -0.031570587 -0.09007609 -0.08699317
0.17333838 -0.16253898 -0.05266592 0.38568693 -0.06828972 0.15163131 0.0079046935 0.0968593
-0.15354265 -0.07310717 0.21078177 0.045552786 -0.0031758093 0.14433527 -0.19235024 0.2726569
-0.21949047 -0.105708934 0.07282743 -0.11934722 -0.028483558 0.2971329 0.07776393 0.009718409
0.08129922 0.2199405 0.19857718 0.21956283 -0.03836817 -0.03704851 -0.2114725 -0.007670263
0.2177999 -0.02730823 -0.11593587 0.043752346

l2.weight f4 [100, 100]
00000000: c300 8cbc 7d44 0bbf b676 56be 9e29 cabc
00000010: cad4 c23d 40d9 2cbe 6d65 ebbb 994d ae3d
00000020: 53a4 3d3b d6c3 18be 5996 283d 8071 1b3f
00000030: a0eb d0bd a4fc 31bd a23d 9f3e d99d 053e
00000040: d902 a0bd 740c 95be 4f5a 0f3e f65a 64be
00000050: e116 0c3f b5da 18be 07b7 563e 2026 36be
00000060: e423 ff3e 0f76 d03d 34ab 0abc c500 173e
00000070: 08ad d4bd ed62 a8be 210f 253e ed40 37be
00000080: 0672 803e 6c3e cdbb dcf3 803e 5944 babd
00000090: 3afc e63d 8171 15be 9709 c93e 7de9 ef3d
000000a0: eef8 4d3d a698 57be e94c c5be edda 0ebf
000000b0: dd00 51bb 0d53 9d3a 3559 a13e 249f 1c3e
000000c0: dd0f cb3e 85c3 44be 7f4f 7e3e ac84 99bb
000000d0: df7f a53e 2ea9 6ebe 6538 18be b4b4 a83e
000000e0: 1292 e43e cd7a aabe ee79 fbbd e975 193e
000000f0: d200 3c3e 63e7 0bbe 659f c5bd 4b23 a9be
00000100: 2644 ddbd ec44 273e 63a5 00bf c3c3 93be
00000110: fb36 c03e 582b 1cbe f951 bcbe 0f51 d7bd
00000120: 6706 8a3d e760 15be f414 27be 05c0 76be
00000130: 9d38 a33e 7f73 86bf d856 03bd 631c dbbe
00000140: 34b5 073e 9cb5 70be 98be 743e 4996 3f3e
00000150: cc3c f0be f083 d33d 0df0 693e 5be3 3dbd
00000160: 253f 763e db9f 40be 5fe3 f83e f88d 9abe
00000170: 0330 09be d69c 7cbb 0202 00be d439 693e
00000180: 7bb2 3dbe e4ed 063f 4e7b f9bd 1215 9f3e
00000190: daf9 88be 7257 183f 8252 bd3e eb5f 9cbe
000001a0: 9bf3 aebe d0fc ce3c 3337 a03e 915f 483d
000001b0: 8825 ccbd d92c 813e c242 273e 0846 bebd
000001c0: 47c1 273d f96e 873e ad14 a8bd 4158 4abe
000001d0: c498 9bbe 49d5 cd3d efe5 10bf 4f49 693e
000001e0: 8883 53be 262f 763e 828c 9b3d 7e58 823e
000001f0: 60a1 2abe 008f 01be 7f0b 953e 935b 38be
00000200: 0139 753e 2216 8b3d e1d0 303e 5e20 e93d
00000210: 1522 c7be 1cca 813e 9253 8abe 499f cd3d
00000220: db73 863d 0d9e 743d 35d9 32be 441d 533e
00000230: a8b7 aabe a9b0 8a3e c306 efbc da8d f8bd
00000240: 761f 8cbd fdbf 8ebc 690b 0c3d 3168 1ebd
00000250: 3fa1 873d bebb ccbe de89 74bd 1635 7cbe
00000260: 8e06 8ebd be83 d5bc d265 db3d 7728 b1bd
00000270: 1253 6d3d a500 e53e c370 cc3d 144f ccbe
00000280: 4f1a db3d b4ab d2bd b295 4d3e 55af afbd
00000290: 7e6c 043f af85 bebc 3de1 1d3f c3b1 be3e
000002a0: bf04 dc3c c877 98bd 2b16 8d3e 76d6 7ebe
000002b0: f5f3 38bf 1ee9 3ebe 0d76 343d fd10 edbc
000002c0: 8905 21be 982f 97be 1b1e fc3d cbbe ce3e
000002d0: f5dc a1be bcf5 a9be 018a 923d b79e 82bc
000002e0: 9a72 063e 61fa 533e 362e 4dbe 9cdc 223e
000002f0: 326b 3e3d ddf5 dd3e 7d18 acbd 43fc 643e
00000300: d996 043c 5bff 8a3d 4dba 0f3a 9797 00be
00000310: 49cf 91bd 3cbb a1be 7e9c 87bc 31fd 7abd
00000320: ef9f 5d3f 6015 82bd b406 0ebf d1e5 083e
00000330: e4a6 8bbe 3b04 593f aa27 52bf d08f 43bf
00000340: 7895 e43e 732c 5e3f b53c b6bf 3e6a cd3d
00000350: c3f0 b8be 42a1 86bf 3f38 acbf 21a3 ed3d
00000360: 3b51 73bf cb93 a8bf b4fb 01be 4907 1fbe
00000370: 16c3 82bd 8f79 5c3f 22df ad3e bc87 293e
00000380: 2ae3 bcbf a30a 883e 6d08 803e 78d4 df3d
00000390: 43c4 a93e 55f9 19c0 f0cf b83f 5c59 c33e
000003a0: 00a3 b13f 97b8 3e3f 2678 a83e 08d3 e8be
000003b0: 7aed d83c 553c d5bd 692a d33d 63dd 113e
000003c0: e166 9a3e fb30 3b3c 4587 e23d a6fb 86bf
000003d0: 9dc2 93be 108b f33f 770e 81bf 3410 4bbe
000003e0: 2267 9b3f e9a0 1a3f 0d57 e0be d429 90bd
000003f0: 5fce 8b3f 50b7 8abf 0df0 6d3f 80c0 043f
-0.017090207 -0.5440138 -0.20943722 -0.024678048 0.095132425 -0.1687975 -0.0071837218 0.08510894
0.0028937056 -0.14918455 0.041159008 0.6072006 -0.10201192 -0.043453828 0.3110171 0.13048495
-0.07813043 -0.29111063 0.13999294 -0.22300324 0.5472241 -0.1492718 0.20968257 -0.17787981
0.4983207 0.10178768 -0.00846367 0.14746387 -0.103845656 -0.32887974 0.16119052 -0.17895861
0.25086993 -0.006263545 0.2518605 -0.090950675 0.11278577 -0.1459408 0.3926513 0.11714456
0.050286226 -0.21054325 -0.3853524 -0.55802804 -0.0031891384 0.00120029 0.31513372 0.15295082
0.3966054 -0.1921521 0.24835013 -0.004685005 0.3232412 -0.23306724 -0.14865263 0.32950366
0.44642693 -0.33296815 -0.122791156 0.14986385 0.18359688 -0.13662486 -0.09649543 -0.3303474
-0.10804014 0.16334885 -0.5025236 -0.28860292 0.37541947 -0.1525091 -0.3678129 -0.105135076
0.067395024 -0.14587747 -0.16316587 -0.24096687 0.3187913 -1.0503997 -0.032065243 -0.42795095
0.13252717 -0.23506778 0.23900831 0.18709673 -0.46921384 0.103278995 0.22845478 -0.0463594
0.24047525 -0.1881098 0.4861097 -0.3018644 -0.13397221 -0.003854563 -0.12500766 0.22775966
-0.18525116 0.5270674 -0.12181722 0.31070763 -0.26753122 0.5950843 0.3697701 -0.3054193
-0.3417023 0.025267035 0.31292114 0.048919264 -0.09968096 0.2522953 0.1633406 -0.09290701
0.040955808 0.26451853 -0.082070686 -0.19760229 -0.30389988 0.100504465 -0.5660085 0.22781871
-0.20655644 0.24041423 0.07595159 0.2545814 -0.16663122 -0.12652206 0.29110333 -0.18003683
0.23947527 0.06791331 0.17267181 0.11383127 -0.3889319 0.2534951 -0.27016884 0.10040147
0.065650664 0.05972104 -0.1746567 0.20616633 -0.33343244 0.27087906 -0.029178029 -0.12136431
-0.06841938 -0.017425532 0.03419057 -0.038673583 0.06622552 -0.39986986 -0.059701793 -0.24629626
-0.06934844 -0.026063796 0.1071278 -0.08650296 0.05794055 0.44727054 0.09982445 -0.39904082
0.10698377 -0.10286656 0.20076635 -0.08578364 0.51728046 -0.023257105 0.6167181 0.37244996
0.026857732 -0.074447215 0.27555975 -0.24886498 -0.7224725 -0.18643615 0.044057894 -0.028938765
-0.15724768 -0.295285 0.1231043 0.40379938 -0.3161389 -0.33195293 0.071552284 -0.015944822
0.13129655 0.2070098 -0.2003716 0.15904468 0.04648895 0.4335164 -0.08403108 0.22361855
0.0080926055 0.067869864 0.0005482778 -0.12557827 -0.07119615 -0.3158816 -0.016554113 -0.06127662
0.86572164 -0.06351733 -0.5547898 0.13368918 -0.27275765 0.8477208 -0.8209177 -0.76391315
0.44645286 0.86786574 -1.4237276 0.1003003 -0.36121187 -1.0517962 -1.3454665 0.1160338
-0.9504582 -1.3170103 -0.12693673 -0.15530123 -0.06384866 0.86122984 0.339593 0.16555685
-1.4756825 0.26570615 0.25006428 0.10929197 0.33157548 -2.405843 1.4438457 0.38154113
1.3877869 0.7450041 0.32904166 -0.45473504 0.026480425 -0.10411898 0.103108235 0.14244609
0.30156615 0.011425252 0.11060957 -1.0545547 -0.28859416 1.9026814 -1.0082539 -0.198304
1.2140849 0.6040178 -0.43816414 -0.07039228 1.0922354 -1.0837193 0.92944413 0.5185623

l2.bias f4 [100]
00000000: fbe2 c9be d4a0 f73e b753 e63d 03dd 90be
00000010: e19c 8abc 890e fd3d 8ae5 9fbd cbf2 363e
00000020: 533d eb3d 1a97 013e aab0 d83d 1852 f53e
00000030: c8c3 003f 2eeb 99be f867 a33e b9ec 0ebe
00000040: 24d8 ed3e 6784 513e b2ef 81be d930 51bd
00000050: 12d3 603e e09a c73e a666 b93e cf2f 4d3e
00000060: 7288 2b3e bf88 94be 9b22 373e c032 c5be
00000070: eb30 953d ccf9 6dbd 42fe 273e 5ee5 84be
00000080: 8621 ba3e 9668 853d 5c09 c8bd a53b 3cbe
00000090: 3088 debd 0e43 123e 066a b0bc d467 34bd
000000a0: 1c67 e0be a7d2 d83d 3303 1abe e548 8dbe
000000b0: f3d2 633e 1dfb a6bd 41f5 a83e 78d9 a33d
000000c0: 4922 10be 3839 70be ae90 d7be 14d8 0d3e
000000d0: e5ce a6be 87b2 ea3d f853 413e 7b39 70bd
000000e0: 9840 db3e c049 dabe b63f f23e b417 c13e
000000f0: 0858 003e f351 85bd 4c66 b2bc 3199 ddbd
00000100: dbc3 d9be 38bf 56be 3e14 4f3e 2e6a 40be
00000110: 4831 6c3c 276f afbc c14a bbbd 84b5 323c
00000120: d7ba 65bd 9928 72be 1b15 b13d 9e13 b43d
00000130: 349c ec3e d375 10be e23b 45be e084 41be
00000140: b034 22be 1dc4 f93c 6794 0a3e 7078 b03d
00000150: d37a f9bd 73b9 02bf b9a0 5d3e 83f8 623e
00000160: 0308 26be 0feb aabe 0446 26be 28ab 09be
00000170: 5cd1 3f3e e511 fc3c 635d 8b3e 9449 8d3e
00000180: 00b8 1abe 5247 713e 7bc7 013f 719f 3bbe
-0.39430985 0.4836489 0.11246436 -0.2829362 -0.016920509 0.12356288 -0.07807453 0.17866056
0.11486306 0.12655297 0.10580571 0.47914195 0.5029874 -0.3006224 0.3191526 -0.1395749
0.46453965 0.20460664 -0.25378186 -0.051071975 0.21955517 0.38985348 0.36211127 0.20037769
0.16751269 -0.2901058 0.17884295 -0.38515282 0.07284721 -0.058099553 0.16405585 -0.25956243
0.363537 0.06514089 -0.0976741 -0.18382128 -0.108658195 0.14283392 -0.02153493 -0.04404433
-0.43828666 0.10587054 -0.15040283 -0.27594677 0.2224844 -0.08153365 0.32999614 0.08000463
-0.14075579 -0.23459327 -0.4210257 0.13851959 -0.32579723 0.11459833 0.18879688 -0.058648568
0.4282272 -0.42634392 0.47314233 0.37713397 0.12533581 -0.06509771 -0.021777295 -0.108202346
-0.42532238 -0.20971382 0.20222566 -0.18790504 0.014416046 -0.021415306 -0.091451176 0.0109075345
-0.056086387 -0.236483 0.08646604 0.08792804 0.46212924 -0.14107446 -0.19261125 -0.18898344
-0.15840411 0.030489022 0.13533174 0.08616722 -0.1218163 -0.51064223 0.21643342 0.22165112
-0.16213994 -0.3338246 -0.16237646 -0.13444197 0.18732208 0.030770252 0.27219686 0.27595198
-0.15109253 0.23562363 0.5069501 -0.18322541

l3.weight f4 [18, 100]
00000000: 82ef 35bd c1b1 a1be 4de5 5dbf c0e3 9c3e
00000010: eec5 193f 6544 14bf f888 423e 2d2a 7abe
00000020: f142 88bd 3930 dfbe c53b bbbd 4597 ccbe
00000030: e50e 80be 71d5 2c3f dd3f 00be 85cc 2cbd
00000040: 05a2 86be 9a29 22be de1e cb3b 42c4 5c3f
00000050: 36d9 a9be 0f27 12be ed4d 3bbe ba16 17be
00000060: f81a b0be d5be a03e f959 26bf eb8d 023f
00000070: a278 a9be bfe6 083f fb08 b8be 9a8a 923e
00000080: 096d 8cbe fa6b 123f 8069 e73e 3103 6e3e
00000090: 7441 883e 6be6 10be 5568 353e 0d30 b5be
000000a0: 712f d13e e11e dbbe 0bd4 f63d c741 3d3e
000000b0: 7af4 b5be 13a7 033f 67b1 023f 0240 e83e
000000c0: e3ca 1b3f dd9d 823e 1085 803e 59be ebbe
000000d0: 249c 963e 0642 23bf 135f 1bbf 0072 9f3e
000000e0: 8f00 8bbe 7016 123e 5020 8cbe 0620 24be
000000f0: 42b4 0f3e 8048 2dbf f0e0 163f 9f7a 643e
00000100: c633 d73e 173e 0a3f f4ae cebe 5229 833e
00000110: c3df 15bf 0c1d 17bf db76 fc3d 4c48 2bbe
00000120: c1f7 b53d cb50 273e b60f 90be 0706 19be
00000130: c79d 59be 74e7 753e f387 c8be 73cc 943e
00000140: e3ca 173f 175a 01be 4444 0abf e484 f8be
00000150: 7674 573e bd07 493e 4980 19be 92ea fdbe
00000160: 590d aa3d 3ffb 313e 03d5 f8bc 0233 1f3e
00000170: d561 503c e7f8 7bbe e4a4 82be 793b 5dbe
00000180: 8211 ee3d f35b de3e 838c 01be 5907 bc3e
00000190: 267b 153e 764b 7d3d 29f5 3fbf 8a6d e53d
000001a0: 1405 403f b120 dabe 5422 c13e 1d95 acbd
000001b0: e2b8 aebe 8006 13bf 2149 c23d 69ee 6fbe
000001c0: 9348 07be 4ed0 0b3f 6067 c3be de77 0a3e
000001d0: 904d b0be 78fe b5be 3bb7 bc3d 41fc 0e3f
000001e0: d176 9ebe e516 adbe 1552 cabe c459 0ebe
000001f0: e72d c0be eca5 b23d ce7d 3bbf 6239 fc3e
00000200: 2f8a dcbd 7ed5 fa3e d2fd 08bf 7edc 923e
00000210: 33c9 1dbe 3c92 183f 0460 963e 0f79 213e
00000220: 0880 863e 99b8 563d f637 983e 0339 06bf
00000230: 730c 863e dde3 fabe 1ac9 c13d 64d4 723e
00000240: 82f8 93be d265 f03e 6a0a 0e3f 8ce9 c83e
00000250: 8a69 3a3f d8ce b03e a108 033f ab0c 0abf
00000260: 05ff 0c3e d663 90be c1b9 58bf 494d 643e
00000270: ad10 6ebe 79ec be3e d4db 97be 04a2 eabe
00000280: 8961 6e3e 1b8d 3fbf 67b3 aa3e 325b b43d
00000290: 94b7 b03e bcdd 0e3f 5c71 78be 3e52 e63e
000002a0: 1e13 08bf 44b7 fcbe 9217 4a3e fd8b 20be
000002b0: c874 80bd 57d7 b63e a543 47be b520 a4be
000002c0: 6a23 19be 7114 a93e 6bd1 cdbe ee87 6d3e
000002d0: 18f2 0b3f ac0f febe 9356 febc b4d7 e1be
000002e0: 7163 e63d 7f13 b23e 5455 7cbe d86d 4ebe
000002f0: ae26 723e 68bb a53e 5833 e4bd f2af 513d
00000300: 4141 74be cf1d 95be bded 17be af02 47be
00000310: 7128 3e3d 16f2 cc3e 8736 71be 10e7 be3e
00000320: e033 aa3e b3b7 f9be 288e 48bf 3356 153e
00000330: 71c7 9e3e 55d6 0cbf 87d8 983e 52cd 91be
00000340: 5e63 b6be 03a7 c8be f07d 3abd 0e58 e4bd
00000350: 8572 573d 7680 223f ee34 94be 972a b53b
00000360: db53 41be b71b 81be 1778 7a3e 62dc 5f3f
00000370: a538 88be a97e 28be db40 8fbe 939b aabe
00000380: 8479 3bbe d99d 47bd f0f4 54bf b8f1 1c3f
00000390: 770a 52be 2b46 133f 90e8 b2be 8738 7e3e
000003a0: 081b 8bbe 8fc5 003f e087 f23e eb6b 9dbd
000003b0: 721e 943e 657d a5be 59c3 dc3d 07bd 67be
000003c0: c25d 4ebd ed3c abbe 1d72 0e3d fc55 933e
000003d0: d777 9bbe 6aef 1d3f 571d f63e a3b6 1a3f
000003e0: 7226 113f 1420 ab3e 67e0 843e 8b0b 18bf
000003f0: 5836 11be e833 38be 0e22 19bf ab6a 103e
-0.044417866 -0.31580928 -0.8667801 0.3064251 0.6006764 -0.5791686 0.18997562 -0.24430151
-0.06653393 -0.43591478 -0.091422595 -0.3995916 -0.25011364 0.67513186 -0.12524362 -0.042187233
-0.26295486 -0.15836182 0.006198748 0.86236966 -0.3317353 -0.14272712 -0.18291445 -0.14754763
-0.34395576 0.31395593 -0.6498104 0.509978 -0.33099848 0.5347709 -0.35944352 0.2862137
-0.27426937 0.5719601 0.45197678 0.23243405 0.26612437 -0.14150397 0.17715581 -0.35388222
0.40856507 -0.42796996 0.12052163 0.18482123 -0.35538083 0.5142681 0.51051944 0.45361334
0.60856456 0.25511065 0.2510152 -0.4604366 0.29416 -0.6377262 -0.60691947 0.31141663
-0.27148864 0.14266372 -0.27368402 -0.16027841 0.14033607 -0.6768875 0.5893698 0.22312401
0.42031687 0.5400099 -0.40367854 0.25617462 -0.5854456 -0.59028697 0.123273574 -0.16726798
0.08885146 0.16339414 -0.28136986 -0.14943705 -0.21251594 0.24014074 -0.3916622 0.29062232
0.59293956 -0.12632023 -0.54010415 -0.48538888 0.2104052 0.19631858 -0.14990343 -0.49593025
0.08303327 0.17380999 -0.03037501 0.15546802 0.0127186375 -0.24606667 -0.25516427 -0.21604718
0.11624433 0.43429527 -0.12651257 0.36724356 0.14597759 0.061839543 -0.7498346 0.112025335
0.7500775 -0.42603067 0.37721503 -0.084268786 -0.3412543 -0.57431793 0.094866045 -0.2343079
-0.13211279 0.5461472 -0.38164806 0.13522288 -0.34434175 -0.35545707 0.09214636 0.5585366
-0.30950025 -0.3380653 -0.3951575 -0.1390143 -0.3753502 0.08723053 -0.7323884 0.4926253
-0.10768544 0.48991007 -0.535123 0.28683847 -0.15408783 0.59598136 0.2937013 0.15768836
0.26269555 0.05242214 0.29730195 -0.5243074 0.26181373 -0.4900197 0.09462185 0.23713833
-0.28900534 0.46952683 0.5548464 0.39240682 0.7281729 0.3453281 0.5118504 -0.5392558
0.13769157 -0.2820117 -0.8465844 0.22295107 -0.23248549 0.3728979 -0.29659903 -0.45826733
0.23279394 -0.74824685 0.33339998 0.088064566 0.3451506 0.5580709 -0.24261993 0.4498462
-0.5315417 -0.4935857 0.19735554 -0.15678401 -0.06272274 0.35711166 -0.19459398 -0.32056203
-0.14954916 0.33023408 -0.40198836 0.23196384 0.5466628 -0.49621332 -0.031047141 -0.4410988
0.11249436 0.347805 -0.24641925 -0.2015909 0.23647568 0.32369542 -0.111426055 0.051193185
-0.23853017 -0.29124305 -0.14836784 -0.19434617 0.046425287 0.40028447 -0.23555957 0.37285662
0.33242702 -0.48772964 -0.78341913 0.14583664 0.31011537 -0.55014545 0.29852697 -0.2847696
-0.35622686 -0.3918992 -0.04553026 -0.111496076 0.05259945 0.63477266 -0.28946632 0.0055287587
-0.18879645 -0.25216457 0.24459873 0.8744565 -0.26605716 -0.16454567 -0.27979168 -0.3332182
-0.18308073 -0.04873452 -0.83186245 0.61306334 -0.20511805 0.5752894 -0.34943056 0.24826251
-0.2716906 0.5030145 0.4736929 -0.07686599 0.28929478 -0.3232223 0.10779447 -0.22630702
-0.050382383 -0.3344492 0.034776796 0.28776538 -0.30364868 0.6169344 0.4806926 0.6043493
0.5669929 0.3342291 0.25952455 -0.59392613 -0.14180887 -0.1798855 -0.5981759 0.1410319

l3.bias f4 [18]
00000000: 0120 bd3b 03b1 21be 3423 0cbf 9818 cebe
00000010: 3629 3f3d 2081 eabd b81c 86bd c2ef e7be
00000020: 0193 5cbe 825e 91be beb3 16bd c389 c7be
00000030: 8c5b d1be 69e7 913e 5d99 1abe 0f2d adbe
00000040: 0f25 fbbe 10c8 cfbe
0.0057716374 -0.15790181 -0.54741216 -0.4025314 0.04667016 -0.1145041 -0.065484464 -0.45300108
-0.21540453 -0.28392416 -0.03679251 -0.3897229 -0.40890157 0.28496864 -0.15097566 -0.3382344
-0.4905171 -0.40582323
