data/result/d_740.pt (torch, 94638 bytes, 7 tensors)

D_attr_matrix.weight f4 [36, 5]
00000000: b4e1 a23d 6a97 e1be ce20 18be a195 943d
00000010: c954 acbd b192 d3be b669 a0be 144b 3d3e
00000020: 7ec3 e0be 67d5 e73e 12ae 5f3e 25c2 873b
00000030: 0da2 fcbc 3944 dcbc f418 063d 1bfd adbd
00000040: 3058 d5be 653b 993e 891d 483e 68d4 87be
00000050: b7b9 d53c 08ab 41be 5109 9abb 5720 a73d
00000060: 2e5d d13d 7a17 55bf 652e 47bf ca57 5c3e
00000070: de03 073f 2502 08bf 5475 a839 7ed3 efbd
00000080: f475 7bbc ebc8 083f 9927 733c fe72 1a3f
00000090: 4c83 81be d84f 103f 0d70 14be f03f debe
000000a0: 6426 dabe 8bdf 043e 6d7c 153e 1b2f 82be
000000b0: 6c75 0b3d 83f8 24be eecb c53d a9f2 d2be
000000c0: 7a4c 6fbd a6cc 273e 59a0 2a3e 418f e53d
000000d0: 174f 683d a92d c33c 3e1a 0b3d 9706 94bc
000000e0: 6c9b bd3e d95c 0dbe 8580 6bbe 6b41 96be
000000f0: 449b cebd 19ef 183c eab5 83bd 4650 45bc
00000100: 7b44 adbc 6866 58be a8fd cb3e ee0d f83d
00000110: d854 303f 07e2 523f 080e 083e 40dd 773e
00000120: 133a 28bd 7f3d 81bc a705 ccbe fc24 04be
00000130: d92b 7b3e f5da 253e 1655 c73c 3a14 923e
00000140: 7e4d 3b3c 440f fd3c 341b 8bbc b98f 2f3e
00000150: 19ab b9bb 3633 bdbe ac6f 40bf 9c35 033f
00000160: 335f b63e 27e7 493e 29b2 6f3d b222 0eba
00000170: 733b 8bbb e078 b9bc 3655 a1bd 5f0e e6be
00000180: 492a dab8 2a3e 0c3e 505d 963e 75b3 04bf
00000190: bd30 62bc 23ff 60bc 933e 713b a691 473b
000001a0: 749b 7dbe debe 943e d851 b73e b76a 0d3f
000001b0: 4777 a53c 5f6d 5c3e cba2 4dbe d5b2 cf3b
000001c0: 6313 c03c b4c6 85bb 57f6 c4bc e1c7 343c
000001d0: 26fb 1b3f ec23 1bbf ee70 713d 2018 353f
000001e0: 53dd ebbd 0e58 a0bd a01f fd3c 60fe c1be
000001f0: 9ce3 c5bc ae77 853d 4fba 3dbd 0b1a 19bf
00000200: 55b5 54be 020e c33e 462e 4c3d 1bc7 773d
00000210: b92e 23be 3a1c 7dbd 7298 88bd 7bb9 87be
00000220: f167 babe 1cec 2bbd 0c98 fc3e 2ada ca3e
00000230: 98c5 9e3d 9124 5c3d 3cd6 bfba 300a 86bd
00000240: c21a 933d e2fa 0abf 1d65 aabe d411 323b
00000250: 128b d53e bc63 eebe 6840 1ebe 68d6 0b3e
00000260: 7949 023e ddc7 a33d ef23 3ebd 3bee 273f
00000270: 197c 113e 7775 0fbf 1ed0 bbbe a1db 4b3e
00000280: 31e2 ae3a f8a6 c7bd ddae ef3d f876 bb3c
00000290: 94e7 ecbb c258 1cbc 9442 5bbe 9f2e 01bf
000002a0: b52b e3bd 6569 7e3d a2fd ca3c fa1b 883e
000002b0: 4c29 edbc 6d3f 63be b69d 30be a8e9 51bf
000002c0: af02 413e 472c 5f3f 3960 89be 253f 90be
0.07953206 -0.44060832 -0.14856264 0.07255102 -0.08414609 -0.41322854 -0.3133065 0.18485671
-0.4389915 0.4528 0.21843746 0.004143017 -0.03083899 -0.026888 0.03273864 -0.08495542
-0.41668844 0.29928127 0.19542517 -0.2652924 0.026089532 -0.189129 -0.0047008176 0.08160465
0.10222851 -0.8323895 -0.7780517 0.21517864 0.52740276 -0.5312827 0.00032130873 -0.11710261
-0.015347946 0.53431576 0.014840984 0.60331714 -0.25295484 0.5637183 -0.14495869 -0.43408155
-0.42607415 0.129759 0.14598246 -0.25426564 0.03404753 -0.16110425 0.09658037 -0.4120076
-0.058422543 0.16386661 0.1666273 0.11208964 0.05671605 0.023825483 0.033960573 -0.018069549
0.3703264 -0.1380495 -0.22998245 -0.29346785 -0.10088208 0.009334349 -0.06431182 -0.012043064
-0.021150818 -0.21132815 0.39841962 0.12112032 0.6887946 0.8237614 0.13286602 0.24205494
-0.04107101 -0.015776394 -0.39848062 -0.12904733 0.24528445 0.16196807 0.024332564 0.28531057
0.01143205 0.030891068 -0.016980745 0.1714467 -0.0056661484 -0.36953133 -0.751704 0.51253676
0.35619506 0.19717084 0.058519516 -0.000542204 -0.0042490303 -0.022640646 -0.07877581 -0.4493284
-0.00010402926 0.13695589 0.29368067 -0.5183633 -0.013805565 -0.013732704 0.0036810979 0.0030451803
-0.24766332 0.2905187 0.3580463 0.5524096 0.020198477 0.21526097 -0.20081632 0.006338457
0.023446744 -0.004082525 -0.024043245 0.011033983 0.609301 -0.6060169 0.05894559 0.70739937
-0.115168236 -0.07829295 0.030898869 -0.37889385 -0.024156384 0.06516968 -0.046320256 -0.59805363
-0.20772298 0.38096625 0.049848817 0.060492616 -0.15935792 -0.061794497 -0.06669702 -0.26508698
-0.36407426 -0.04197322 0.49334753 0.3961957 0.07752532 0.05374581 -0.001463599 -0.06544912
0.07182838 -0.54289067 -0.33280268 0.002717127 0.41707665 -0.46560466 -0.15454257 0.13656008
0.1272334 0.07997105 -0.046420988 0.65597886 0.14207496 -0.5603861 -0.36682218 0.19908
0.0013342557 -0.09748644 0.117032744 0.022883877 -0.0072297547 -0.009542646 -0.21412116 -0.50461763
-0.11092321 0.06211223 0.024779145 0.26583844 -0.028950356 -0.22192164 -0.17247662 -0.81997156
0.1884868 0.87176937 -0.26831225 -0.28173175

l1.weight f4 [100, 108]
00000000: adbf 32bd def8 123e 17c0 8abc b28b ea3d
00000010: 97c4 083e ab74 f2bd c93f 5c3c bd40 a93d
00000020: 4dcd bb3d c835 18bd fa5b 17be b5f5 3ebd
00000030: 8054 81bd 473a ae3e fe82 053e 19a2 0bbe
00000040: f3be c23d 046c 233e a164 7e3c 492c ee3c
00000050: c3da 07bd 4175 b6ba df3d 92bc b9ad 0a3d
00000060: 1923 53bd 7639 cdbd 94f8 80bd 0ee6 d23c
00000070: a583 c73d 8438 5d3e 7b9a 773e 2330 18bd
00000080: 9a88 513e 78f9 d63d 8d98 7e3c 9948 a33d
00000090: 875c 32be bc95 ec3d 8d0a 6c3c a8ff 0e3e
000000a0: add4 0abd 36c2 beba 449e c03b a1cd 393c
000000b0: 9997 14be 9b75 1dbe facf 933d c4ca 383e
000000c0: f324 a3bd 51e8 af3d 08fd 03be 3f8e 44bd
000000d0: 175b 25bd 06c2 b8bd cb63 b7bb 3de5 7d3e
000000e0: 16ae e23d 4df9 893b 8b52 813d 1112 02bd
000000f0: b056 2d3e 97b5 ce3d c2fa 34be 0c0e 7a3d
00000100: e726 34bc 0024 17be 3eb0 60be a8dc 443d
00000110: 0c39 2cbc e427 0e3e d123 8239 3463 e5bd
00000120: ca8f c23d 7486 21bd e2ce 0cbd 7c02 00be
00000130: 56b1 4fbe b6be 87be e01d 18bd e111 6ebb
00000140: af67 313e e111 3cbe 1ba4 533d f075 bbbd
00000150: 3cf7 b83d de3c 05be 4481 17bd d246 8ebd
00000160: 4f72 c4bb 3716 8a3d ef8a b33e d6ca 0b3d
00000170: e318 b03e 20b4 f63e 4e0b a53e 3286 133f
00000180: 05c2 9c3e 57dc b93e 71fe ba3e d8b2 083f
00000190: ecfc a93e 28da 283e e88f 3b3f a821 e33e
000001a0: 7cd4 f83e c838 b93e aa13 143f 8a56 903e
000001b0: f6a4 153f 6180 67be 7741 d6be 428d f53e
000001c0: b67a 49bf 7407 abbd 5972 a2bf bffb d93e
000001d0: dff5 083f 6620 b7be 4964 cfbe 18c8 8cbe
000001e0: 7a85 e33d 9c58 e93c fa32 813d dd8e 06bf
000001f0: bd3c b5bd 0556 08bf e93a 853e a163 1f3f
00000200: 70ca 9fbe 0db0 10bd a09f 2e3e 941f 22be
00000210: e939 4c3d 9f96 853e 44ba 1dbe 4d54 b93e
00000220: 51b4 ce3e 6548 cc3e 0478 81bd bdd9 343d
00000230: d91f 63be e039 95be 21da bdbe dc7f c13e
00000240: 8a6a 9fbd fa07 f0bd 9370 6abe 5bb2 dabe
00000250: 64c9 9bbd d5ac f3bd a065 923d cb9b 5e3e
00000260: a22b 6fbe 30d7 263f 0707 5c3e 0f6d 86bd
00000270: 6d81 afbe 5c7e 7abd c049 4f3e 6922 443e
00000280: 5f26 4c3f ce02 863d d375 a9bd 0eea 24be
00000290: 7a8e 323d 7132 993e 2277 65be e723 8bbe
000002a0: fa5c 02be 20a7 21be 7a08 213f 7261 23be
000002b0: 6826 1fbf 5bec b8be 8c9e 48bf 192d ec3d
000002c0: 4201 933f 3b97 a03e 04b5 cc3e 26b4 cb3e
000002d0: f5fc 0dbe 6167 a3be 92d1 c13e b993 c93e
000002e0: 728a 83bc d125 1abf 0f60 d4be 7bf1 963e
000002f0: 8118 42bc f84f 10be 3297 473f c2d9 253e
00000300: 871a 53be 0757 50bf 178a 463e c288 3f3f
00000310: 5487 20be 894f 87be 77e8 f7bd ed9d a6bd
00000320: 9fcb c0be 7a95 7b3e b7e8 8e3b 6d02 86be
00000330: af8e 2cbe f01c d4bd 2b18 3c3e 61c2 84bd
00000340: 2ced 76be 402b 583e 7562 04bf 239e 693d
00000350: 065a 893d 9723 ed3d 96f6 d9bc c467 d5bd
00000360: bcbf 273e 6cba f4bc ab64 3bbe d461 ac3d
00000370: 4207 3fbd 1e93 2fbe 3500 943d c39f 703e
00000380: ecf1 bc3d dd49 663b f13b 2cbe a049 e8bc
00000390: 40fa c5bc 7c86 9b3d 760d 35bd c7df 2fbe
000003a0: ca51 11be 4f50 72bd 3c54 6fbd 685b cb3e
000003b0: 3dc3 c03c 2c40 20bd a885 053e 4c07 163d
000003c0: b817 183c d22d 6b3d 4d47 883d 18de 5fbe
000003d0: 4528 9cbd 19c0 513d 4253 a43c ef32 5bbd
000003e0: c9f9 2e3e 917b 0e3e 180b ca3d 2a95 1bbe
000003f0: 4c80 7cbd 8231 1d3d 7424 9c3d ee65 f93b
-0.043639828 0.14352748 -0.016937299 0.11452426 0.13356243 -0.11838659 0.013442942 0.08264301
0.091700174 -0.037160665 -0.1478118 -0.046621043 -0.06314945 0.34028837 0.13038251 -0.13636054
0.09509077 0.15959173 0.0155269215 0.029073851 -0.03316761 -0.0013920442 -0.017851768 0.03385708
-0.051547144 -0.100207254 -0.062974125 0.025744464 0.09741906 0.2160359 0.24180023 -0.03715528
0.20462266 0.10496801 0.015539301 0.07972831 -0.17418109 0.11551997 0.014406812 0.13964713
-0.03389423 -0.0014553729 0.0058782417 0.01134053 -0.14510955 -0.15376894 0.07217403 0.18046099
-0.07966032 0.08589233 -0.12889493 -0.04798722 -0.040370073 -0.09021382 -0.005596613 0.24794479
0.110683605 0.004210627 0.06314572 -0.03175551 0.169276 0.10093229 -0.17673782 0.061048552
-0.010995603 -0.14759827 -0.21942231 0.048061997 -0.010511648 0.13882405 0.00024822218 -0.11200562
0.09500082 -0.039434865 -0.034376986 -0.12500948 -0.20282492 -0.26512688 -0.037137866 -0.0036326575
0.17324708 -0.18366195 0.051670175 -0.09153354 0.09031531 -0.130115 -0.03698851 -0.06947102
-0.005995072 0.067425184 0.35066935 0.034128986 0.34393987 0.481843 0.32235187 0.5762664
0.30616775 0.36300918 0.36522248 0.53397894 0.33200777 0.1648947 0.7326646 0.44361615
0.48599613 0.36176133 0.57842505 0.28191024 0.58454835 -0.22607566 -0.4184682 0.47959334
-0.7870287 -0.08351031 -1.2691146 0.4257488 0.5350017 -0.35766906 -0.405062 -0.2749641
0.11109443 0.028484635 0.06308551 -0.5256174 -0.088494755 -0.53256255 0.26021507 0.62261397
-0.31209135 -0.035324145 0.1705308 -0.15832359 0.049859915 0.26091477 -0.15403086 0.3619713
0.40371946 0.39898983 -0.06321719 0.044152964 -0.22180118 -0.29145718 -0.37080482 0.3779286
-0.077839926 -0.117202714 -0.22894506 -0.427142 -0.076067716 -0.118981995 0.0714829 0.21739118
-0.23356488 0.651721 0.21487056 -0.0656377 -0.34278432 -0.061155662 0.20242977 0.19153751
0.7974605 0.06543504 -0.08274426 -0.1610491 0.043592907 0.29921296 -0.22408727 -0.2717583
-0.1273078 -0.1578641 0.6290356 -0.15955141 -0.6216798 -0.36117825 -0.78366923 0.11532039
1.1484759 0.3136538 0.39981854 0.3978588 -0.13866027 -0.3191481 0.37855202 0.39370516
-0.016057227 -0.60213953 -0.41479537 0.2948111 -0.0118466625 -0.14093006 0.7796508 0.1619635
-0.20615588 -0.81382793 0.19388615 0.7481805 -0.15676624 -0.26427868 -0.12104886 -0.08135591
-0.3765535 0.2456874 0.004361238 -0.26173726 -0.16851304 -0.10357082 0.18368594 -0.06482387
-0.24113911 0.21110249 -0.51712734 0.057035577 0.06706624 0.11579054 -0.02660684 -0.10420182
0.16381735 -0.02987405 -0.1830012 0.08417097 -0.04663778 -0.17145965 0.07226602 0.23498444
0.092258304 0.003513924 -0.16819741 -0.02835542 -0.02416718 0.0759401 -0.04420229 -0.17175208
-0.14191356 -0.05915862 -0.05842994 0.39718175 0.023530597 -0.0391237 0.13039267 0.036628053
0.009282999 0.057416745 0.066542245 -0.21862066 -0.07624868 0.05120859 0.020059232 -0.05351537
0.17087473 0.13914324 0.09865397 -0.1519362 -0.06164579 0.038377292 0.076241404 0.007611028

l1.bias f4 [100]
00000000: 6eb8 e6bd 9c6c 4d3d 74f1 853e e5a3 d7bd
00000010: bbe1 fabc 552b 16be 3e75 7d3d 9b62 0a3e
00000020: f46c fdbd c91c 27be 7bd8 643e 4cdb 2bbe
00000030: 5afd b53d eec8 8b3e d8aa 2e3d 67a8 23bd
00000040: 295e b33d 8553 9f3d 4a5e 1ebe ded5 3c3e
00000050: e8fe 73be 0b0d 75be 2890 c6bd 9382 923e
00000060: a9bf 533d 1967 1cbd 8b98 5ebe f609 8abd
00000070: 0b56 883d 2daf 4b3e 6c5a 2abd de68 43be
00000080: 7bd7 39be 8440 06bd dcfd 9cbe 3539 8d3d
00000090: 62af 69be 4386 0d3e 2efb 66bd 9c8d 19be
000000a0: 5adb 603b c2bb 473e 6a9c 6e3d dee8 a73e
000000b0: d75d fe3d e83a 743d d21d 673d 7431 1b3e
000000c0: f4b6 ed3c 7a3b 10be c3c0 94bd d7b8 3ebd
000000d0: 82b7 8bbc 186f d0bd 2ee5 b3bc e6e0 783e
000000e0: 9385 293c f531 7a3d 86ed 86bb 1ba8 4b3e
000000f0: 9d86 933e 79a9 febc eb28 b9bd d720 abbd
00000100: c5a2 303e 0fa8 24be ccd9 47bd 2dad c43e
00000110: 8cc4 8abd f355 183e dd17 6d3b 44c6 c53d
00000120: a5b7 23be 7e75 94bd 1ec7 583e fb80 423d
00000130: 82d9 acbb 29a9 133e 20b0 47be e5e0 8b3e
00000140: d85f 61be 2074 dabd f743 903d e1df f2bd
00000150: 9c39 dcbc e259 993e 258b a73d 75e4 433c
00000160: fcf0 a93d d2c7 623e 12e1 4d3e a0e5 653e
00000170: 8a8a 26bd 29ec 1bbd 68a6 5bbe 194b 2cbc
00000180: 1925 633e 23d3 d0bc 09c0 f0bd b96b 463d
-0.11265646 0.050152406 0.26160777 -0.10529307 -0.030625215 -0.14664967 0.06187939 0.13514178
-0.12374297 -0.16319574 0.22348206 -0.16782874 0.088862136 0.27301735 0.042643398 -0.039955523
0.08758194 0.07779602 -0.15465656 0.18440959 -0.23827708 -0.23930757 -0.096954644 0.28615245
0.051696453 -0.03818426 -0.21737878 -0.06740181 0.066570364 0.19891043 -0.04159014 -0.19082972
-0.18148606 -0.03277637 -0.3066243 0.06895677 -0.2282081 0.13820748 -0.056391887 -0.14995426
0.0034310431 0.19505218 0.058254637 0.3279485 0.12420242 0.05962649 0.056424923 0.15155584
0.029017903 -0.14085189 -0.07263329 -0.046562996 -0.017055277 -0.101774395 -0.021959867 0.24304542
0.010346788 0.0610828 -0.0041176705 0.19888346 0.2881364 -0.03108667 -0.090410076 -0.08355873
0.17249592 -0.16079734 -0.04879169 0.38413373 -0.067757696 0.14876537 0.0036177554 0.09656957
-0.15988024 -0.07248972 0.21169707 0.047486287 -0.0052749524 0.14419998 -0.1950078 0.27320018
-0.22009218 -0.1066668 0.07044213 -0.11859108 -0.026882939 0.29951388 0.081808366 0.011956324
0.08297917 0.22146538 0.20105389 0.22450876 -0.040659465 -0.038067017 -0.21450198 -0.010515952
0.2218212 -0.025491303 -0.11755378 0.048442576

l2.weight f4 [100, 100]
00000000: 00ed 71bd 792e 0dbf 1fa7 4dbe ad83 b2bc
00000010: caeb 893d 94e2 2fbe 9829 913b 4abf a63d
00000020: a958 8bbc 00d7 0bbe d9bc 0c3d ee33 1f3f
00000030: a401 e2bd f223 0dbd 0570 a53e 1b6f f83d
00000040: 0c9f b5bd 8784 97be c76b 0f3e dda3 68be
00000050: a41b 0f3f 027a 2cbe 7c3f 513e e5e1 32be
00000060: b1c6 003f 2196 d33d 3b32 9abb cb43 193e
00000070: 40a5 e3bd 3c7b a6be c9e0 043e c37d 30be
00000080: f20d 803e 8e9b 813a c56b 883e 7e10 a9bd
00000090: c81e f23d 6d37 17be 7d9e d03e 4674 0b3e
000000a0: 1a13 6a3d e3c3 5cbe cf0d c7be cfc5 19bf
000000b0: 855e 4abc e638 053c 2277 ae3e eb6f 223e
000000c0: 551b ce3e 2ae9 4cbe 099b 813e f956 06bc
000000d0: 416a a23e b19d 79be 7e31 08be 0636 a63e
000000e0: 9ddb e13e de11 b0be 2182 f4bd 7ee1 2a3e
000000f0: ecec 3c3e 2e2d 08be 5345 cfbd 9c8b adbe
00000100: bf5f e3bd 0d5d 433e 8a9f 01bf d5fa 94be
00000110: 0ab0 c53e 1196 43be 5dc1 babe 1698 dabd
00000120: d034 883d 8bbb 0abe 10d2 25be 05f0 4abe
00000130: c80a a63e 8ece 89bf 4e63 eabc 42cb dabe
00000140: 7ace 053e 5d47 8ebe 9a3f 753e b614 423e
00000150: 59ca 03bf f03f ea3d 9d96 693e f66c 31bd
00000160: 3d69 783e d157 41be 1f27 fb3e 6932 9dbe
00000170: f190 2cbe d43a c9bc ac87 0cbe 61b4 643e
00000180: a48a 3fbe 8ba3 093f eef2 0abe 2aa4 963e
00000190: 2bd2 89be d8b8 153f 59cb ba3e c759 9fbe
000001a0: 708e abbe 0ef6 793c 36a7 a03e e449 233d
000001b0: bf37 b6bd aab9 823e 460c 383e f480 c8bd
000001c0: 6de2 653d 886f 8b3e 1312 aebd 3108 3fbe
000001d0: 16c1 adbe 1e15 dc3d 01d0 16bf 8026 713e
000001e0: f361 58be 0baa 6a3e 5a59 ad3d a34c 8d3e
000001f0: 3e8c 2dbe 86f2 f4bd 94b3 8d3e bec1 3cbe
00000200: 20c2 7a3e 90ad 913d 75fc 2c3e 0dc2 ef3d
00000210: dd3b bebe 42d7 7e3e ee04 95be 2638 b73d
00000220: bee4 6f3d 0048 863d 0309 3cbe cba3 583e
00000230: 752d aebe 07e2 8c3e 7959 31bd 9b69 f2bd
00000240: 2c8f 68bd ef4a d4bc cb93 d83c d13e 47bd
00000250: 59ba b63d e1ce c7be 1190 89bd 4723 7cbe
00000260: 498a 54bd 623a 08bd a67f c83d 03a7 9bbd
00000270: 21e7 5c3d 30d6 e83e b2ea b23d 408c d0be
00000280: 53ec ec3d 39e7 debd 2860 563e e77f b3bd
00000290: d206 063f b977 4ebd 1939 1b3f 374f c23e
000002a0: ac38 d73c 6b31 d7bd ef40 933e 6387 6abe
000002b0: af6a 38bf 5689 3bbe 36e4 493d 9f26 8cbd
000002c0: c112 1dbe 6e9a 8dbe f8a4 e93d 0fb9 cf3e
000002d0: f836 aebe 504b a7be 6e4b 993d c8a5 cbbc
000002e0: d54e 263e 61ee 4e3e edcb 41be 6862 213e
000002f0: 7ef6 453d 498b dd3e ada5 abbd 4c4c 6f3e
00000300: 4a94 3b3b aa58 953d 0db3 d4bb d27f 14be
00000310: e36d 87bd 832d a1be c052 85bc 7786 89bd
00000320: 4ca4 6b3f 6419 80bd 1ac1 10bf f60f 073e
00000330: 6928 98be 509c 4f3f ec26 52bf ec78 48bf
00000340: ac9e d63e f0d2 543f dee8 bbbf f3ff d63d
00000350: 2f82 b8be 20f4 89bf 801c b3bf 5d14 f03d
00000360: cb86 81bf 3269 acbf 7fdf 15be e549 1dbe
00000370: f310 7cbd bff7 513f 66ed ad3e 48bd 293e
00000380: 35d3 b8bf 2ac7 823e 0c78 933e 75ba e03d
00000390: e8af 9f3e b5cb 20c0 c021 bb3f 81a7 ce3e
000003a0: 229e b93f 6e7b 3f3f e17d a93e 5390 fdbe
000003b0: 3799 623c b23c d1bd 642f df3d f7a8 573e
000003c0: 2c6e 983e b05f eb3b 27c8 de3d 204e 8fbf
000003d0: b0ef 94be fcd4 f83f 8ba3 83bf 970f 46be
000003e0: 6c82 a13f ebc2 243f c854 ebbe 2449 b5bd
000003f0: 8615 8f3f f4c0 8dbf 0e42 7f3f aca5 093f
-0.05906391 -0.55149037 -0.20083283 -0.021791304 0.06734426 -0.17176276 0.004430007 0.08141954
-0.01701005 -0.13656235 0.034359787 0.62188613 -0.11035469 -0.03445811 0.32312027 0.12130567
-0.088682264 -0.29593298 0.14005958 -0.22718759 0.5590155 -0.16843417 0.20434374 -0.17468984
0.5030318 0.10331369 -0.004705695 0.14967267 -0.11115503 -0.32515895 0.12976374 -0.17235474
0.2501064 0.0009888278 0.26644722 -0.08255099 0.11822277 -0.14767237 0.40745917 0.13618574
0.057147123 -0.215591 -0.38877723 -0.60067457 -0.012351637 0.008131241 0.34075266 0.15863006
0.40255228 -0.2001082 0.25313595 -0.008199447 0.3172169 -0.24376561 -0.1330013 0.32463092
0.44112864 -0.34388632 -0.119388826 0.16687581 0.18449754 -0.13298485 -0.101206444 -0.33895576
-0.111022465 0.19078465 -0.5063406 -0.2909762 0.3861087 -0.19100215 -0.3647565 -0.10673539
0.06650698 -0.13548104 -0.16193414 -0.19818123 0.324301 -1.076616 -0.028611805 -0.42733198
0.13067046 -0.2778882 0.23950043 0.18953213 -0.51480633 0.11437976 0.2281136 -0.043316804
0.24258895 -0.18881156 0.49053285 -0.30702522 -0.16852166 -0.024564184 -0.1372363 0.22334434
-0.18705231 0.5376517 -0.13569233 0.29422122 -0.26918158 0.58485174 0.36483267 -0.31123182
-0.3350711 0.015256418 0.31377572 0.03986539 -0.088973515 0.25532275 0.17973432 -0.09790221
0.05612414 0.2723353 -0.08499541 -0.18655469 -0.33936375 0.10746215 -0.5891114 0.23549843
-0.21131115 0.22916429 0.08464308 0.27597532 -0.1694803 -0.1196032 0.2767607 -0.18433282
0.24488115 0.071131825 0.1689318 0.11706934 -0.37155047 0.24886802 -0.29105324 0.08946256
0.058567755 0.06556702 -0.18362813 0.21156232 -0.34019056 0.27516195 -0.04329822 -0.11836549
-0.056777164 -0.025914637 0.02643766 -0.04864389 0.08922262 -0.39025024 -0.067169316 -0.24622832
-0.05188969 -0.033258803 0.09789972 -0.07600214 0.05393136 0.45475912 0.08736171 -0.40732002
0.11568513 -0.10883946 0.20935118 -0.0876463 0.52354157 -0.050407145 0.60634 0.3795106
0.02627214 -0.105074726 0.28760478 -0.22903208 -0.72037786 -0.18314108 0.049289905 -0.06843304
-0.15339185 -0.27656883 0.114084184 0.40570876 -0.34026313 -0.32674646 0.0748509 -0.024859324
0.1624101 0.20208122 -0.18925448 0.15760195 0.048330776 0.4327033 -0.083812095 0.23368949
0.0028622323 0.07292302 -0.006491071 -0.14501885 -0.06612756 -0.31480035 -0.01627481 -0.067151
0.9204757 -0.06254843 -0.5654465 0.13189682 -0.2971833 0.8109789 -0.8209064 -0.7830951
0.41917932 0.83134365 -1.468044 0.10498037 -0.36036822 -1.0777626 -1.3993073 0.11722634
-1.011926 -1.3469603 -0.14636038 -0.1536022 -0.0615396 0.82018656 0.33970183 0.16576111
-1.4439455 0.25542575 0.28802526 0.10973064 0.31188893 -2.5124333 1.4619675 0.4036217
1.4501383 0.74797714 0.3310385 -0.49524173 0.013830475 -0.10216655 0.10897711 0.21060549
0.29771554 0.0071830377 0.1087802 -1.1195717 -0.29089117 1.9439998 -1.0284284 -0.19341885
1.2617927 0.6435992 -0.4596312 -0.08851841 1.1178443 -1.107451 0.99710166 0.5376842

l2.bias f4 [100]
00000000: a855 cbbe b442 fc3e c203 e73d 1818 8ebe
00000010: 8019 68bc 03ce 073e ae54 93bd ec4a 373e
00000020: d5af fb3d 9d0b fc3d 7b2c db3d 0619 f83e
00000030: 64e2 003f 94d3 9ebe 1bf6 a33e 20cc 08be
00000040: ec30 ee3e 9a9b 4e3e 2e0b 84be 4110 53bd
00000050: f30b 613e 5351 c63e c89f bb3e dc24 503e
00000060: d44c 263e 3689 93be 1c6d 383e 78fc c5be
00000070: 8d86 983d f26e 54bd eb31 2c3e 36a8 87be
00000080: bfdc ba3e 6f99 903d 9e15 bbbd b599 3dbe
00000090: bff2 d2bd 38ca 0b3e c133 90bc 5590 35bd
000000a0: 32e3 dcbe 2d4c d23d 9f72 16be 8fa1 8cbe
000000b0: d345 633e e4ad a2bd b193 a93e 1bbb a33d
000000c0: ff25 15be c377 74be 6389 d6be dee7 133e
000000d0: 1d1c a3be b4b3 eb3d 300d 493e 8d36 73bd
000000e0: 37c0 db3e c737 dbbe 0de3 f43e 83bc c33e
000000f0: 043a 013e f27e 8ebd e484 97bc 72d4 cfbd
00000100: b53f dcbe 241d 52be 290d 4f3e 37e1 42be
00000110: 1f9c 3b3c 39ec d7bc 2057 c9bd 59de 163c
00000120: 29b8 62bd 5f5f 79be 223a a73d 2c18 bd3d
00000130: 4d06 ee3e 9f3f 14be 2c2e 53be 4bd7 4bbe
00000140: f985 22be d40b c13c 3b70 103e 724c ae3d
00000150: 1c0c ecbd 60f6 02bf 5128 5a3e 96af 643e
00000160: 0e35 2dbe 7a99 aebe 5276 27be 4e49 09be
00000170: 3ee6 343e 55df d23c ade0 8e3e 1516 873e
00000180: 5e4d 15be a574 703e 6073 033f c400 32be
-0.39713788 0.4926964 0.112800136 -0.27752757 -0.014166236 0.13262181 -0.07193886 0.17899674
0.12289397 0.123069026 0.10701843 0.4845659 0.50345445 -0.31020796 0.320237 -0.13359118
0.465217 0.20176545 -0.2578978 -0.051529173 0.21977215 0.3873392 0.3664534 0.2032656
0.16240245 -0.2881562 0.18010372 -0.3866918 0.074475385 -0.05186362 0.16815917 -0.26495522
0.3649654 0.07060515 -0.091349825 -0.18515666 -0.103002064 0.13651359 -0.017602803 -0.0443271
-0.43142086 0.102684356 -0.14692162 -0.2746701 0.22194605 -0.07943323 0.33120492 0.07994672
-0.14565276 -0.2387381 -0.41901693 0.14443919 -0.31857386 0.11508885 0.19633937 -0.059378196
0.42920086 -0.42815992 0.47829476 0.3822976 0.12619787 -0.06957807 -0.018495984 -0.101479426
-0.43017355 -0.20518929 0.20219864 -0.19031225 0.011450796 -0.026357757 -0.09831071 0.009208285
-0.05535141 -0.24352787 0.08165385 0.09233126 0.46489182 -0.14477395 -0.20623082 -0.19906346
-0.15871419 0.02356521 0.14105313 0.085106745 -0.11525747 -0.5115719 0.21304442 0.22332606
-0.1691477 -0.34101468 -0.1635373 -0.1340687 0.17665955 0.025741259 0.2790579 0.26384035
-0.14580294 0.23481996 0.51347923 -0.17383105

l3.weight f4 [18, 100]
00000000: 6cf1 3ebd d54c a0be dc2a 61bf 7fae 9c3e
00000010: 490a 1d3f aac3 17bf 6b7f 443e fed3 77be
00000020: 6637 85bd a7d0 e4be d2a4 b0bd c044 cbbe
00000030: bae4 7ebe a07d 313f 04dd f0bd cbe3 37bd
00000040: 0447 85be f299 20be fae7 983b 1cc0 5f3f
00000050: ff89 a8be 134c 0fbe d706 3bbe bd30 15be
00000060: c927 b5be 5859 9f3e bcb1 29bf 9822 063f
00000070: 8a34 a8be b044 0a3f 16af b6be 5757 913e
00000080: 0935 8bbe fdf0 143f a005 f13e 1312 603e
00000090: 6a10 893e 576d 0fbe 77cd 363e 8021 bcbe
000000a0: f5c2 cf3e ed01 e0be e64c f13d aea3 3b3e
000000b0: 35b4 b4be 4c2e 063f c89e 053f df30 ed3e
000000c0: ed5d 213f 9d3c 813e bf43 7e3e 88b5 f3be
000000d0: 4225 953e 458c 22bf fabe 1ebf 233c 9b3e
000000e0: 1fa9 89be 1011 113e 9daf 8abe 261f 21be
000000f0: 0467 113e 6e66 31bf df9a 193f 5f7f 673e
00000100: b6f7 d53e 4a49 0b3f a63f cdbe b814 823e
00000110: 43bf 1abf 9b40 19bf 1ed3 f13d 5e11 20be
00000120: baae a53d 1574 243e 963a 96be 4c73 16be
00000130: 6681 56be d27e 733e aa76 d5be e754 933e
00000140: ee1e 1b3f a5b3 0abe 196b 09bf 79c7 ffbe
00000150: 56e0 563e c0ec 433e 394c 24be 4dd0 f9be
00000160: d201 a43d 585c 303e d7e4 28bd 68e0 1c3e
00000170: 85f8 573c 1b95 81be 8c0e 81be 10a6 65be
00000180: a232 ec3d ccad e63e 8629 01be 02f5 ba3e
00000190: 119a 133e 030f 843d 6555 43bf 5e51 e53d
000001a0: ee1f 433f 4f73 e1be bc98 c23e 4d45 a9bd
000001b0: 760f adbe 8c41 15bf dbe7 c73d c9ab 6dbe
000001c0: be19 04be bcaf 103f bcee c0be 0ddf 073e
000001d0: f6e8 aebe 35c2 b4be bd3f b63d 472c 123f
000001e0: c925 9dbe baa3 abbe ca8b c8be d637 0bbe
000001f0: 5013 c5be cd7c ac3d ff0a 3fbf d30b 023f
00000200: 1998 d7bd ba51 fd3e 8e7d 08bf fba0 913e
00000210: bb7c 1bbe 1a64 1b3f 178a 9f3e 230c 173e
00000220: 3771 863e 8cb2 5c3d 257f 983e a75b 08bf
00000230: 239a 843e 7518 ffbe 525b bc3d 8fd8 713e
00000240: 82c7 92be 6e9d f33e 610d 113f b029 ce3e
00000250: 4f14 403f df57 af3e 2622 023f 4712 0ebf
00000260: b21d 0a3e 9cec 8ebe a50e 5cbf 0175 5d3e
00000270: ec1b 6cbe e15e bd3e c06c 96be 3142 e9be
00000280: 6f77 6f3e 7d79 43bf c41c b03e a668 bf3d
00000290: c921 af3e 6ef8 0f3f 3b59 75be d986 e53e
000002a0: 6ce6 0cbf 8066 00bf 79c1 443e 666d 16be
000002b0: 8f97 86bd 224b b53e 09af 54be eacd a2be
000002c0: 6cb4 17be 155f a73e ef20 dabe daa7 6a3e
000002d0: 3910 0f3f f23e 01bf e6a5 eebc c6c9 e8be
000002e0: 6ec8 e83d db9e b03e bb0e 82be 442c 4ebe
000002f0: 9251 6f3e ff0d a43e 985b eabd c7b5 473d
00000300: 09e9 71be 7a52 99be 8b3e 15be f689 4fbe
00000310: ec6a 343d e694 d53e 9fc6 6dbe 76f8 bd3e
00000320: a7f2 a83e 3d84 f8be c57f 4bbf 222c 133e
00000330: 238d a63e b457 10bf 0b2a 993e 1c61 90be
00000340: b7ea b4be 4890 cdbe b91c 16bd ae71 dfbd
00000350: 09a3 643d 3895 273f 3509 91be 6762 473b
00000360: cdb7 3fbe de14 80be 399a 773e ac4e 633f
00000370: a2e8 86be 6204 26be 1c10 8dbe b946 a9be
00000380: 4865 45be a87a 4ebd f9e4 57bf 0227 213f
00000390: 637c 4fbe 380f 153f deba b1be 2f33 7c3e
000003a0: 25fc 89be 8673 043f 8bee fa3e 6d7a b4bd
000003b0: e14b 953e 0637 a4be 94a7 d73d 6fd8 74be
000003c0: a346 58bd 5a2d b1be f07b 043d 01c1 913e
000003d0: 4f79 9abe 3a05 203f be5f fb3e 1bc5 1c3f
000003e0: bb5c 173f f2dd a93e 11f1 833e 5569 1cbf
000003f0: 4eac 13be 36bf 35be 525b 1cbf d40d 0e3e
-0.046616957 -0.31308618 -0.87956023 0.3060188 0.6134382 -0.59282935 0.19189231 -0.24201962
-0.06504707 -0.4469044 -0.08625187 -0.3970089 -0.2489194 0.69332314 -0.117609054 -0.044894975
-0.26030743 -0.15683725 0.0046663256 0.8740251 -0.32917783 -0.13993864 -0.18264328 -0.14569373
-0.35381916 0.3112285 -0.66286826 0.52396536 -0.32852584 0.5401106 -0.35680455 0.28386948
-0.271889 0.5818022 0.47074604 0.21881895 0.26770335 -0.14006554 0.17851816 -0.36744308
0.40578428 -0.4375147 0.11782245 0.18324158 -0.35293737 0.52414393 0.52195406 0.46326348
0.63033944 0.25241557 0.2483053 -0.47599435 0.29129988 -0.63495284 -0.6201016 0.30319318
-0.26886842 0.14166665 -0.27087107 -0.15734538 0.14199454 -0.6929692 0.6000194 0.22607182
0.4179055 0.54408705 -0.40087622 0.25406432 -0.6044809 -0.59864205 0.118078455 -0.15631625
0.08089967 0.16059907 -0.29341573 -0.1469242 -0.20947799 0.23778847 -0.41692096 0.28775713
0.6059407 -0.13545091 -0.53679043 -0.49956873 0.20984015 0.19133282 -0.16044702 -0.48791733
0.0800816 0.17222726 -0.041233864 0.15319979 0.01318181 -0.2530907 -0.2520641 -0.22426629
0.11533095 0.45054471 -0.12613496 0.3651505 0.1441424 0.06448176 -0.76302177 0.1119716
0.76220596 -0.44033286 0.38007152 -0.08265171 -0.33800858 -0.5830314 0.0976102 -0.23210062
-0.12900445 0.5651815 -0.3768214 0.13268681 -0.3416211 -0.35304418 0.08898876 0.5709881
-0.3069289 -0.3352335 -0.3916915 -0.13595518 -0.38491297 0.08422241 -0.74626154 0.5079929
-0.10527057 0.49476415 -0.5331658 0.2844313 -0.151843 0.6069962 0.31160042 0.14750724
0.2625825 0.053881213 0.29784504 -0.5326485 0.25898847 -0.49823347 0.091971055 0.23617767
-0.28667837 0.47581047 0.5666104 0.4026618 0.7503099 0.34246728 0.50833356 -0.5549664
0.1348789 -0.27914894 -0.85959846 0.21626665 -0.23057526 0.3698645 -0.29379845 -0.45558313
0.23385404 -0.7635725 0.34396946 0.09346132 0.34205464 0.5623845 -0.2395982 0.44829443
-0.55039096 -0.501564 0.19214429 -0.1469017 -0.06571876 0.35408884 -0.20769896 -0.31797725
-0.14814919 0.3268973 -0.4260325 0.22915593 0.5588413 -0.5048667 -0.02913184 -0.4546644
0.11366354 0.34496197 -0.25401863 -0.20134073 0.2337096 0.32041928 -0.11443251 0.04875734
-0.23624052 -0.29945737 -0.1457464 -0.20267472 0.04404728 0.41715163 -0.23220299 0.37103623
0.3299763 -0.4853839 -0.79491836 0.14372304 0.32529554 -0.56383824 0.2991489 -0.2819909
-0.35335323 -0.4014914 -0.036648486 -0.109103546 0.055819545 0.65462065 -0.28327337 0.0030423643
-0.18722458 -0.2501592 0.24179925 0.8879192 -0.2634936 -0.1621261 -0.27551353 -0.3306177
-0.19276917 -0.050409943 -0.8433376 0.62950146 -0.20262294 0.58226347 -0.3471288 0.246289
-0.26950184 0.51738775 0.4901012 -0.08812413 0.29159454 -0.3207323 0.1053001 -0.23910688
-0.05280174 -0.34604913 0.03234476 0.28467563 -0.30170676 0.62507975 0.49096483 0.6123826
0.5912587 0.33177143 0.25769857 -0.61098224 -0.14421198 -0.17748722 -0.61076844 0.13872463

l3.bias f4 [18]
00000000: ec4c 0c3c e3cc 1ebe 9a84 0bbf 4e43 ccbe
00000010: 9fa0 443d 7ccf e5bd f822 82bd f492 e6be
00000020: 3db4 59be 450b 90be 5221 0fbd d52d c6be
00000030: fc3b d0be 4232 933e 74db 17be bd18 acbe
00000040: 9d74 fabe f18a cebe
0.0085632615 -0.15507846 -0.5449921 -0.398951 0.048004743 -0.11221215 -0.06354326 -0.4503399
-0.21260162 -0.28133598 -0.034943886 -0.38706842 -0.40670764 0.2874928 -0.14829808 -0.33612624
-0.48917094 -0.4034038
