data/result/d_780.pt (torch, 94638 bytes, 7 tensors)

D_attr_matrix.weight f4 [36, 5]
00000000: 8a60 a33d 34fb e0be 00f2 16be e36c 913d
00000010: fdae acbd a21f d3be e6c5 9fbe 880a 3e3e
00000020: c8db e0be a670 e73e a987 5f3e 2a9b 943b
00000030: ebe4 f9bc 94a2 debc 52dc e83c cb3d acbd
00000040: 1cac d5be e982 9a3e 3d52 4c3e 0bdf 92be
00000050: 33b1 dd3c 3fcb 40be e02d 22bc 05ab a03d
00000060: d4f3 d03d 4f40 56bf 99da 46bf dedd 563e
00000070: 922c 063f f858 08bf 5f46 503a db45 f1bd
00000080: f6b4 7fbc 88c0 083f de8a 823c 5436 1a3f
00000090: 039a 81be 42f3 103f f9fa 13be df42 debe
000000a0: f3aa d9be bb97 043e 082a 153e bbcb 81be
000000b0: cb81 0d3d cb0a 24be 25e6 c33d 3a3c d3be
000000c0: 95ea 68bd 557c 283e 1ef8 293e 8a27 e53d
000000d0: 3c9f 633d 48c3 d53c 64a4 173d 2a31 99bc
000000e0: aaef bc3e 3805 10be 592e 7abe 875f 90be
000000f0: ffbd cdbd e4fb 5f3b 5c9b 83bd bee0 52bc
00000100: e82a aabc 48aa 55be 83b3 ca3e feab fd3d
00000110: 5bc3 2d3f c938 523f 387c 063e 2cf6 763e
00000120: b2b9 36bd 050b e7bc 35f0 cabe db9d febd
00000130: 117a 7c3e 58da 233e db13 533c 8fb7 903e
00000140: 1d76 5c3c 100b 043d 38f8 84bc 8ed6 2f3e
00000150: 7398 32bc 7d74 b6be 0cf0 40bf b428 043f
00000160: 39f6 b43e 8b43 443e 0a58 723d 810e 0e3a
00000170: e359 8abb bfb3 a1bc 5416 9ebd 3402 e8be
00000180: 1253 1bbb 8f11 ff3d 5653 983e 80ea 02bf
00000190: 2692 efbb d163 08bc 2995 8d3b d1e4 653a
000001a0: c9cd 7cbe 609a 8e3e 5011 b03e 3dce 0c3f
000001b0: 1212 473c 20ed 593e 1d71 4cbe e87d 883b
000001c0: 7010 9d3c 2512 7fbb 71f6 c6bc 7c51 513c
000001d0: 916d 1b3f dba4 1dbf 9c69 663d e09f 363f
000001e0: fb21 e7bd 7b2d 9bbd eba2 fa3c 11b0 c1be
000001f0: b01c bdbc c9d4 823d 4e3e 57bd 9d57 19bf
00000200: 8cee 58be ae2c c13e 9800 313d e9fd 763d
00000210: 67d6 23be 1b16 84bd 5407 84bd 6cd9 88be
00000220: b156 b8be 77fa 2fbd c6dc fa3e dd56 cb3e
00000230: 3775 9a3d dae4 293d 3133 48bb 899b 8bbd
00000240: 0599 8c3d e258 08bf e470 a8be 2bd9 293a
00000250: 387e d63e 83e2 eabe 4b6e 20be 46a5 0b3e
00000260: b51b 023e 7f6c b23d 6486 36bd 366d 263f
00000270: 58cd 103e 0365 10bf 9aa0 b9be 647b 563e
00000280: 3ead efba 556e c7bd 022a eb3d 0467 963c
00000290: 2a62 41bc 3752 a7ba 3e18 5cbe 3dc6 febe
000002a0: 1226 e4bd b517 403d 0259 c43c 3498 883e
000002b0: 8f9e e6bc 9225 63be 1dab 2fbe a8bf 4ebf
000002c0: 5d72 433e 519a 5d3f d727 8abe 97ed 90be
0.07977398 -0.43941653 -0.14740753 0.071008466 -0.08431814 -0.4123507 -0.31205672 0.18558705
-0.4391768 0.4520313 0.21829094 0.0045350986 -0.030504664 -0.027177133 0.02842537 -0.084102236
-0.41732872 0.30178002 0.19953246 -0.28685793 0.027062034 -0.18827532 -0.009898633 0.078451194
0.102027565 -0.8369188 -0.77677304 0.20983073 0.5241176 -0.53260756 0.00079450564 -0.11780902
-0.015607109 0.5341878 0.015935358 0.6023915 -0.25312814 0.5662118 -0.14451207 -0.43410394
-0.42513236 0.12948506 0.14566815 -0.25350747 0.03454761 -0.16019742 0.09565381 -0.41256887
-0.05686434 0.16453679 0.16598555 0.11189182 0.05557178 0.026094094 0.03702201 -0.018700201
0.369016 -0.14064491 -0.24431743 -0.28197882 -0.100460045 0.0034177238 -0.06426117 -0.0128709655
-0.020772412 -0.20865738 0.39590082 0.123863205 0.67876214 0.821179 0.13133323 0.24117345
-0.044610687 -0.028203497 -0.39636388 -0.12432452 0.2465594 0.1600126 0.012883152 0.28265044
0.013455895 0.032237113 -0.016231641 0.1717169 -0.010900605 -0.35635749 -0.7536628 0.5162461
0.35344103 0.1916639 0.05916599 0.00054190314 -0.004222141 -0.01973903 -0.077191025 -0.4531418
-0.0023700637 0.12454521 0.2975108 -0.5113907 -0.0073111234 -0.008324579 0.00432076 0.0008769753
-0.24687876 0.27852154 0.34388208 0.55002195 0.012150304 0.21281862 -0.19965024 0.0041654
0.019172877 -0.0038920727 -0.024287434 0.012775775 0.6071406 -0.61579674 0.05625306 0.713377
-0.11285778 -0.07577034 0.030595263 -0.3782964 -0.023084968 0.06388242 -0.052549653 -0.5989931
-0.21184748 0.377294 0.043213457 0.06030074 -0.15999757 -0.06449529 -0.0644671 -0.2672838
-0.3600364 -0.04296347 0.48996562 0.3971471 0.07541888 0.041478015 -0.003054809 -0.06816775
0.06865124 -0.53260624 -0.3289863 0.0006479199 0.41893172 -0.4587594 -0.15667073 0.13637266
0.12705882 0.087121 -0.04456176 0.6501039 0.14140832 -0.5640413 -0.36255342 0.20945507
-0.0018285883 -0.09737841 0.11482622 0.018359669 -0.011803189 -0.0012765591 -0.21493623 -0.4976062
-0.11140074 0.04689761 0.023968223 0.26678622 -0.028151779 -0.221823 -0.17155118 -0.80761194
0.19086595 0.86563593 -0.2698352 -0.28306267

l1.weight f4 [100, 108]
00000000: 237d 38bd 51cf 133e 9c27 8abc 41c5 e73d
00000010: f337 0a3e 26b0 f3bd 1d27 443c 0298 ab3d
00000020: 27ab bd3d 0412 20bd 4380 16be e70d 3ebd
00000030: 7617 7cbd ec83 ae3e f0d2 043e 0621 0bbe
00000040: 7e4a c33d 1540 243e 224e 713c acec dd3c
00000050: 82ba 04bd f87a ceba 2514 98bc 0fe0 0c3d
00000060: 7ed1 51bd d951 cebd c9fe 80bd 1346 d83c
00000070: d4cf c13d ce5f 5c3e 1b97 773e 3bf0 eebc
00000080: 0822 513e a850 d83d 295b 813c 0b68 a83d
00000090: 37fe 32be 7c8b eb3d 4135 3d3c 48ee 0c3e
000000a0: 86cb 07bd 6ed3 11ba dca1 ac3b 14c5 333c
000000b0: cfa6 14be f08e 1ebe 942d 9d3d 8321 373e
000000c0: f856 a5bd a4dd ad3d 6a28 03be 8fc2 3fbd
000000d0: bee8 23bd 1944 acbd 3fe5 acbb 128a 7e3e
000000e0: 5566 e93d 8fef 6fba 5e3c 833d fe0e eebc
000000f0: b7c9 2c3e 59f3 cd3d 3561 30be f185 7c3d
00000100: b0bc 4ebc fb53 17be 1faa 61be f8fb 453d
00000110: 16be 27bc d471 0e3e 0f3b 223b 7b39 e0bd
00000120: 4c23 c83d a788 2abd 553d 02bd 3b9f 01be
00000130: 9901 50be e0c0 86be cf60 11bd 109f ccbb
00000140: ce1e 343e a192 3bbe 3dd6 5e3d e389 b0bd
00000150: 32e6 b43d 4250 01be 5a3a 1abd e892 95bd
00000160: 1520 b1bb 7109 8b3d c4ca b13e 2742 203d
00000170: 63fd d43e 327a db3e 8f49 a63e 94f0 1a3f
00000180: a022 863e fafb c03e 2716 d43e abd0 e63e
00000190: eacc b03e 502b ad3d ec62 463f c7b3 ea3e
000001a0: f3a6 fc3e 03cf bb3e 3536 153f ea68 cf3e
000001b0: 9213 183f c8dc 6abe 889a ddbe 3f30 fa3e
000001c0: f3f7 4bbf 8f45 a9bd 4a97 a3bf 8fd4 e13e
000001d0: 373a 0d3f bbc7 bebe 326b d1be 1d56 8ebe
000001e0: 33d8 de3d 306a 023d a723 833d fda8 05bf
000001f0: 9690 babd 8e5c 07bf 557b 863e 8ec8 1e3f
00000200: d24c a1be 6301 06bd e2f6 2f3e 374e 25be
00000210: 23b6 523d 7ed0 863e e620 1bbe 039a ba3e
00000220: 620c d23e cc7d cd3e 62f4 86bd d1b0 3b3d
00000230: 2dbe 64be 75a7 93be dd02 bebe 95f7 c03e
00000240: e249 9abd 345e ebbd 76f0 67be 5145 dbbe
00000250: 77c7 9abd c72d f5bd ce7a 903d 1d4f 613e
00000260: c850 72be 54df 263f 74e4 543e 65af 80bd
00000270: 6965 aebe 3eeb 83bd a9e5 5d3e 3a24 4f3e
00000280: 0283 4e3f 8d4b 7e3d aefe acbd 774b 28be
00000290: 20c2 053d a7a0 a73e 5b40 75be b820 95be
000002a0: 19d8 04be a464 24be 2bea 223f 77fb 25be
000002b0: c3a2 21bf 5155 bdbe 9958 4abf 1b04 e93d
000002c0: ed7f 943f 0cf1 a43e 483d d33e 367b d23e
000002d0: efa4 0abe bfaf aabe 1356 c83e f5c0 cb3e
000002e0: e518 5fbc 6961 1bbf abb6 d6be c929 9c3e
000002f0: 5444 aebc 761c 16be 4936 443f 7f2e 1d3e
00000300: 2060 42be 74d4 55bf 8e13 493e 3b63 443f
00000310: 1729 23be 94aa 88be 0566 00be 7741 62bd
00000320: cbf5 c3be 2029 8f3e 3191 e03b a14d 8abe
00000330: 7509 27be 3a4b ecbd 36eb 4f3e ef32 82bd
00000340: f09a 84be 35e7 623e 241b 03bf 7618 343d
00000350: 3e4b 9e3d e46f f83d 8546 20bb f9ea 0abe
00000360: 8681 273e 30c5 f9bc 500d 3abe 91ad ab3d
00000370: 8299 3dbd d56a 2fbe aa78 943d f45a 713e
00000380: f550 bf3d f932 523b 2451 2cbe d561 e8bc
00000390: d4ec d1bc a9c0 993d ab0c 32bd 6dc5 2fbe
000003a0: 887f 11be 57f5 71bd 7fb8 6cbd 8ca9 cb3e
000003b0: bcdb c03c 3ef2 20bd 2557 003e 5eeb 173d
000003c0: 618e 263c 1535 6c3d 4d97 883d 396d 61be
000003d0: 1721 9dbd 6120 493d 5b85 a43c 7474 6dbd
000003e0: 1dcf 2f3e afcd 133e 55ee d43d 8483 1abe
000003f0: e77b 7abd eb57 153d dc50 9b3d 4b72 ec3b
-0.045041215 0.14434554 -0.01686459 0.1131692 0.13497905 -0.11898832 0.011972216 0.083786026
0.0926116 -0.03907968 -0.14697365 -0.046399977 -0.06154581 0.34085023 0.12971091 -0.13586816
0.09535693 0.1604007 0.014728101 0.027090393 -0.03240443 -0.00157532 -0.018564293 0.034393366
-0.051225178 -0.10074205 -0.062985964 0.026400601 0.09463468 0.21520922 0.24178736 -0.029167285
0.20423138 0.10562259 0.015790539 0.082229696 -0.17479788 0.11501214 0.011548341 0.13762772
-0.03315308 -0.00055628165 0.0052683186 0.01097228 -0.14516757 -0.15484214 0.07674709 0.17883877
-0.080732286 0.0848954 -0.12808385 -0.046816405 -0.040016882 -0.08411426 -0.0052763517 0.24857357
0.113964714 -0.00091528235 0.064079985 -0.029059883 0.16873823 0.100561805 -0.17224582 0.061651174
-0.012618229 -0.1477813 -0.22037552 0.048336 -0.010238191 0.1391061 0.002475444 -0.109484635
0.09772357 -0.041634228 -0.031796772 -0.12658398 -0.2031311 -0.26319027 -0.035492714 -0.0062445477
0.17589876 -0.18317653 0.054403532 -0.0862005 0.08832969 -0.12628272 -0.037653305 -0.07303411
-0.005405436 0.0678891 0.3472501 0.039125588 0.4159957 0.42866665 0.32477996 0.60523343
0.26198292 0.37692243 0.4142315 0.45081076 0.34531337 0.08455527 0.7749469 0.45840284
0.49346122 0.36681375 0.5828584 0.4050973 0.5940486 -0.22935784 -0.4328196 0.48864934
-0.79675215 -0.082652204 -1.2780545 0.44107482 0.55166954 -0.37261757 -0.40902096 -0.27800074
0.108810805 0.03183955 0.064032845 -0.5221098 -0.09109609 -0.528756 0.2626597 0.6202477
-0.31503922 -0.032716166 0.17184022 -0.16143118 0.05144323 0.26330942 -0.15149269 0.36445627
0.41025072 0.40135038 -0.06589581 0.045822922 -0.22338171 -0.28838697 -0.3711156 0.3768889
-0.07533623 -0.11492577 -0.22650322 -0.42826322 -0.07557576 -0.11971622 0.07054673 0.22002836
-0.23663628 0.6518452 0.20790273 -0.06283454 -0.34061745 -0.06441353 0.2166964 0.20228663
0.8066865 0.06208377 -0.08447014 -0.16435038 0.032655835 0.32739756 -0.23950331 -0.29126525
-0.1297306 -0.16054016 0.6363856 -0.16209207 -0.6313898 -0.36979154 -0.7904144 0.11377736
1.160154 0.32215154 0.4125769 0.41109627 -0.1353948 -0.3333721 0.3912817 0.39795652
-0.013616775 -0.6069551 -0.4193624 0.3050063 -0.021272816 -0.14659294 0.7664533 0.15349768
-0.18981981 -0.835273 0.19636366 0.76713914 -0.15933643 -0.2669264 -0.12538917 -0.055238213
-0.38273463 0.27961063 0.0068532457 -0.2701235 -0.16312201 -0.11537786 0.2030457 -0.06357371
-0.25899458 0.22158511 -0.5121329 0.04396864 0.07729195 0.121307164 -0.0024456095 -0.13566197
0.16358003 -0.030489534 -0.18169141 0.083827145 -0.046288975 -0.17130597 0.07249577 0.23569852
0.09341613 0.003207384 -0.16827828 -0.028366962 -0.025625624 0.0750745 -0.043469112 -0.17165156
-0.14208806 -0.059071865 -0.057793137 0.39777792 0.023542278 -0.03929352 0.12533243 0.037089698
0.010165782 0.05766781 0.06669483 -0.22014321 -0.07672327 0.049103145 0.02008312 -0.057972386
0.17168851 0.14433931 0.10397021 -0.15089232 -0.06115332 0.0364608 0.07583782 0.007215773

l1.bias f4 [100]
00000000: 84da e8bd 70e1 573d 546b 863e 04fd bebd
00000010: 2103 d3bc 32ea 17be 23eb 813d 5abd 0c3e
00000020: 9d36 04be 2ded 28be 79de 643e 2b56 2dbe
00000030: 6251 b53d 6c6d 8c3e dcc7 383d 3009 ccbc
00000040: 5266 b63d 4934 a23d f149 19be a8a4 3c3e
00000050: 61fb 6fbe 6526 78be 9425 bcbd 9977 913e
00000060: 754f 5e3d 0e21 29bd f1ce 64be 6c91 89bd
00000070: 3670 7c3d 6878 4e3e c884 33bd 7e61 46be
00000080: a541 3bbe b4b8 13bd 7a02 9cbe ba74 883d
00000090: 672a 67be 8b70 0d3e 75f0 44bd d948 1dbe
000000a0: 75dc 173b 2446 493e 174d 673d 44dd a83e
000000b0: 9991 053e 6b92 6c3d 11ca 753d 9900 1f3e
000000c0: f352 dd3c 3851 14be cb6f 8dbd 6371 30bd
000000d0: e888 a2bc c1fd c8bd f939 cabc f35e 743e
000000e0: a4b6 403c f6db 643d 7475 f6bb 0950 4a3e
000000f0: 0166 943e f64c dabc d304 c0bd 152c a4bd
00000100: 6b46 313e e60c 20be d865 49bd 6010 c53e
00000110: fd65 87bd a588 0f3e b9d9 3d3b 007c c93d
00000120: 8230 26be c470 8ebd cbcb 5a3e 7477 4c3d
00000130: 226c f4bb 4105 163e 54ba 45be 66f0 8b3e
00000140: 5915 5dbe d07c e1bd aacc 883d 0d15 e6bd
00000150: 13d0 04bd 4b26 9a3e f4a9 a03d 2618 713c
00000160: c83e ad3d c158 613e 549a 4f3e 453e 673e
00000170: 6c02 31bd 7743 24bd b360 5ebe 0d0c 05bc
00000180: 4e5c 603e 3937 b5bc 8dca f0bd 7d00 683d
-0.113698035 0.05270523 0.2625376 -0.09325603 -0.025758328 -0.14835432 0.06343677 0.13744107
-0.12911458 -0.16496725 0.22350492 -0.16927402 0.08853413 0.27427232 0.045112476 -0.024906725
0.08906235 0.07920129 -0.14969613 0.18422186 -0.23435737 -0.24233396 -0.09186855 0.28411558
0.054274995 -0.04129129 -0.22344567 -0.0671719 0.06163045 0.20163119 -0.043827802 -0.19373128
-0.1828676 -0.03606482 -0.3047064 0.06662889 -0.22574769 0.13812463 -0.04808088 -0.1535982
0.0023172174 0.19655663 0.056470003 0.32981312 0.13043822 0.057756823 0.06000716 0.15527572
0.027017092 -0.14484107 -0.069060884 -0.043076884 -0.019840673 -0.09814025 -0.024685847 0.23864345
0.011762295 0.055873834 -0.0075213257 0.19757093 0.28984073 -0.026648026 -0.0937592 -0.080162205
0.17312019 -0.1562992 -0.04916939 0.38489056 -0.066112496 0.1401697 0.0028968884 0.09838104
-0.16229442 -0.06955102 0.21366803 0.049918607 -0.0074591795 0.14650442 -0.1930936 0.27331847
-0.21590175 -0.11010134 0.066796616 -0.11234484 -0.032424998 0.3010734 0.07844916 0.01471523
0.0845924 0.22006513 0.20273715 0.22582348 -0.0432152 -0.040103402 -0.21716575 -0.008120549
0.21910211 -0.022121059 -0.117573835 0.05664109

l2.weight f4 [100, 100]
00000000: ee31 c4bd af9c 14bf eee8 44be 56a6 a2bc
00000010: 8fae 183d 4a56 3fbe dfd7 71bc d5f7 763d
00000020: 269f 2fbd d89f 0fbe 3620 2b3d 3488 293f
00000030: 52fa ffbd 9594 00bd 52d1 9b3e f84d e63d
00000040: b6a4 c2bd a9ea 9abe 953f 263e 78a6 76be
00000050: b47a 0e3f ecc5 44be 1525 613e 8834 36be
00000060: 6879 fc3e 5ecf df3d e5b0 20bc 0e09 203e
00000070: 1894 febd 119b a7be 0ac3 e43d 8d8f 22be
00000080: aed1 803e e5de dc3c d74d 993e 7831 9abd
00000090: 668b ff3d 2a09 2cbe 831b e33e 0437 223e
000000a0: 8a75 a83d 2371 6bbe 8bb9 cebe 15bd 29bf
000000b0: 4c26 b0bc 36fb 673c 155c bd3e 4cdd 2e3e
000000c0: 9a11 dc3e cba1 58be 3acf 813e eb59 ec3b
000000d0: 6352 ad3e 22b2 88be cd1f babd ee5b a63e
000000e0: 9ce0 de3e 0c0a abbe 5091 e8bd c7a8 413e
000000f0: bbea 3f3e d324 fbbd 2105 c2bd f017 c0be
00000100: ff46 f3bd d4a5 483e 7640 04bf 173b 9abe
00000110: 33d6 d23e 140b 62be 4bb8 b5be fcda a8bd
00000120: 5a87 a63d 4ce7 2bbe b401 30be 6171 1dbe
00000130: 01f2 aa3e ff1e 92bf 2ec3 9fbc 32c0 e4be
00000140: 4ed6 0b3e e9cf 89be c115 753e 40b0 4c3e
00000150: e9df 15bf 2129 d33d 0e59 653e b41c f0bc
00000160: 635c 733e 9b6b 46be 6e08 083f d901 a4be
00000170: 0ff2 2ebe 0f5e 2dbd c4d9 27be 8582 6b3e
00000180: 80a2 42be 8cf7 093f c446 0cbe ac84 7b3e
00000190: 5a6a 80be ebb3 163f e05d c43e 1544 97be
000001a0: ce6d b1be 238b 9b3c 8616 b13e e2c2 0f3d
000001b0: a0d2 b9bd a1da 963e be4c 433e 24ad bdbd
000001c0: 73d2 743d 721a 903e a248 8ebd 9fb2 2cbe
000001d0: 7dd9 ddbe 88b1 cb3d e5d4 28bf 3f8b 6b3e
000001e0: a499 53be 630f 623e 5dc5 c73d 4670 a13e
000001f0: 31ee 3abe 9456 00be 16b2 853e f9c9 2fbe
00000200: 70f0 763e 8ff2 d33d 3392 373e afce fd3d
00000210: cb34 afbe 6aab 493e 3904 a6be 2932 8f3d
00000220: 8d25 843d b131 8b3d 1812 51be 3077 4d3e
00000230: b74b b1be e3ea 8a3e 9795 7cbd 9d79 03be
00000240: cdf3 25bd 132d 0fbd 34dc c93c 31a3 48bd
00000250: 94c7 123e 07af c9be 3fe6 8cbd 26a6 85be
00000260: 896e 63bd 3cbe 39bd edb2 d53d af48 98bd
00000270: c240 773d 6608 da3e 9b53 8e3d f310 dfbe
00000280: f4a9 e93d 0644 ddbd 9d85 4a3e a3d8 bebd
00000290: 95ac 033f ad38 0fbd f3b7 143f 2517 c43e
000002a0: 5b80 f53c 3725 20be 77e6 9f3e 6bcb 7cbe
000002b0: 80c5 3dbf 4cf1 0abe cd0a 1b3d b3f9 cfbd
000002c0: faba 22be e440 84be 9429 ed3d a5f5 da3e
000002d0: bdaa b4be 82ce ccbe aab4 863d ee90 eabc
000002e0: 4902 623e 8fa8 6e3e f20d 36be c8a8 313e
000002f0: dca4 853d c058 d43e 1c3e dfbd de54 713e
00000300: 94ce 07bc f485 7b3d ae55 5f3b 4c2c 2dbe
00000310: 2040 aabd be52 99be 3c11 2abd 62a3 cbbd
00000320: a74a 763f ab57 64bd b9f9 17bf 2428 0c3e
00000330: cc9b a4be fccc 523f c1a9 58bf 291a 4abf
00000340: 7027 d53e 10c3 533f bd1c c0bf 94c1 e03d
00000350: c587 b7be 0680 8cbf 1737 bebf bdf1 f43d
00000360: d0e1 83bf a734 b2bf 3150 26be b45b 1ebe
00000370: 35fe 73bd 2340 573f 7fe9 b13e 8616 263e
00000380: 7c6e c0bf ac57 853e 18e3 9d3e d857 e63d
00000390: 4f23 a23e 7d3c 28c0 0170 bf3f 9fc3 da3e
000003a0: bbd9 be3f 5c3f 453f e762 aa3e 0674 fbbe
000003b0: 8025 833b 5819 cfbd 9109 d23d fac5 683e
000003c0: c6ab 983e 332d 0f3c b6f5 db3d 9ef3 98bf
000003d0: a148 aabe b672 0240 4752 8abf 3772 47be
000003e0: 427b a53f 300e 293f ebd8 f0be e296 babd
000003f0: 42a6 933f d92c 91bf 7906 8a3f 76fb 123f
-0.09579836 -0.5805158 -0.1922948 -0.019854706 0.037275847 -0.1868526 -0.01476094 0.060294945
-0.042876385 -0.1402582 0.041778766 0.66223454 -0.12498917 -0.0313917 0.30433136 0.1124534
-0.09504072 -0.30257156 0.16235192 -0.2408694 0.5565598 -0.19216126 0.21986802 -0.17793477
0.49311376 0.10928224 -0.0098078 0.15628454 -0.124305904 -0.32735494 0.11170013 -0.15875073
0.25159973 0.026961753 0.299422 -0.07528967 0.1247776 -0.16800371 0.44356927 0.158413
0.08225544 -0.22992377 -0.40375933 -0.6630414 -0.021502636 0.014159014 0.36984316 0.17076606
0.4298218 -0.21155469 0.25353414 0.0072128675 0.3385192 -0.26698405 -0.09088097 0.32492012
0.43530738 -0.33406103 -0.11355841 0.1891204 0.18741886 -0.12262883 -0.094736345 -0.37518263
-0.11878776 0.19594508 -0.5166086 -0.30123207 0.41179046 -0.22074538 -0.35492167 -0.08244893
0.08131285 -0.16787452 -0.1718815 -0.15375282 0.3338776 -1.1415709 -0.019502249 -0.44677883
0.1365597 -0.26916435 0.2393408 0.19989109 -0.58544785 0.10310579 0.22397253 -0.029310562
0.23765711 -0.19376986 0.5313786 -0.3203266 -0.17084526 -0.04232603 -0.16391665 0.22999008
-0.19007301 0.5389335 -0.1369887 0.24562329 -0.2508114 0.58868283 0.3835287 -0.2954413
-0.34654087 0.018987244 0.34587497 0.035097964 -0.09073377 0.29463676 0.19072244 -0.092615396
0.059771013 0.28145176 -0.06947447 -0.16865014 -0.43329993 0.09945971 -0.6594985 0.23002337
-0.20664078 0.22076182 0.09754441 0.3153097 -0.18254925 -0.12533027 0.2611243 -0.1716689
0.24115157 0.10348999 0.17926864 0.123929374 -0.34219965 0.19694296 -0.32425097 0.06991989
0.06452475 0.06796587 -0.20417058 0.20064998 -0.34628078 0.2713233 -0.061666097 -0.1283936
-0.04051571 -0.034955095 0.024641134 -0.048983756 0.14333946 -0.39391348 -0.068798535 -0.26103324
-0.055525336 -0.045347437 0.10434518 -0.07435738 0.060364492 0.42584532 0.0694954 -0.4356762
0.11409369 -0.1080399 0.19777532 -0.09318664 0.51435214 -0.03496616 0.58093184 0.38298908
0.029968431 -0.15639196 0.31230518 -0.24686973 -0.74129486 -0.1356861 0.037852097 -0.10155048
-0.15891638 -0.25830758 0.11580196 0.42765537 -0.35286513 -0.40001303 0.06577428 -0.028633561
0.22071184 0.23306488 -0.17778757 0.17349541 0.06525585 0.4147396 -0.10900518 0.2356753
-0.008288998 0.061407045 0.0034078169 -0.16911429 -0.08313012 -0.2994594 -0.041520342 -0.09943272
0.9620766 -0.05574767 -0.5936542 0.13687187 -0.32150114 0.8234403 -0.84634024 -0.7894617
0.4163165 0.82719517 -1.500877 0.10974422 -0.3584577 -1.097657 -1.4860562 0.119601704
-1.0303288 -1.3922318 -0.16241528 -0.1546467 -0.059568603 0.8408224 0.34748456 0.1621953
-1.5033717 0.2604345 0.3083732 0.112472236 0.31667563 -2.628692 1.4956056 0.42727372
1.4910196 0.77049804 0.33278582 -0.49111956 0.004002273 -0.10112256 0.10255731 0.22731772
0.29818553 0.008738804 0.10740225 -1.1949346 -0.33258536 2.0382514 -1.0806359 -0.19477163
1.292824 0.66037273 -0.47040495 -0.0911081 1.1535113 -1.1341811 1.0783225 0.5741495

l2.bias f4 [100]
00000000: c8dc cfbe 12f0 fb3e 9aee e13d fa4e 8dbe
00000010: 8d56 9bbc efa2 0c3e 4546 9abd 11e9 423e
00000020: 0749 033e 7c7b ff3d edd0 e73d d9ed fb3e
00000030: 916d 033f c1b2 9fbe b295 a53e 8b75 05be
00000040: 812e ee3e 2178 563e a2f0 81be 6980 67bd
00000050: e4af 663e 5376 c93e a085 be3e 22e6 503e
00000060: aaf8 263e c79e 92be 98a4 383e 1170 c6be
00000070: 393c a03d b34d 70bd 07f6 313e 4c88 8abe
00000080: f414 bc3e bdbf 933d 4f13 bcbd 6a6e 38be
00000090: 33d1 d2bd badf 083e 9732 b6bc 2737 3bbd
000000a0: d39d d7be 3ab5 d53d 1a5f 19be 291c 8fbe
000000b0: 7e85 663e 67d2 a3bd 2514 a93e fdea a23d
000000c0: 006e 16be c7b3 76be c27c d8be f877 163e
000000d0: 5bda a1be dc9e e53d 1b5a 493e 74f5 80bd
000000e0: 36d7 e03e 1baf ddbe 24eb f43e 4dfb c53e
000000f0: 7954 fb3d 6e2b 8fbd 7047 9fbc 2ea9 d6bd
00000100: 4e22 e2be 5fab 53be d360 553e 992a 4dbe
00000110: bdf5 3c3c 75f8 bfbc 6cc4 ccbd 48c3 0a3c
00000120: fbfc 78bd f366 7bbe fb5f a63d ee7e c23d
00000130: 422a f13e 1ff8 1abe 3eaa 52be 8af4 4bbe
00000140: 545a 20be e377 ca3c 58fd 183e 3779 b33d
00000150: f870 f2bd f3f5 04bf 7916 5c3e 178b 6d3e
00000160: 31fd 30be fca1 b4be 5f38 24be 24ea 11be
00000170: fbdb 313e 50c7 c83c 6170 903e 85ed 8a3e
00000180: b28a 1abe 3501 6f3e e2e9 053f 1519 2cbe
-0.4059813 0.49206597 0.11031838 -0.27599317 -0.018962169 0.13734029 -0.07532934 0.1903422
0.12820826 0.12474725 0.11319146 0.492049 0.5133906 -0.31191066 0.3234077 -0.1303312
0.46519855 0.20944263 -0.253789 -0.056518946 0.22528034 0.39348087 0.37211323 0.20400289
0.16305795 -0.28636762 0.18031538 -0.38757375 0.078239866 -0.05866785 0.17379008 -0.2705711
0.36734736 0.072143055 -0.0918337 -0.1801087 -0.10293808 0.13366595 -0.02224092 -0.045706894
-0.42112598 0.10434957 -0.14977685 -0.27951172 0.2251186 -0.079991154 0.33023182 0.07954977
-0.14690399 -0.24092017 -0.42282683 0.14694202 -0.31611905 0.11211941 0.19663279 -0.062968165
0.43914193 -0.43297657 0.47835648 0.3866829 0.12271971 -0.069907054 -0.019443244 -0.10481487
-0.44166797 -0.20670842 0.20837717 -0.20035781 0.011533198 -0.023433903 -0.09998402 0.00846941
-0.060788136 -0.24550991 0.081237756 0.09496866 0.47102553 -0.15133713 -0.20572755 -0.19917503
-0.15659457 0.02471537 0.14940393 0.08763354 -0.11837953 -0.5193779 0.21492948 0.2319759
-0.17284085 -0.35279834 -0.16037129 -0.14249474 0.17369072 0.024509102 0.28210738 0.27134338
-0.1509197 0.23340304 0.5231 -0.16806443

l3.weight f4 [18, 100]
00000000: 2b22 26bd 6f29 a3be 41fd 66bf 5bbb a13e
00000010: 44e7 203f 4684 1cbf fe48 473e efd5 7dbe
00000020: b208 96bd 0c88 ecbe cecc b4bd e02c cebe
00000030: cdab 83be 6c90 353f 618e f7bd ea41 21bd
00000040: 0a17 88be 518a 28be fb3d 4c3c 8679 643f
00000050: a171 abbe fe96 14be e4b0 45be 84e7 1cbe
00000060: 77dd b3be cf10 a23e 8b42 2ebf f8a8 093f
00000070: c433 abbe f34c 0d3f 3c83 b9be 4e86 943e
00000080: df3d 8ebe 8d5e 173f 186c f33e e4a4 663e
00000090: 571d 8b3e d66f 17be 5d21 453e 5a46 c0be
000000a0: e270 d23e bc85 e6be e20d fc3d a864 433e
000000b0: 58c1 b7be 3506 0a3f 5538 0a3f dcf7 f63e
000000c0: 2133 263f 08fa 833e 28b6 813e e45d fcbe
000000d0: 8fcf 973e 05e4 23bf 128f 23bf 0226 9d3e
000000e0: d455 8cbe 6d2f 1a3e f05b 8dbe 23b6 26be
000000f0: b97e 193e e157 36bf 56d1 1c3f b271 643e
00000100: 5d09 d93e 07aa 0c3f e5e1 cfbe e43f 853e
00000110: 412f 1ebf 2110 1dbf c9e1 f13d a8f4 27be
00000120: 11db a73d f6c5 2a3e c77b 97be 6cd1 1cbe
00000130: 3c65 5cbe 01f8 793e eda7 dabe 8f16 963e
00000140: 8610 1f3f 6ac7 16be 2aca 0abf f9e9 02bf
00000150: ebd1 593e 2025 473e 0240 25be a727 f7be
00000160: 3c7e af3d 0656 383e 3645 4abd 6980 233e
00000170: 1565 3fb9 84a3 83be a8be 83be 0cc6 86be
00000180: 91d5 ff3d 7743 ee3e ccb3 0bbe 6d54 be3e
00000190: c4e4 1a3e ed4d 6e3d 3aec 48bf d5f1 fa3d
000001a0: b9cb 473f c394 eabe 9527 c43e 15c5 b8bd
000001b0: 38b2 afbe 1c06 18bf d512 c63d 46cd 74be
000001c0: 6e71 09be 56cb 153f 8706 c5be ab7c 0e3e
000001d0: db29 b2be e2d3 b7be 8c27 c13d 83fd 173f
000001e0: e34d a0be f08e aebe bf4d cbbe 56c6 11be
000001f0: 4df2 c4be d007 b83d 85b1 43bf 59c8 063f
00000200: c1e1 e4bd 7a92 023f 585f 0abf ac2b 953e
00000210: 8b6f 22be 68d4 1d3f 3b36 a33e 7574 243e
00000220: f540 883e 6b27 3b3d 20bc 9d3e 108f 08bf
00000230: c286 873e 7eb9 02bf 2fbd c83d 128a 7a3e
00000240: 065c 96be 4e4e f93e 0139 153f 89a4 d73e
00000250: 8ad5 453f 313f b23e ed5f 033f 5912 13bf
00000260: 0434 103e 7bd6 91be da67 60bf 1bb4 663e
00000270: 756c 73be cd42 c03e de6a 99be 7697 ecbe
00000280: 8c83 733e 6852 47bf fccb b73e 8bbe bf3d
00000290: 64fd b13e 8f2d 113f 4c00 7bbe 405e e93e
000002a0: b18b 0fbf fd4f 04bf d18e 2c3e e533 22be
000002b0: 096c 73bd df71 b83e 2772 54be a608 a6be
000002c0: 5e19 22be 7216 aa3e 35dd debe dabb 703e
000002d0: 89ac 113f 8fc2 04bf 66ea 1cbd d5ac eebe
000002e0: 6519 f23d a8f9 b03e fadd 83be d75b 5abe
000002f0: e9ea 753e 7eec a63e d1ae d5bd cbd5 603d
00000300: e480 7abe 5380 9bbe c341 1cbe 14ec 72be
00000310: f183 4f3d eedb dc3e 3608 73be 3711 c23e
00000320: 3a34 ac3e 4cea fbbe eb6b 50bf 6318 1b3e
00000330: 7a97 b03e bdff 14bf e0b3 993e 7353 93be
00000340: 31d1 b7be 5615 d2be 7a0e 08bd aea2 ecbd
00000350: 21c3 4f3d 0502 2c3f 69ca 92be 6281 1b3c
00000360: e576 48be 7dd4 83be 669c 7d3e 46a5 683f
00000370: a039 8abe 0889 2cbe 5c2d 8fbe ee8e acbe
00000380: fb7a 44be b435 2dbd 5fb8 5bbf 4452 253f
00000390: 1485 56be 43d2 183f 911e b5be 57cc 813e
000003a0: 67b1 8dbe 74f4 073f 7f1d fd3e c8cd 90bd
000003b0: ed2e 973e 0965 a7be 0e3b e93d 5771 77be
000003c0: 011c 3ebd ac35 b9be d015 1f3d 76cf 943e
000003d0: 0928 9ebe 9e22 223f c54e 013f 0cd2 203f
000003e0: e01c 1d3f d21a ad3e 41bd 873e 6ec5 20bf
000003f0: e6da 0cbe 1662 3cbe 41b9 20bf 55f9 183e
-0.04055993 -0.3186755 -0.90230185 0.31588253 0.62852883 -0.61139333 0.19461438 -0.2478864
-0.07325877 -0.46197546 -0.08828126 -0.40268612 -0.2571701 0.70923495 -0.120877035 -0.0393695
-0.26580077 -0.16459014 0.012465949 0.8924793 -0.3348513 -0.14510724 -0.1930576 -0.15322691
-0.35129902 0.3165345 -0.68070287 0.5377345 -0.33437932 0.5519554 -0.36232936 0.29008716
-0.2778158 0.5912865 0.47543406 0.22523838 0.27170822 -0.14788756 0.19251008 -0.37553674
0.41101748 -0.45023906 0.123073354 0.19081366 -0.35889697 0.5391572 0.53992206 0.48235977
0.64921767 0.25776696 0.25334287 -0.49290383 0.29650542 -0.64019805 -0.6389018 0.3069306
-0.27409232 0.15057154 -0.27609205 -0.16280417 0.14989747 -0.7122784 0.6125692 0.22308996
0.42389956 0.5494694 -0.4060203 0.26025307 -0.61790854 -0.61352736 0.11810643 -0.16401923
0.081960805 0.16677079 -0.29586622 -0.15314263 -0.21522993 0.24411012 -0.42706242 0.29314086
0.6213459 -0.14724508 -0.5421473 -0.51138264 0.21271484 0.19447756 -0.16137698 -0.4827244
0.08568999 0.18001565 -0.04938241 0.15966953 -0.00018252835 -0.2571069 -0.25731397 -0.26322973
0.124919064 0.46535847 -0.13642806 0.37173787 0.1512633 0.058179785 -0.78485453 0.12253157
0.7804523 -0.4581662 0.3831145 -0.090219654 -0.34315658 -0.5938432 0.09671561 -0.2390643
-0.13422176 0.5851339 -0.38481542 0.13914745 -0.34797558 -0.3590384 0.09431371 0.59371203
-0.31309423 -0.34093428 -0.39707753 -0.14235815 -0.3846611 0.08985865 -0.7644275 0.52649456
-0.11175872 0.51004755 -0.54051733 0.29134881 -0.15862863 0.6165223 0.31877312 0.1606005
0.26612058 0.04569189 0.3080759 -0.53343296 0.2647 -0.5106429 0.09801709 0.24466732
-0.29367083 0.48692554 0.58290106 0.42117718 0.7727896 0.34813836 0.51318246 -0.5744987
0.14082342 -0.28483948 -0.87658465 0.22529642 -0.23771842 0.37550965 -0.29964346 -0.46209306
0.2378065 -0.77860117 0.35897815 0.09362515 0.34763634 0.5671014 -0.24511832 0.4557972
-0.5607253 -0.5168455 0.16851355 -0.15840109 -0.059429202 0.36024377 -0.2074667 -0.32428473
-0.1582999 0.3322025 -0.43528143 0.2350916 0.5690389 -0.5185937 -0.038309477 -0.46616235
0.1182125 0.34565473 -0.25755292 -0.21324097 0.24015392 0.32602304 -0.10433734 0.05489139
-0.2446323 -0.3037134 -0.15259461 -0.23722869 0.05066294 0.43136543 -0.23733601 0.3790376
0.33633596 -0.49202192 -0.8141467 0.15146022 0.34490567 -0.58202726 0.30020046 -0.28774604
-0.35901788 -0.41031903 -0.03321693 -0.11554466 0.0507232 0.6719058 -0.28670052 0.0094912965
-0.19576605 -0.25748053 0.24766693 0.9087719 -0.2699709 -0.16849148 -0.27964294 -0.33702797
-0.19187538 -0.042287543 -0.858282 0.6457865 -0.20949203 0.59695834 -0.35374883 0.2535121
-0.2767441 0.5310738 0.49436566 -0.070705 0.2952799 -0.3269427 0.11388217 -0.2416433
-0.046413425 -0.3617376 0.03883916 0.2906453 -0.3088992 0.6333407 0.5051082 0.62820506
0.61372185 0.33809525 0.26511577 -0.62801254 -0.13755378 -0.18396792 -0.62782675 0.14938863

l3.bias f4 [18]
00000000: b805 5e3b b2a7 24be 7025 0dbf 8fa7 cebe
00000010: a46b 2b3d 5839 f2bd ddbd 8cbd aff5 e8be
00000020: caba 60be dcdb 92be e5ea 2abd e460 c9be
00000030: a067 d3be 0a63 903e 207e 1dbe e429 afbe
00000040: 3eef fdbe ac3d d1be
0.003387792 -0.16079596 -0.5513525 -0.40362212 0.0418507 -0.11827344 -0.06872151 -0.45499942
-0.21946254 -0.28683364 -0.04172792 -0.39331734 -0.41289997 0.2820056 -0.15380144 -0.34211648
-0.4959659 -0.40867364
