data/result/g_400.pt (torch, 87406 bytes, 7 tensors)

G_attr_matrix.weight f4 [36, 5]
000000 bd 9b 68 3d 5f 9b 61 bd 1a 81 a0 be f6 9c 94 3d
       0.05678915 -0.055079814 -0.31348497 0.072565004
000010 d0 9e 5c 3c 44 04 a3 bd 3c 76 57 3d 87 f1 12 3e
       0.013465598 -0.07959798 0.05260299 0.14349948
000020 73 44 83 3d 6d 5b 9a bc d8 9e 83 bd c5 ec 8d 3c
       0.0640954 -0.018842423 -0.064267814 0.017324815
000030 79 53 04 3c 6e 2d 7b 3d 9c 47 b1 39 36 a8 3f bd
       0.008076542 0.061322622 0.00033813424 -0.046791278
000040 9a ea cc bd 0f e1 aa bd bb 86 56 bd e0 b1 ff bb
       -0.10005684 -0.08343708 -0.052374583 -0.007803187
000050 38 45 1f bc dc ae 02 be f4 b7 55 bb 41 5f c0 bb
       -0.009721093 -0.12762016 -0.0032610865 -0.00587073
000060 d9 04 2a 3d 46 87 98 3d b3 4e a6 3c f2 85 b3 bc
       0.04150853 0.07447676 0.020301199 -0.021914456
000070 88 37 66 3e 31 c5 d9 bd b8 03 d1 bc fe 63 9f bc
       0.22482121 -0.106333144 -0.025514469 -0.01945686
000080 78 a7 cc bc 81 dc 40 3d 39 01 34 3e cb f2 64 3e
       -0.0249822 0.04708529 0.17578591 0.22358243
000090 a8 6d f0 3d 94 79 63 3e c3 89 33 3e 37 01 5f 3d
       0.11739665 0.22214347 0.1753302 0.054444518
0000a0 8c b5 a9 3b fb 31 81 3c a6 14 d2 39 c4 46 57 bd
       0.005179113 0.015770903 0.00040069706 -0.05255772
0000b0 f6 42 0d be ed c8 b5 bb d6 de 78 bc 06 05 0d bb
       -0.13795075 -0.005547634 -0.015189847 -0.0021517887
0000c0 aa 7a 92 3d 77 a6 4d 3e 4d 90 85 3e 9f 68 1a 3c
       0.071523026 0.20083033 0.26086655 0.009424358
0000d0 11 99 9e 3c 11 37 aa bd f2 6e 94 bc 38 2a c4 3b
       0.019360097 -0.08311284 -0.01811931 0.005986478
0000e0 1d 06 3e be 88 40 6d be 29 39 73 3d cd 69 2b 3e
       -0.1855702 -0.23169148 0.059380684 0.16739579
0000f0 66 1e 5b 3a 04 b0 ea 3d a0 68 97 b9 df 18 18 3b
       0.0008358717 0.114593536 -0.00028878916 0.0023208184
000100 98 c2 52 3d 67 da 8b be c1 2b a0 3c d5 3f 97 3c
       0.05145511 -0.27315065 0.019552113 0.018463055
000110 94 87 ba bd 02 92 8d bd 5f 29 07 bd aa 73 b0 bc
       -0.09107891 -0.069126144 -0.03299844 -0.021539528
000120 18 93 9e 3d 65 ca 2a 3c 7c 0b c1 3c 70 4c 69 be
       0.077429 0.010424231 0.023565046 -0.22783065
000130 90 47 1d 3e 07 b8 50 be 9a 96 12 3e f9 75 20 be
       0.1535933 -0.20382701 0.14315262 -0.15670003
000140 ec 74 53 3e 25 97 9b bc 67 41 c3 bd 9f de 28 3e
       0.20650071 -0.01899297 -0.09533959 0.16491173
000150 73 1f e9 bd 55 bf b0 3c a8 79 a0 3e c6 cd e3 3e
       -0.113829516 0.02157561 0.31342816 0.4449293
000160 e3 ad 0c 3e e7 d1 92 3d 1d a6 ad 3b 14 a0 88 be
       0.13738208 0.07168942 0.0052993433 -0.2668463
000170 97 29 5a bb 05 dd b7 3d 99 4c d6 bd 4f 6c 36 bd
       -0.003328895 0.08977703 -0.104638286 -0.044536885
000180 55 6d f1 3d b2 05 7f be 8f cd 1a 3e 8b 4c 1f 3d
       0.117884316 -0.24904516 0.15117477 0.038891356
000190 f1 fb 63 be 22 57 2c bc d2 f9 76 3c a8 13 a6 bc
       -0.22264077 -0.010518821 0.01507421 -0.020273045
0001a0 b6 79 09 bc b9 a8 47 be 84 8e af 3d f1 c1 f9 bd
       -0.008390835 -0.19497956 0.085721046 -0.121951945
0001b0 42 81 2d 3e f7 24 d9 3d 91 4f b4 3a 95 5a 70 bc
       0.16943839 0.106027536 0.0013756623 -0.014670034
0001c0 ff 60 31 bc c8 d3 86 3c 5d 73 42 bb fe 8f b3 3d
       -0.010826348 0.016458407 -0.0029670813 0.08767699
0001d0 c4 b5 79 3e ff c8 2f 3e 66 3d 49 be 97 82 05 bd
       0.24385744 0.17166518 -0.19652328 -0.032595243
0001e0 52 18 f3 3e 79 1d 9a 3c 12 ac db ba 3f 10 66 be
       0.47479492 0.018812882 -0.0016759655 -0.22467135
0001f0 f7 ea 35 bb c9 3f 84 3e c3 62 55 be 69 98 54 bd
       -0.0027758458 0.25829914 -0.20838456 -0.051903162
000200 03 85 39 be 6b 5e 16 3e 97 19 9c 3c 19 17 2d 3d
       -0.18117146 0.14684455 0.019055171 0.042258356
000210 7c 3d bd bc 28 fb bc 3d ef 23 d9 bc b1 fb 67 be
       -0.023100607 0.09227592 -0.026506392 -0.22654606
000220 9e f9 b5 be be 46 3e 3e c3 d1 65 3e 14 bd 8a 3e
       -0.35542005 0.18581674 0.22443299 0.2709738
000230 0a 06 d8 bc 16 aa 00 3c 5c 1d c2 3b b9 b9 2a bb
       -0.026370067 0.007853052 0.00592391 -0.002605064
000240 65 35 f1 bc c0 1c 8d 3d b1 a0 0b bc 10 44 10 3c
       -0.029444406 0.06890249 -0.008522199 0.00880529
000250 4b 37 d3 bb d0 41 05 3e c1 41 b1 bb f5 6d 0c 3a
       -0.0064458004 0.13013387 -0.00540945 0.0005356961
000260 b4 cf 83 3c c4 da 29 bd c0 ce 8b bd 6d e2 19 3d
       0.016090252 -0.041468397 -0.06826544 0.037569452
000270 fd 3a a8 bd ef 65 50 bd de 91 42 3e 45 1e 8c 3e
       -0.08214376 -0.05087846 0.19000956 0.27366844
000280 5a 51 9a bb fd df b1 bb 2e 95 76 3d d4 aa 57 bb
       -0.004709405 -0.005428313 0.060200863 -0.0032908218
000290 3d 1c e0 bb 4f 29 07 3e a4 5e 2c 3e 27 cc bc be
       -0.0068393038 0.13199352 0.16832978 -0.36874506
0002a0 53 66 07 3d 43 e8 2a 3e 8b fb b3 3c 6a e3 39 bb
       0.03305657 0.16690163 0.021970531 -0.002836431
0002b0 94 4f 00 3e fa 11 90 3e 1e 09 0e 3e 69 15 42 3d
       0.12530357 0.28138715 0.13870665 0.0473837
0002c0 e2 fb 94 3e 7c cc 0c be 11 38 3e be e6 93 2b 3e
       0.2909842 -0.1374988 -0.18576075 0.16755638

l1.weight f4 [100, 90]
000000 d9 98 44 3e 60 78 5b bc 2c 96 ad 3d 39 2d d7 3d
       0.19198932 -0.013395399 0.08475909 0.105066724
000010 9c b5 bc 3d f8 05 58 3d 39 5b 9d 3d 72 57 b9 3c
       0.09214327 0.052740067 0.07683415 0.022624705
000020 24 d6 83 be a7 f8 06 be 7d 07 88 3d ab 05 4d be
       -0.25749314 -0.13180791 0.06642053 -0.20021693
000030 00 41 8c bd d7 3a ac 3b 82 5c fe bc 40 49 c8 3d
       -0.06848335 0.0052560377 -0.03104997 0.09779596
000040 30 aa 1b 3d ec 5d 5c bd f5 e6 00 bd 4f 56 c6 3d
       0.0380041 -0.05380051 -0.031470258 0.09684431
000050 4f bc 18 3e 6c 37 3e bd f1 68 03 3e 1e fe 91 bd
       0.14915584 -0.046439573 0.12833 -0.07128547
000060 d5 3e df 3c c6 3e 79 3d 57 05 4f 3e 73 96 7d 3d
       0.02725164 0.06085088 0.2021688 0.061911058
000070 5f 90 23 3e ee 5d 10 bb 3c 2e 0b 3e 05 d6 0f be
       0.15973042 -0.0022028643 0.13591856 -0.14046486
000080 cb b8 5e be fa 59 fa bd 0d 9a b7 bd 64 36 3c 3d
       -0.2175018 -0.12224193 -0.0896493 0.04595031
000090 a9 2b 18 3e 4e 5b 40 bc c1 09 d2 bd 75 56 3f 3e
       0.14860405 -0.011740519 -0.10255767 0.18685324
0000a0 4c 9d 8b bc 7c 4f 93 bd d0 c8 f3 3d db 41 0d 3d
       -0.017042778 -0.07192895 0.11903536 0.034486633
0000b0 8b 98 96 3b af 62 8e 3d 63 2c f6 bd 41 b9 27 bd
       0.0045958213 0.06952416 -0.12020185 -0.040948156
0000c0 6f 3f 4d 3d 33 cf 88 bd 76 e7 f0 3d c8 4d c7 be
       0.050109323 -0.06680145 0.11762898 -0.3892653
0000d0 44 f2 40 3e e9 e6 67 bd 5d 98 09 be 41 b0 18 3d
       0.18842417 -0.056616697 -0.13437028 0.037277464
0000e0 44 49 08 bd 38 e6 05 bc e2 61 a7 bc f4 8e 2c 3e
       -0.033272997 -0.008172564 -0.020432416 0.16851407
0000f0 b6 ff ec bc 71 27 06 be dd 08 8d ba 4c 7e 11 3d
       -0.028930526 -0.13100983 -0.0010760088 0.035520837
000100 81 6c d3 bd e0 f0 c8 bd 61 1d fd 3c 38 67 38 be
       -0.1032343 -0.09811568 0.030897798 -0.18008125
000110 42 9b 01 bc 86 c6 36 be 73 1c 34 be 51 26 bb 3d
       -0.0079105515 -0.17849168 -0.17588978 0.09138168
000120 b4 6e a7 3d 54 6c 53 3e 27 a2 34 be 91 60 33 bd
       0.08175412 0.20646793 -0.17639981 -0.043793265
000130 a5 6e 5b be 0a 9a be bc 55 3c a2 bd b8 db 68 3d
       -0.21428926 -0.02326681 -0.07921664 0.056850165
000140 7d b3 b2 3c ca 09 84 bd 03 2a 24 3d f5 8a ff 3d
       0.021814102 -0.064471796 0.040079128 0.12477676
000150 02 7d 71 be 15 9e 95 3d c8 22 85 b9 15 a9 97 bd
       -0.23582843 0.073055424 -0.0002539365 -0.07405297
000160 be 58 3b 3d ff e4 2e 3e 3e ce 87 3e 07 d5 bd bd
       0.045738928 0.17079543 0.26524538 -0.09269147
000170 2f 46 8a bd f2 09 0a bd 61 28 15 be aa d6 2a 3d
       -0.06751668 -0.03370089 -0.14566185 0.041708626
000180 de c2 53 3e fb cb 5a bd f4 43 7d 3d 9f 9e d1 3d
       0.20679805 -0.053417187 0.061832383 0.10235333
000190 57 b2 34 3d 68 3c ff bc 62 f4 02 be e0 58 10 bd
       0.04411539 -0.031156734 -0.12788537 -0.035241008
0001a0 5c 4c df bd 0c 3d 99 bd 59 ff d4 3d 12 57 2f be
       -0.10903236 -0.07482347 0.10400266 -0.17123058
0001b0 bd 20 8e 3d e4 28 66 3d 38 bd 7a 3c c1 96 c6 3c
       0.06939838 0.05619134 0.015303902 0.024241807
0001c0 a0 9b 07 3c 52 a9 0a bd dc d8 ab 3b f1 c5 3e 3d
       0.00827685 -0.033852883 0.0052443575 0.04657549
0001d0 32 34 17 3d 93 31 3c bd 9f 1c d7 bc 47 fd 42 3d
       0.03691501 -0.045945715 -0.026258765 0.047604825
0001e0 60 a9 52 3d 9b 12 00 bd ea 6a 29 bc bf 8b 78 3d
       0.05143106 -0.031267744 -0.010340432 0.060680147
0001f0 34 ca 2d be a7 2a e2 bb ac b2 7b bd 65 1e b8 3d
       -0.16971666 -0.006902057 -0.06144969 0.08990172
000200 46 e3 f7 3c 64 0d 90 3d 8d 35 11 bd 6a 27 d8 3d
       0.03025974 0.07033804 -0.03545146 0.10554393
000210 42 6b fa bd 61 3c 60 3c f7 8d 52 be 1d 22 8e bd
       -0.12227489 0.01368627 -0.20561968 -0.069401
000220 e0 f5 86 3d 33 9e e5 bd dc 14 a1 3b 12 f5 b9 bc
       0.06589866 -0.11211815 0.0049158167 -0.022699866
000230 d9 7c af 3d 45 0a 16 be c3 1c 75 be b4 12 10 be
       0.08568735 -0.14652355 -0.23936753 -0.14069635
000240 41 6a b5 bd 39 9c 06 3e 59 da c4 3d a3 2c b5 3d
       -0.08858157 0.13145532 0.09611959 0.088464044
000250 14 db 55 bb 06 c7 d4 bd 27 d0 d1 bc 2e 64 36 bd
       -0.0032631801 -0.10389523 -0.02561195 -0.044529133
000260 4a 7e ce bd 59 a7 03 bd 5c 31 de 3c a5 12 b6 bd
       -0.100826815 -0.032142017 0.027123146 -0.08890275
000270 6f ee 9f bc ed ff de bc b9 c9 d8 3c 8f 86 14 3e
       -0.019522874 -0.027221644 0.026463376 0.14504455
000280 9c 06 3c be 47 f8 36 3e d4 67 1f be ea 85 5a bd
       -0.18361896 0.17868148 -0.15566951 -0.053350367
000290 58 2c 95 3c 4c 61 91 bd 99 25 e3 3c 9a 29 eb bd
       0.018209621 -0.07098636 0.027727889 -0.11482544
0002a0 f3 d7 2c 3e e7 ab a5 3d c3 75 f8 3c 03 d0 6f bd
       0.16879253 0.080894284 0.03032959 -0.058547985
0002b0 0c 85 43 bd 3e 02 a4 3d 29 11 92 bd 9b 1b e8 bd
       -0.047734305 0.0800824 -0.07132179 -0.1133339
0002c0 df d5 8c be 9a 1e fd 3d 9d 03 c8 bd 82 3a de bc
       -0.2750692 0.123593524 -0.09766314 -0.027127508
0002d0 89 9a 0c 3b af af 11 3e fa 3c f2 3c 32 cd 5e be
       0.0021454415 0.14227174 0.029570092 -0.21757963
0002e0 60 ad 34 bd cf 1b 23 be 6b 9f 9a bd 4b ee cc 3d
       -0.044110656 -0.15928577 -0.07549938 0.10006388
0002f0 88 0e e7 3c de 1f a0 bd 3d 8d a1 3d 5d ba 32 be
       0.028205171 -0.07818578 0.07888267 -0.17453904
000300 34 e2 be bd c2 06 ba 3d 66 e4 24 bd 7b b5 a2 bd
       -0.093204886 0.0908332 -0.04025688 -0.07944771
000310 fc af da bb 2a 5b f4 3d d3 a2 14 3d 1f 95 eb 3c
       -0.006673811 0.11931451 0.036288094 0.02875763
000320 c4 62 dc bd 89 d5 22 3d 07 ea 39 be 4c 0c a4 3d
       -0.107610255 0.039754424 -0.1815568 0.08010158
000330 6b bc 8e 3e dc e6 98 bb 04 46 cf 3c 0e 79 1a bd
       0.27878127 -0.0046661925 0.02530194 -0.037713103
000340 cc c6 a6 bd 3b a3 03 3e 07 40 79 3c 2f 61 b6 bb
       -0.08143386 0.12855236 0.015213019 -0.0055657844
000350 58 34 ed 3d 91 ba 60 3d a2 bd d9 b8 a0 de 1c 3e
       0.115822494 0.054865424 -0.00010382688 0.153193
000360 0e 1c 31 3d ad 99 95 bd fc 43 15 bd 8c 66 66 bc
       0.043239646 -0.07304702 -0.036441788 -0.014062535
000370 2f c0 fd bd db 5f 0d be c1 5b 66 3d ef ff 14 bd
       -0.12390172 -0.13806097 0.056239847 -0.03637689
000380 dc 6d 7a 3e 8e f4 aa bd 73 48 1b 3e 0c 91 af 3d
       0.2445597 -0.08347426 0.15164356 0.08572587
000390 90 11 58 3d f9 72 7b 3d 1e 93 42 3e 7f 0a 84 bd
       0.052751124 0.061388943 0.19001433 -0.064473145
0003a0 5a 3b 30 bd 77 ca 6b 3d c5 42 dd 3c b4 86 a7 3d
       -0.043025352 0.057566132 0.027009377 0.081799895
0003b0 4f 6f c6 bd f1 f6 3f 3c 32 15 3b 3e ee a3 3f bb
       -0.09689199 0.01171659 0.18269804 -0.0029241997
0003c0 50 8d 9b 3c 1d 23 1c be 49 4a d4 3d 88 54 9d 3d
       0.018988281 -0.1524777 0.10365731 0.07682139
0003d0 97 73 ec bd 55 1b 68 be 2b 26 d4 bd 51 ea c8 bd
       -0.115454845 -0.22666676 -0.103588425 -0.09810317
0003e0 c1 b7 04 be 30 00 3a 3d 47 9e dd 3d 36 e2 84 3d
       -0.12960722 0.045410335 0.10821205 0.06488459
0003f0 e1 a7 0e be ff 57 71 bd 8a bb 74 3d 9b e5 1a 3d
       -0.13931228 -0.05892181 0.059749164 0.037816625

l1.bias f4 [100]
000000 5e 50 ee bc f9 39 b1 3c 6c 62 21 3e 2b c1 a2 3d
       -0.029091056 0.021634089 0.15760201 0.07947
000010 a7 d0 0a 3e 59 8e 15 3c 8d a3 52 3e ee 03 15 bd
       0.13556157 0.009128177 0.20570202 -0.0363807
000020 8c bd 0f bd 86 21 5c bd 14 d9 47 bd 76 27 ef bd
       -0.035092875 -0.053742908 -0.048791006 -0.116774485
000030 4b c1 bc bc 59 94 4d 3c d9 a2 24 bd 3e 32 e9 3d
       -0.023041388 0.012547576 -0.040194366 0.11386536
000040 92 c2 18 3d 5d f7 0f 3d 53 2e b7 bd 5a 9e 09 bd
       0.03729493 0.035148013 -0.089443825 -0.03359828
000050 1d a8 3a 3e d6 24 2e bd 7b 10 20 bd a8 d1 fb 3d
       0.18228193 -0.0425156 -0.039078217 0.12295848
000060 20 15 cb 3c 41 b9 1d 3e d7 d0 46 bd e2 56 ff bd
       0.024790347 0.154027 -0.04853901 -0.124677435
000070 4b aa c7 ba 2d 83 af be fd 98 4b 3d e1 d7 e8 3d
       -0.0015233246 -0.34279767 0.049706448 0.11369301
000080 38 a3 24 be 45 28 84 be 4b fa 59 be 02 b2 ad bc
       -0.16077888 -0.25811973 -0.21286885 -0.021203045
000090 00 40 e5 3c e2 6f 1a 3e c8 21 9d bb 0e 01 52 bd
       0.02798462 0.15081742 -0.004795287 -0.051270537
0000a0 83 f9 72 be 7c 8e 7a 3e 61 0d 09 be a6 61 b3 3b
       -0.23727994 0.24468416 -0.1338401 0.005474287
0000b0 d7 d0 4a bd 88 d4 8c bc ca b5 a1 bb da f7 01 bd
       -0.04951557 -0.017191187 -0.004935001 -0.03173051
0000c0 46 a1 75 bd 08 0f 3a be 94 8b c1 bb 34 64 27 3e
       -0.059968255 -0.18169796 -0.0059065316 0.16346818
0000d0 a6 95 d7 3d 58 40 36 be 33 7e 27 bc d6 95 26 bd
       0.1052659 -0.17797983 -0.010222959 -0.04067024
0000e0 ef 41 fd bc 6b 2c 6b 3d f1 87 ee bc d1 95 8c bd
       -0.030915229 0.057415407 -0.029117556 -0.06864513
0000f0 3d c0 1d be cb 1f 85 3d 27 c0 a4 bc 38 10 de 3d
       -0.15405364 0.06500205 -0.020111157 0.10842937
000100 45 23 e0 3d 31 a6 0b be ec 05 22 bc e4 7c cb 3d
       0.10944227 -0.13637616 -0.009889107 0.0993593
000110 d2 6e 21 bd 84 7d 22 3c 1d 3f cd 3d e7 49 9f bd
       -0.039412327 0.009917621 0.100218035 -0.07777768
000120 d1 0b 0d be ce 83 47 3e a8 0a a7 3d 73 8c 4f 3d
       -0.13774039 0.19483873 0.081563294 0.050671052
000130 06 23 3a be 5a 33 82 bd 78 25 66 be 33 b3 e0 bd
       -0.18177423 -0.06357451 -0.2247523 -0.109716795
000140 29 46 37 3d 13 e7 07 be 68 4d 0b bd 44 48 65 3d
       0.044744644 -0.13271742 -0.034009367 0.05597712
000150 eb 38 34 3d 05 2a c2 3c b9 bb 9f bd 20 00 c6 3c
       0.043999594 0.023701677 -0.07799477 0.024169981
000160 1f 5a 0b be cb 25 95 bc 53 74 16 3e b3 8e 8f 3d
       -0.13608597 -0.018206498 0.14692812 0.070096396
000170 62 3e b0 bc cb fb 0d 3d 31 44 0b 3e 73 79 41 bd
       -0.021514121 0.034663957 0.13600232 -0.047234964
000180 5f b8 13 3c 1b 01 dd bd 13 46 13 be 94 8e 32 3c
       0.009016125 -0.107912265 -0.143822 0.010898251

l2.weight f4 [100, 100]
000000 78 0b db 3c 9e 8b 06 3e c4 d9 8f bd a2 0d bd bc
       0.026738867 0.13139197 -0.07023957 -0.02307779
000010 49 69 99 bd 0d 21 2f 3e fa 30 18 bd 66 36 c1 3d
       -0.07490785 0.17102452 -0.037156083 0.09434204
000020 af 16 9c bd 6f d8 a0 bd 02 1f f2 3c 7c 2f 76 bd
       -0.07621514 -0.078537814 0.029555801 -0.06010388
000030 44 8d be bc 4a 28 53 bd ef db ba 3c d0 43 18 bc
       -0.02326072 -0.051552095 0.02280995 -0.0092935115
000040 a5 40 4e be 72 ff 09 be d6 b7 d0 3c fb 6a 33 3e
       -0.20141847 -0.13476351 0.025478285 0.17521279
000050 ed ae fd 3c 1b 38 ed 3d 59 ef 6e 3d e1 76 87 3c
       0.0309672 0.11582967 0.05833373 0.016536178
000060 bb df 6c 3d 95 a5 95 3d 65 4f 79 be 14 38 f7 bd
       0.057830554 0.07306973 -0.24346693 -0.12071243
000070 bc 22 56 be a6 47 1c be e4 bd ca 3d e3 f1 b7 bd
       -0.20911688 -0.15261707 0.098995 -0.08981683
000080 02 9b 3b 3d 71 d9 83 3c 46 7e 3a 3d fd d2 16 3d
       0.045802124 0.016094895 0.04553058 0.036822308
000090 f2 95 35 bd 8f 41 0f bd 52 7e 92 bd 52 99 71 3d
       -0.044332452 -0.03497463 -0.07153 0.05898411
0000a0 ed a7 6e bd e5 41 94 3d 5b 82 45 3c 0a b0 29 bd
       -0.058265615 0.07239131 0.012055005 -0.04142765
0000b0 9e a7 b4 3d 5f a0 47 bd cd 8a e1 bd 8a 65 3f 3e
       0.08821033 -0.048736926 -0.11012802 0.18691078
0000c0 f1 8f 14 bc 2a 2f 5a 3d ac 5b 09 bd 9a 24 e1 3c
       -0.009067521 0.053267635 -0.03353469 0.027483273
0000d0 11 33 d4 3c b0 b0 ab bd d3 97 21 3e 82 a4 52 3d
       0.025903257 -0.0838331 0.15780573 0.051426418
0000e0 67 56 87 bd 12 60 26 3d ab 0e ff bd 43 b7 d6 bc
       -0.06608277 0.040618964 -0.124539696 -0.026210433
0000f0 06 f7 97 3c cf f9 f5 3d 4a a8 bb 3b 28 3f d1 3c
       0.018550407 0.12010538 0.0057268487 0.02554281
000100 30 dd ea 3c aa 9c e1 bd d2 df 1f 3d 17 18 15 be
       0.028669924 -0.110162094 0.03903181 -0.14559971
000110 4d 11 09 3e 99 ed 71 3d f6 32 b4 bd 79 37 94 3d
       0.13385506 0.05906448 -0.087987825 0.07237143
000120 94 99 f5 3d 76 58 c1 3d ea 47 d4 3d d3 95 d1 3b
       0.11992183 0.09440701 0.10365279 0.0063960343
000130 c9 71 7f 3e ff 4f db 3c 45 1f 57 bd a9 e9 3b bd
       0.2494575 0.026771544 -0.052520055 -0.045877133
000140 c5 6f 35 3e 25 17 88 bc 06 2a b7 bd de 8a 07 3d
       0.17718418 -0.016612599 -0.08943562 0.03309142
000150 ad 6b 84 3d 35 d3 4e bd f0 bf 83 bd 5d 58 0d be
       0.0646585 -0.05049439 -0.064330935 -0.13803239
000160 a1 53 c3 bd cd f5 e0 bd af 1c 4f bd ad c4 29 3c
       -0.09537435 -0.10984383 -0.050564464 0.010361833
000170 22 6f 28 bc 27 61 ea bd bc 24 38 bd 4b 87 85 bc
       -0.010280402 -0.114443116 -0.044956908 -0.016299864
000180 c8 5d 88 bd a5 da 61 3e 04 86 2c 3c f3 b4 61 3d
       -0.06658512 0.22056063 0.010529999 0.055104207
000190 b8 17 dd bd 32 3d 0e 3d 5c 88 17 be 9e 70 4b 3d
       -0.107955396 0.03472633 -0.1479811 0.049667947
0001a0 d3 5a 4f 3e 3c d1 66 bc 42 00 51 3e 77 95 8b bd
       0.2024949 -0.014087971 0.20410255 -0.068156175
0001b0 47 a8 cd 3d be 0e a9 39 01 ea 25 3d dc 0a bb 3d
       0.10041862 0.00032245176 0.040506367 0.09132931
0001c0 8a 81 6d 3b cd 39 19 bd c6 86 f6 bd c2 f1 d0 bd
       0.0036240541 -0.03740864 -0.12037425 -0.10202362
0001d0 3f ae bc 3c d3 f8 da bd 28 a4 6f 3d f7 84 04 3e
       0.023032306 -0.10691991 0.05850616 0.12941347
0001e0 c8 30 4d bd c7 02 37 bd 5d 02 ad 3c 21 6a 8b 3d
       -0.05009535 -0.044680383 0.021119291 0.06807352
0001f0 12 8b 39 3d c6 77 fd 3c 79 f8 20 bd 47 2d 62 bd
       0.045298643 0.030940901 -0.039299462 -0.05521896
000200 17 98 fe 3d ae 6a d4 bd 5d 26 2d bd 58 c4 1f bc
       0.124313526 -0.1037191 -0.042272914 -0.009751402
000210 e2 b0 0a 3e da 48 2e 3c 14 10 27 3e a7 c9 db 3d
       0.13544038 0.010637486 0.16314727 0.107318215
000220 93 ef 58 3b 59 16 9a bd 1d d9 da bc af a8 e6 bc
       0.0033101782 -0.07523794 -0.026714856 -0.028156606
000230 c4 7f ab 3d 3f 65 a2 bc 25 ca 3b 3c 9d ab 6f bd
       0.08373979 -0.019823669 0.011461769 -0.058513273
000240 46 2c e2 bc d5 6e 0d 3e ef 29 63 3d 45 05 10 3e
       -0.027609002 0.1381181 0.055459913 0.1406451
000250 f9 e7 4c bd e4 9c 8b 3c 7f 9d 15 bd cd 14 ea ba
       -0.050025914 0.017042585 -0.036527153 -0.0017858982
000260 11 fe df 3b fa 0e fc 3d 7c b5 eb 3d 99 51 2f 3d
       0.006835707 0.12307544 0.11509225 0.042802427
000270 f2 e4 d6 bd 57 91 b3 3d f4 fd 32 be 9f 52 47 bd
       -0.104928866 0.08767956 -0.17479688 -0.048662778
000280 5b 72 e1 3c b3 8b b9 3d a3 45 cf bc ba 7d 43 3d
       0.02752035 0.09059849 -0.02530176 0.047727324
000290 7b 8b 0b 3d 8e a8 b0 bc f5 b9 ec 3d f4 8d b3 bb
       0.034068566 -0.021564748 0.11558906 -0.0054795686
0002a0 47 f3 26 3d 1b 39 24 be e2 32 16 bc 00 6c 8d 3c
       0.04075935 -0.16037409 -0.009167405 0.017263412
0002b0 fd fa d4 bd 37 5c 78 3c b2 72 96 3d 67 d0 c5 3c
       -0.10399435 0.0151587045 0.07346095 0.024147226
0002c0 5b e4 a5 bd 26 f3 3f 3c 50 f2 c1 bd fe e3 0c be
       -0.08100196 0.011715686 -0.094700456 -0.13758847
0002d0 a3 f6 01 be d0 f1 3d be 7b a3 92 3d a8 f6 bc bd
       -0.1269174 -0.18549275 0.07160088 -0.092267334
0002e0 2a 32 57 bd 7a 91 e4 3c 09 49 2a be 22 76 3d bd
       -0.052538075 0.0279014 -0.16629423 -0.04625524
0002f0 af 8e 3a bd d0 2b 7a bd 22 c9 1d 3e a2 80 d9 3c
       -0.04554623 -0.06107694 0.15408757 0.026550595
000300 0a 23 ea bd e7 fb 0d 3d 13 6a dd 3d 85 94 0f 3d
       -0.114324644 0.03466406 0.10811248 0.03505375
000310 71 90 c6 3d 6c 98 05 be a7 ed b2 bd b5 33 34 bd
       0.09695519 -0.13046426 -0.08736735 -0.043994624
000320 c7 3c 41 3d ac 04 f3 3c 1a b7 fe 3d 66 10 a1 3d
       0.047177102 0.029665314 0.124372676 0.07864456
000330 45 5b 0c bd 5e d0 24 3e a4 44 00 be 3a 28 ec bd
       -0.03426673 0.16095111 -0.12526184 -0.1153111
000340 da af d5 bc 6f 95 81 bd 54 35 66 3e 6c 71 db 3d
       -0.02608483 -0.0632733 0.2248128 0.10714993
000350 3e 38 08 be 2e 8a fd bd 11 d8 84 3c 69 c2 81 be
       -0.13302705 -0.12379871 0.01621631 -0.25343636
000360 98 a0 18 be d9 4c 21 be 0c 21 ac 3c 35 6a ec 3d
       -0.14905012 -0.15751971 0.021011852 0.11543695
000370 c3 78 95 3d 23 b9 1c 3c 9a 38 81 be bf 14 2c 3e
       0.07298424 0.009565624 -0.25238496 0.16804789
000380 b3 32 c8 3c 28 e4 fd 3c 8f 3c 41 bd 17 15 93 3c
       0.024438238 0.030992582 -0.047176894 0.017954392
000390 38 47 52 bd 69 04 34 be 45 dc e2 bd a0 90 08 3d
       -0.05133745 -0.17579807 -0.11077169 0.03334105
0003a0 bf 2f ee 3d 69 df 2f 3e a8 f5 60 be 2c ba 9f bd
       0.116302006 0.17175068 -0.2196871 -0.07799181
0003b0 a2 ae 29 3e 87 92 d5 3d 7c c4 63 3e ae c2 f9 3c
       0.16570523 0.104283385 0.22242922 0.030488338
0003c0 f8 2a 27 bc bb 2d 22 be 45 1a 3a bd 04 b6 9f bd
       -0.010203116 -0.15837757 -0.04543521 -0.077983886
0003d0 4c 88 a6 bd 27 f0 67 3d ee 56 88 3d de 0d 72 bd
       -0.08131465 0.05662551 0.066572055 -0.059095256
0003e0 e6 fd c2 3d e9 f6 2a 3e ae dd 50 3e 1c 13 e6 bd
       0.095210835 0.16695751 0.20397064 -0.112341136
0003f0 ea cb 25 3d 03 2a 90 3c 65 92 bc bd ba bc 1d 3d
       0.04047767 0.017598158 -0.0920761 0.03851006

l2.bias f4 [100]
000000 12 60 fb 3c c5 1e 2f be f1 1c fa 3d 88 3d 7a 3c
       0.030685458 -0.17101581 0.122125514 0.015273459
000010 cc e6 89 bd 5d 0f fa 3d 80 82 ce 3c 1f 81 22 be
       -0.06733474 0.122099616 0.025208712 -0.15869568
000020 5f a2 16 be ac 94 00 bd d3 e0 15 3d 49 14 3b 3e
       -0.14710377 -0.031391785 0.036591362 0.18269457
000030 ff e1 1d 3d 51 77 32 3d a5 c8 d5 3d 96 ce f5 3d
       0.038545605 0.04357082 0.104386605 0.12002294
000040 1a 17 ae bb ed 84 a6 3c 99 60 90 3e f1 ff a3 3c
       -0.0053128125 0.020327056 0.28198698 0.020019503
000050 30 b4 0b 3e c9 04 80 bd 3f 9b 5e 3d 04 92 86 3d
       0.13642955 -0.06250913 0.054347273 0.06570819
000060 54 80 af bd bb e1 10 3d 5c ac 1a bc 09 3c 0d be
       -0.085693985 0.035371523 -0.009440508 -0.13792433
000070 37 22 4f 3d 8a bb 53 bd 88 8e 6d bc f0 22 05 bd
       0.05056974 -0.051692523 -0.014499314 -0.032504022
000080 a6 3c 94 3c fd f2 12 3c a4 3d 18 be 69 bb 28 3d
       0.018095326 0.008969066 -0.14867264 0.041194353
000090 dd 3d 16 3e b7 62 4f bc d5 0b 19 3d 9b 68 83 bd
       0.14672036 -0.012657813 0.0373648 -0.06416436
0000a0 86 fd 71 bc fa 82 8d bd 60 4b f7 bc 23 96 ab 3c
       -0.014769917 -0.069097474 -0.030187309 0.020945614
0000b0 1d f1 4a bd 03 9b 12 bd a0 35 8b bc f1 6e b9 bd
       -0.04954635 -0.035792362 -0.016993344 -0.090543635
0000c0 f3 8a 2d 3b 17 98 18 3d 5e 7a ab 3c b9 2c 48 bd
       0.0026480525 0.03725442 0.020932373 -0.048870776
0000d0 2e 37 bc 3d 6c 47 71 3d 7d 6e 0f 3c e3 f1 cd bb
       0.09190212 0.058906004 0.00875437 -0.0062849387
0000e0 63 0a bc bd 76 d0 8b 3d e2 93 fd bc d6 93 e0 3d
       -0.091816686 0.0682687 -0.030954305 0.109656975
0000f0 d4 94 1c be e7 b9 63 be 5d 99 dd 3d 38 a6 1e 3e
       -0.15291148 -0.22238885 0.10820267 0.15493095
000100 94 5b ff bc 73 45 ce bc 5d c5 ba bc b4 b0 7f 3d
       -0.031171598 -0.0251796 -0.022799188 0.062424377
000110 ae 5c 7d 3d aa cb 3e bd e5 c2 2e be 81 fd 5e 3c
       0.061855964 -0.046580948 -0.17066534 0.013610245
000120 3b 5e 95 3d b0 01 a3 bc 82 4e 25 3d bd 79 3b 3d
       0.07293364 -0.019898266 0.040358074 0.045770396
000130 81 51 61 be 99 c3 0e 3e bc 81 aa 3c c5 f3 6c 3c
       -0.22003748 0.13941802 0.020813815 0.014462416
000140 24 58 c7 3c b9 55 72 bc 28 3f de 3b 1b ea 1e 3e
       0.02433402 -0.014790946 0.006782431 0.15518992
000150 a4 1e eb bc 19 6b 7a 3c 57 fb 54 bd a9 c9 2f 3c
       -0.028701134 0.015284323 -0.05199751 0.010729232
000160 fd 1b ab 3c 37 d3 e4 3c 98 ed 9a be fb da c6 3d
       0.02088737 0.027932746 -0.30259395 0.09709736
000170 6f fc 3f bc 7b 0f 35 bd e2 b9 e4 bc 59 5e 8a bc
       -0.0117179 -0.044204216 -0.027920667 -0.016890692
000180 4b 26 ee bd b7 5d 6d bd a4 5c 3f be 2b 40 7c 3d
       -0.116283976 -0.0579507 -0.18687683 0.061584633

l3.weight f4 [18, 100]
000000 84 27 b9 3d a8 54 64 bd 1d ff de bc 5d 53 13 3e
       0.0904074 -0.055744797 -0.027221257 0.1438727
000010 81 bf 42 be 55 66 b6 3b 01 53 0c be 4a 70 50 3d
       -0.19018365 0.005566398 -0.13703538 0.050888337
000020 7e 4a 85 3c 3e 6d ae bd 74 91 3a 3d a2 b2 f6 3d
       0.016270872 -0.0851693 0.04554887 0.1204579
000030 f8 95 8d 3d 29 3e 45 3d ef 9f 07 be 1b 8f 94 3d
       0.0691337 0.048154984 -0.13244604 0.07253858
000040 b4 cc a9 3d 34 00 bd bd aa 77 cc bd 0e 08 c1 3d
       0.08290997 -0.09228554 -0.099837616 0.094253644
000050 67 5d 8a bc 21 94 3c bd 8c 0a 1d 3e d8 10 c9 bc
       -0.01689024 -0.046039704 0.15336055 -0.024544165
000060 f1 ad 83 be 29 e3 f3 bd e8 4b f9 bc 9b 6c 7c be
       -0.25718644 -0.11908562 -0.030431703 -0.24650805
000070 30 3e ff 3d ca a9 9d 3d 82 df b6 bc ee 9a be bb
       0.12463033 0.076984 -0.022323374 -0.005816809
000080 06 0a 8a 3e 23 1d 81 be 86 a9 c6 bd 96 eb 1b be
       0.26960772 -0.25217542 -0.09700303 -0.15226588
000090 ea c2 ca 3c 55 ab b0 bb 22 41 3d 3e 8c 15 02 bd
       0.024751145 -0.005391518 0.18481877 -0.03175883
0000a0 74 bc 4b 3a 04 5a 25 3e ce b2 bd ba f4 4b ff 3d
       0.0007771917 0.1614762 -0.0014472844 0.12465659
0000b0 51 01 95 bd 36 32 1b 3b 17 2d 46 3e a1 3b 10 3d
       -0.07275642 0.002368105 0.19353138 0.035213117
0000c0 ea 3a 22 3e 7b 22 45 be 70 27 34 3d 6d 17 60 be
       0.15842786 -0.19251435 0.043982923 -0.21883936
0000d0 16 34 2b be 6d ca fb bd 25 72 9c bd 99 e3 29 be
       -0.16719088 -0.12294469 -0.07638959 -0.16590728
0000e0 8a e0 ba 3c 95 7b c4 bd 6c 47 07 be 8e 9e 8c bd
       0.022812147 -0.09593884 -0.13210839 -0.068661794
0000f0 d2 6a 6e 3e 40 49 38 3e 85 e2 1c 3d 3d 2b bb bb
       0.23282936 0.17996693 0.038301963 -0.0057119415
000100 99 65 b5 3d 40 a7 50 be b1 e9 6c 3e ee 06 96 3d
       0.08857269 -0.20376301 0.23136021 0.073255405
000110 61 42 ea bd 0c 13 0c 3e 9b b3 66 be d5 84 6b 3d
       -0.11438442 0.13679141 -0.22529452 0.057499725
000120 d4 48 7e 3d 5e dc dc 3d a7 cc 07 3d e8 cb 03 be
       0.062081173 0.10784219 0.033154156 -0.12870753
000130 ec 0c 3e 3e 71 85 0b 3c 0e cd 8f be f5 2b b9 bc
       0.18559617 0.008515702 -0.28086132 -0.022603968
000140 a4 ca 82 3e 54 a1 26 be 4c 57 9b 3d b5 a3 df bb
       0.25545228 -0.1627248 0.0758501 -0.0068249353
000150 7e 90 a0 bd 19 db bf 3d 89 76 6f be 1b e3 0c be
       -0.0784006 0.093679614 -0.23385061 -0.13758509
000160 d2 9f 1a be 95 e8 60 be 93 e2 6e 3e ba e5 95 3d
       -0.15100029 -0.21963723 0.23328619 0.073192075
000170 4b 9d 08 3e b8 88 d5 3d f9 c9 88 3d 88 fa a1 bd
       0.13341253 0.10426468 0.06679148 -0.07909113
000180 19 dd 1f 3d ee f3 cc 3c de 4a 33 3c b6 7c 6b be
       0.039029215 0.025018658 0.010943143 -0.22996792
000190 90 b0 68 3d a4 22 24 be 0d 26 9f 3d 4b a3 98 3d
       0.056809008 -0.1602884 0.077709295 0.07453021
0001a0 77 1c aa 3d ea 4c 07 3c d5 b6 f3 3d 32 25 7c be
       0.083062105 0.008258084 0.11900107 -0.24623564
0001b0 b9 22 5b be 0b 45 7b 3d 0c fb 8f bb bb b3 95 3d
       -0.21399964 0.06134514 -0.004393941 0.073096715
0001c0 5f 5b bf 3d 03 81 ea 3d c7 1e b9 3e d7 73 a9 bb
       0.093435995 0.11450388 0.36156294 -0.00517128
0001d0 d0 4f 93 bd a2 c7 25 bd 15 d0 1d 3e 0e cc e6 bd
       -0.071929574 -0.040473588 0.15411408 -0.11269389
0001e0 a2 fd ef 3d ea 04 64 3d 88 60 1a 3e d7 62 bc 3b
       0.117182985 0.05566875 0.15075886 0.0057490873
0001f0 6d e7 6e be 9c a5 e6 3d 6e ce 06 be 2e 7c 26 3d
       -0.2333047 0.11262056 -0.13164684 0.04064577
000200 d0 3f 21 be fb ac 1e bd 49 21 70 3e fa 8d 65 bd
       -0.15746999 -0.038739186 0.23450197 -0.056043603
000210 dd 8c 02 3e ad 97 a2 3d 83 fd 06 3d 4b a1 d1 3d
       0.12749048 0.07939086 0.03295661 0.10235842
000220 dd a4 49 3a 85 8a 7f 3c a5 2b 12 bd b8 83 d7 3d
       0.0007692108 0.0155969905 -0.035686154 0.1052317
000230 20 90 9b bd 38 75 2b be 7e 89 bd bd 61 83 a9 3e
       -0.07595849 -0.16743934 -0.0925474 0.33108047
000240 d3 f5 42 3d ef 38 c9 3c 5b aa 01 bd ec 30 18 3d
       0.047597717 0.02456328 -0.031656604 0.03715603
000250 ce 02 63 3d 48 f3 2d be 8f 66 cf 3d df 5d db bd
       0.055422597 -0.16987336 0.101269834 -0.10711264
000260 9c 8e aa 3e 50 72 aa 3d fc 98 b0 3e ac 47 35 3b
       0.33311927 0.08322585 0.34491718 0.0027661128
000270 5b fe ef bd 2f 79 1b bd cf f1 11 3c 6f f8 3f 3e
       -0.11718436 -0.037957367 0.008907749 0.18747114
000280 08 0e c2 bd d3 d5 99 3b 5c 58 54 3e 5a c9 3a be
       -0.094753325 0.0046946793 0.20736831 -0.18240872
000290 45 90 e9 3c 6b a9 80 3d ea 2c 1c bd 9d 32 5c be
       0.028511176 0.06282314 -0.03812877 -0.21503682
0002a0 80 de 98 3e f5 cf 93 3c ca 17 13 be 58 59 c7 3d
       0.29857254 0.018043498 -0.14364544 0.09733838
0002b0 c2 2b 48 3e 8c d4 77 bc 3f 1d 10 3e 7d 4f b2 3d
       0.19547942 -0.015126359 0.14073656 0.087065674
0002c0 8b e7 8a be de db e6 bd b0 a6 35 3c e0 43 19 3e
       -0.27129778 -0.11272405 0.011087105 0.14967299
0002d0 df 73 ca 3c 52 a9 38 3e 3d cf 29 be 6e 13 5a 3e
       0.024713455 0.1803334 -0.16582961 0.21296474
0002e0 e0 49 6f 3d 5b 52 aa 3d 6d 6f 1a be 22 44 f7 3c
       0.058420062 0.08316489 -0.15081568 0.030183855
0002f0 55 55 e0 3d e6 0b 5a bd 6b 4a 06 be b2 9a 09 3d
       0.10953776 -0.053234003 -0.13114326 0.033594795
000300 cc 6f 3d bd 89 50 80 3d ee 8a c5 bd e3 d4 57 be
       -0.046249196 0.06265361 -0.09645639 -0.21077304
000310 24 1b fd bc 66 97 40 be 7d 69 09 be 1e 69 37 3e
       -0.03089673 -0.18807754 -0.13419147 0.17911193
000320 96 e0 06 be 1d 7d b1 3d 76 a3 10 3e 72 3d 5e bd
       -0.1317161 0.086664416 0.14124855 -0.054257818
000330 b2 5e c1 bd c7 e9 44 3e 34 9e 35 bd e6 1d 82 bc
       -0.0944189 0.19229804 -0.044340327 -0.015883397
000340 c6 29 5f 3e bc a1 2d bd 07 95 73 bd 76 95 56 bb
       0.21793279 -0.04239057 -0.059468295 -0.0032742894
000350 6f f0 18 3e 90 bb a4 bd ef 39 25 bd 68 72 85 bd
       0.14935468 -0.08043587 -0.040338453 -0.06515962
000360 ff bc 37 3e 78 7d ce 3d 0e ed 3d 3e eb 3d 91 3c
       0.1794319 0.10082525 0.1854746 0.01772972
000370 37 de 68 bd 8a 77 88 bc 1a 77 34 3e 04 49 16 bd
       -0.056852546 -0.016658563 0.17623559 -0.036690727
000380 dd d4 88 bd 28 b2 81 3d 2b 0c c0 3c f6 28 4b 3d
       -0.066812254 0.06332809 0.023443302 0.04959961
000390 b6 28 10 bc 92 18 83 3b bf 96 9c bd 22 d5 a8 bd
       -0.008798769 0.0040007317 -0.0764594 -0.08243777
0003a0 a9 4b 08 be 88 70 54 be 34 14 d7 3d ae f1 0f bc
       -0.13310112 -0.20746052 0.105019 -0.008785648
0003b0 93 f7 a2 bd 1a 2b 8d ba 73 88 4e bc 93 57 06 be
       -0.07957377 -0.0010770292 -0.012605774 -0.13119344
0003c0 98 e8 d1 3d 19 91 26 3e f2 1e 7d bc 50 58 27 be
       0.10249442 0.16266288 -0.0154492725 -0.16342282
0003d0 4b c3 32 bd 8f a2 a2 bd 25 f7 30 be cb 38 ca bd
       -0.043643277 -0.07941162 -0.17281778 -0.09874114
0003e0 ad 0d 98 bd 17 d4 1b 3d 75 b7 10 be 8d ed a5 3d
       -0.074244834 0.03804406 -0.14132483 0.0810195
0003f0 9e 7d 7c bd c3 96 44 be 2f e8 38 be 86 bd 68 3d
       -0.061643235 -0.19198136 -0.18057321 0.05682137

l3.bias f4 [18]
000000 8b 8e 7d 3e 7a e3 f2 be bf 4c 17 bd 83 e4 1c 3f
       0.24761407 -0.47439176 -0.036938425 0.6128618
000010 5d 58 f6 bd 02 ed a7 be a6 40 28 3e d6 52 c0 be
       -0.12028573 -0.3279801 0.16430911 -0.375632
000020 59 f7 58 3e d6 fe 92 3e 8a 49 86 3e a8 4c ca 3c
       0.21188106 0.2871005 0.2622798 0.024694756
000030 f4 1c 9b 3e ef 4e d3 be 6a 93 9e 3e 0d d6 60 3e
       0.30295527 -0.4127116 0.30971843 0.21956654
000040 94 83 60 bd 15 81 d8 bb
       -0.054812983 -0.0066071847
