data/result/g_430.pt (torch, 87406 bytes, 7 tensors)

G_attr_matrix.weight f4 [36, 5]
0.04898131 -0.046998173 -0.30330488 0.06313461 0.008500921 -0.081630744 0.055220526 0.13864599
0.062572934 -0.02105685 -0.05651889 0.012086507 0.014977275 0.057180762 0.0007219438 -0.043874025
-0.09140059 -0.08062854 -0.05343766 -0.00486903 -0.0051360917 -0.12415539 -0.00062844687 -0.0133583695
0.031634137 0.085934654 0.008531099 -0.01485705 0.21357986 -0.1080127 -0.030255977 -0.0140313385
-0.02544119 0.041304845 0.17456171 0.21353036 0.12584224 0.22091798 0.17530937 0.05739181
0.0058753346 0.01596989 -0.0009703331 -0.055809706 -0.12998341 -0.00719665 -0.015047519 -0.005387828
0.062248208 0.20685478 0.25447997 0.015682055 0.024347348 -0.07770595 -0.015262759 4.4457905e-05
-0.17568173 -0.226353 0.05869747 0.17417522 0.0032220099 0.10109789 -0.0012287411 0.0018372993
0.055206858 -0.29117912 0.010022007 0.021878589 -0.09117323 -0.1026656 -0.028243644 -0.018362887
0.07374478 0.011050683 0.036007628 -0.2160765 0.14409849 -0.20151655 0.13475189 -0.14376172
0.20032552 -0.01985517 -0.077939294 0.15903345 -0.11248217 0.0345718 0.30069414 0.45538142
0.13142855 0.066309616 -0.0007633719 -0.26350725 -0.006883072 0.07978823 -0.09685397 -0.042974126
0.1280104 -0.23858504 0.13166095 0.044896927 -0.21710056 -0.008540338 0.019258568 -0.02075365
-0.013450842 -0.20064099 0.08753964 -0.11032048 0.1725791 0.09088272 -0.003981501 -0.012120825
-0.015907513 0.010368217 -0.001539784 0.0868648 0.24770671 0.1765797 -0.19677284 -0.03201119
0.46464917 0.01573555 5.6065714e-05 -0.21896748 -0.006826443 0.24674435 -0.20671712 -0.044933468
-0.18026061 0.14359671 0.013480838 0.052327286 -0.023929588 0.08235876 -0.03555704 -0.22694753
-0.34132993 0.17970642 0.21302585 0.25827134 -0.03268971 0.0018732202 0.011724414 0.0019937113
-0.037423514 0.066928685 -0.016527751 0.019466767 0.010831978 0.12868884 -0.008084973 0.0052643255
0.02083269 -0.044770602 -0.062764436 0.03353855 -0.0766854 -0.044939443 0.18416202 0.2776692
-0.00500922 -0.0072334977 0.045935877 -0.0021086754 -0.013866895 0.13433579 0.16406015 -0.37745818
0.03354684 0.16005118 0.021348704 -0.006663109 0.11552175 0.2790959 0.13258769 0.042999547
0.27859977 -0.14771615 -0.19056097 0.15450637
00000000: a0a0 483d 2881 40bd c74a 9bbe b84c 813d
00000010: 7247 0b3c 052e a7bd eb2e 623d 37f9 0d3e
00000020: 3d26 803d 6a7f acbc 5a80 67bd 7c06 463c
00000030: 3f63 753c 6036 6a3d d440 3d3a 40b5 33bd
00000040: 3c30 bbbd 9320 a5bd 73e1 5abd 628c 9fbb
00000050: a94c a8bb 2e45 febd 5bbe 24ba 10dd 5abc
00000060: cc92 013d 82fe af3d 06c6 0b3c fc6a 73bc
00000070: aeb4 5a3e c335 ddbd 62db f7bc b3e3 65bc
00000080: 0b6a d0bc 452f 293d 4ec0 323e b4a7 5a3e
00000090: cadc 003e 5338 623e 4d84 333e ad13 6b3d
000000a0: e185 c03b 49d3 823c f45d 7eba b898 64bd
000000b0: 5f1a 05be e0d1 ebbb de89 76bc 618c b0bb
000000c0: faf7 7e3d bdd1 533e 334b 823e a777 803c
000000d0: 1774 c73c 4c24 9fbd a710 7abc 5078 3a38
000000e0: e9e5 33be 15c9 67be c26c 703d fd5a 323e
000000f0: 5b28 533b 690c cf3d b60d a1ba 89d1 f03a
00000100: 9620 623d 6e15 95be 5833 243c ba3a b33c
00000110: 08b9 babd 5842 d2bd 375f e7bc c46d 96bc
00000120: 8107 973d ed0d 353c bc7c 133d 2843 5dbe
00000130: 8e8e 133e 5b5a 4ebe 66fc 093e 4636 13be
00000140: 2222 4d3e 4fa7 a2bc a39e 9fbd aad9 223e
00000150: 0d5d e6bd 299b 0d3d 95f4 993e c127 e93e
00000160: 3595 063e 56cd 873d 051d 48ba 6cea 86be
00000170: 658b e1bb 0368 a33d 605b c6bd a305 30bd
00000180: 2915 033e a34f 74be 21d2 063e d7e5 373d
00000190: 9c4f 5ebe c6ec 0bbc 25c4 9d3c 8f03 aabc
000001a0: ec60 5cbc d574 4dbe fc47 b33d b4ef e1bd
000001b0: 93b8 303e b820 ba3d 4077 82bb 6d96 46bc
000001c0: 7950 82bc 74df 293c 94d2 c9ba 2ce6 b13d
000001d0: d4a6 7d3e 4fd1 343e d27e 49be 2a1e 03bd
000001e0: 7fe6 ed3e d7e7 803c 1a28 6b38 0339 60be
000001f0: 5bb0 dfbb 8daa 7c3e a7ad 53be 280c 38bd
00000200: 3d96 38be 040b 133e bcde 5c3c 2355 563d
00000210: fc07 c4bc b6ab a83d 42a4 11bd ef64 68be
00000220: ccc2 aebe f604 383e 7323 5a3e 243c 843e
00000230: a5e5 05bd d786 f53a c217 403c eda8 023b
00000240: 6649 19bd e811 893d 3565 87bc c578 9f3c
00000250: 9c78 313c 02c7 033e d676 04bc 5d80 ac3b
00000260: 51a9 aa3c 6161 37bd a48a 80bd b85f 093d
00000270: 3c0d 9dbd 6c12 38bd f894 3c3e a82a 8e3e
00000280: 6224 a4bb fa06 edbb 4227 3c3d b431 0abb
00000290: f931 63bc 528f 093e 62ff 273e 3342 c1be
000002a0: 6968 093d 75e4 233e 7ae3 ae3c 3656 dabb
000002b0: ab96 ec3d a8e5 8e3e 11c5 073e 4b20 303d
000002c0: a1a4 8e3e e742 17be 6a22 43be eb36 1e3e

l1.weight f4 [100, 90]
0.19020428 -0.014097829 0.08434614 0.10499456 0.09871613 0.0520776 0.07303962 0.020299163
-0.25565052 -0.12960514 0.07487592 -0.20026237 -0.07255964 0.009157042 -0.028904786 0.09619988
0.033350483 -0.056464948 -0.031810742 0.097461514 0.14405371 -0.04714733 0.12422444 -0.07463444
0.027746415 0.061273407 0.1899256 0.06167326 0.15968119 0.0032477898 0.09338644 -0.13994026
-0.21884848 -0.1404455 -0.08881937 0.04462735 0.1499626 -0.01319366 -0.100965045 0.18517035
-0.017041784 -0.064023465 0.119747765 0.035013136 0.00456587 0.047943324 -0.12122715 -0.027649581
0.04997442 -0.06792218 0.11714638 -0.39077032 0.18711632 -0.05335132 -0.13395344 0.030834248
-0.022909475 0.0031929645 -0.015863283 0.1812121 -0.028585183 -0.14067128 0.00800803 0.035267208
-0.096417144 -0.09195707 0.035744555 -0.18300684 -0.008485237 -0.18609856 -0.169449 0.076778166
0.082406625 0.20965755 -0.16707145 -0.037155733 -0.21265161 -0.022522755 -0.08158304 0.052831277
0.01640079 -0.05611788 0.03824281 0.12841977 -0.22480792 0.074455224 0.0013962496 -0.07270734
0.04655968 0.17171432 0.26298064 -0.08969299 -0.06552859 -0.035382807 -0.14281783 0.043260705
0.19920689 -0.043120652 0.060082424 0.09825647 0.061196804 -0.029459566 -0.107736155 -0.03712283
-0.111034274 -0.0730618 0.10320397 -0.16664356 0.06857929 0.05496299 0.011656748 0.022964058
0.010722839 -0.038039796 -0.0018024261 0.045138124 0.038175076 -0.05413961 -0.024087233 0.05926982
0.056135453 -0.032848693 -0.00072883215 0.059338555 -0.17010716 -0.005902906 -0.06158872 0.08811486
0.02987934 0.071597315 -0.03708967 0.111049935 -0.11858094 0.012399667 -0.20371069 -0.07557188
0.06713579 -0.11065593 0.0038634143 -0.020922503 0.087214336 -0.14426585 -0.23748231 -0.1366703
-0.08281603 0.11941023 0.094799 0.0851251 -0.0007088473 -0.09126194 -0.026908979 -0.06511292
-0.08999556 -0.030814191 0.019513061 -0.08696665 -0.014930774 -0.031648792 0.024851162 0.14124231
-0.18710855 0.16621792 -0.15469626 -0.03437924 0.014756749 -0.07331112 0.028331852 -0.10580389
0.17062391 0.07671158 0.02731187 -0.06621912 -0.047832374 0.07745936 -0.07764815 -0.11322682
-0.2788899 0.122415595 -0.0988784 -0.028051157 -0.00010052945 0.14355727 0.028675416 -0.21549243
-0.041833706 -0.16192478 -0.07268146 0.08897231 0.030363519 -0.07463741 0.062487725 -0.17630365
-0.11325491 0.09765554 -0.038701225 -0.07742266 -0.0034839113 0.12481876 0.038514618 0.030437516
-0.09735181 0.05666719 -0.19523294 0.07668272 0.2790956 -0.0025548525 0.023216305 -0.03642618
-0.08373646 0.120159835 0.012915557 -0.0034911616 0.11955033 0.061126128 0.001991801 0.15050061
0.04635669 -0.07607584 -0.034196135 -0.017744955 -0.121981405 -0.13933106 0.054293867 -0.03461866
0.24240386 -0.07051104 0.14956413 0.081584744 0.054688007 0.05868926 0.18788981 -0.05927272
-0.047240525 0.059825238 0.02711299 0.09921652 -0.09087148 0.008059755 0.18122832 -0.017404836
0.020907214 -0.13463481 0.08860374 0.07485969 -0.10420051 -0.22530632 -0.09935224 -0.09845363
-0.12821658 0.041770928 0.10663032 0.08268294 -0.13809335 -0.07151263 0.06287433 0.027093519
00000000: e9c4 423e 95fa 66bc abbd ac3d 6307 d73d
00000010: af2b ca3d 524f 553d cc95 953d 6e4a a63c
00000020: a0e4 82be 36b7 04be 8c58 993d 9411 4dbe
00000030: 269a 94bd 6b07 163c bbc9 ecbc 7104 c53d
00000040: 849a 083d ca47 67bd fb4b 02bd e799 c73d
00000050: d182 133e 8f1d 41bd 6269 fe3d f1d9 98bd
00000060: 734c e33c d3f9 7a3d db7b 423e 1a9d 7c3d
00000070: 7783 233e dfd8 543b 6441 bf3d 804c 0fbe
00000080: d119 60be f2d0 0fbe eee6 b5bd 2bcb 363d
00000090: cc8f 193e 392a 58bc c3c6 cebd 4c9d 3d3e
000000a0: 369b 8bbc bc1e 83bd 513e f53d ef69 0f3d
000000b0: 4b9d 953b 3860 443d f145 f8bd 6081 e2bc
000000c0: fab1 4c3d c91a 8bbd 71ea ef3d 0c13 c8be
000000d0: 6c9b 3f3e ea86 5abd 172b 09be 1b98 fc3c
000000e0: a7ac bbbc 0e41 513b b7f3 81bc aa8f 393e
000000f0: 792b eabc 220c 10be 1d34 033c 5974 103d
00000100: 5a76 c5bd fd53 bcbd e268 123d 2566 3bbe
00000110: aa05 0bbc 9f90 3ebe 0a84 2dbe df3d 9d3d
00000120: cec4 a83d 78b0 563e c714 2bbe 9c30 18bd
00000130: 58c1 59be a481 b8bc 0215 a7bd 9c65 583d
00000140: f35a 863c dddb 65bd 7ea4 1c3d 7980 033e
00000150: 0c34 66be fb7b 983d 5d02 b73a 96e7 94bd
00000160: 5db5 3e3d e1d5 2f3e 66a5 863e f5b0 b7bd
00000170: da33 86bd 90ed 10bd d63e 12be 2332 313d
00000180: e4fc 4b3e 489f 30bd fd18 763d b03a c93d
00000190: 80a9 7a3d 3055 f1bc c6a4 dcbd 1c0e 18bd
000001a0: f065 e3bd 6da1 95bd 9a5c d33d 9ca4 2abe
000001b0: 4c73 8c3d df20 613d f2fb 3e3c 1f1f bc3c
000001c0: d9ae 2f3c 9ecf 1bbd 623f ecba c1e2 383d
000001d0: 785d 1c3d 7fc1 5dbd 9752 c5bc e9c4 723d
000001e0: 4aee 653d 5a8c 06bd 190f 3fba fc0c 733d
000001f0: 9230 2ebe 2a6d c1bb 7444 7cbd 9075 b43d
00000200: 85c5 f43c 9da1 923d 56eb 17bd 266e e33d
00000210: 90da f2bd f927 4b3c 8999 50be 6ec5 9abd
00000220: 7d7e 893d 949f e2bd 5631 7d3b ab65 abbc
00000230: 6e9d b23d 6dba 13be 902e 73be 4df3 0bbe
00000240: 739b a9bd 5a8d f43d fa25 c23d 1256 ae3d
00000250: f0d1 39ba 8ae7 babd 3870 dcbc ec59 85bd
00000260: 984f b8bd 0b6e fcbc dbd9 9f3c 921b b2bd
00000270: 35a0 74bc 2aa2 01bd aa94 cb3c d3a1 103e
00000280: 6299 3fbe 0835 2a3e b268 1ebe 3fd1 0cbd
00000290: 4bc6 713c 2424 96bd 3318 e83c b6af d8bd
000002a0: 09b8 2e3e f61a 9d3d 25bd df3c e49d 87bd
000002b0: e1eb 43bd 03a3 9e3d fe05 9fbd 77e3 e7bd
000002c0: a8ca 8ebe 07b5 fa3d c280 cabd 8acb e5bc
000002d0: 56d3 d2b8 ad00 133e b5e8 ea3c 0caa 5cbe
000002e0: d259 2bbd 9ccf 25be 04da 94bd 1d37 b63d
000002f0: eabc f83c 80db 98bd 21f3 7f3d f288 34be
00000300: 31f2 e7bd a1ff c73d 2d85 1ebd c68f 9ebd
00000310: 5552 64bb faa0 ff3d 81c1 1d3d 1958 f93c
00000320: 6360 c7bd db1b 683d 25eb 47be d40b 9d3d
00000330: 9ee5 8e3e 506f 27bb 1f30 be3c 9e33 15bd
00000340: 057e abbd 5c16 f63d c69b 533c f9cb 64bb
00000350: ced6 f43d 645f 7a3d e088 023b d51c 1a3e
00000360: 83e0 3d3d a6cd 9bbd 3f11 0cbd de5d 91bc
00000370: 63d1 f9bd cdac 0ebe 3f63 5e3d 4ccc 0dbd
00000380: b838 783e 1868 90bd 5727 193e e715 a73d
00000390: 8800 603d 2664 703d 3066 403e f4c7 72bd
000003a0: 487f 41bd 4f0b 753d 101c de3c 0832 cb3d
000003b0: d41a babd 100d 043c eb93 393e 9694 8ebc
000003c0: 9b45 ab3c b5dd 09be e175 b53d 0a50 993d
000003d0: 1467 d5bd b3b6 66be 3079 cbbd 0fa2 c9bd
000003e0: 354b 03be fe17 2b3d ff60 da3d ac55 a93d
000003f0: 5868 0dbe 3775 92bd 42c4 803d 3af3 dd3c

l1.bias f4 [100]
-0.028484127 0.020353548 0.15957198 0.06842942 0.13513425 0.005506745 0.20009066 -0.036183693
-0.03739043 -0.057086766 -0.04481181 -0.11123181 -0.026624573 0.0130666625 -0.03849467 0.11449819
0.03752696 0.040575378 -0.08120135 -0.032089617 0.18360314 -0.03498632 -0.033202738 0.12494203
0.023014633 0.15424576 -0.04814118 -0.122928195 0.003760814 -0.33479476 0.053393018 0.10417665
-0.1627407 -0.26039395 -0.20652345 -0.01780961 0.02511957 0.15695058 -0.005374759 -0.052373957
-0.22944614 0.24587938 -0.13773479 0.003921053 -0.049821798 -0.025227288 -0.004356735 -0.03023568
-0.06514994 -0.18271682 -0.007840042 0.16331711 0.103948586 -0.17662473 -0.017121911 -0.04162303
-0.031058365 0.058402717 -0.029770607 -0.062584236 -0.15502726 0.06800959 -0.016932266 0.112374075
0.10837751 -0.12971649 -0.00997577 0.09987588 -0.032617908 0.00968605 0.10063125 -0.080881864
-0.13827099 0.1984856 0.08859204 0.04810953 -0.17853218 -0.058171526 -0.21946098 -0.10170627
0.042398788 -0.13074961 -0.029484453 0.05763317 0.0364255 0.020719953 -0.07277026 0.021705385
-0.14027351 -0.017214669 0.13868627 0.0778761 -0.0250083 0.03462517 0.13216816 -0.044202287
0.004637355 -0.10377484 -0.14642335 0.005096923
00000000: 8b57 e9bc 7cbc a63c d666 233e b924 8c3d
00000010: a260 0a3e ed71 b43b 91e4 4c3e 5a35 14bd
00000020: b526 19bd d0d3 69bd 978c 37bd 81cd e3bd
00000030: c71b dabc 8e15 563c 96ac 1dbd 077e ea3d
00000040: dfb5 193d 5e32 263d e54c a6bd 6770 03bd
00000050: 7602 3c3e d14d 0fbd 98ff 07bd 9be1 ff3d
00000060: 2f89 bc3c 9af2 1d3e b02f 45bd c7c1 fbbd
00000070: fd77 763b 386a abbe a3b2 5a3d 915a d53d
00000080: 80a5 26be 5b52 85be e27a 53be 76e5 91bc
00000090: 8ec7 cd3c a7b7 203e bf1e b0bb 1386 56bd
000000a0: eef3 6abe cec7 7b3e 590a 0dbe 2d7c 803b
000000b0: f111 4cbd 75a9 cebc f1c2 8ebb d1b0 f7bc
000000c0: 556d 85bd 1e1a 3bbe 8573 00bc 9a3c 273e
000000d0: ffe2 d43d 1ddd 34be 4043 8cbc e97c 2abd
000000e0: 1d6e febc b037 6f3d 7de1 f3bc 2a2c 80bd
000000f0: 77bf 1ebe 9d48 8b3d 89b5 8abc 6124 e63d
00000100: 07f5 dd3d 66d4 04be 6971 23bc ba8b cc3d
00000110: 5b9a 05bd 3db2 1e3c c217 ce3d 64a5 a5bd
00000120: e996 0dbe cf3f 4b3e be6f b53d 800e 453d
00000130: 24d1 36be 4445 6ebd 61ba 60be 604b d0bd
00000140: 5aaa 2d3d 3ae3 05be 6189 f1bc c210 6c3d
00000150: e832 153d e4bc a93c 9308 95bd 7ecf b13c
00000160: dca3 0fbe c705 8dbc c603 0e3e 817d 9f3d
00000170: 35de ccbc 1fd3 0d3d 1757 073e 750d 35bd
00000180: f4f4 973b e787 d4bd 01f0 15be 1704 a73b

l2.weight f4 [100, 100]
0.034233727 0.12601748 -0.06087194 -0.023512108 -0.06779918 0.1759366 -0.0339054 0.10174543
-0.07273083 -0.0780143 0.029456213 -0.066198476 -0.012131653 -0.059263803 0.03403664 0.012044147
-0.20003267 -0.13153066 0.019442042 0.17197019 0.02158508 0.119568035 0.06170079 0.010283901
0.056251146 0.076324314 -0.23910645 -0.13391557 -0.21948881 -0.15179199 0.09698188 -0.085864216
0.034620494 0.011652481 0.047167324 0.035486642 -0.04293199 -0.031993527 -0.076557726 0.05231053
-0.069277585 0.082033165 0.020035164 -0.040483553 0.09846762 -0.053315595 -0.11540788 0.18481266
-0.013598824 0.047078904 -0.026741257 0.029275225 0.030826163 -0.08545171 0.1650654 0.053466763
-0.061663426 0.03310166 -0.12992646 -0.042460274 0.007396303 0.122014865 -0.0056899167 0.02734093
0.03333924 -0.11107457 0.046027344 -0.1482403 0.12931581 0.062338963 -0.09877573 0.080226734
0.12027307 0.09119773 0.09905314 0.0074727014 0.25146347 0.017396696 -0.059849236 -0.042011295
0.17223959 -0.010471158 -0.0876531 0.02945215 0.07961905 -0.050783653 -0.0536455 -0.13662249
-0.09683024 -0.115751535 -0.049474325 0.006681538 -0.0118413605 -0.10352191 -0.054706503 -0.010872968
-0.06725945 0.21537524 0.007825197 0.059770517 -0.10724512 0.03052544 -0.14512874 0.04851211
0.2037103 -0.0066250856 0.20243149 -0.06184203 0.10067732 -0.0024469355 0.04132158 0.090445906
0.0014940548 -0.041115362 -0.11460684 -0.095325306 0.023432028 -0.11069749 0.058669154 0.12651433
-0.05648473 -0.045660406 0.023322016 0.058791235 0.04180545 0.032284204 -0.03647563 -0.05537995
0.11927949 -0.10556597 -0.050907616 -0.007037156 0.12460407 0.0070117707 0.15675168 0.10704568
0.0014595485 -0.074931756 -0.02919558 -0.033567604 0.07712775 -0.019069552 0.015511718 -0.054703433
-0.024503425 0.13376066 0.055170167 0.13861383 -0.052680418 0.010653491 -0.028834963 -7.9448575e-05
0.008503758 0.12194155 0.11955893 0.04485166 -0.10455897 0.079355255 -0.17375953 -0.060393114
0.027694656 0.090307675 -0.03041903 0.049218655 0.037779506 -0.021526974 0.11668346 -0.006596424
0.03943742 -0.15046984 -0.019304847 0.023450915 -0.101275876 0.010052206 0.073905684 0.018833265
-0.078321435 0.0051246593 -0.10297176 -0.1387986 -0.13409132 -0.18044852 0.06494271 -0.097043954
-0.045832057 0.032632068 -0.15628913 -0.04789581 -0.04281997 -0.063361384 0.15244266 0.023756202
-0.117024384 0.03634173 0.0983261 0.037661456 0.09228305 -0.13452359 -0.09115359 -0.034764905
0.054304596 0.025726937 0.13141711 0.06593397 -0.034432862 0.17469509 -0.13703758 -0.09289392
-0.03309629 -0.04421197 0.22487925 0.11188123 -0.15313314 -0.13821203 0.025993638 -0.2489503
-0.14213662 -0.15861748 0.030345151 0.10373591 0.060935553 0.011138425 -0.24014081 0.17850009
0.018862115 0.043426994 -0.04031462 0.022003377 -0.04579763 -0.17237175 -0.11871214 0.0123050455
0.095220804 0.16235664 -0.20455468 -0.0677813 0.14925703 0.103204265 0.22011292 0.029745266
-0.026708426 -0.15174188 -0.041909575 -0.07936214 -0.06927798 0.05090943 0.05923103 -0.04686923
0.08390509 0.16726762 0.2114436 -0.12128178 0.046665616 0.021074366 -0.1022094 0.04858908
00000000: aa38 0c3d ba0a 013e db54 79bd 779c c0bc
00000010: 4cda 8abd b928 343e 64e0 0abd e85f d03d
00000020: e7f3 94bd f6c5 9fbd 284e f13c 1193 87bd
00000030: d7c3 46bc 9abe 72bd 016a 0b3d d054 453c
00000040: 5dd5 4cbe f9af 06be eb44 9f3c f418 303e
00000050: 32d3 b03c 16e0 f43d f8b9 7c3d cf7d 283c
00000060: 9a67 663d ec4f 9c3d 52d8 74be 2a21 09be
00000070: adc1 60be 5c6f 1bbe 709e c63d 94d9 afbd
00000080: 38ce 0d3d 0cea 3e3c 8632 413d 715a 113d
00000090: 74d9 2fbd a50b 03bd 4cca 9cbd 9143 563d
000000a0: 68e1 8dbd 0101 a83d c920 a43c 15d2 25bd
000000b0: 64a9 c93d 7461 5abd f75a ecbd 883f 3d3e
000000c0: 9acd 5ebc cfd5 403d 7b10 dbbc 99d2 ef3c
000000d0: 2687 fc3c 4e01 afbd e706 293e f7ff 5a3d
000000e0: ca92 7cbd 9b95 073d 710b 05be d3ea 2dbd
000000f0: b05c f23b eee2 f93d 7b72 babb 16fa df3c
00000100: ba8e 083d 107b e3bd 2b87 3c3d 4ecc 17be
00000110: 5d6b 043e 2457 7f3d ee4a cabd ea4d a43d
00000120: ba51 f63d e0c5 ba3d 5fdc ca3d 90dd f43b
00000130: d2bf 803e 8483 8e3c 7924 75bd 0914 2cbd
00000140: 935f 303e 388f 2bbc 7883 b3bd a345 f13c
00000150: 500f a33d 8502 50bd 62bb 5bbd c4e6 0bbe
00000160: ef4e c6bd 240f edbd 97a5 4abd cef0 da3b
00000170: 4402 42bc 4c03 d4bd ed13 60bd 8824 32bc
00000180: 53bf 89bd 548b 5c3e 4135 003c eed1 743d
00000190: 54a3 dbbd 7d10 fa3c a19c 14be a2b4 463d
000001a0: 6f99 503e 3f17 d9bb 334a 4f3e 124e 7dbd
000001b0: e92f ce3d c45c 20bb d140 293d b43b b93d
000001c0: 29d4 c33a 9568 28bd feb6 eabd ea39 c3bd
000001d0: 86f4 bf3c 5eb5 e2bd 114f 703d f98c 013e
000001e0: 885c 67bd 6806 3bbd d00d bf3c 14cf 703d
000001f0: 313c 2b3d 713c 043d 7867 15bd 16d6 62bd
00000200: ce48 f43d f932 d8bd 8184 50bd f197 e6bb
00000210: 6b30 ff3d ffc2 e53b 8383 203e c43a db3d
00000220: 524e bf3a d275 99bd 922b efbc 2f7e 09bd
00000230: 27f5 9d3d c037 9cbc dc24 7e3c b510 60bd
00000240: 68bb c8bc 8ef8 083e 1dfa 613d c9f0 0d3e
00000250: 6cc7 57bd fb8b 2e3c 4d37 ecbc a19d a6b8
00000260: 5953 0b3c 7ebc f93d 50db f43d 60b6 373d
00000270: 0323 d6bd 0285 a23d 05ee 31be c55e 77bd
00000280: e7df e23c 3bf3 b83d 5431 f9bc 8099 493d
00000290: afbe 1a3d 5659 b0bc bdf7 ee3d d126 d8bb
000002a0: 2289 213d c414 1abe 3325 9ebc 221c c03c
000002b0: ba69 cfbd 02b2 243c dd5b 973d 3848 9a3c
000002c0: fd66 a0bd c2ec a73b dce2 d2bd 3821 0ebe
000002d0: 3c4f 09be 7fc7 38be af00 853d fbbe c6bd
000002e0: 65ba 3bbd 34a9 053d 420a 20be 662e 44bd
000002f0: fe63 2fbd 9dc3 81bd ee19 1c3e 5e9c c23c
00000300: 7baa efbd 11db 143d 325f c93d e642 1a3d
00000310: e5fe bc3d 8dc0 09be bcae babd a565 0ebd
00000320: 7f6e 5e3d 4cc1 d23c 3592 063e 6408 873d
00000330: 7909 0dbd 45e3 323e 9453 0cbe 2b3f bebd
00000340: fa8f 07bd 9c17 35bd bf46 663e fc21 e53d
00000350: efce 1cbe 7487 0dbe 9cf0 d43c d4ec 7ebe
00000360: 438c 11be 9f6c 22be 6596 f83c 7e73 d43d
00000370: 8f97 793d f17d 363c 79e7 75be bac8 363e
00000380: b984 9a3c 81e0 313d f120 25bd 6d40 b43c
00000390: 4c96 3bbd 3882 30be 5a1f f3bd 1a9b 493c
000003a0: 2003 c33d d240 263e c876 51be ecd0 8abd
000003b0: d6d6 183e c25c d33d 4865 613e 58ac f33c
000003c0: a1cb dabc 3962 1bbe 60a9 2bbd 9e88 a2bd
000003d0: 9de1 8dbd 6886 503d 3d9c 723d f3f9 3fbd
000003e0: 6fd6 ab3d 3448 2b3e ac84 583e 9562 f8bd
000003f0: 7224 3f3d 26a4 ac3c 2953 d1bd 5805 473d

l2.bias f4 [100]
0.030240461 -0.17115682 0.11290843 0.01745736 -0.063193284 0.11458216 0.02339893 -0.1574748
-0.14187373 -0.0296634 0.0349883 0.18032289 0.037008256 0.04152368 0.100379534 0.11741598
-0.0012363347 0.01733776 0.28116506 0.0153759625 0.13111359 -0.06119596 0.050002787 0.063048944
-0.087342285 0.0317912 -0.007531899 -0.13721961 0.048865672 -0.047666058 -0.008737882 -0.03208248
0.016891355 0.0034122318 -0.14995137 0.036378197 0.14251398 -0.015614237 0.039223533 -0.058436878
-0.014339257 -0.06856233 -0.03014651 0.017109955 -0.045432486 -0.03678194 -0.01819725 -0.08529017
0.0013561884 0.03575181 0.0181103 -0.043867297 0.09614506 0.056158993 0.009733089 -0.00244338
-0.08392963 0.065782934 -0.030153567 0.108297415 -0.14616455 -0.22347021 0.103713095 0.15394732
-0.033525005 -0.025250845 -0.021890838 0.06389252 0.059453722 -0.04596824 -0.16907705 0.013388834
0.07157938 -0.025558006 0.037673492 0.04181354 -0.21929665 0.1343723 0.021334453 0.013729205
0.029710785 -0.0069158315 0.0060903826 0.15354666 -0.023088504 0.017654222 -0.051381297 0.016444752
0.01769629 0.024433006 -0.30157575 0.09548924 -0.008454935 -0.041920826 -0.022367656 -0.020121796
-0.11381335 -0.054223675 -0.1864166 0.059480477
00000000: d8ba f73c bc43 2fbe 893c e73d bd02 8f3c
00000010: 7b6b 81bd 0daa ea3d 1daf bf3c 1341 21be
00000020: 5947 11be a900 f3bc e44f 0f3d 90a6 383e
00000030: f895 173d bc14 2a3d c993 cd3d ca77 f03d
00000040: 820c a2ba eb07 8e3c def4 8f3e 76eb 7b3c
00000050: a442 063e 9da8 7abd b9cf 4c3d ce1f 813d
00000060: 83e0 b2bd 7d37 023d 26ce f6bb 4c83 0cbe
00000070: 5f27 483d 7c3d 43bd 5529 0fbc eb68 03bd
00000080: bd5f 8a3c c09f 5f3b da8c 19be 4e01 153d
00000090: 2fef 113e dbd2 7fbc dba8 203d 825b 6fbd
000000a0: 34ef 6abc 686a 8cbd d0f5 f6bc 2d2a 8c3c
000000b0: 6a17 3abd a9a8 16bd 6612 95bc 9dac aebd
000000c0: 22c2 b13a 7d70 123d 0d5c 943c 32ae 33bd
000000d0: b4e7 c43d f906 663d 8977 1f3c 1d21 20bb
000000e0: 4ce3 abbd 34b9 863d 9d04 f7bc 09cb dd3d
000000f0: 29ac 15be 60d5 64be 8867 d43d 5ea4 1d3e
00000100: 8451 09bd dcda cebc 6a54 b3bc 15da 823d
00000110: bf85 733d 3149 3cbd 8922 2dbe d75c 5b3c
00000120: 3698 923d 065f d1bc 854f 1a3d ad44 2b3d
00000130: 4d8f 60be e498 093e 97c5 ae3c 76f0 603c
00000140: 0864 f33c 339e e2bb d591 c73b 563b 1d3e
00000150: 1a24 bdbc 969f 903c 3275 52bd 25b7 863c
00000160: cff7 903c ba27 c83c 2368 9abe dd8f c33d
00000170: 9186 0abc 2cb5 2bbd 603c b7bc 77d6 a4bc
00000180: f916 e9bd a519 5ebd fee3 3ebe cda1 733d

l3.weight f4 [18, 100]
0.09569486 -0.052772213 -0.024469493 0.14504199 -0.19351205 0.003985196 -0.14277178 0.054134294
0.017360836 -0.08875307 0.05192198 0.12046624 0.06756126 0.051827025 -0.13307847 0.077447504
0.07234764 -0.09787907 -0.098857336 0.08398833 -0.01941933 -0.04322186 0.15277469 -0.020033177
-0.25998423 -0.117401145 -0.02751777 -0.24811988 0.11840258 0.070481375 -0.014884383 -0.012227285
0.2780802 -0.25804868 -0.09535491 -0.14897726 0.02100693 -0.007834867 0.1798847 -0.030754909
-0.0074150115 0.15797675 0.004461057 0.12735674 -0.06641452 -0.0054097795 0.1931368 0.040654827
0.14860898 -0.19248217 0.03996225 -0.22617078 -0.16424525 -0.12788607 -0.07146834 -0.16636656
0.0262891 -0.10123973 -0.124248624 -0.066409305 0.23252252 0.17874531 0.03803918 -0.004633023
0.088425 -0.21351743 0.22975127 0.066852294 -0.10654845 0.1302623 -0.22507507 0.04821707
0.062436007 0.11312132 0.03672762 -0.1269554 0.18627253 0.009607735 -0.27200297 -0.015140703
0.25347906 -0.15846783 0.06618732 -0.007420933 -0.08153271 0.08258019 -0.24237694 -0.13083464
-0.15559034 -0.22189146 0.23469073 0.07233193 0.13823645 0.106415205 0.06583764 -0.07661187
0.040778734 0.027531873 0.0126322685 -0.22676441 0.061490603 -0.15920147 0.08281559 0.07405732
0.0811164 0.0075895577 0.1142063 -0.24544738 -0.21447627 0.06057484 0.002828248 0.07450495
0.092779174 0.119705394 0.36269158 0.0014839985 -0.080836095 -0.044338576 0.15680058 -0.121830806
0.11662547 0.059031256 0.15180935 0.009999223 -0.23850213 0.1149501 -0.12977898 0.03797283
-0.16309656 -0.04627726 0.24351802 -0.064173564 0.13328223 0.07179872 0.03319364 0.107280314
-0.0018922553 0.0135212075 -0.041271012 0.10544576 -0.084280424 -0.17268561 -0.088232145 0.3352062
0.052978743 0.014581173 -0.033909265 0.04066201 0.048090346 -0.17248671 0.09945036 -0.11737948
0.33811566 0.0788924 0.3509526 0.0028323191 -0.11504485 -0.044439755 0.01711773 0.19174328
-0.095920995 0.0016793843 0.20975953 -0.17980807 0.027900212 0.052428015 -0.037568808 -0.22030908
0.306546 0.008873186 -0.14486815 0.09073679 0.19744524 -0.011939128 0.14486219 0.09101974
-0.27208823 -0.10965722 0.019978443 0.15936556 0.02260528 0.18543154 -0.17823169 0.21475649
0.054162513 0.07311696 -0.16142279 0.038172975 0.10534728 -0.054111775 -0.13155973 0.034218945
-0.043221455 0.06685219 -0.09559216 -0.20763707 -0.03153933 -0.1880824 -0.13451801 0.18330918
-0.12914921 0.08984161 0.14503781 -0.053471845 -0.09623879 0.19176863 -0.05290136 -0.013490973
0.21934296 -0.043738466 -0.051979892 -0.0037028138 0.14762141 -0.07543228 -0.04105679 -0.059868056
0.17112558 0.0976358 0.18628687 0.006219769 -0.059265114 -0.012916185 0.1754898 -0.033921532
-0.070541 0.064757906 0.025213486 0.048669815 -0.016178848 -0.0049159597 -0.06796934 -0.09053042
-0.12682134 -0.21565375 0.10721328 -0.005582589 -0.08436107 -0.005342359 -0.017677655 -0.13281801
0.092707686 0.15896617 -0.008921974 -0.15818071 -0.036609855 -0.08933669 -0.17341985 -0.09359663
-0.08417583 0.03664676 -0.14515893 0.07160525 -0.058237918 -0.19849207 -0.1758951 0.056398913
00000000: abfb c33d ad27 58bd 3f74 c8bc e385 143e
00000010: 0628 46be 3f96 823b c432 12be ecbb 5d3d
00000020: 5038 8e3c 2bc4 b5bd 24ac 543d 01b7 f63d
00000030: 8f5d 8a3d 9348 543d b945 08be cc9c 9e3d
00000040: 002b 943d d274 c8bd b775 cabd 1302 ac3d
00000050: 4915 9fbc 6809 31bd f870 1c3e 9e1c a4bc
00000060: a71c 85be 0370 f0bd f26c e1bc 2313 7ebe
00000070: 0d7d f23d 8a58 903d a1dd 73bc f354 48bc
00000080: 8760 8e3e f51e 84be 6f49 c3bd 7f8d 18be
00000090: ba16 ac3c d05d 00bc b233 383e b8f1 fbbc
000000a0: a0f9 f2bb a8c4 213e 0f2e 923b ce69 023e
000000b0: 5604 88bd 8544 b1bb a7c5 453e ad85 263d
000000c0: f42c 183e 0c1a 45be 75af 233d 5099 67be
000000d0: e82f 28be 91f4 02be fe5d 92bd ff5b 2abe
000000e0: 3d5c d73c c756 cfbd 1076 febd 9a01 88bd
000000f0: 621a 6e3e 0309 373e f9ce 1b3d 9dd0 97bb
00000100: 2b18 b53d 50a4 5abe eb43 6b3e dbe9 883d
00000110: 1336 dabd 7b63 053e 147a 66be 437f 453d
00000120: e6bc 7f3d 27ac e73d b36f 163d 9900 02be
00000130: 3abe 3e3e c369 1d3c f943 8bbe b610 78bc
00000140: 02c8 813e 6445 22be 388d 873d 4c2b f3bb
00000150: 9ffa a6bd cd1f a93d a931 78be 84f9 05be
00000160: 1353 1fbe 8437 63be c452 703e c322 943d
00000170: db8d 0d3e 37f0 d93d e2d5 863d afe6 9cbd
00000180: 9a07 273d 868a e13c 93f7 4e3c ee34 68be
00000190: 92dd 7b3d b605 23be 389b a93d 5dab 973d
000001a0: 5b20 a63d d3b1 f83b fee4 e93d 8f56 7bbe
000001b0: ab9f 5bbe 531d 783d 215a 393b 0d96 983d
000001c0: 0203 be3d 1a28 f53d b6b2 b93e ba82 c23a
000001d0: 658d a5bd 5e9c 35bd 5590 203e 6e82 f9bd
000001e0: 56d9 ee3d c2ca 713d e973 1b3e c8d3 233c
000001f0: e739 74be f56a eb3d c8e4 04be 6689 1b3d
00000200: c902 27be 398d 3dbd ca5c 793e 6e6d 83bd
00000210: 237b 083e 350b 933d 0ef6 073d c8b5 db3d
00000220: 8d05 f8ba 0e88 5d3c cb0b 29bd f2f3 d73d
00000230: 379b acbd 7fd4 30be 0eb3 b4bd 26a0 ab3e
00000240: 3d00 593d dfe5 6e3c 71e4 0abd 358d 263d
00000250: 62fa 443d 5ba0 30be a1ac cb3d a764 f0bd
00000260: 7f1d ad3e 5792 a13d 0fb0 b33e 6e9e 393b
00000270: a29c ebbd 7606 36bd 7b3a 8c3c 5a58 443e
00000280: 3a72 c4bd c91e dc3a 34cb 563e 9b1f 38be
00000290: fc8e e43c c2be 563d c0e1 19bd b498 61be
000002a0: 99f3 9c3e d760 113c 5158 14be 36d4 b93d
000002b0: 162f 4a3e 559c 43bc c156 143e 8f68 ba3d
000002c0: 264f 8bbe f793 e0bd d5a9 a33c ba30 233e
000002d0: b52e b93c c4e1 3d3e 5e82 36be 20e9 5b3e
000002e0: 83d9 5d3d 58be 953d 044c 25be 445b 1c3d
000002f0: 51c0 d73d 4fa4 5dbd 98b7 06be 2a29 0c3d
00000300: fb08 31bd cde9 883d d3c5 c3bd d09e 54be
00000310: 622f 01bd ac98 40be 17bf 09be 67b5 3b3e
00000320: b13f 04be e1fe b73d cb84 143e 4b05 5bbd
00000330: d818 c5bd ff5e 443e 19af 58bd 3e09 5dbc
00000340: 719b 603e 1b27 33bd dee8 54bd e8aa 72bb
00000350: 112a 173e 3d7c 9abd 2a2b 28bd 3538 75bd
00000360: 8b3b 2f3e 47f5 c73d fcc1 3e3e 34cf cb3b
00000370: fabf 72bd 689e 53bc 99b3 333e 4ef1 0abd
00000380: cd77 90bd cb9f 843d 838c ce3c 005a 473d
00000390: 8189 84bc 0f16 a1bb 8233 8bbd 0368 b9bd
000003a0: 74dd 01be 56d4 5cbe a392 db3d 27ee b6bb
000003b0: 7fc5 acbd f50e afbb bbd0 90bc 7201 08be
000003c0: 87dd bd3d 07c8 223e 792d 12bc 20fa 21be
000003d0: 37f4 15bd 28f6 b6bd f994 31be 97af bfbd
000003e0: 6164 acbd ea1a 163d 8ba4 14be c6a5 923d
000003f0: e28a 6ebd 8141 4bbe d81d 34be 8c02 673d

l3.bias f4 [18]
0.24704058 -0.47318172 -0.037642613 0.61092263 -0.120270014 -0.32828754 0.16274959 -0.37512314
0.21005827 0.28575408 0.2606409 0.023778656 0.3011581 -0.41216767 0.30846247 0.21854287
-0.055484656 -0.0068768943
00000000: 35f8 7c3e e044 f2be 242f 1abd 6d65 1c3f
00000010: 2050 f6bd 4e15 a8be d4a7 263e 2410 c0be
00000020: 8419 573e 5c4e 923e b972 853e 75cb c23c
00000030: 6531 9a3e a407 d3be cbee 9d3e b4c9 5f3e
00000040: e143 63bd 9257 e1bb
