data/result/g_440.pt (torch, 87406 bytes, 7 tensors)

G_attr_matrix.weight f4 [36, 5]
0	0x3d569ffe	0.052398674
1	0xbd5ad0be	-0.05342173
2	0xbe99b186	-0.30018252
3	0x3d8bcb0e	0.06825839
4	0x3c3cd6cd	0.011525822
5	0xbd977d47	-0.07396942
6	0x3d2ec7f6	0.042671166
7	0x3e099541	0.13435842
8	0x3d938a6f	0.072041385
9	0xbc72389c	-0.014784005
10	0xbd565ced	-0.052334715
11	0x3c646968	0.013941146
12	0x3caead1f	0.021322785
13	0x3d467697	0.04845294
14	0xbae89960	-0.0017745905
15	0xbd357479	-0.04430053
16	0xbdb6b985	-0.08922104
17	0xbd93a1b9	-0.072085805
18	0xbd639770	-0.055564344
19	0xbbba1470	-0.005678706
20	0x3b4caf20	0.0031232312
21	0xbdfb5959	-0.12272901
22	0x3b3993c9	0.0028316847
23	0xbc9ec1a7	-0.01937945
24	0x3d10b8df	0.035332557
25	0x3dc5b5ea	0.09653838
26	0xbb598042	-0.003318802
27	0xbca79478	-0.020456538
28	0x3e50bd90	0.20384812
29	0xbdc166d7	-0.09443443
30	0xbcf76b62	-0.030202571
31	0xbcb36f37	-0.021903617
32	0xbc6a8a33	-0.014315176
33	0x3d2b6c64	0.041851416
34	0x3e2f1b09	0.17100157
35	0x3e4ffecd	0.20312043
36	0x3df29386	0.11844544
37	0x3e66bf4b	0.2253391
38	0x3e353936	0.17697605
39	0x3d77ad0f	0.060467776
40	0x3b05b114	0.0020399736
41	0x3c6777d6	0.014127692
42	0x3b840491	0.0040288647
43	0xbd563e35	-0.05230542
44	0xbe05f5d6	-0.1308206
45	0xbc249858	-0.010046087
46	0xbc92cc03	-0.017919546
47	0xba1931bf	-0.00058438996
48	0x3d87d10a	0.06631668
49	0x3e4fe801	0.20303346
50	0x3e846335	0.2585694
51	0x3c884783	0.016635662
52	0x3c820adc	0.015874319
53	0xbda8d361	-0.08243442
54	0xbc01536d	-0.007893425
55	0x3b8d0c78	0.004304465
56	0xbe2e28e9	-0.17007793
57	0xbe6fd9ca	-0.23422924
58	0x3d60bd7b	0.054868203
59	0x3e38f2f5	0.18061431
60	0x3bf8f44b	0.0075974814
61	0x3ddccee2	0.10781647
62	0x3c0d94be	0.00864142
63	0xbb5c92aa	-0.0033656755
64	0x3d57e8d0	0.05271226
65	0xbe92c4f8	-0.286659
66	0x3caa3a01	0.020779612
67	0x3d07b3eb	0.033130568
68	0xbddd33f6	-0.108009264
69	0xbdde4b10	-0.10854161
70	0xbd07a173	-0.033112954
71	0xbcbbd0dc	-0.02292674
72	0x3d84cacf	0.06483995
73	0x3c448728	0.011995114
74	0x3d205097	0.039139356
75	0xbe5a05d2	-0.21291283
76	0x3e0b2b9f	0.13590859
77	0xbe4fe699	-0.2030281
78	0x3e08d19d	0.13361211
79	0xbe110aec	-0.14164323
80	0x3e4bff96	0.19921717
81	0xbcabe9c2	-0.020985488
82	0xbda8f23a	-0.08249326
83	0x3e229b71	0.15879609
84	0xbdcd3680	-0.10020161
85	0x3d28ae49	0.041181836
86	0x3e95b7fe	0.29241937
87	0x3ee40d82	0.44541556
88	0x3e0823d7	0.13294922
89	0x3da92186	0.08258347
90	0xbc3fb620	-0.011701137
91	0xbe873230	-0.26405478
92	0x3b6e5755	0.0036367972
93	0x3da72c6a	0.08162768
94	0xbdb310fb	-0.08743473
95	0xbd4571ba	-0.04820416
96	0x3e06ba47	0.13156997
97	0xbe69a250	-0.22815824
98	0x3e098bbd	0.13432212
99	0x3d628c69	0.055309687
100	0xbe5854d9	-0.21126117
101	0xbc721e09	-0.014777669
102	0x3c5376f3	0.012906778
103	0xbc703568	-0.014661171
104	0xbc7bdd6b	-0.015372614
105	0xbe460caa	-0.19340768
106	0x3dac81f8	0.08423227
107	0xbdef2014	-0.1167604
108	0x3e4910d4	0.19635326
109	0x3dbfa5e4	0.09357813
110	0xbb4dddd3	-0.0031412735
111	0xbc0ad283	-0.0084730415
112	0xbc1a748b	-0.0094272
113	0x3c88a2c4	0.016679175
114	0x3aa84a16	0.0012839462
115	0x3dbd37bb	0.09239145
116	0x3e7e4e1e	0.24834487
117	0x3e3b4bd4	0.18290645
118	0xbe438366	-0.19093093
119	0xbcee88da	-0.02911799
120	0x3ee62d8f	0.44956633
121	0x3c4ee1f1	0.012627111
122	0x3c0bf959	0.008543336
123	0xbe542584	-0.20717436
124	0xbca28624	-0.019839354
125	0x3e64e5cf	0.2235329
126	0xbe60201a	-0.21887246
127	0xbd0684da	-0.03284154
128	0xbe2ce985	-0.16885956
129	0x3e0c6736	0.13711247
130	0x3c7b274e	0.015329195
131	0x3d5c5540	0.05379224
132	0xbca399e3	-0.01997084
133	0x3d9f3e87	0.07775598
134	0xbd022f8d	-0.03178363
135	0xbe65e0d1	-0.22449042
136	0xbeabd2a2	-0.33559138
137	0x3e3a219a	0.1817688
138	0x3e53e83f	0.20694064
139	0x3e843e44	0.25828755
140	0xbced1fd5	-0.028945843
141	0xbb6b2e5f	-0.0035885794
142	0x3bd714f8	0.006563779
143	0x3b9143fe	0.004433154
144	0xbd090880	-0.03345537
145	0x3d95e06d	0.073181964
146	0xbce20692	-0.027591024
147	0x3c4aa204	0.012367729
148	0x3c72a996	0.01481094
149	0x3e0f979a	0.14022675
150	0xbc30cb5b	-0.010790671
151	0x3c5a765f	0.013333886
152	0x3c93398c	0.017971776
153	0xbd527804	-0.051383987
154	0xbd8161c0	-0.063174725
155	0x3cf2b5cd	0.029627705
156	0xbd87445b	-0.06604835
157	0xbd43863e	-0.047735445
158	0x3e3563c2	0.17713836
159	0x3e8db5cd	0.27677765
160	0xbc0e4abb	-0.008684809
161	0xbb29776b	-0.0025858532
162	0x3d496708	0.049170524
163	0xbc1e5547	-0.009663886
164	0xbb7b3d6d	-0.0038336173
165	0x3e053bea	0.13011137
166	0x3e2d1ec7	0.16906272
167	0xbebff088	-0.37488198
168	0x3ced9b22	0.029004637
169	0x3e2bf365	0.16792066
170	0x3caf4191	0.02139357
171	0xbc5c3b10	-0.013441816
172	0x3df17293	0.117894314
173	0x3e887156	0.26648968
174	0x3e12a013	0.14318876
175	0x3d30ad6e	0.043134145
176	0x3e8a0439	0.26956347
177	0xbe1671ca	-0.14691845
178	0xbe4d4180	-0.20044518
179	0x3e25e042	0.16198829

l1.weight f4 [100, 90]
0	0x3e40cf2c	0.1882903
1	0xbc787914	-0.015165586
2	0x3da72fdc	0.08163425
3	0x3dd9e0f2	0.10638608
4	0x3dc909e8	0.098163426
5	0x3d4c57b3	0.049888324
6	0x3db37d17	0.08764093
7	0x3d118d21	0.03553498
8	0xbe804de9	-0.2505944
9	0xbe0c057d	-0.13673969
10	0x3dae8687	0.08521753
11	0xbe4ebce5	-0.20189245
12	0xbd94b1e0	-0.072604895
13	0x3cb07f50	0.021545082
14	0xbcec190d	-0.028820539
15	0x3dc0b089	0.094086714
16	0x3d058f39	0.03260729
17	0xbd7e9128	-0.06215015
18	0xbcf54560	-0.029940307
19	0x3dcb7a39	0.099354215
20	0x3e1021a6	0.14075336
21	0xbd197480	-0.03746462
22	0x3df3d0f7	0.11905091
23	0xbda4715c	-0.08029434
24	0x3cad3fe6	0.021148633
25	0x3d815f12	0.06316961
26	0x3e3a8135	0.18213351
27	0x3d821b58	0.06352872
28	0x3e219fac	0.15783566
29	0x3c10fe20	0.008849651
30	0x3d9d7247	0.07687812
31	0xbe0de75b	-0.13857786
32	0xbe71e1c4	-0.23621279
33	0xbe11be22	-0.14232686
34	0xbdb36c99	-0.08760948
35	0x3d26be89	0.040709052
36	0x3e1dd4fe	0.15413281
37	0xbc896cfd	-0.016775602
38	0xbdc87ff7	-0.09790032
39	0x3e387389	0.18012823
40	0xbc78f1f7	-0.015194408
41	0xbd81991c	-0.063280314
42	0x3df2b378	0.11850637
43	0x3d16a7f3	0.036781263
44	0x3b250107	0.0025177614
45	0x3d50dc17	0.050991144
46	0xbdfbb20b	-0.122898184
47	0xbd1af790	-0.03783375
48	0x3d53fa31	0.051752273
49	0xbd8ed29f	-0.069737665
50	0x3deb7b98	0.11498183
51	0xbecb7d21	-0.39743903
52	0x3e4e36f8	0.20138156
53	0xbd9d4115	-0.07678429
54	0xbe18a051	-0.14904906
55	0x3cc08a6c	0.023503505
56	0xbd1189a5	-0.03553166
57	0xbc50ae5f	-0.012736886
58	0xbc17a60b	-0.009255896
59	0x3e2ff5b3	0.1718357
60	0xbcdc195d	-0.026867563
61	0xbe3ad0e1	-0.18243743
62	0xbc776696	-0.015100142
63	0x3d08049a	0.033207513
64	0xbd8a8797	-0.06764143
65	0xbdc509a1	-0.09620977
66	0x3d0cb6e8	0.03435412
67	0xbe3b7702	-0.18307117
68	0xbbc52645	-0.006016525
69	0xbe3abe10	-0.18236566
70	0xbe32f106	-0.17474756
71	0x3da3dd3f	0.08001184
72	0x3dab2caf	0.08358132
73	0x3e5d8cf6	0.21635804
74	0xbe30998a	-0.1724607
75	0xbd07cfe9	-0.033157263
76	0xbe5cd2a1	-0.21564724
77	0xbcaaed16	-0.020865005
78	0xbda17c4e	-0.07885037
79	0x3d55288e	0.05204063
80	0x3cfb7bcc	0.03069868
81	0xbd5d0144	-0.053956285
82	0x3cfdcf44	0.030982621
83	0x3e07d793	0.13265829
84	0xbe6a3865	-0.22873075
85	0x3d9d902b	0.076935135
86	0x3bf025bd	0.0073287175
87	0xbd90f18c	-0.070773214
88	0x3d479648	0.048727304
89	0x3e31c5cf	0.17360614
90	0x3e826f2c	0.25475442
91	0xbdaada38	-0.08342403
92	0xbd77de72	-0.060514875
93	0xbd233ecc	-0.03985481
94	0xbe1a9915	-0.15097459
95	0x3d423c50	0.0474208
96	0x3e4c87d0	0.19973683
97	0xbd2cf12a	-0.04222218
98	0x3d66f53c	0.056386217
99	0x3db704c2	0.08936454
100	0x3d6475ce	0.05577641
101	0xbcd23690	-0.025660783
102	0xbddb6c5c	-0.10714027
103	0xbcf46d5e	-0.029837307
104	0xbdee0bd8	-0.11623353
105	0xbd945d1b	-0.07244321
106	0x3ddba6e9	0.10725195
107	0xbe2be08d	-0.16784878
108	0x3d83c436	0.06433909
109	0x3d51148b	0.051044982
110	0xbb1ed7a9	-0.002423743
111	0x3ceca6e0	0.028888166
112	0x3b6d0884	0.0036168406
113	0xbd12de4f	-0.03585654
114	0xb80ff13b	-3.431852e-05
115	0x3d27c963	0.04096354
116	0x3cfe1cf5	0.031019667
117	0xbd543e84	-0.051817432
118	0xbca43036	-0.02004252
119	0x3d6fd4c6	0.058552526
120	0x3d54ad9c	0.05192338
121	0xbd18d492	-0.037312098
122	0xbc9dcf41	-0.019263865
123	0x3d89c685	0.06727318
124	0xbe323673	-0.17403583
125	0xbb07ae2c	-0.002070318
126	0xbd86d2fb	-0.0658321
127	0x3dbdc0b4	0.09265271
128	0x3cd0c1df	0.02548307
129	0x3d993d91	0.07482446
130	0xbd29295e	-0.041299216
131	0x3deb0a3f	0.11476564
132	0xbdeaab94	-0.11458507
133	0x3c07dc4d	0.00829227
134	0xbe4c4f6a	-0.19952169
135	0xbd8110ec	-0.06302056
136	0x3d920651	0.07130111
137	0xbde3d9d8	-0.11125535
138	0xb97e9b04	-0.00024281075
139	0xbc8b49d3	-0.017002976
140	0x3dbabad9	0.091176696
141	0xbe1426ae	-0.1446788
142	0xbe6c4bbc	-0.23075765
143	0xbe17bd03	-0.14818196
144	0xbdb14b39	-0.08656926
145	0x3de6958b	0.11258992
146	0x3db04a1c	0.08607885
147	0x3d9f0c77	0.07766049
148	0xbb9dee57	-0.004819672
149	0xbdcc2eaf	-0.09969842
150	0xbcfdbe4d	-0.030974532
151	0xbda7ccf1	-0.08193386
152	0xbdcd9759	-0.10038633
153	0xbcdc7152	-0.026909504
154	0x3d20e8c0	0.039284468
155	0xbdb00ce3	-0.08596208
156	0xbc647668	-0.013944246
157	0xbd0819a8	-0.033227593
158	0x3cb05028	0.021522596
159	0x3e0ec7c4	0.13943392
160	0xbe3eba1e	-0.18625686
161	0x3e315d64	0.17320782
162	0xbe22ae1a	-0.15886727
163	0xbd0d1a33	-0.034448814
164	0x3c4cfc14	0.012511272
165	0xbd6ebab9	-0.05828354
166	0x3cd62bf8	0.026144013
167	0xbde6e07e	-0.11273287
168	0x3e3581bc	0.17725271
169	0x3da500c4	0.08056787
170	0x3d0a4f2b	0.033766907
171	0xbd8e5403	-0.06949618
172	0xbd6e07ec	-0.058113024
173	0x3da90a14	0.082538754
174	0xbdb075a1	-0.08616186
175	0xbded5ba9	-0.115897484
176	0xbe8da3fe	-0.2766418
177	0x3df309f0	0.1186713
178	0xbdd2621d	-0.1027262
179	0xbd03b89a	-0.03215847
180	0x3be487a0	0.0069741756
181	0x3e0c0716	0.13674578
182	0x3cb2880b	0.021793386
183	0xbe55be93	-0.2087348
184	0xbd076a00	-0.033060074
185	0xbe2d015f	-0.16895054
186	0xbd88e0c6	-0.06683497
187	0x3dc4619e	0.095889315
188	0x3d18d27f	0.03731012
189	0xbd8c5b43	-0.06853344
190	0x3d8d809c	0.06909296
191	0xbe3b1035	-0.18267901
192	0xbdf74764	-0.120741636
193	0x3dc5e9f6	0.09663765
194	0xbd087ebd	-0.033323992
195	0xbda9b56a	-0.08286555
196	0xbc161181	-0.009159447
197	0x3dfa70cb	0.12228545
198	0x3d399d65	0.04531612
199	0x3d17f0ed	0.037095
200	0xbda8678b	-0.08222874
201	0x3d76422b	0.060121696
202	0xbe46b147	-0.19403563
203	0x3d8cfe7a	0.06884475
204	0x3e88fcd1	0.26755384
205	0x3b885805	0.0041608834
206	0x3cbffe86	0.023436796
207	0xbd2c1893	-0.042015623
208	0xbdb8d860	-0.09025645
209	0x3e0227dc	0.12710518
210	0x3bb3040a	0.005463128
211	0x3b5d451e	0.003376312
212	0x3e0a8934	0.13528901
213	0x3d637bea	0.055538096
214	0x3c077e1b	0.008269812
215	0x3e13aa80	0.1442051
216	0x3d55e881	0.052223686
217	0xbda7ead8	-0.0819909
218	0xbce34f3f	-0.027747748
219	0xbcc20965	-0.02368612
220	0xbdec42a5	-0.11536149
221	0xbe0e43e8	-0.13893092
222	0x3d4759db	0.048669677
223	0xbce465a0	-0.02788049
224	0x3e717708	0.23580563
225	0xbda0d070	-0.07852256
226	0x3e123edc	0.14281791
227	0x3d98b033	0.07455482
228	0x3d7bf531	0.06151313
229	0x3d547282	0.051867016
230	0x3e399696	0.1812385
231	0xbd7dede3	-0.061994445
232	0xbd3f6781	-0.04672957
233	0x3d7e2fea	0.062057413
234	0x3cd0c782	0.025485758
235	0x3dc52180	0.0962553
236	0xbdbb518d	-0.09146414
237	0x3b8ad8df	0.004237279
238	0x3e41f34c	0.18940467
239	0xbc7ca5b9	-0.015420371
240	0x3ce19997	0.027539058
241	0xbe0826e8	-0.13296092
242	0x3db66bc8	0.089072764
243	0x3d8bbc78	0.06823057
244	0xbde105d4	-0.1098744
245	0xbe6b6661	-0.22988273
246	0xbdd1d80a	-0.10246284
247	0xbdc28033	-0.09497108
248	0xbdf979fa	-0.12181468
249	0x3d3b0f03	0.045668613
250	0x3dcc7857	0.099838905
251	0x3da12822	0.07868983
252	0xbe06a9e1	-0.13150741
253	0xbd928806	-0.07154851
254	0x3d693944	0.05693938
255	0x3c90a9d6	0.01765911

l1.bias f4 [100]
0	0xbcd92b02	-0.026509766
1	0x3c855386	0.016275179
2	0x3e2a4f91	0.16631915
3	0x3d953992	0.07286371
4	0x3e0ca015	0.13732941
5	0x3bb52758	0.005528372
6	0x3e4c9383	0.19978146
7	0xbd370a0e	-0.044687323
8	0xbd255c19	-0.040371034
9	0xbd62b897	-0.05535182
10	0xbd25648b	-0.04037909
11	0xbde90873	-0.11378565
12	0xbcbc2ad4	-0.02296964
13	0x3b95b137	0.004568245
14	0xbcfaa3b6	-0.030595642
15	0x3dee47d5	0.116347946
16	0x3d3af4a2	0.045643456
17	0x3d427cbf	0.04748225
18	0xbdb69042	-0.08914234
19	0xbcd4485a	-0.025913406
20	0x3e3776db	0.17916434
21	0xbcdf1f26	-0.027236532
22	0xbd0070b3	-0.03135748
23	0x3dfc5fcd	0.1232296
24	0x3ce0b793	0.027431285
25	0x3e2718a6	0.16317996
26	0xbd4a5e36	-0.049406253
27	0xbdffbb71	-0.124869235
28	0xbc257fdd	-0.010101286
29	0xbeacfadd	-0.33785143
30	0x3d331971	0.043725435
31	0x3dc52e64	0.09627989
32	0xbe2826f7	-0.16421114
33	0xbe87df6b	-0.26537642
34	0xbe4ec289	-0.20191397
35	0xbc4078d1	-0.011747555
36	0x3cb9ed0d	0.022696042
37	0x3e1ea054	0.15490848
38	0xb971a97f	-0.00023046693
39	0xbd21aa8f	-0.039469298
40	0xbe667aac	-0.22507733
41	0x3e76fca1	0.24119808
42	0xbe10cf3b	-0.14141552
43	0x3bae4587	0.005318347
44	0xbd75f6d1	-0.060049836
45	0xbcc3c0f8	-0.023895726
46	0xbc535ba5	-0.012900268
47	0xbd0d1992	-0.034448214
48	0xbd86b347	-0.06577163
49	0xbe3e791a	-0.18600884
50	0x3b24e042	0.0025158082
51	0x3e2982ca	0.16553798
52	0x3de7bcae	0.11315285
53	0xbe3de1e6	-0.18543205
54	0xbcb6cff5	-0.022315959
55	0xbd3f93fb	-0.046771985
56	0xbd1bccbb	-0.038037043
57	0x3d815401	0.063148506
58	0xbd03b73b	-0.032157164
59	0xbd9c8fca	-0.07644613
60	0xbe237130	-0.15961146
61	0x3d7b8090	0.061401904
62	0xbcde72e6	-0.027154397
63	0x3de044f5	0.109506525
64	0x3dd15635	0.10221521
65	0xbe0e8b45	-0.13920315
66	0xbb19ff2d	-0.0023498044
67	0x3dc2cea5	0.095120706
68	0xbcd85dfa	-0.026411999
69	0x3b99780a	0.004683499
70	0x3dc1bead	0.09460197
71	0xbd97f497	-0.07419699
72	0xbe0750d2	-0.13214424
73	0x3e43b3d0	0.19111562
74	0x3dab8f36	0.08376925
75	0x3d44b901	0.048027996
76	0xbe30e5d1	-0.17275168
77	0xbd82a77c	-0.06379601
78	0xbe650ea2	-0.22368863
79	0xbdd26308	-0.10272795
80	0x3d2f9437	0.042865958
81	0xbdf3295c	-0.11873123
82	0xbd094f72	-0.03352303
83	0x3d612cae	0.05497425
84	0x3d26c76d	0.04071753
85	0x3c8485eb	0.016177138
86	0xbd9a4a26	-0.07533674
87	0x3c3dd23d	0.011585769
88	0xbe0bb40a	-0.13642898
89	0xbc97569b	-0.018473914
90	0x3e035493	0.12825231
91	0x3da6460a	0.08118828
92	0xbca0cd1a	-0.01962905
93	0x3d38d955	0.04512914
94	0x3dff8fdf	0.12478613
95	0xbd08b0b7	-0.033371653
96	0x3a04fb08	0.0005072807
97	0xbdd43a76	-0.10362713
98	0xbe1f6b4c	-0.15568274
99	0x3c0e83fc	0.00869846

l2.weight f4 [100, 100]
0	0x3d3378e0	0.043816447
1	0x3e0d72de	0.1381335
2	0xbd8b37e8	-0.06797773
3	0xbcf91e4a	-0.03040995
4	0xbd89aa3c	-0.06721923
5	0x3e2ccb69	0.1687447
6	0xbceaf5da	-0.028681684
7	0x3dc6cce1	0.09707046
8	0xbd9ab6e1	-0.07554413
9	0xbd9df1d7	-0.07712143
10	0x3caf7324	0.021417208
11	0xbd9324b6	-0.071847364
12	0xbbc9cf27	-0.0061587277
13	0xbd5c2491	-0.05374581
14	0x3d0d1a72	0.03444905
15	0x3c799abb	0.0152346445
16	0xbe4d37f0	-0.2004087
17	0xbe0b9413	-0.13630705
18	0x3c4bcae5	0.012438511
19	0x3e342668	0.17592776
20	0x3c6b6a55	0.014368613
21	0x3deeae19	0.116543
22	0x3d8b6a72	0.06807412
23	0x3c4dca79	0.01256048
24	0x3d5188da	0.051155902
25	0x3d96e24a	0.0736738
26	0xbe7b8b4d	-0.24564858
27	0xbe0ca046	-0.13733014
28	0xbe67d322	-0.22639135
29	0xbe232947	-0.15933715
30	0x3dd8dd37	0.105890684
31	0xbdb1e943	-0.08687069
32	0x3d226983	0.039651405
33	0x3c1b7fbc	0.0094909035
34	0x3d34f2d8	0.044176906
35	0x3d03d82d	0.032188583
36	0xbd48eec5	-0.049055833
37	0xbcdb3d4e	-0.02676263
38	0xbda12923	-0.07869174
39	0x3d6ba29e	0.05752813
40	0xbd8f4938	-0.06996387
41	0x3db3f11b	0.087862216
42	0x3c40ee1a	0.011775518
43	0xbd266b61	-0.04062975
44	0x3dd0df13	0.10198798
45	0xbd6ddeb2	-0.058073707
46	0xbdf1dce5	-0.118097104
47	0x3e38c9ed	0.18045779
48	0xbc9e7348	-0.01934208
49	0x3d36a3c3	0.04458977
50	0xbcd30423	-0.025758808
51	0x3ccec1eb	0.025238952
52	0x3cdfc770	0.027316779
53	0xbdc3e715	-0.0956556
54	0x3e27686b	0.16348426
55	0x3d4b10d5	0.0495766
56	0xbd8abfa6	-0.06774835
57	0x3cd3b364	0.025842376
58	0xbe001298	-0.12507093
59	0xbd3d1f93	-0.04617269
60	0x3bb50dbb	0.0055253184
61	0x3df2397e	0.11827372
62	0xbc06f492	-0.008237021
63	0x3cb9cbb9	0.02268015
64	0x3d165b57	0.036708202
65	0xbde52a5b	-0.11189719
66	0x3d3a4acd	0.04548149
67	0xbe194c7f	-0.14970587
68	0x3dff7c01	0.12474824
69	0x3d7837f5	0.06060024
70	0xbdb7ec8c	-0.089806646
71	0x3da2606b	0.079285465
72	0x3df0e120	0.11761689
73	0x3db7a9af	0.089679115
74	0x3dc86535	0.09784929
75	0x3c5a6c13	0.013331431
76	0x3e8167e4	0.25274575
77	0x3cb329e6	0.021870565
78	0xbd777b90	-0.060420573
79	0xbd342a98	-0.043985933
80	0x3e3b9b92	0.18321064
81	0xbbd92620	-0.0066268593
82	0xbdad8879	-0.08473296
83	0x3cb47a64	0.022031017
84	0x3da4e3ac	0.080512375
85	0xbd748b2a	-0.05970303
86	0xbd515944	-0.05111052
87	0xbe0d2ed9	-0.13787402
88	0xbdc20b38	-0.09474796
89	0xbde24753	-0.1104876
90	0xbd5ac0d4	-0.05340655
91	0x3c28c70b	0.010301362
92	0xbbd082af	-0.006363235
93	0xbdd23c0e	-0.10265361
94	0xbd520d58	-0.051282257
95	0xbc0b7414	-0.008511562
96	0xbd832ca3	-0.06404998
97	0x3e5fff30	0.2187469
98	0x3c8e0b38	0.017339334
99	0x3d5b1538	0.053487033
100	0xbdcf3edb	-0.101194106
101	0x3d26dd77	0.04073855
102	0xbe1f4561	-0.1555381
103	0x3d3eb304	0.04655744
104	0x3e5133f8	0.20429981
105	0xbb9e98e3	-0.004840003
106	0x3e514211	0.20435359
107	0xbd848bf9	-0.0647201
108	0x3dda1efd	0.10650442
109	0x398e1fa7	0.00027107933
110	0x3cf785ff	0.030215262
111	0x3db95493	0.090493344
112	0xb8ab7531	-8.175744e-05
113	0xbd1b7568	-0.037953764
114	0xbdeded45	-0.11617521
115	0xbdbf254a	-0.09333284
116	0x3c9717a8	0.018443897
117	0xbdf0cd9b	-0.11757966
118	0x3d50445e	0.05084645
119	0x3e0142c7	0.1262313
120	0xbd7e2be6	-0.062053584
121	0xbd4f39a4	-0.05059208
122	0x3cc33214	0.02382759
123	0x3d6bc4b7	0.05756065
124	0x3d19728d	0.03746276
125	0x3d051fc3	0.032500993
126	0xbd307ad9	-0.043085907
127	0xbd7b6c6a	-0.06138269
128	0x3de8a8ee	0.11360346
129	0xbdebd905	-0.115160026
130	0xbd399be0	-0.04531467
131	0x3aa5fbc4	0.0012663533
132	0x3e043668	0.1291138
133	0x3c1a8159	0.009430253
134	0x3e1eded3	0.15514688
135	0x3dd6ec79	0.10494322
136	0xbba279c1	-0.004958362
137	0xbd99719e	-0.07492374
138	0xbce9a02c	-0.028518759
139	0xbd0a2f05	-0.033736248
140	0x3d99e494	0.07514301
141	0xbc8c2a5b	-0.01711004
142	0x3c7bd4a8	0.015370525
143	0xbd537ba9	-0.051631603
144	0xbcba1e47	-0.022719515
145	0x3e091f51	0.13390853
146	0x3d534c02	0.05158616
147	0x3e0d4b7d	0.13798328
148	0xbd6fe8b9	-0.05857155
149	0x3c5e00bb	0.013549979
150	0xbced181e	-0.028942164
151	0xbbd57dbe	-0.006515234
152	0x3ab1c48f	0.0013562607
153	0x3df2beb2	0.118527785
154	0x3df79511	0.12088979
155	0x3d3bd832	0.045860477
156	0xbdd7098d	-0.104998685
157	0x3d939d5a	0.07207747
158	0xbe30e04a	-0.1727306
159	0xbd7233a7	-0.05913129
160	0x3cf7ed09	0.030264394
161	0x3dba83db	0.09107181
162	0xbd022378	-0.031772107
163	0x3d2c0354	0.04199536
164	0x3d2eff2c	0.04272382
165	0xbcd785a1	-0.026308836
166	0x3dea6adf	0.11446165
167	0xbc3a8135	-0.011383344
168	0x3d0da671	0.03458256
169	0xbe200d48	-0.15630066
170	0xbc602b95	-0.013682266
171	0x3cd2340a	0.02565958
172	0xbdccd671	-0.10001839
173	0x3be3e344	0.0069545824
174	0x3d8ac263	0.067753576
175	0x3cd10de9	0.025519328
176	0xbd966cf3	-0.07344999
177	0x3c1bfb67	0.009520388
178	0xbdddf5ee	-0.10837923
179	0xbe13bd0a	-0.14427581
180	0xbdf989a6	-0.121844575
181	0xbe33bd98	-0.17552793
182	0x3d844702	0.06458856
183	0xbdd206d4	-0.102552086
184	0xbd29dde3	-0.041471373
185	0x3cc67f8f	0.024230747
186	0xbe1b8c7c	-0.1519031
187	0xbd4113e0	-0.047138095
188	0xbd2866d7	-0.0411137
189	0xbd77b93a	-0.06047938
190	0x3e1c4c47	0.15263472
191	0x3cd44864	0.025913425
192	0xbdecf0d5	-0.115693726
193	0x3d1106dd	0.035406936
194	0x3dcfbe83	0.10143759
195	0x3d0d74be	0.034535162
196	0x3dbfa7c0	0.09358168
197	0xbe0898b6	-0.13339505
198	0xbda729a2	-0.08162238
199	0xbd32d8cb	-0.04366378
200	0x3d75ace1	0.059979323
201	0x3d116275	0.035494287
202	0x3df27d18	0.11840266
203	0x3d8525fc	0.065013856
204	0xbd128269	-0.0357689
205	0x3e31c9e4	0.17362171
206	0xbe0bb3ef	-0.13642858
207	0xbdc66f41	-0.09689189
208	0xbcfb508d	-0.030678058
209	0xbd367536	-0.044545375
210	0x3e57098b	0.20999734
211	0x3ddd1f4d	0.10796986
212	0xbe19f839	-0.15036096
213	0xbe099d1c	-0.13438839
214	0x3cb4e0e8	0.0220799
215	0xbe7c240d	-0.24623127
216	0xbe175ca0	-0.14781427
217	0xbe2e3aae	-0.17014572
218	0x3cc67ca4	0.024229355
219	0x3dcf479b	0.101210795
220	0x3d5f0c9e	0.054455392
221	0x3b96f7fe	0.0046071997
222	0xbe73c13b	-0.2380418
223	0x3e37e994	0.17960197
224	0x3c02f44f	0.007992818
225	0x3d32ad16	0.0436221
226	0xbd38fbfe	-0.045162193
227	0x3c8f1065	0.017463872
228	0xbd582f6b	-0.052779596
229	0xbe3621bd	-0.17786308
230	0xbde94975	-0.11390964
231	0x3c735eaa	0.014854113
232	0x3dcd3e46	0.10021643
233	0x3e28c9a7	0.16483174
234	0xbe551f4f	-0.20812725
235	0xbd8b6931	-0.06807173
236	0x3e10229f	0.14075707
237	0x3dd34b9d	0.103171565
238	0x3e5e02c2	0.2168074
239	0x3ce7a511	0.028276952
240	0xbcdf4157	-0.027252836
241	0xbe1a5a86	-0.15073594
242	0xbd36ac86	-0.044598125
243	0xbd9df254	-0.07712236
244	0xbd84fefc	-0.06493947
245	0x3d4cc736	0.04999467
246	0x3d620cd6	0.055188023
247	0xbd47cf19	-0.048781488
248	0x3da4f835	0.08055154
249	0x3e2e0e88	0.1699773
250	0x3e5875b8	0.21138656
251	0xbe01a06b	-0.12658851
252	0x3d2bfd90	0.041989863
253	0x3c81797f	0.015805004
254	0xbdd2838f	-0.10278999
255	0x3d4f5b3d	0.05062412

l2.bias f4 [100]
0	0x3d07df32	0.03317184
1	0xbe3051dd	-0.17218728
2	0x3de19e81	0.1101656
3	0x3cbb25af	0.022845117
4	0xbd888228	-0.0666545
5	0x3de70b65	0.1128147
6	0x3ce350bf	0.027748464
7	0xbe21e94e	-0.15811655
8	0xbe11fdf3	-0.1425703
9	0xbce16410	-0.027513534
10	0x3cfa652a	0.030565817
11	0x3e37015f	0.17871617
12	0x3d339d71	0.04385132
13	0x3d2888d7	0.041146126
14	0x3dcf36bd	0.101178624
15	0x3dec1dc3	0.11529114
16	0x397a2e3f	0.00023859086
17	0x3c823f0b	0.015899202
18	0x3e909e94	0.28245986
19	0x3cc8f184	0.024529226
20	0x3e035ff1	0.12829567
21	0xbd7c7b8b	-0.061641257
22	0x3d5f504b	0.054519933
23	0x3d80f5d5	0.06296889
24	0xbdb16ef4	-0.08663741
25	0x3cfe439b	0.031038096
26	0xba8a80d0	-0.0010566954
27	0xbe0d2878	-0.13784969
28	0x3d4ae3fc	0.04953383
29	0xbd30065e	-0.042974822
30	0xbc4a74d7	-0.012356958
31	0xbcb376fe	-0.021907326
32	0x3c988ede	0.018622812
33	0x3be0980e	0.006854064
34	0xbe1ef7b8	-0.15524185
35	0x3d0e3fb5	0.034728725
36	0x3e10c652	0.14138153
37	0xbc2c983c	-0.010534342
38	0x3d25f8f7	0.040520635
39	0xbd532ec4	-0.05155827
40	0xbc16e8ba	-0.00921076
41	0xbd8acb49	-0.06777055
42	0xbd0db64f	-0.03459769
43	0x3c446739	0.011987501
44	0xbd4f77f5	-0.05065151
45	0xbd09f4b3	-0.03368063
46	0xbc9bbbe6	-0.019010495
47	0xbdb8f7dd	-0.09031651
48	0x3be73bd0	0.0070566908
49	0x3d054eda	0.0325459
50	0x3c989dde	0.018629964
51	0xbd1359fd	-0.03597449
52	0x3dc5cb7e	0.09657954
53	0x3d77dca7	0.060513165
54	0x3c2756de	0.010213582
55	0x3b22f846	0.002486722
56	0xbdad54d8	-0.08463448
57	0x3d8920fd	0.06695745
58	0xbcf36ff7	-0.029716475
59	0x3dda38f5	0.10655395
60	0xbe16aa78	-0.14713466
61	0xbe64be1b	-0.22338144
62	0x3dd8ee68	0.105923474
63	0x3e1d1f3b	0.15343945
64	0xbd18358b	-0.037160438
65	0xbcc1158c	-0.023569845
66	0xbcc739dc	-0.024319582
67	0x3d825a3c	0.06364867
68	0x3d6a986d	0.05727427
69	0xbd3aa82d	-0.04557054
70	0xbe31144f	-0.17292903
71	0x3c8b2b62	0.01698846
72	0x3d9d6d0b	0.07686814
73	0xbce7ed3c	-0.028311364
74	0x3d0e594d	0.034753133
75	0x3d1c82c7	0.038210656
76	0xbe60f5a8	-0.2196871
77	0x3e080e5e	0.1328673
78	0x3cb39add	0.02192443
79	0x3c86c4e0	0.0164513
80	0x3d142753	0.036170315
81	0xbc224200	-0.009903431
82	0x3bd93cce	0.006629563
83	0x3e1d7dd4	0.15380031
84	0xbcc5a6c2	-0.024127368
85	0x3ca5f6c0	0.020259261
86	0xbd3fd507	-0.046834018
87	0x3c324c6d	0.010882479
88	0x3c841610	0.016123801
89	0x3cccdf62	0.025008861
90	0xbe9abb1d	-0.3022088
91	0x3dc35265	0.095372
92	0xbc62f444	-0.013852183
93	0xbd1dd49e	-0.038532846
94	0xbceb9131	-0.028755756
95	0xbca1fd38	-0.019774064
96	0xbde78a3b	-0.11305662
97	0xbd5ab3c0	-0.05339408
98	0xbe3fcd60	-0.18730688
99	0x3d6bd52d	0.057576347

l3.weight f4 [18, 100]
0	0x3dbd5510	0.0924474
1	0xbd56bd98	-0.052426904
2	0xbcbda079	-0.023147808
3	0x3e10cd44	0.14140803
4	0xbe4913c7	-0.1963645
5	0x3bf7d81f	0.0075636054
6	0xbe131094	-0.14361793
7	0x3d5a7add	0.053339828
8	0x3c8b8764	0.017032333
9	0xbdb0d413	-0.086342
10	0x3d504d5a	0.05085502
11	0x3df99abd	0.12187717
12	0x3d9c7088	0.07638651
13	0x3d5ae39e	0.05343973
14	0xbe084b59	-0.13309993
15	0x3da0d615	0.07853333
16	0x3d99c802	0.075088516
17	0xbdc987d4	-0.0984036
18	0xbdcc6be0	-0.09981513
19	0x3db7ee96	0.089810535
20	0xbc94641e	-0.018114146
21	0xbd25b348	-0.04045418
22	0x3e1f06ab	0.15529887
23	0xbcba58e6	-0.022747468
24	0xbe86180d	-0.26190224
25	0xbde9574c	-0.11393604
26	0xbd052398	-0.032504648
27	0xbe7d4cb9	-0.24736299
28	0x3dff024f	0.12451612
29	0x3d95facb	0.073232256
30	0xbc7ffe61	-0.0156246135
31	0xbc57bf9e	-0.013168244
32	0x3e8cd873	0.27508888
33	0xbe85dfa4	-0.26147187
34	0xbdc34057	-0.09533756
35	0xbe178016	-0.14794955
36	0x3c98ddf3	0.018660521
37	0xbc33817d	-0.010956165
38	0x3e33b6ba	0.17550173
39	0xbd0e0163	-0.03466929
40	0xbc292552	-0.010323839
41	0x3e22ec09	0.15910353
42	0x3bce1020	0.0062885433
43	0x3dff0376	0.12451832
44	0xbd911d39	-0.07085652
45	0xbc048764	-0.00808892
46	0x3e425eda	0.18981495
47	0x3d1f97cd	0.038963128
48	0x3e182ee5	0.14861639
49	0xbe43b7f9	-0.19113149
50	0x3d19471f	0.037421342
51	0xbe6698a0	-0.2251916
52	0xbe265250	-0.16242337
53	0xbe05d8a6	-0.13070926
54	0xbd91723e	-0.07101868
55	0xbe2353cd	-0.15949936
56	0x3ce5bf66	0.028045367
57	0xbdc90116	-0.0981466
58	0xbe0816e2	-0.13289979
59	0xbd7c0250	-0.061525643
60	0x3e6e7989	0.2328855
61	0x3e3678ae	0.17819473
62	0x3d2bc6ba	0.041937567
63	0xbb8e030c	-0.0043338593
64	0x3da39f8d	0.07989416
65	0xbe5d2843	-0.2159739
66	0x3e69deaa	0.22838846
67	0x3d8efd02	0.06981851
68	0xbdd78122	-0.10522677
69	0x3e016daa	0.1263949
70	0xbe661901	-0.22470476
71	0x3d5e3586	0.054250263
72	0x3d82443f	0.06360673
73	0x3de86b49	0.11348588
74	0x3d2c2527	0.04202762
75	0xbe08eaa1	-0.13370754
76	0x3e3f8e78	0.18706691
77	0x3c2a0006	0.010375982
78	0xbe8d0cc6	-0.27548808
79	0xbc7ba0bd	-0.015358147
80	0x3e7fae6c	0.2496888
81	0xbe24ef62	-0.16106942
82	0x3d805353	0.06265893
83	0xbc060d7d	-0.008181927
84	0xbd93a9ec	-0.072101444
85	0x3da52434	0.08063546
86	0xbe7badf4	-0.24578077
87	0xbe02c548	-0.1277057
88	0xbe1dae54	-0.15398532
89	0xbe67f8cf	-0.22653507
90	0x3e70a29c	0.2349953
91	0x3d936ab6	0.07198088
92	0x3e1176c3	0.1420546
93	0x3de0c543	0.10975125
94	0x3d89e1f2	0.06732549
95	0xbd9ddd6e	-0.0770825
96	0x3d202e71	0.03910679
97	0x3cef9414	0.029245414
98	0x3c312740	0.010812581
99	0xbe694ca6	-0.22783145
100	0x3d6e8e63	0.05824126
101	0xbe238aaf	-0.15970872
102	0x3dae3f07	0.08508115
103	0x3d8ee10f	0.0697652
104	0x3da174d3	0.078836106
105	0x3c3eea9b	0.011652614
106	0x3de8cc1f	0.11367058
107	0xbe7d20ff	-0.24719618
108	0xbe5cd4df	-0.21565579
109	0x3d8269dd	0.06367848
110	0x3afa8278	0.0019112369
111	0x3d9d3baf	0.07677399
112	0x3dd0516e	0.101717815
113	0x3df8fb99	0.121573634
114	0x3eba14f7	0.3634412
115	0x3b5931ff	0.0033141372
116	0xbd9f5482	-0.077797905
117	0xbd3681a2	-0.04455722
118	0x3e204d8f	0.15654586
119	0xbdecce86	-0.11562829
120	0x3df355fe	0.11881636
121	0x3d804172	0.06262483
122	0x3e1ebaf0	0.15500998
123	0x3bf2f470	0.007414393
124	0xbe771cea	-0.24132124
125	0x3df44356	0.11926906
126	0xbe0ab4cd	-0.13545533
127	0x3d1bfd78	0.038083524
128	0xbe20b389	-0.15693487
129	0xbd303a22	-0.04302419
130	0x3e78c069	0.24292149
131	0xbd855ff5	-0.06512443
132	0x3e050515	0.1299022
133	0x3d8aa708	0.0677014
134	0x3d053d57	0.0325292
135	0x3ddee3f6	0.10883324
136	0xbb5f6008	-0.0034084339
137	0x3c297933	0.010343838
138	0xbd3e3740	-0.04643941
139	0x3dcf900c	0.10134897
140	0xbdb29623	-0.087200426
141	0xbe304f36	-0.17217717
142	0xbdb25121	-0.0870688
143	0x3eaa21b9	0.33228853
144	0x3d446a19	0.047952745
145	0x3c360886	0.011110431
146	0xbd1bfebc	-0.03808473
147	0x3d1c2282	0.038118847
148	0x3d46a393	0.04849584
149	0xbe2ee170	-0.17078185
150	0x3dc87bb6	0.09789221
151	0xbdef3eec	-0.11681923
152	0x3eae9cef	0.34104106
153	0x3d9d46cf	0.07679521
154	0x3eb45c6a	0.35226756
155	0x3c2a1a31	0.010382221
156	0xbde9d18b	-0.1141692
157	0xbd28cf21	-0.04121316
158	0x3c0a2545	0.008431737
159	0x3e4a5405	0.19758613
160	0xbdc5016a	-0.0961941
161	0x39cef2dd	0.0003947233
162	0x3e5be376	0.21473488
163	0xbe371e3c	-0.17882627
164	0x3c99e2d5	0.01878492
165	0x3d4a148a	0.049335994
166	0xbd1fe945	-0.039040823
167	0xbe5dfaa9	-0.2167765
168	0x3e9dfd6d	0.3085741
169	0x3b88f130	0.0041791424
170	0xbe14c0fd	-0.14526744
171	0x3dc6f767	0.09715157
172	0x3e4c18c3	0.19931321
173	0xbc43bcc5	-0.011946862
174	0x3e19c84d	0.15017815
175	0x3daca4d9	0.0842988
176	0xbe8b3f6e	-0.2719683
177	0xbddd49e1	-0.10805107
178	0x3c84bc24	0.016202994
179	0x3e232af4	0.15934354
180	0x3c9791db	0.018502166
181	0x3e3ac448	0.18238938
182	0xbe3b017c	-0.18262285
183	0x3e5be6b5	0.21474726
184	0x3d8167e4	0.06318644
185	0x3d91f486	0.07126717
186	0xbe28ce2a	-0.16484895
187	0x3d2b34bd	0.041798342
188	0x3ddc0c33	0.10744514
189	0xbd6f115c	-0.058366165
190	0xbe073981	-0.1320553
191	0x3d0dc5ef	0.034612592
192	0xbd1ef0c5	-0.038803834
193	0x3d905c18	0.070488155
194	0xbdc04ea4	-0.093899995
195	0xbe54fdb8	-0.20799911
196	0xbd0b5762	-0.03401888
197	0xbe3fabb5	-0.18717845
198	0xbe0c8d66	-0.13725814
199	0x3e3aef86	0.18255433
200	0xbe08f1ca	-0.13373485
201	0x3db8a081	0.09014989
202	0x3e161e19	0.14659919
203	0xbd6c9a7c	-0.057764515
204	0xbdc8ba53	-0.098011635
205	0x3e4a3c1e	0.19749495
206	0xbd5fc61d	-0.054632295
207	0xbc6ccf85	-0.014453773
208	0x3e5fe97c	0.21866411
209	0xbd264db2	-0.04060144
210	0xbd52de82	-0.05148173
211	0xbb06b6cb	-0.002055573
212	0x3e212ab5	0.15738948
213	0xbd941a44	-0.07231572
214	0xbd277c2c	-0.040889904
215	0xbd6d33fd	-0.057910908
216	0x3e32eaf9	0.17472447
217	0x3dca0fed	0.09866319
218	0x3e3da939	0.18521585
219	0x3c3c5fb6	0.011497429
220	0xbd6af2fa	-0.057360627
221	0xbc2a357f	-0.010388731
222	0x3e3676da	0.17818776
223	0xbd18f025	-0.037338395
224	0xbd94eea5	-0.0727208
225	0x3d8edf1c	0.069761485
226	0x3c9e9bdb	0.019361427
227	0x3d4b75ba	0.04967282
228	0xbc1945de	-0.009355037
229	0xbb582a75	-0.003298429
230	0xbd8b1a12	-0.06792082
231	0xbdbde862	-0.09272839
232	0xbe0620fd	-0.13098522
233	0xbe61d2d3	-0.2205308
234	0x3ddc3419	0.10752124
235	0xbb830e98	-0.0039995424
236	0xbdb0c023	-0.08630397
237	0xbc26392d	-0.010145468
238	0xbcbe9824	-0.023265906
239	0xbe0dc668	-0.13845217
240	0x3db57b44	0.08861402
241	0x3e23bc82	0.15989879
242	0xbbcb0926	-0.006196159
243	0xbe226a98	-0.15860975
244	0xbd29c630	-0.041448772
245	0xbdbfb740	-0.09361124
246	0xbe3467dd	-0.17617746
247	0xbdc3b19b	-0.0955536
248	0xbdaf7f86	-0.08569245
249	0x3d21baa1	0.039484624
250	0xbe174217	-0.14771305
251	0x3d91d9aa	0.07121594
252	0xbd65947c	-0.05604981
253	0xbe4d62e6	-0.20057258
254	0xbe334144	-0.17505366
255	0x3d85a30d	0.0652524

l3.bias f4 [18]
0	0x3e7d238a	0.24720588
1	0xbef1c636	-0.47221535
2	0xbd196d45	-0.037457723
3	0x3f1c45dc	0.61044097
4	0xbdf4426c	-0.119267315
5	0xbea7eddd	-0.32798663
6	0x3e26bb30	0.16282344
7	0xbebf93fb	-0.37417588
8	0x3e57005b	0.2099623
9	0x3e9215e7	0.28532335
10	0x3e8590a0	0.26086903
11	0x3cc88db6	0.024481636
12	0x3e99f772	0.30071598
13	0xbed2a3ff	-0.41140744
14	0x3e9e4911	0.3091512
15	0x3e5fb581	0.21846582
16	0xbd626cf2	-0.05527968
17	0xbbbd67fb	-0.0057802177
