data/result/g_490.pt (torch, 87406 bytes, 7 tensors)

G_attr_matrix.weight f4 [36, 5]
00000000: 633a 583d f0d6 29bd fcbb 92be 9a6b 583d
00000010: 95f6 e43b aeff 8ebd b3e4 3c3d aa67 013e
00000020: d1bc 953d defe 82bc 5986 32bd 6407 783c
00000030: e5d3 713c 64cc 1e3d b4b7 e0ba cce6 36bd
00000040: 35ff a8bd 7ee9 b6bd cf26 62bd ba57 41bc
00000050: afa3 b6bb 0fe2 d8bd ae86 69b9 6090 cabb
00000060: 0b7c a33c 53eb a43d 8182 bb3b 2c66 d3bc
00000070: 196c 613e f3f2 ccbd ca43 dcbc 60df 6dbc
00000080: b2f3 b5bc b6ef ce3c 046e 243e 7065 4f3e
00000090: 8b73 013e 78f9 4d3e 9407 2f3e 477c 853d
000000a0: 030b c03b 3eb5 083c b7d1 30b9 d002 44bd
000000b0: 632a 05be 3c45 01bc bcd1 afbc ae16 20bb
000000c0: 259b 8b3d 05d6 483e aa18 783e 4aca 843c
000000d0: e667 8c3c 9839 91bd 8ace 40bc 627e c4bb
000000e0: 8d53 2bbe 5041 6ebe 8f36 7a3d a402 373e
000000f0: cb94 c73a 81b9 c43d f8f9 99b9 a3e4 463a
00000100: 284c 223d 943b a5be dcd4 2b3c 0fe9 573d
00000110: cd11 02be 4e8a 18be bf54 eebc d979 c2bc
00000120: adb1 983d c3c2 223c e45b 143d eb85 47be
00000130: cd7f fc3d 321c 41be 99cd f73d f0f7 0fbe
00000140: 7853 393e e30f 31bc 9114 7fbd f1bd 193e
00000150: 0534 c5bd 5f3b 093d 2ba3 983e 573a e33e
00000160: 3ffe 033e db21 903d 38a5 0fba eae4 80be
00000170: caf1 a1bb 582e 8c3d 5aa3 9bbd ea92 36bd
00000180: 4d50 0f3e 7b7d 66be 9c65 d33d 3cad 7e3d
00000190: 83cb 4cbe 957b 51bc 1392 423c 3fd5 6dbc
000001a0: 831a 27bc 825c 4abe f0ae 8f3d 87dc ebbd
000001b0: 1cdf 2f3e f017 af3d ac36 3bbb f72a 48bc
000001c0: 53fe 2abc 5fcb 253c ecb7 e73a c349 c93d
000001d0: 334e 813e 71d4 403e 4d89 49be b140 c1bc
000001e0: 6b51 e13e 905a 0f3c 96f4 053c 2407 50be
000001f0: afc8 46bc 6e99 623e 0e05 68be 6f5f 2fbd
00000200: 0fa9 2ebe d0cc 073e 4715 8c3c f5ec 263d
00000210: e952 d9bc 9d00 8c3d 85ba 16bd 8dbc 59be
00000220: b352 aabe 703c 2d3e bd6e 4a3e e0ca 773e
00000230: c1fd fabc f4da d43b 0260 7d3a 7d65 b9ba
00000240: a908 05bd 9781 883d 6a72 b5bc 7860 88bb
00000250: 9284 f03b a084 063e ce41 01bc 1730 273c
00000260: 88de 583c 43a4 3cbd 132a 8dbd 86c6 143d
00000270: 89f2 91bd 49ad 58bd f46b 373e 2688 843e
00000280: 7c0c 35bc 9d0e f6ba 4f29 fa3c 6ee9 d038
00000290: b000 38bc a8c7 063e 02c8 263e b3d3 c5be
000002a0: c332 173d b183 213e 54d6 2b3b e5f7 7dbb
000002b0: a4c0 e23d 2adf 8a3e 75a1 073e 0724 6c3c
000002c0: b62d 8d3e 74a1 19be e2b8 49be 1036 0b3e
0.052790057 -0.041464746 -0.28659046 0.05283699 0.0069874027 -0.06982361 0.046116542 0.12637201
0.073114045 -0.01599067 -0.043585155 0.015138481 0.014759992 0.03876914 -0.0017144592 -0.0446537
-0.08251802 -0.08931254 -0.055212792 -0.011800701 -0.005573712 -0.10589992 -0.00022270784 -0.0061817616
0.01995661 0.08052697 0.0057223444 -0.025805555 0.22013892 -0.100072764 -0.026887793 -0.014518589
-0.02221093 0.025260787 0.16057593 0.20253539 0.12641732 0.20114696 0.17092735 0.06517845
0.0058606877 0.008343993 -0.00016862793 -0.047854245 -0.1300445 -0.007890042 -0.021462314 -0.002442758
0.06816701 0.19612892 0.24228159 0.01620974 0.017139386 -0.07091063 -0.011767993 -0.0059965113
-0.16731091 -0.23267102 0.061087187 0.17872101 0.0015226839 0.096056946 -0.00029368675 0.000758717
0.03962341 -0.32272017 0.010487761 0.052712496 -0.12702103 -0.14896509 -0.029093144 -0.023739742
0.07455764 0.00993413 0.036220446 -0.1948468 0.123290636 -0.18858412 0.120997615 -0.14059424
0.18098247 -0.01080701 -0.062275473 0.15013863 -0.096290626 0.033503886 0.29811987 0.44380447
0.12889956 0.070377074 -0.00054796366 -0.25174648 -0.0049421536 0.06844777 -0.07599516 -0.044573702
0.13995476 -0.22508805 0.10322115 0.062176928 -0.19999509 -0.012785812 0.011875647 -0.014516174
-0.010199192 -0.19761851 0.070157886 -0.11516672 0.17174953 0.085494876 -0.0028566523 -0.012217275
-0.010436612 0.010119288 0.0017678714 0.09828522 0.25254974 0.1883104 -0.19681282 -0.023590418
0.4400743 0.008749619 0.00817599 -0.20315224 -0.012132808 0.22128841 -0.22658178 -0.042815622
-0.17056678 0.13261724 0.01709999 0.040753324 -0.026528792 0.068360545 -0.036798973 -0.21263333
-0.3326622 0.16917586 0.19768806 0.24198484 -0.030638577 0.006495828 0.00096654904 -0.0014144626
-0.032478962 0.06665342 -0.022149283 -0.0041618906 0.0073400224 0.1313653 -0.007889224 0.010204337
0.013236649 -0.04605509 -0.06892791 0.03632214 -0.07126338 -0.052899633 0.17912275 0.25885123
-0.01105034 -0.0018772666 0.030537276 9.9616926e-05 -0.011230633 0.131621 0.16287234 -0.38638076
0.036913645 0.15772893 0.0026220279 -0.0038752493 0.110718995 0.27123386 0.13245185 0.014412886
0.27573937 -0.15002996 -0.19699433 0.13594842

l1.weight f4 [100, 90]
00000000: 6a6a 403e d38c 62bc 10a0 a73d 5df0 da3d
00000010: 4b9d cb3d f9e9 473d c82e c73d b481 323d
00000020: 428d 78be 1a5d ebbd 5266 b63d 3033 4ebe
00000030: 89f4 bfbd fcd2 433d 35c3 01bd 4f16 bf3d
00000040: 673a e43c c9cf 86bd f8ff febc a95d cc3d
00000050: 6ec9 1f3e 43eb 76bc d5ad d03d 045f b0bd
00000060: a3ba 6a3c a704 823d 69e3 3c3e 24db 9f3d
00000070: 2736 213e e0bd d43b a666 973d bc0c 0dbe
00000080: 39f1 6cbe 39fb 09be 8cec b0bd 1df3 293d
00000090: 67cb 193e 5ca6 68bc 1c3b cabd 381f 393e
000000a0: 0355 76bc c3b0 51bd cd8d f03d 12d2 183d
000000b0: 706e e33a 912c 673d 5554 fcbd 3023 31bd
000000c0: 24ed 573d f3b7 90bd c98e ea3d 6fb7 c8be
000000d0: a1ef 483e 35fd 8abd b814 11be d424 f73c
000000e0: 6eb5 32bd 6de9 44bc bf46 81bc caa2 363e
000000f0: 6059 d8bc bd3d 25be 15b7 50bb bf46 063d
00000100: c79d 84bd 907b c9bd 5233 c03c c9e7 37be
00000110: 4b64 b8bb a695 35be affc 31be ba62 c83d
00000120: cfff 9d3d b3d6 4a3e 461e 30be 79e6 a8bc
00000130: 7351 55be aff1 debc d6c7 a5bd c632 293d
00000140: fa01 c93b 2047 3cbd 568e 0a3d 3304 133e
00000150: 02c4 4cbe d2f8 a03d a50d f33c 1ec8 90bd
00000160: b45c 493d 2832 323e 1a61 7e3e c7f0 9dbd
00000170: fbcd 6fbd 3056 1ebd d1a7 1cbe f5dd 3b3d
00000180: 2ed2 4b3e fccb 23bd bcf1 713d b2b3 c73d
00000190: 0466 943d 14e9 d1bc d545 01be 2ae6 253b
000001a0: cc61 f3bd 6895 8dbd 6605 e63d 1740 26be
000001b0: cd0d 863d 80ab 543d bbde 083d 28a5 193d
000001c0: e650 103a 957b 37bd b26d a7bc 9e75 2b3d
000001d0: ebb0 713c 63b7 58bd c342 aabc 8d0f 7d3d
000001e0: 3b09 553d 6453 14bd 47de c0bc a75a 913d
000001f0: 44af 30be 30cd 70bb 14b9 83bd 05c6 b43d
00000200: d8b3 dc3c 543b 953d e2aa 26bd 0996 003e
00000210: 0ef3 e6bd 78cc 183c 0c2a 4dbe e4cc 82bd
00000220: 9c60 903d 35f9 03be 8651 ba3a 40c7 92bc
00000230: 906c b83d 27a4 0dbe b33a 6cbe 09fc 0bbe
00000240: 271f 86bd fcb1 013e 08df ad3d 072e 873d
00000250: e3a6 52bc da97 bfbd 90e4 f3bc b06f 7ebd
00000260: de5d b4bd 995d e7bc 010f 2f3d a5d0 b0bd
00000270: ef09 1ebc d708 16bd ecce b23c 6d14 083e
00000280: b6db 41be 1aab 323e 04f9 20be b8e5 4bbd
00000290: 167f 8b3c 3c04 86bd f418 ed3c 8523 e1bd
000002a0: 397f 313e c1a8 7c3d 98e8 e63c f70d 8fbd
000002b0: aac2 49bd 8002 b73d 8dca afbd ecd8 e1bd
000002c0: 2290 80be d7f5 f43d 9ab9 cfbd ef3b ffbc
000002d0: 73f5 5d3b a746 123e 07a7 d23c 5ced 5bbe
000002e0: 9613 06bd 17f3 27be 9b98 98bd c949 a53d
000002f0: f338 ef3c 5e9c 93bd 27c9 6e3d d709 35be
00000300: 912c 0fbe 94b1 e03d 1c22 25bd 284f aabd
00000310: ee58 e3ba 1d5b f83d a05f 243d 0b22 013d
00000320: 0705 7dbd 46e0 673d 410e 50be 0f00 953d
00000330: 62ab 853e 61ec dcba 468d 0a3b 1ca8 71bd
00000340: 1d84 abbd e008 0f3e 293e 463b 9463 29bb
00000350: c87b f23d afb9 863d e3c2 1c3b 9c4f 173e
00000360: 41ec 433d f531 a9bd 2695 04bd 2b37 acbc
00000370: 3818 f8bd 4143 05be 5e36 613d d7d1 0abd
00000380: f1ee 763e d6bc 6fbd 830d 183e 14f9 873d
00000390: bbb8 673d f333 6b3d df6b 3f3e 54b5 59bd
000003a0: ecde 67bd a54f 9a3d 82ae 1c3d 9cd2 f93d
000003b0: cab5 bcbd 7c5e a53b cfe4 273e 785e 0bbd
000003c0: 32ae b23c 5323 00be ed6a cf3d 4618 973d
000003d0: 52fb c7bd 6742 60be 7f82 bcbd 74a3 e8bd
000003e0: e32c 03be 2653 fa3c 0a99 d43d eaa5 a13d
000003f0: 18c6 11be 4b17 bdbd 087c 913d 76ed 223c
0.18790594 -0.01382752 0.081848264 0.10690377 0.09942111 0.048807118 0.0972572 0.043580726
-0.24272636 -0.11492367 0.08906235 -0.20136714 -0.09372813 0.047808632 -0.031680305 0.09330427
0.02785988 -0.065826006 -0.031127915 0.09978802 0.15604183 -0.015070739 0.10189406 -0.08611873
0.014326724 0.063485436 0.18446125 0.0780547 0.15743314 0.0064923614 0.073926255 -0.13774389
-0.23138894 -0.1347474 -0.08638868 0.041491617 0.15018998 -0.014199819 -0.098745555 0.18078315
-0.015034917 -0.051193964 0.11745796 0.037309714 0.0017351639 0.056438986 -0.123207726 -0.043246448
0.05271639 -0.070663355 0.11453015 -0.3920245 0.19622661 -0.06786577 -0.1416806 0.030168928
-0.043630056 -0.012018544 -0.015780805 0.17835537 -0.026409805 -0.16136833 -0.0031847407 0.032782312
-0.06475406 -0.09838021 0.023461971 -0.17959513 -0.00562719 -0.17732868 -0.17381547 0.097844556
0.07714807 0.19808464 -0.17199048 -0.02061771 -0.20831852 -0.027214853 -0.08094756 0.041308187
0.006134269 -0.045966268 0.03382715 0.1435707 -0.19996646 0.07859959 0.029669592 -0.07069419
0.049160674 0.17401946 0.24841729 -0.0771194 -0.058546048 -0.038656414 -0.15298392 0.04586597
0.19904396 -0.039989457 0.059068426 0.09751071 0.072460204 -0.025623836 -0.12624295 0.002531419
-0.11883888 -0.069132626 0.112314984 -0.16235386 0.06545601 0.051921368 0.033415537 0.03751102
0.0005505219 -0.04479559 -0.020438049 0.041860215 0.014751653 -0.052909266 -0.020783788 0.06178241
0.052010756 -0.03621234 -0.02354349 0.07097369 -0.17254359 -0.0036743395 -0.06431785 0.08826832
0.026941225 0.072867066 -0.04069031 0.12557234 -0.11276828 0.009326093 -0.20035571 -0.06386736
0.07049677 -0.12888034 0.001421497 -0.017917275 0.09005082 -0.1383215 -0.23069267 -0.13670363
-0.065489106 0.12665552 0.084898055 0.06600576 -0.012857172 -0.09355135 -0.029772073 -0.062118232
-0.08806966 -0.028242873 0.04273892 -0.08633546 -0.009645923 -0.036629524 0.021827184 0.13289042
-0.1893147 0.17448083 -0.15719992 -0.049779624 0.017028373 -0.065437764 0.028942563 -0.10993103
0.17333688 0.061684374 0.028187081 -0.069850855 -0.04925791 0.08936024 -0.08583555 -0.11027703
-0.25109965 0.11960953 -0.101428226 -0.031156508 0.0033868223 0.14284764 0.02571441 -0.21477264
-0.032733522 -0.16401325 -0.07450982 0.08070714 0.02920196 -0.07207559 0.058297303 -0.17679535
-0.13981844 0.1097137 -0.040315732 -0.08315879 -0.0017345229 0.121267535 0.040130258 0.031526607
-0.061772373 0.05661037 -0.20317937 0.07275402 0.26107317 -0.0016855114 0.0021141334 -0.058998212
-0.08374808 0.1396823 0.0030249453 -0.0025846707 0.11840016 0.06578385 0.0023919872 0.14776462
0.04783273 -0.08261482 -0.0323688 -0.0210224 -0.12113994 -0.13013937 0.05498349 -0.033891525
0.24114586 -0.058529697 0.14848904 0.06639305 0.056572657 0.05742259 0.18693493 -0.053151444
-0.05660908 0.07534722 0.03825236 0.12198374 -0.09214361 0.005046664 0.16395877 -0.03402564
0.021811578 -0.12513475 0.10127816 0.07377677 -0.097647324 -0.2190033 -0.09204578 -0.11359301
-0.12810092 0.030557226 0.103807524 0.07892974 -0.14235723 -0.092329584 0.07103735 0.00994431

l1.bias f4 [100]
00000000: 0db9 d5bc 6e87 8e3c 0659 243e 87a0 913d
00000010: 6f14 083e 104d ba3b 083a 493e 7abe 22bd
00000020: ed85 1bbd 2523 6bbd e98e 2cbd d646 debd
00000030: 1dc8 b3bc 79ca 093c 1db8 0abd e9f2 ed3d
00000040: 9bf7 223d 7dbe 303d eeee aebd 7124 00bd
00000050: 5352 323e 05c9 00bd 22f6 fdbc fd7c f23d
00000060: c7a6 a13c 5d8d 1e3e 80b4 3cbd 7fb0 ffbd
00000070: 5db0 3dbb bae9 a8be f815 4e3d 6f4a d73d
00000080: 46d2 23be 4a6e 80be b75f 53be 2879 6ebc
00000090: b369 b63c edbf 1b3e ecec 26bb 4edf 42bd
000000a0: 933a 64be 491b 733e 2bc3 09be b6af be3b
000000b0: a172 5abd 6fbf a4bc 574d cabb 1da6 04bd
000000c0: 2cd0 80bd 34e1 38be 6d9e e7bb 1d17 263e
000000d0: 3d13 de3d dd0c 34be 184d 89bc 453e 35bd
000000e0: fad2 0bbd 1a57 773d 5a0e f6bc f42d 91bd
000000f0: 4270 19be 48d3 7e3d 3106 c2bc 46ae d73d
00000100: abc7 db3d e937 05be a01b e5bb 7531 c23d
00000110: 971f 00bd b88b fa3b 902e c73d a0c7 a5bd
00000120: 964c 08be bc1e 433e adbf ac3d 96cc 493d
00000130: 68e3 35be 9eca 6dbd d25c 5ebe 8143 d7bd
00000140: d977 363d ba54 febd 7ff8 02bd b340 6d3d
00000150: b662 203d 1200 b23c 61b5 88bd 634b 983c
00000160: 99db 09be dcff 7ebc 9d0f 0a3e e190 9a3d
00000170: 0266 8bbc 9925 133d c06c 033e a8ad 19bd
00000180: 0483 3a3a 3322 cabd be63 17be d440 f63b
-0.026089216 0.017398562 0.16049585 0.07110696 0.13289045 0.005685456 0.19651043 -0.039732434
-0.03796952 -0.057406563 -0.042128477 -0.10853355 -0.021946007 0.00841009 -0.03386699 0.11618597
0.039786916 0.043150414 -0.08541666 -0.031284753 0.17414217 -0.031441707 -0.031001154 0.11840246
0.019732846 0.15483613 -0.046070576 -0.12484836 -0.0028944232 -0.3299082 0.05031392 0.10512244
-0.15998182 -0.25084144 -0.20641981 -0.014555253 0.022267198 0.15209933 -0.0025470806 -0.04757624
-0.2228797 0.23740877 -0.13453357 0.005819286 -0.053331975 -0.020110814 -0.0061737704 -0.03238498
-0.06289706 -0.18054658 -0.0070684464 0.16219755 0.10843513 -0.17583032 -0.016760394 -0.044248838
-0.03413675 0.0603858 -0.03003614 -0.07088843 -0.14984229 0.062213212 -0.023684593 0.10531287
0.10731443 -0.1300961 -0.0069918185 0.094820894 -0.031280126 0.0076460503 0.09725678 -0.08094716
-0.13310465 0.19054693 0.08434997 0.049267374 -0.1776253 -0.05805456 -0.21715096 -0.10510922
0.04454789 -0.12418504 -0.031975266 0.05792303 0.039156638 0.02172855 -0.0667522 0.018590635
-0.13462676 -0.015563931 0.13482518 0.07547165 -0.017016415 0.035924528 0.12834454 -0.037519127
0.000711486 -0.09869804 -0.14784142 0.0075150523

l2.weight f4 [100, 100]
00000000: a252 653d c098 1a3e 3fdd 56bd 150d 33bd
00000010: b4c6 9dbd 8c64 1e3e c15d 22bd 2021 e13d
00000020: 2d26 a8bd f1fc a1bd ca8c 833c 993f 9cbd
00000030: e384 aabc 4ab9 35bd 742b 0b3d e26e 2d3c
00000040: 193e 57be 2c56 03be 06b3 983c 0f19 303e
00000050: 05f3 4a3c dabd 043e 2da2 a13d 04e0 bd3c
00000060: d430 443d 2c6e 713d 80cd 65be ecd6 01be
00000070: 8f32 5fbe 0112 0fbe 2257 de3d 4f9e c2bd
00000080: 9070 4e3d b826 5b3c 456c 553d 4c94 4f3d
00000090: 31c0 94bd 1d82 68bc 5979 c1bd bd55 a13d
000000a0: f9d7 7cbd e5e6 b73d 2991 42bc 8787 26bd
000000b0: 0e17 f43d a6c9 84bd 35d0 0abe a67b 3a3e
000000c0: d06c 1bbd 2917 603d 0851 b3bc 10b6 dc3c
000000d0: 8a4f 643c ee69 abbd 7f01 0d3e ccd5 5f3d
000000e0: d6e1 c2bd 8ccf c43c 3d4e f6bd 2bab 4ebd
000000f0: a4e0 a43b a840 f33d 08ee bfbb a7d2 f83c
00000100: d881 293d dc25 eebd aadf 433d e242 19be
00000110: 6314 103e 732e 943d 0aa0 c9bd 875e ac3d
00000120: 38ea ea3d fec5 c83d 1f89 ce3d 4672 d33c
00000130: 8e41 7d3e 4ea5 a13c e425 58bd 75da f4bc
00000140: a56b 2c3e 1472 8cbc e41e a5bd 6272 66bc
00000150: a325 853d 5039 9dbd bf43 2ebd a5bc f9bd
00000160: 1d3c ebbd 6cec dbbd 3b6a 97bd f374 9d3c
00000170: 960f a7bc e1f3 c9bd 57fc 33bd 1118 d73b
00000180: f5b1 b1bd 128a 713e c128 593c 2fb6 223d
00000190: 0cf2 e5bd ecdd f13c 4998 14be 781d 433d
000001a0: d905 473e 3ea8 fbbb 2b29 4d3e ee7b 61bd
000001b0: 5c50 ce3d 10f4 d3ba ef2b 103d 6472 ab3d
000001c0: 9a9b 8fbb 603e 33bd 8dff f9bd e162 c9bd
000001d0: fc78 023c bb61 e7bd 4f7b 6f3d 8262 fb3d
000001e0: fcfc 56bd c9a1 42bd 3bf8 b33c 8ef9 703d
000001f0: 9608 303d 54d5 c93c 95ce 2dbd fbe7 61bd
00000200: 182b e53d 594f dfbd 14c3 4cbd a13f 76bb
00000210: 6248 003e 76ce ba3b 700f 0f3e 427a db3d
00000220: fb7e 0f38 6922 9cbd 34de 00bd 3a18 11bd
00000230: b420 8d3d 0cb0 94bc 66b3 5d3c 9b1a 5fbd
00000240: ebca 87bc 9209 093e bbd0 453d b12a 043e
00000250: 67c7 5fbd 308e 3a3c c439 d1bc 0801 2ebc
00000260: 6ccb e9b8 5ef7 f23d 333f ef3d 5480 443d
00000270: fdf9 cfbd 5281 933d 6016 35be bf2f 76bd
00000280: 0301 f13c 7738 bf3d 9173 a7bc 7076 453d
00000290: 65b1 433d 8f94 c5bc 1871 de3d 6c3f 59bc
000002a0: 58ae 223d 9c69 14be e3c9 b5bc eccd d33c
000002b0: 975a cbbd 1ec8 243c 7f2e 993d ae3d b53c
000002c0: 9234 90bd 95ce 8e3b d23b d5bd 0fd7 11be
000002d0: f54f 06be c41c 40be 2057 873d 7bb1 cebd
000002e0: 3b83 29bd 2100 de3c 3901 24be bda1 4abd
000002f0: 2102 34bd d3cf 8abd 9b1b 193e 4264 bf3c
00000300: 3572 e9bd b8da d23c 67b8 bf3d f1c2 ff3c
00000310: aa17 b33d 23df 07be eb01 abbd 718e 1cbd
00000320: 1e79 823d 25c5 0c3d c18c 0d3e 7fcc 903d
00000330: e92e 16bd 3889 343e fcf7 1cbe bb98 8ebd
00000340: a05b 10bd 3b72 38bd afad 5b3e 688a cd3d
00000350: 2f53 29be d2a8 08be cea0 a83c d3e7 82be
00000360: 9090 2ebe c68d 27be de10 0b3d 00d7 ad3d
00000370: e28a 613d 1bb6 a93c abca 74be 63e4 443e
00000380: a17f f43b 2d1f 1c3d 27cd fbbc 6a86 c83c
00000390: 8645 60bd 71fb 2cbe 3bd0 00be fcb7 d83b
000003a0: d1d2 c73d 0292 203e 1a78 5abe c571 4ebd
000003b0: 1a2a 043e 02b4 cf3d cbfc 533e 11c2 223d
000003c0: 2838 16bd 24a1 26be f345 53bd 632e abbd
000003d0: c1a2 87bd f696 4d3d f039 233d 1140 4fbd
000003e0: 5c42 963d 0db1 3c3e a39d 6d3e 3728 0cbe
000003f0: a134 f83c 63d4 cb3c 7ad6 ecbd 94e0 873d
0.055987008 0.15097332 -0.05245709 -0.043713648 -0.07703915 0.15468043 -0.039640192 0.10992646
-0.082104065 -0.07909573 0.016058344 -0.07629318 -0.020815318 -0.04436616 0.033976987 0.010585519
-0.21019782 -0.1282584 0.018640053 0.17197059 0.012387042 0.12963048 0.07892261 0.023178108
0.04789813 0.05894296 -0.22441673 -0.12679642 -0.2179663 -0.13971712 0.10856463 -0.09502851
0.050400317 0.0133759305 0.052105207 0.050678536 -0.0726322 -0.014191178 -0.09446973 0.078776814
-0.061729405 0.089795865 -0.011875429 -0.040656593 0.1191846 -0.06483774 -0.13555987 0.1821123
-0.03794557 0.054709587 -0.021889225 0.026942283 0.013934979 -0.08369814 0.13770102 0.054647252
-0.09515731 0.024024747 -0.120266415 -0.050456207 0.005031662 0.118775666 -0.005857233 0.030373884
0.041383594 -0.11628315 0.047820725 -0.1496692 0.14070277 0.07235422 -0.09844978 0.08416467
0.11470455 0.09803389 0.100847475 0.025811326 0.24732038 0.019732144 -0.05277051 -0.029889325
0.16837938 -0.01714424 -0.080625325 -0.014065357 0.06501319 -0.07676947 -0.042545076 -0.12194184
-0.11486075 -0.10738453 -0.07393309 0.019220805 -0.020393174 -0.09860969 -0.043941822 0.0065641482
-0.08676521 0.23587826 0.013254345 0.039724525 -0.112278074 0.029524766 -0.14511217 0.047635525
0.19435824 -0.007679968 0.20035236 -0.05504983 0.10073921 -0.0016170759 0.03519815 0.08371428
-0.004382563 -0.043760657 -0.122069456 -0.09833313 0.007963415 -0.112979375 0.058467206 0.12274648
-0.05248736 -0.04751757 0.021968951 0.058831744 0.04297694 0.024637856 -0.04243334 -0.055152874
0.1118986 -0.10903806 -0.04999073 -0.0037574547 0.12527612 0.0057008816 0.13970733 0.10716678
3.4212117e-05 -0.07623751 -0.03146191 -0.035423495 0.06891003 -0.018150352 0.013531541 -0.054468732
-0.016576251 0.13382557 0.048294764 0.1290691 -0.054633524 0.011386439 -0.02554024 -0.010620363
-0.00011148196 0.11863588 0.11681976 0.047973946 -0.10155103 0.072024 -0.17684317 -0.060104128
0.029419428 0.09336942 -0.020440849 0.048208654 0.0477766 -0.02411869 0.10861415 -0.01325975
0.03971705 -0.14493412 -0.022190994 0.025855027 -0.09929388 0.010057477 0.074795716 0.022124138
-0.07041277 0.0043581226 -0.104118004 -0.14242195 -0.13116439 -0.18760973 0.06608415 -0.100924455
-0.041384917 0.02709967 -0.16016091 -0.049470652 -0.043947343 -0.067779206 0.14951937 0.023363236
-0.113987364 0.025739059 0.09361344 0.031220885 0.08744748 -0.13268714 -0.08349975 -0.03822178
0.063707575 0.0343677 0.13823225 0.070702545 -0.03666583 0.1763047 -0.15328974 -0.06962725
-0.03524363 -0.045030814 0.21452974 0.100361645 -0.16535638 -0.1334565 0.02058449 -0.25567493
-0.17047334 -0.16362676 0.033951633 0.084882736 0.05506409 0.020716717 -0.23905437 0.19227748
0.0074615036 0.03811567 -0.030737473 0.024478156 -0.054753803 -0.16892792 -0.12579434 0.0066137295
0.09757007 0.15680698 -0.21334878 -0.050401468 0.12906685 0.10141756 0.20701902 0.039735857
-0.03667465 -0.16272408 -0.05158038 -0.08358457 -0.0662284 0.050192796 0.039850175 -0.050598208
0.07336876 0.18426915 0.23204665 -0.13687216 0.030298533 0.024881547 -0.11564346 0.06634632

l2.bias f4 [100]
00000000: cf24 f33c 5ef0 30be 4f6e c33d 9924 ad3c
00000010: 5ebd 6ebd 3d3e ee3d 8e50 a73c 95e5 1fbe
00000020: d19e 04be 8b43 d8bc fd9f ec3c 799b 2f3e
00000030: 5809 173d d8da 103d 6dc6 cb3d 4d7b e23d
00000040: 3ee5 5f3b 937a af3c 026e 8f3e e4ba 7f3c
00000050: ba94 fb3d 1912 7cbd ba32 423d 756a 723d
00000060: f05e b1bd 11f5 ce3c 1ffe 9f3a fb13 04be
00000070: d540 3f3d d6e3 39bd 144a 2bbc 856d f9bc
00000080: 9676 663c 7441 923b 63b5 1abe 52d8 043d
00000090: 5149 083e f4dc 7bbc 9b90 383d fda3 5cbd
000000a0: de03 77bc 8dca 88bd 1e83 f8bc 468f 863c
000000b0: 25bb 0ebd ef02 06bd de7a 97bc f6aa a8bd
000000c0: 0c4a 683a 4065 1c3d 6a6f 8b3c 1b86 1abd
000000d0: 7d50 cf3d b5df 623d 797b 273c f79b 89bb
000000e0: 6c4d 92bd bdbc 793d 2633 0abd fd7b d33d
000000f0: b6db febd 0090 65be 9e36 c53d 9319 1b3e
00000100: 797e 09bd 5de6 b9bc 818b a3bc b066 7c3d
00000110: fb87 5f3d 8ad9 2ebd 97bd 2abe 2c9a 2b3c
00000120: 8b8f 853d b325 b2bc 073d 173d 67b1 2a3d
00000130: 3de7 60be 68b6 f13d 4536 ae3c 27b1 433c
00000140: f4c9 fc3c 2669 06bc 9f18 e73b 737b 1b3e
00000150: 8d84 c0bc f7b0 493c 00f3 3ebd 21bf 603c
00000160: b037 7f3c 6ed5 ad3c 29df 99be 33c1 c13d
00000170: 7e58 2ebc 1418 32bd e2a5 b8bc 4bcf 91bc
00000180: 65f1 d7bd 393e 55bd a218 3ebe e608 5d3d
0.029680638 -0.17279193 0.09542524 0.021135615 -0.058286063 0.11632965 0.020424154 -0.15614922
-0.12951209 -0.026399394 0.028884882 0.17149152 0.036874145 0.035364956 0.09949956 0.11058674
0.0034163739 0.021420753 0.28013617 0.015608523 0.12284227 -0.061540697 0.047411658 0.059183557
-0.08660686 0.025263341 0.0012206471 -0.12898247 0.046692688 -0.045383297 -0.010454673 -0.03044773
0.014066359 0.004463369 -0.15108256 0.03243286 0.13309218 -0.015372504 0.04505978 -0.05386733
-0.015076606 -0.066792585 -0.030335959 0.01642574 -0.034846444 -0.03271764 -0.018491205 -0.08235733
0.00088611315 0.038182497 0.0170209 -0.03772555 0.10122774 0.055389125 0.010222309 -0.0041995007
-0.07143673 0.06097101 -0.033740185 0.10326383 -0.1244425 -0.22418213 0.09629558 0.15146475
-0.03356788 -0.022692854 -0.019963982 0.061621368 0.05457304 -0.04268793 -0.16673885 0.010473769
0.06521519 -0.021746492 0.036923435 0.04167309 -0.2196321 0.11802369 0.021266112 0.011944092
0.030858018 -0.00820378 0.0070524956 0.15183811 -0.023500705 0.012310258 -0.04661846 0.013717444
0.015577242 0.021219935 -0.3005307 0.09460678 -0.010641215 -0.043479994 -0.022540037 -0.01779904
-0.10544089 -0.052061293 -0.18564084 0.053963564

l3.weight f4 [18, 100]
00000000: a931 c23d a077 47bd 6d3e 9fbc ed34 103e
00000010: 137f 4bbe 50a6 a93b e51a 15be 70a8 733d
00000020: bbf3 9b3c 9080 babd a469 5c3d a797 fc3d
00000030: a101 8b3d ed13 5b3d 61bc 0abe 8efc a43d
00000040: e8a8 953d d55b d0bd b124 cdbd dc34 b23d
00000050: 7148 babc 2458 32bd ea85 1b3e d8f0 90bc
00000060: 6e2e 86be 9787 edbd 9ef4 08bd 9d42 7fbe
00000070: 64db f03d 3c7c 943d a930 acbc ff70 20bc
00000080: a9f1 913e be70 85be 8a3b c2bd e577 13be
00000090: 9645 653c a745 36bc ae32 2f3e 231e 01bd
000000a0: faa4 fbbb cb68 1f3e f60d f03b 5095 ee3d
000000b0: 3ae4 88bd 59d2 01bc 9c88 3f3e b82e 1c3d
000000c0: ba3a 163e 3953 3fbe dd56 0f3d 835e 6cbe
000000d0: 1b8d 25be 960b 0cbe 4df7 92bd 38c8 29be
000000e0: bb3f f93c 43fb c2bd 0fdd 04be 7e4b 7cbd
000000f0: 2e79 6b3e 9146 353e 83f3 263d 485c db38
00000100: bb0a 9a3d 4974 5ebe 1a22 653e cfb5 8f3d
00000110: 5a38 cbbd 383f fd3d 831f 64be 820c 363d
00000120: 7595 7c3d 4c0b f43d 1a12 213d 8638 09be
00000130: 6c78 413e c4b8 2d3c 3f5f 86be f12d 38bc
00000140: 0731 7d3e e278 25be 7a76 613d 5593 2ebc
00000150: 6092 9dbd beab 973d b69c 7cbe ce48 08be
00000160: 8c05 23be c594 67be 2522 723e 5594 903d
00000170: 66d1 0b3e 4f8c db3d 3527 8a3d 36be 94bd
00000180: 9201 1c3d e605 233d bcba 6e3c 70da 6cbe
00000190: 766f 7f3d b2ef 22be e105 bb3d b97b 893d
000001a0: bd41 a03d a316 183c 2912 e93d 0293 79be
000001b0: 2b68 5dbe 0685 7c3d 3ce0 ee3b 7971 a53d
000001c0: f6b7 ba3d 6ce9 ff3d 014a ba3e 7d90 033c
000001d0: 73dc a3bd 7bf7 3dbd 0349 233e 0759 f1bd
000001e0: 4b2e f13d 4237 713d f981 1d3e 77dd 833c
000001f0: bcd6 79be 1007 f53d ae53 0dbe 7211 073d
00000200: a1ff 25be 2637 3fbd 79b7 753e 533b 86bd
00000210: a30a 0d3e 7106 8f3d 01a4 f83c 4c09 ed3d
00000220: 4ec9 a5bb 72b5 513c 0700 54bd 99e9 d33d
00000230: 6209 b0bd 4e09 38be 0b00 b5bd fb9e a53e
00000240: 57b2 553d c70b 073c 4cae 2ebd 683c 103d
00000250: a913 473d 7035 2dbe 0211 c93d 11c1 ffbd
00000260: 7668 b03e ecf8 963d 60d4 b43e ccfd 683b
00000270: bc03 e5bd 87aa 2abd 15f7 773c f287 4b3e
00000280: 48a3 cfbd 72e6 77bb 94c6 5d3e 3fb6 2fbe
00000290: c801 803c 66be 423d b579 33bd a4d2 5ebe
000002a0: 0bce a13e e6fc daba 7e07 16be a8eb b53d
000002b0: 6628 4d3e 5a21 00bc 41f1 163e 17af b23d
000002c0: d4dd 8bbe 2ea5 d6bd 7873 023d 21d6 293e
000002d0: 86c7 953c 2172 3d3e 29e5 41be 08b6 5c3e
000002e0: 22e2 5f3d 7cff 873d 16b1 2bbe a1ee 1c3d
000002f0: fcf9 d53d eb8b 5ebd dae8 08be 366f 143d
00000300: 46ed 40bd d92e 8c3d 77a0 bdbd 7696 51be
00000310: b7e2 18bd beb4 38be fb4f 0bbe d93a 393e
00000320: 5ee3 07be e9b8 be3d 4314 1a3e 793a 76bd
00000330: 8559 c5bd ac0b 493e 7ee8 64bd a1ed 03bc
00000340: 99d7 613e a7b8 38bd 0958 41bd 25e6 deb9
00000350: c73f 143e 754a 93bd 149c 2fbd b260 65bd
00000360: 0970 333e 3ba1 ca3d 09f8 3d3e b981 f73b
00000370: 9c96 78bd 8260 6fbc f94f 343e 2042 02bd
00000380: 9dd7 95bd 1b59 8f3d 281e 963c b891 423d
00000390: 6a34 89bc f9a2 fbbb f410 8fbd d79a bcbd
000003a0: 415b 00be 5fbc 5fbe 5aa5 dd3d f26f e63a
000003b0: 3253 babd 50a4 23bc ae8b d9bc d758 0fbe
000003c0: 64e9 b83d c758 1e3e 775d a2bb 4715 2bbe
000003d0: 6f5b 14bd dbd6 c3bd b9c2 36be 778c c5bd
000003e0: 3c1d b2bd 574b 2d3d a3be 18be 1af7 813d
000003f0: e6de 60bd fb28 52be 4438 33be fb50 753d
0.09482128 -0.048698068 -0.019438947 0.1408269 -0.19872694 0.0051772967 -0.1456104 0.059486806
0.019037118 -0.091065526 0.053811684 0.12333613 0.0678742 0.0534858 -0.13548423 0.080559835
0.07307607 -0.101737656 -0.10016764 0.087014884 -0.02273962 -0.04354109 0.15187803 -0.017692968
-0.26207298 -0.11598127 -0.03343641 -0.24927755 0.117605954 0.07250258 -0.021019297 -0.009792565
0.28504685 -0.26062578 -0.094840124 -0.14401205 0.013993641 -0.011125005 0.17109177 -0.03152288
-0.007679579 0.15567319 0.007325883 0.11649573 -0.06684156 -0.007923686 0.18704456 0.038130492
0.1467084 -0.1868409 0.03499495 -0.23082928 -0.16167109 -0.13676295 -0.07176075 -0.16580284
0.030425897 -0.095205806 -0.12974952 -0.061595432 0.22995445 0.177027 0.040759575 0.000104599225
0.07521578 -0.21724047 0.2237629 0.07017099 -0.099228576 0.12365574 -0.22277646 0.044445522
0.06166597 0.11916217 0.039323904 -0.13400468 0.18893594 0.010603134 -0.26244542 -0.011241422
0.24725734 -0.16159394 0.05504463 -0.010655244 -0.076939344 0.07405804 -0.24669155 -0.13309023
-0.15920085 -0.22615345 0.23645838 0.07059542 0.13654098 0.10720121 0.067457594 -0.07262842
0.038087435 0.039800547 0.014570888 -0.23130202 0.062362157 -0.15911749 0.09131981 0.06713051
0.078250386 0.009282741 0.11380417 -0.24372485 -0.21621768 0.0616503 0.0072899144 0.08078284
0.09117119 0.124956936 0.36384585 0.008030054 -0.08001032 -0.046378594 0.1594582 -0.11784559
0.11776408 0.05889059 0.15381612 0.016096814 -0.24398321 0.11964238 -0.13801453 0.03297562
-0.16210796 -0.046683453 0.2399577 -0.06554284 0.13773589 0.069836505 0.03035164 0.11574039
-0.005059398 0.012799608 -0.05175784 0.103472896 -0.0859554 -0.179723 -0.08837899 0.32347855
0.05217203 0.008242554 -0.04264669 0.035213858 0.048602734 -0.16914916 0.09817697 -0.12487996
0.34454697 0.07371697 0.3531828 0.0035551665 -0.11182353 -0.041666534 0.015134593 0.19876078
-0.10138565 -0.0037826565 0.21657783 -0.17159365 0.01562585 0.04754486 -0.04381724 -0.2176004
0.3160251 -0.001670745 -0.14651296 0.088828385 0.20034942 -0.007820452 0.14740469 0.08724802
-0.2731768 -0.10480724 0.0318484 0.1658559 0.018283617 0.18500568 -0.18935074 0.21553814
0.054659016 0.06640527 -0.16766772 0.03831351 0.10448071 -0.054332655 -0.13370076 0.03623887
-0.04710128 0.06844873 -0.09259122 -0.20467553 -0.037325587 -0.18037698 -0.13604729 0.18088855
-0.13270327 0.093126126 0.15046792 -0.060114358 -0.09636215 0.19633359 -0.055885784 -0.008052261
0.220549 -0.045097973 -0.047203097 -0.0004251461 0.14477454 -0.07191936 -0.042873457 -0.05600042
0.17523207 0.098940335 0.18551649 0.007553306 -0.060690507 -0.014610412 0.17608632 -0.031801343
-0.073165156 0.069994174 0.018324926 0.04750225 -0.016748626 -0.00767934 -0.069856554 -0.09209221
-0.1253481 -0.21849202 0.10822554 0.001758097 -0.090978995 -0.009987906 -0.026555862 -0.13998733
0.09028891 0.15463553 -0.0049549895 -0.16707335 -0.03622001 -0.09562465 -0.17847718 -0.09645932
-0.08696982 0.042308178 -0.14916472 0.06345959 -0.054900073 -0.20523445 -0.17501932 0.059891682

l3.bias f4 [18]
00000000: c738 7c3e 00ab f0be 4a74 1bbd 46b4 1b3f
00000010: 7521 f5bd 7f7a a7be 4b64 263e 05f9 bebe
00000020: f0da 553e f5c7 903e d583 843e c809 c33c
00000030: d92c 993e 1de6 d1be 698e 9d3e 4ca9 5e3e
00000040: bc7f 63bd e407 ccbb
0.24631034 -0.47005463 -0.0379527 0.6082195 -0.11969272 -0.32710645 0.16249196 -0.37299362
0.208843 0.28277555 0.2588183 0.023808375 0.2991703 -0.40995875 0.30772713 0.21744269
-0.05554174 -0.0062265266
