data/result/g_510.pt (torch, 87406 bytes, 7 tensors)

G_attr_matrix.weight f4 [36, 5]
0.052471876 -0.04204647 -0.28139004 0.050903827 0.006758442 -0.06551187 0.044124227 0.1258013
0.07807866 -0.011155109 -0.041854553 0.013615106 0.0134861525 0.04189928 0.0003221792 -0.044685252
-0.0894748 -0.0939018 -0.052114915 -0.0048177512 -0.0038299446 -0.09532394 0.0028456117 -0.011180691
0.021843137 0.07949324 0.015421949 -0.019982845 0.21549235 -0.093657464 -0.020204967 -0.008208705
-0.023023548 0.012935662 0.15590681 0.20049745 0.12942645 0.19455692 0.15813158 0.06719409
0.007379525 0.016836938 -0.001213314 -0.04545241 -0.13216564 -0.007988929 -0.01083903 -0.004113377
0.067205995 0.1953419 0.2339733 0.01686228 0.023669625 -0.06806941 -0.015968896 -0.013746816
-0.16849492 -0.22611119 0.064284705 0.17509332 0.0042850403 0.09149344 -0.002837043 0.0032375182
0.036115505 -0.33427364 0.010536439 0.05328124 -0.12929703 -0.15271482 -0.022457117 -0.01996105
0.07107699 0.013069882 0.04065703 -0.18289569 0.12078655 -0.18495312 0.116752654 -0.13865504
0.16999349 -0.019809958 -0.0563439 0.15166533 -0.0938729 0.030069234 0.28658417 0.4417136
0.13814732 0.06286127 -0.0002753788 -0.24599007 0.0055491873 0.06400672 -0.06873373 -0.04672736
0.14032273 -0.21426873 0.0894634 0.07096885 -0.20067379 -0.007595731 0.010052782 -0.018859211
-0.008259416 -0.19614667 0.07030683 -0.12687497 0.15946281 0.082220286 -0.015375761 -0.0060054488
-0.010404449 0.015451353 -0.0012366825 0.088079795 0.2563559 0.18648405 -0.19554195 -0.026755346
0.43712866 0.013322862 0.00031541125 -0.19845286 -0.010469688 0.22010523 -0.22903359 -0.05584664
-0.16304599 0.13429765 0.013438278 0.049949713 -0.024358254 0.06258682 -0.033774547 -0.21155052
-0.32034746 0.16999048 0.1882844 0.2444849 -0.031791627 0.007919496 0.001911684 -0.0028835821
-0.032212626 0.067813 -0.019762525 -0.004429156 0.006116909 0.12843125 -0.004573054 0.020915108
0.0131992325 -0.047271267 -0.06507788 0.0415429 -0.05979258 -0.05429208 0.17859574 0.25384414
-0.0050357794 -0.008525321 0.0208193 0.0026138232 -0.009917892 0.13408265 0.15736566 -0.39004526
0.037411805 0.15828443 -0.0028444156 -0.0057159048 0.10397884 0.26903352 0.13020091 0.004578708
0.27290776 -0.15682015 -0.20658556 0.14049578
00000000: c0ec 563d eb38 2cbd 5b12 90be 8880 503d
00000010: ec75 dd3b 162b 86bd 9bbb 343d 0ed2 003e
00000020: b4e7 9f3d ebc3 36bc ae6f 2bbd e511 5f3c
00000030: 06f5 5c3c 949e 2b3d 29ea a839 e207 37bd
00000040: 903e b7bd 964f c0bd 7376 55bd 3ade 9dbb
00000050: cfff 7abb 3339 c3bd 717d 3a3b 382f 37bc
00000060: 61f0 b23c 5acd a23d 58ac 7c3c 10b3 a3bc
00000070: 07aa 5c3e 7ccf bfbd e384 a5bc ce7d 06bc
00000080: e19b bcbc 19f0 533c 09a6 1f3e 344f 4d3e
00000090: 5e88 043e ee39 473e 3fed 213e 0e9d 893d
000000a0: f1cf f13b 9eed 893c 1008 9fba 4e2c 3abd
000000b0: 6e56 07be ffe3 02bc 3096 31bc 82c9 86bb
000000c0: 4ca3 893d b507 483e b296 6f3e c422 8a3c
000000d0: cde6 c13c fa67 8bbd 34d1 82bc 533a 61bc
000000e0: ef89 2cbe b189 67be b3a7 833d aa4b 333e
000000f0: 8669 8c3b ea60 bb3d afed 39bb 8b2c 543b
00000100: daed 133d ea25 abbe 07a1 2c3c 6e3d 5a3d
00000110: 7166 04be 4661 1cbe fdf7 b7bc 5b85 a3bc
00000120: d090 913d 0f23 563c fc87 263d 0249 3bbe
00000130: f05e f73d 5a64 3dbe 041c ef3d 96fb 0dbe
00000140: c612 2e3e 7e48 a2bc dcc8 66bd 284e 1b3e
00000150: 6f40 c0bd c153 f63c 29bb 923e 4928 e23e
00000160: 7e76 0d3e 69bd 803d b860 90b9 d2e4 7bbe
00000170: f5d5 b53b f515 833d 45c4 8cbd 3065 3fbd
00000180: c3b0 0f3e 4369 5bbe 9638 b73d 1e58 913d
00000190: 6e7d 4dbe 9ce5 f8bb 6cb4 243c a27e 9abc
000001a0: 8052 07bc acda 48be 07fd 8f3d 83eb 01be
000001b0: 384a 233e 1c63 a83d 9eea 7bbc 5bc9 c4bb
000001c0: 6c77 2abc ac27 7d3c 2e18 a2ba 2e63 b43d
000001d0: 1541 833e adf5 3e3e 263c 48be 072e dbbc
000001e0: 54cf df3e 2248 5a3c c85d a539 3a37 4bbe
000001f0: 0e89 2bbc 4463 613e c887 6abe 72bf 64bd
00000200: 87f5 26be 5385 093e 392c 5c3c 1298 4c3d
00000210: f68a c7bc 852d 803d 2e57 0abd b3a0 58be
00000220: 9504 a4be fc11 2e3e a0cd 403e 405a 7a3e
00000230: f037 02bd c6c0 013c 7991 fa3a 7bfa 3cbb
00000240: 63f1 03bd 8be1 8a3d 05e5 a1bc 7422 91bb
00000250: 5a70 c83b 7b83 033e 8fd9 95bb 2956 ab3c
00000260: 9841 583c 849f 41bd 8d47 85bd e328 2a3d
00000270: 10e9 74bd 5f61 5ebd cde1 363e dcf7 813e
00000280: 2e03 a5bb caad 0bbc 3d8d aa3c ad4c 2b3b
00000290: a77e 22bc f64c 093e 7724 213e 03b4 c7be
000002a0: 1f3d 193d 5015 223e 6069 3abb 7c4c bbbb
000002b0: dcf2 d43d c3be 893e 6353 053e fd08 963b
000002c0: 91ba 8b3e 7695 20be 2a8b 53be 20de 0f3e

l1.weight f4 [100, 90]
0.19012436 -0.0145001 0.078445256 0.11197587 0.09533627 0.044165704 0.0949717 0.048253972
-0.2353173 -0.10999151 0.0927497 -0.20650972 -0.078398354 0.0456485 -0.03408933 0.08622816
0.02608485 -0.075782016 -0.028806565 0.105547234 0.13878892 -0.005102258 0.08509589 -0.09315894
0.0150973 0.0685765 0.19100997 0.079035684 0.15175436 0.0054312977 0.078894444 -0.13302188
-0.24016036 -0.13279048 -0.08021113 0.038090587 0.15411256 -0.013853246 -0.09529108 0.17852797
-0.010075121 -0.06740454 0.11116857 0.0419788 -0.0033687116 0.07327923 -0.12830403 -0.03172691
0.057192806 -0.07600866 0.10959369 -0.3818695 0.20105833 -0.06199622 -0.14684422 -0.007894589
-0.053957805 -0.02529691 -0.011457162 0.15452941 -0.0212667 -0.14944275 -0.0013002976 0.02740205
-0.06737759 -0.108053185 0.020028407 -0.17983489 -1.11888085e-05 -0.17620417 -0.1812206 0.11838103
0.11066752 0.19373904 -0.17560658 -0.011827948 -0.20334004 -0.019665364 -0.084432326 0.03731995
0.0055729067 -0.038865656 0.03612853 0.15499373 -0.17662743 0.111251876 0.06190037 -0.06545711
0.054229133 0.17884655 0.25386825 -0.08001834 -0.062725246 -0.035700884 -0.15210967 0.04315776
0.19512042 -0.041763805 0.062561184 0.10007967 0.07887665 -0.029109428 -0.13245179 0.0008740047
-0.1203408 -0.07182925 0.10963389 -0.16576035 0.06784394 0.05554031 0.031720795 0.038331963
-0.010094621 -0.043215137 -0.02331375 0.04539996 0.014787666 -0.06263432 -0.024255099 0.06979902
0.043578863 -0.033296026 -0.040231936 0.057047144 -0.1697047 -0.006037208 -0.061820406 0.0916312
0.028767295 0.0713515 -0.037644353 0.1412351 -0.11280747 0.012645911 -0.20313333 -0.06365119
0.06757883 -0.14121023 0.0050299405 -0.02072485 0.0866667 -0.12907463 -0.23646532 -0.12755132
-0.06564457 0.104813896 0.08497142 0.061149906 -0.021017842 -0.09757583 -0.02618372 -0.054449376
-0.08799244 -0.031913094 0.042575654 -0.09074271 -0.009497809 -0.039869577 0.025263522 0.13042615
-0.19312139 0.18212442 -0.14278924 -0.058590546 0.018096639 -0.050865922 0.026099075 -0.11370501
0.17378743 0.06349595 0.02139548 -0.07245628 -0.035106417 0.100201935 -0.08683626 -0.08857713
-0.24396794 0.12353504 -0.09770728 -0.027839657 0.001584902 0.14532821 0.026476692 -0.21404538
-0.0395064 -0.16513082 -0.057810847 0.0904703 0.03055032 -0.07065518 0.042437032 -0.17669952
-0.14975971 0.118946776 -0.037664715 -0.082428664 0.0016655112 0.12780835 0.04191218 0.03152481
-0.04669506 0.057587083 -0.20659278 0.07554556 0.26262382 -0.001836123 -0.0063635064 -0.06653931
-0.08342855 0.13662647 -0.035641953 -0.0023402201 0.13932596 0.060734477 0.0021522318 0.14766006
0.048278973 -0.08688858 -0.030978018 -0.019806085 -0.120846 -0.12724699 0.057663392 -0.03341752
0.24089633 -0.064988635 0.14802478 0.06268445 0.05702464 0.057637207 0.18663844 -0.06874357
-0.042890556 0.061235417 0.034853052 0.14516209 -0.080633774 0.005670484 0.16867127 -0.028083546
0.022049394 -0.11393694 0.10330401 0.07373713 -0.100638114 -0.21373898 -0.086087026 -0.112759836
-0.1288396 0.025080346 0.10513583 0.07277054 -0.15227325 -0.10444807 0.07402958 -0.0053359116
00000000: f6af 423e d491 6dbc e8a7 a03d 9b53 e53d
00000010: aa3f c33d 19e7 343d 8680 c23d f5a5 453d
00000020: 05f7 70be 3b43 e1bd 8ef3 bd3d 4977 53be
00000030: 518f a0bd ecf9 3a3d 41a1 0bbd 6498 b03d
00000040: e5af d53c 9a33 9bbd bffb ebbc 2629 d83d
00000050: af1e 0e3e d830 a7bb c146 ae3d 1dca bebd
00000060: aa5a 773c d671 8c3d 1e98 433e 76dd a13d
00000070: 7f65 1b3e 07f9 b13b 6993 a13d e336 08be
00000080: 99ec 75be 3afa 07be bc45 a4bd e004 1c3d
00000090: afcf 1d3e baf8 62bc f827 c3bd 09d0 363e
000000a0: 1f12 25bc 640b 8abd 59ac e33d f6f1 2b3d
000000b0: 9ac5 5cbb 6c13 963d 2262 03be 14f4 01bd
000000c0: 0143 6a3d 6eaa 9bbd a872 e03d 6684 c3be
000000d0: 3ce2 4d3e c0ef 7dbd 555e 16be 4e58 01bc
000000e0: dc02 5dbd 773b cfbc d2b6 3bbc f53c 1e3e
000000f0: 8137 aebc 8507 19be bf6e aaba 447a e03c
00000100: 43fd 89bd fd4a ddbd 9d12 a43c a326 38be
00000110: 91b7 3bb7 de6e 34be e591 39be c171 f23d
00000120: a7a5 e23d 8763 463e 36d2 33be 02ca 41bc
00000130: 5f38 50be 4219 a1bc dbea acbd cedc 183d
00000140: ee9c b63b 9831 1fbd 82fb 133d adb6 1e3e
00000150: d2dd 34be 06d8 e33d 3e8b 7d3d 610e 86bd
00000160: 5e1f 5e3d 8d23 373e 05fb 813e a8e0 a3bd
00000170: 1876 80bd 173b 12bd a3c2 1bbe 31c6 303d
00000180: a6cd 473e 8610 2bbd 1420 803d 92f6 cc3d
00000190: 158a a13d e576 eebc 71a1 07be 761d 653a
000001a0: 3d75 f6bd 371b 93bd bc87 e03d 15bd 29be
000001b0: c3f1 8a3d 3c7e 633d aaed 013d fa01 1d3d
000001c0: e963 25bc 5b02 31bd 7afc bebc 4ff5 393d
000001d0: f747 723c 6c46 80bd a1b2 c6bc caf2 8e3d
000001e0: c07f 323d 6a61 08bd 3eca 24bd 44aa 693d
000001f0: 12c7 2dbe c5d3 c5bb 6537 7dbd 23a9 bb3d
00000200: 64a9 eb3c bc20 923d f730 1abd ef9f 103e
00000210: 9a07 e7bd cc30 4f3c 2f02 50be 8e5b 82bd
00000220: c566 8a3d 6a99 10be 33d2 a43b 29c7 a9bc
00000230: 507e b13d 242c 04be f723 72be d09c 02be
00000240: a970 86bd aba8 d63d 7f05 ae3d 5378 7a3d
00000250: 9c2d acbc d6d5 c7bd 3e7f d6bc 4f06 5fbd
00000260: 6135 b4bd 4eb7 02bd cf63 2e3d 50d7 b9bd
00000270: b39c 1bbc 484e 23bd 72f5 ce3c 6f8e 053e
00000280: 9dc1 45be d37e 3a3e 5837 12be a4fc 6fbd
00000290: 673f 943c c958 50bd bacd d53c 2cde e8bd
000002a0: 55f5 313e 2a0a 823d 9345 af3c f563 94bd
000002b0: bfcb 0fbd ac36 cd3d 36d7 b1bd ed67 b5bd
000002c0: bbd2 79be f0ff fc3d c11a c8bd fe0f e4bc
000002d0: 7dbc cf3a ebd0 143e a6e5 d83c b62e 5bbe
000002e0: 76d1 21bd 0e18 29be 11cb 6cbd 7e48 b93d
000002f0: aa44 fa3c aab3 90bd 74d2 2d3d b8f0 34be
00000300: 9c5a 19be 5e9a f33d 5146 1abd 5cd0 a8bd
00000310: 484d da3a 31e0 023e 1bac 2b3d 2920 013d
00000320: 5243 3fbd 6fe0 6b3d 0f8d 53be a1b7 9a3d
00000330: a176 863e 10aa f0ba f684 d0bb c345 88bd
00000340: 96dc aabd cfe7 0b3e 4cfd 11bd 615e 19bb
00000350: 77ab 0e3e b7c4 783d 750c 0d3b 3334 173e
00000360: 2cc0 453d a4f2 b1bd 9dc5 fdbc 5f40 a2bc
00000370: 1c7e f7bd 094d 02be 7330 6c3d cfe0 08bd
00000380: 87ad 763e c318 85bd cf93 173e b460 803d
00000390: ab92 693d fe14 6c3d 261e 3f3e 6ec9 8cbd
000003a0: 02ae 2fbd fdd1 7a3d 13c2 0e3d 5fa5 143e
000003b0: 5223 a5bd 78cf b93b 29b8 2c3e 770f e6bc
000003c0: eea0 b43c c557 e9bd 0e91 d33d 7e03 973d
000003d0: 5b1b cebd 64de 5abe 654e b0bd a1ee e6bd
000003e0: 87ee 03be 4c75 cd3c 7451 d73d b908 953d
000003f0: 85ed 1bbe dfe8 d5bd d29c 973d dfd8 aebb

l1.bias f4 [100]
-0.021105146 0.020846648 0.1607145 0.073606804 0.13469696 0.013622239 0.19488806 -0.035390425
-0.033905078 -0.05436396 -0.041887954 -0.10437612 -0.022262717 0.0072692526 -0.031776644 0.11587078
0.04040355 0.0423222 -0.08629586 -0.03321563 0.17293255 -0.03052474 -0.033210818 0.123138115
0.017212547 0.15350413 -0.04755825 -0.116079345 -0.001262808 -0.32704738 0.054096032 0.1043988
-0.16139628 -0.25797808 -0.20343502 -0.017243812 0.019377237 0.14643392 -0.0012727489 -0.043098997
-0.22960755 0.23624952 -0.12953329 0.0052776593 -0.052163787 -0.0272355 -0.0067461007 -0.030668661
-0.06790538 -0.17739946 -0.005728773 0.15560889 0.110623926 -0.1726939 -0.01646674 -0.044398088
-0.035744738 0.051888626 -0.030091185 -0.06983938 -0.15136756 0.064212 -0.021985121 0.10835817
0.10341653 -0.12370056 -0.0068824226 0.09940569 -0.03135246 0.008027901 0.0951102 -0.076209545
-0.1348962 0.18902366 0.083863676 0.047237027 -0.17630053 -0.06145559 -0.21881005 -0.107507534
0.04046756 -0.12413809 -0.027652083 0.06079152 0.043449223 0.022466274 -0.069845624 0.017261134
-0.13760218 -0.018526183 0.141127 0.07624493 -0.02638489 0.034015246 0.12877823 -0.038909294
0.0013597294 -0.10148083 -0.1443015 0.010484291
00000000: b3e4 acbc 97c6 aa3c 5892 243e 2abf 963d
00000010: 00ee 093e d02f 5f3c bc90 473e 8df5 10bd
00000020: 0de0 0abd beac 5ebd b492 2bbd 26c3 d5bd
00000030: 4d60 b6bc e932 ee3b 3a28 02bd a94d ed3d
00000040: 317e 253d 0b5a 2d3d e2bb b0bd 1d0d 08bd
00000050: 3b15 313e 050f fabc 1108 08bd d62f fc3d
00000060: 5401 8d3c 3030 1d3e 71cc 42bd 02bb edbd
00000070: ce84 a5ba c172 a7be cd93 5d3d 0acf d53d
00000080: 1145 25be b415 84be 4551 50be e542 8dbc
00000090: 03bd 9e3c c6f2 153e 5ed2 a6ba 9388 30bd
000000a0: 3e1e 6bbe 65eb 713e 60a4 04be 37f0 ac3b
000000b0: b2a9 55bd fc1c dfbc 650e ddbb d83c fbbc
000000c0: fa11 8bbd 34a8 35be 6eb8 bbbb f057 1f3e
000000d0: cc8e e23d abd6 30be 42e5 86bc c5da 35bd
000000e0: 1369 12bd 2b89 543d ca81 f6bc f307 8fbd
000000f0: 1900 1bbe 9581 833d 241a b4bc e3ea dd3d
00000100: 0ccc d33d b856 fdbd f285 e1bb 3695 cb3d
00000110: 706b 00bd 7587 033c 23c9 c23d c013 9cbd
00000120: 3b22 0abe 6b8f 413e b8c0 ab3d 9d7b 413d
00000130: 2088 34be dbb8 7bbd be0f 60be e92c dcbd
00000140: 50c1 253d 1c3c febd 9f86 e2bc 8700 793d
00000150: d0f7 313d 310b b83c 390b 8fbd 3967 8d3c
00000160: 96e7 0cbe 39c4 97bc 9983 103e 4d26 9c3d
00000170: 2025 d8bc 9253 0b3d 71de 033e 5a5f 1fbd
00000180: f338 b23a 2ed5 cfbd c6c3 13be 4ec6 2b3c

l2.weight f4 [100, 100]
0.067876816 0.16357447 -0.06542101 -0.048304513 -0.07436773 0.14302605 -0.02686598 0.101023205
-0.08224115 -0.08602325 -0.0015084738 -0.0921607 -0.018048635 -0.031795874 0.033259057 0.019754672
-0.22132558 -0.133904 0.020033158 0.17364308 0.0048867958 0.12302055 0.07265981 0.038440436
0.04548328 0.052911967 -0.22274931 -0.12973893 -0.21590649 -0.13902977 0.11080711 -0.09141284
0.05581083 0.009871931 0.049036223 0.044381965 -0.08521018 -0.009620339 -0.098689385 0.084224954
-0.065113164 0.096100554 -0.02390325 -0.04991202 0.12883022 -0.071258225 -0.12970212 0.183313
-0.051941212 0.050593037 -0.028834587 0.02003605 0.011101873 -0.07838432 0.14250508 0.052872945
-0.09367911 0.018346246 -0.12237646 -0.045433182 0.0010718224 0.11680479 -0.01855269 0.027670493
0.05065502 -0.11460961 0.050008655 -0.14852123 0.13059236 0.07110182 -0.08410363 0.07702814
0.107956916 0.09536539 0.10290968 0.030634128 0.23819847 0.024922645 -0.06000082 -0.033546794
0.17092887 -0.025541104 -0.086811736 -0.018222805 0.067840345 -0.07585545 -0.04348416 -0.10481966
-0.09987904 -0.10069708 -0.06809039 0.026202204 -0.01896516 -0.09977997 -0.039488237 0.01326634
-0.0800488 0.23399305 0.016703503 0.033293128 -0.11721349 0.022127664 -0.14202784 0.05191247
0.18950649 -0.004520187 0.19677353 -0.048756942 0.09806138 0.0029706566 0.04303879 0.08047117
-0.013179012 -0.047848772 -0.13073373 -0.11331576 0.009074813 -0.11582663 0.067207955 0.1221255
-0.048437696 -0.04416944 0.017874612 0.061388083 0.046191417 0.030220995 -0.042297345 -0.0466893
0.11906802 -0.11099498 -0.060962167 -0.004128697 0.12404506 0.0056777974 0.14174227 0.11035965
0.004157444 -0.08242821 -0.022250485 -0.02883157 0.06706118 -0.023413625 0.015025716 -0.05318195
-0.014617266 0.13473469 0.053087432 0.12690516 -0.050334733 0.015848078 -0.023773625 -0.015502308
-0.002230351 0.12182512 0.10776188 0.049317632 -0.10236139 0.074753955 -0.18124422 -0.057784945
0.034348127 0.096680015 -0.014044358 0.05078765 0.047976434 -0.026798612 0.10480127 -0.012526901
0.0420176 -0.14379726 -0.032689985 0.028225714 -0.09792166 0.01308263 0.0786739 0.011781788
-0.07011455 0.0052009644 -0.102674775 -0.14754072 -0.14145723 -0.18893045 0.06520072 -0.09644077
-0.042850103 0.033680607 -0.16957216 -0.05260932 -0.044627506 -0.070719145 0.1536161 0.025929661
-0.12053649 0.02503189 0.0979932 0.029658666 0.082730874 -0.13190195 -0.08412355 -0.03506281
0.051034782 0.03171416 0.1473348 0.067234136 -0.03433735 0.19246754 -0.16180767 -0.052248057
-0.03492402 -0.048316415 0.2125388 0.11544499 -0.17462018 -0.13615791 0.009746447 -0.2646548
-0.1666056 -0.15313584 0.038191345 0.079832144 0.06573009 0.028235067 -0.24308299 0.19868979
0.023386572 0.04942804 -0.014822057 0.037345737 -0.05143538 -0.16327915 -0.14263709 0.0062866914
0.09395562 0.15461777 -0.21779847 -0.043553036 0.13997321 0.099080786 0.21160483 0.024589268
-0.03748365 -0.18058781 -0.029643867 -0.07623658 -0.07181816 0.051899787 0.033716418 -0.050423913
0.08450118 0.18088245 0.2268564 -0.1338875 0.04301754 0.015650436 -0.11680222 0.07061371
00000000: 0003 8b3d 1180 273e 73fb 85bd f4da 45bd
00000010: 1c4e 98bd 6c75 123e 0b16 dcbc 41e5 ce3d
00000020: 0c6e a8bd f52c b0bd fbb7 c5ba c0be bcbd
00000030: bbda 93bc 643c 02bd a63a 083d 8dd4 a13c
00000040: 2ca3 62be 211e 09be 941c a43c 7ecf 313e
00000050: 6a21 a03b 33f2 fb3d abce 943d b873 1d3d
00000060: ad4c 3a3d 38ba 583d 6518 64be 48da 04be
00000070: 9716 5dbe d25d 0ebe d7ee e23d a836 bbbd
00000080: e699 643d e1bd 213c 35da 483d ddc9 353d
00000090: ad82 aebd a09e 1dbc a91d cabd 227e ac3d
000000a0: 0d5a 85bd 5ed0 c43d c0d0 c3bc 8c70 4cbd
000000b0: 12ec 033e d5ef 91bd a2d0 04be 67b6 3b3e
000000c0: 4fc0 54bd a53a 4f3d 8336 ecbc a422 a43c
000000d0: a1e4 353c f587 a0bd daec 113e 4d91 583d
000000e0: d5da bfbd de4a 963c 82a0 fabd 2518 3abd
000000f0: 647c 8c3a 5a37 ef3d d0fb 97bc 3bad e23c
00000100: a37b 4f3d 71b8 eabd e0d5 4c3d f315 18be
00000110: 01ba 053e d59d 913d 863e acbd eec0 9d3d
00000120: 8418 dd3d ee4e c33d 4fc2 d23d 6cf4 fa3c
00000130: 4dea 733e 932a cc3c 6bc3 75bd 5d68 09bd
00000140: fa07 2f3e 943b d1bc 5aca b1bd fe47 95bc
00000150: e1ef 8a3d 1a5a 9bbd 721c 32bd b1ab d6bd
00000160: 628d ccbd 453a cebd f972 8bbd 01a6 d63c
00000170: d35c 9bbc 7159 ccbd 6bbe 21bd 105b 593c
00000180: a0f0 a3bd e09b 6f3e c9d5 883c 605e 083d
00000190: a00d f0bd 1345 b53c bf6f 11be 2ca2 543d
000001a0: fd0d 423e 141e 94bb 007f 493e 5cb5 47bd
000001b0: 68d4 c83d 59af 423b 7149 303d 12ce a43d
000001c0: c8ec 57bc 13fd 43bd 10df 05be 1812 e8bd
000001d0: 86ae 143c 8336 edbd 53a4 893d ef1c fa3d
000001e0: 9b66 46bd 04eb 34bd c76d 923c 1272 7b3d
000001f0: 3633 3d3d 0592 f73c fb3f 2dbd 483d 3fbd
00000200: efd9 f33d 5651 e3bd 77b3 79bd 054a 87bb
00000210: 560b fe3d d10c ba3b e324 113e 3d04 e23d
00000220: 2b3b 883b 1fd0 a8bd a646 b6bc 2f30 ecbc
00000230: 5f57 893d eecd bfbc 6c2e 763c 51d5 59bd
00000240: 427d 6fbc e4f7 093e 3572 593d 6df3 013e
00000250: cb2b 4ebd d4d3 813c e8c0 c2bc 64fd 7dbc
00000260: 152b 12bb 737f f93d 43b2 dc3d 4901 4a3d
00000270: d9a2 d1bd 9a18 993d 1698 39be e8af 6cbd
00000280: 9fb0 0c3d 2c00 c63d 4f1a 66bc b606 503d
00000290: f082 443d c388 dbbc 0ca2 d63d a23d 4dbc
000002a0: a61a 2c3d 973f 13be efe5 05bd 9d39 e73c
000002b0: 278b c8bd 8758 563c c81f a13d 6708 413c
000002c0: 3898 8fbd da6c aa3b 2747 d2bd ea14 17be
000002d0: 2ada 10be fc76 41be f587 853d bd82 c5bd
000002e0: 9783 2fbd adf4 093d 53a4 2dbe df7c 57bd
000002f0: 55cb 36bd 33d5 90bd 8a4d 1d3e 716a d43c
00000300: d6db f6bd ae0f cd3c a9b0 c83d bbf6 f23c
00000310: ce6e a93d 4e11 07be f848 acbd 059e 0fbd
00000320: d909 513d b5e6 013d efde 163e 0db2 893d
00000330: 52a5 0cbd 3616 453e e9b0 25be 0f02 56bd
00000340: 7d0c 0fbd 6fe7 45bd c5a3 593e 6c6e ec3d
00000350: a2cf 32be fb6c 0bbe 90af 1f3c d580 87be
00000360: a99a 2abe a4cf 1cbe 876e 1c3d 097f a33d
00000370: 7f9d 863d 3a4d e73c bfea 78be 5675 4b3e
00000380: 3295 bf3c 0e75 4a3d 37d8 72bc d8f7 183d
00000390: e8ad 52bd a632 27be 750f 12be 9700 ce3b
000003a0: ce6b c03d 1f54 1e3e 9006 5fbe ab64 32bd
000003b0: 2355 0f3e deea ca3d f0ae 583e 6f6f c93c
000003c0: 7588 19bd 03ec 38be b2d7 f2bc ed21 9cbd
000003d0: 6615 93bd df94 543d 3a1a 0a3d 4e89 4ebd
000003e0: f40e ad3d 4039 393e 0b4d 683e ce19 09be
000003f0: 2933 303d 5835 803c 0136 efbd ec9d 903d

l2.bias f4 [100]
0.03125091 -0.1744057 0.09232317 0.007979695 -0.05045945 0.10888466 0.019387148 -0.15632418
-0.1297339 -0.025474284 0.03660362 0.1657251 0.034871746 0.029426275 0.1000272 0.11393561
-0.0017112679 0.024027377 0.27820385 0.012969549 0.1245682 -0.053818416 0.046305064 0.059842408
-0.0875957 0.023830935 -0.0065734023 -0.12765113 0.049588874 -0.04574325 -0.010416692 -0.027398976
0.015380941 0.00441815 -0.15836099 0.032308396 0.13020438 -0.0152638545 0.050752852 -0.057017036
-0.010215434 -0.066165574 -0.03129287 0.017610263 -0.03627574 -0.031740583 -0.019003803 -0.07849861
0.00093798595 0.04034833 0.01896542 -0.03590327 0.10349859 0.05330325 0.011057705 -0.009411594
-0.07181078 0.06256362 -0.034264658 0.10589293 -0.12462522 -0.22396956 0.09640662 0.15011197
-0.029985756 -0.022774661 -0.017847028 0.06483508 0.049246352 -0.04094672 -0.16845304 0.011567897
0.061714385 -0.015270428 0.036813907 0.040078513 -0.22036435 0.11449178 0.020560894 0.006547891
0.03299144 -0.010514314 0.0067028175 0.15121517 -0.023176918 0.010618121 -0.046150163 0.010074581
0.017969467 0.019774333 -0.3011446 0.09758114 -0.011117782 -0.042588808 -0.03222039 -0.022436853
-0.1022856 -0.052747354 -0.1865372 0.05845659
00000000: f400 003d 6897 32be ee13 bd3d 44bd 023c
00000010: 91ae 4ebd ecfe de3d ccd1 9e3c 7213 20be
00000020: f7d8 04be 72af d0bc aded 153d d7b3 293e
00000030: add5 0e3d 5f0f f13c 10db cc3d 1357 e93d
00000040: 9f4c e0ba 10d5 c43c bc70 8e3e 3b7e 543c
00000050: 9d1d ff3d b370 5cbd 61aa 3d3d 501d 753d
00000060: 6065 b3bd 1839 c33c b265 d7bb fab6 02be
00000070: b41d 4b3d 465d 3bbd c6aa 2abc d173 e0bc
00000080: 5800 7c3c 21c6 903b 6229 22be cf55 043d
00000090: 4c54 053e 3f15 7abc 39e2 4f3d b28a 69bd
000000a0: a35e 27bc d181 87bd f42c 00bd 6643 903c
000000b0: df95 14bd 6a02 02bd ddad 9bbc e1c3 a0bd
000000c0: 2ce3 753a 4a44 253d 5e5d 9b3c 4f0f 13bd
000000d0: 12f7 d33d 8254 5a3d 602b 353c 1633 1abc
000000e0: 8811 93bd 5b21 803d 1959 0cbd 64de d83d
000000f0: 823b ffbd 4758 65be d670 c53d f4b6 193e
00000100: b0a4 f5bc ed91 babc ee33 92bc 41c8 843d
00000110: 8bb6 493d bfb7 27bd f47e 2cbe 4787 3d3c
00000120: 39c8 7c3d d130 7abc 2eca 163d 5e29 243d
00000130: 31a7 61be ab7a ea3d 526f a83c b18f d63b
00000140: 0822 073d 3b44 2cbc 4fa3 db3b 26d8 1a3e
00000150: 85dd bdbc a1f7 2d3c f407 3dbd db0f 253c
00000160: b434 933c c8fd a13c a02f 9abe 9fd8 c73d
00000170: 5c27 36bc 9a71 2ebd 87f9 03bd 7ecd b7bc
00000180: 1d7b d1bd 9c0d 58bd 9c03 3fbe 2d70 6f3d

l3.weight f4 [18, 100]
0.09853091 -0.04933993 -0.024913834 0.1463834 -0.20217632 -0.00010295607 -0.14872284 0.06167988
0.021032447 -0.09325732 0.05716172 0.1231063 0.06312189 0.050513394 -0.13670315 0.07963993
0.07110215 -0.10407706 -0.09880372 0.08400664 -0.024095599 -0.04657852 0.15043595 -0.012812949
-0.26381856 -0.12002999 -0.02852456 -0.25176692 0.116360486 0.07052849 -0.020503338 -0.00932198
0.28492916 -0.2552717 -0.09537583 -0.14890377 0.015074829 -0.009101135 0.17242719 -0.026887156
-0.0046940814 0.15456563 0.0072248317 0.12041032 -0.06564452 -0.005614011 0.19085822 0.037468683
0.14874262 -0.18333678 0.035156924 -0.23281054 -0.16212021 -0.13433817 -0.07293866 -0.17232803
0.02841802 -0.100130334 -0.123536855 -0.06712683 0.22917463 0.17617661 0.03666243 0.0034660765
0.08159065 -0.21643747 0.22327338 0.06912469 -0.09849315 0.13145943 -0.22269921 0.038101673
0.062778585 0.11628138 0.036942758 -0.12913212 0.18849316 0.012120704 -0.25579855 -0.012701494
0.25348622 -0.16330028 0.0570315 -0.010685016 -0.08530314 0.07783338 -0.24078646 -0.13355033
-0.16370213 -0.22441278 0.23681746 0.070990264 0.13543044 0.102110915 0.070240945 -0.07924322
0.03909168 0.0349213 0.01658861 -0.232873 0.06657676 -0.16079623 0.08696716 0.073581845
0.07420508 0.0040412163 0.110764526 -0.24282788 -0.2151125 0.060776796 0.009794219 0.08168657
0.087411694 0.12273036 0.36349857 0.0078834435 -0.082438044 -0.048682332 0.16178335 -0.11933185
0.11753112 0.056993794 0.15373519 0.020687167 -0.24689353 0.11638956 -0.13363908 0.029679678
-0.16269387 -0.046699747 0.24153545 -0.06582845 0.13660212 0.07486551 0.028762482 0.11115927
-0.0035020204 0.015654992 -0.051163156 0.10800591 -0.08408856 -0.181668 -0.08936151 0.32753187
0.051752195 0.01034777 -0.04012305 0.034098085 0.052075267 -0.16686916 0.09926009 -0.12679468
0.34535176 0.076428376 0.35368 -0.0018081487 -0.11418234 -0.047369067 0.020548943 0.194331
-0.103070825 -0.005746019 0.21374848 -0.16715208 0.020660408 0.04839786 -0.045120943 -0.21759942
0.31749982 0.0048485408 -0.14747536 0.08368816 0.20282914 -0.011608755 0.14634696 0.09197228
-0.27444366 -0.102115065 0.038691096 0.16528408 0.024742663 0.18283513 -0.18823913 0.21654782
0.04662198 0.069874 -0.1621687 0.03923276 0.10048111 -0.05236405 -0.13424319 0.03766414
-0.047936313 0.06404821 -0.089930214 -0.21107142 -0.037857525 -0.18673147 -0.13517039 0.17860717
-0.12917323 0.092660084 0.14570263 -0.052578814 -0.10311507 0.19218957 -0.060260855 -0.0066152955
0.22261442 -0.04665737 -0.04505103 -0.00032432345 0.14143007 -0.074106805 -0.04438372 -0.056645375
0.1735105 0.096739985 0.18662307 0.004772963 -0.06191407 -0.017245842 0.17554379 -0.028870495
-0.07526427 0.0663113 0.02386737 0.04559241 -0.018190587 -0.009196732 -0.06806889 -0.09407961
-0.12684947 -0.21415024 0.10780412 -0.0039055103 -0.090816244 -0.0085230945 -0.025814744 -0.1363668
0.09144059 0.15385547 -0.004425993 -0.16072801 -0.03635924 -0.09242952 -0.17535177 -0.09652883
-0.08462035 0.04476375 -0.14946166 0.061988454 -0.054971904 -0.20382594 -0.17482132 0.05550131
00000000: 93ca c93d ab18 4abd 1918 ccbc 88e5 153e
00000010: 4f07 4fbe 1fea d7b8 cd4a 18be 0ba4 7c3d
00000020: 3d4c ac3c b2fd bebd 6822 6a3d 281f fc3d
00000030: 0d46 813d 22e7 4e3d e9fb 0bbe 421a a33d
00000040: 019e 913d 5b26 d5bd 9b59 cabd ac0b ac3d
00000050: 2264 c5bc 1ec9 3ebd e20b 1a3e 67ed 51bc
00000060: 3a13 87be 49d2 f5bd 57ac e9bc 98e7 80be
00000070: 684e ee3d 3e71 903d 9ef6 a7bc 38bb 18bc
00000080: 3ce2 913e f9b2 82be 6754 c3bd 3b7a 18be
00000090: 6afc 763c ed1c 15bc c190 303e 7442 dcbc
000000a0: cfd0 99bb 7446 1e3e 48be ec3b b099 f63d
000000b0: a270 86bd bdf5 b7bb 5670 433e c378 193d
000000c0: fc4f 183e a3bc 3bbe b500 103d e365 6ebe
000000d0: d702 26be f28f 09be dd60 95bd c276 30be
000000e0: e8cc e83c 2211 cdbd e400 fdbd cb79 89bd
000000f0: c1ac 6a3e a467 343e 582b 163d 1d27 633b
00000100: 0019 a73d c9a1 5dbe c7a1 643e 3f91 8d3d
00000110: c7b6 c9bd 4d9d 063e 430b 64be 8010 1c3d
00000120: 0f92 803d ef24 ee3d 4a51 173d 363b 04be
00000130: 5a04 413e eb95 463c 07f8 82be ed19 50bc
00000140: f2c8 813e 3038 27be dd99 693d 3510 2fbc
00000150: 6ab3 aebd 1b67 9f3d ba90 76be 6bc1 08be
00000160: 88a1 27be 77cc 65be 4780 723e 5863 913d
00000170: 47ae 0a3e 871f d13d 7cda 8f3d 454a a2bd
00000180: 991e 203d a309 0f3d d6e4 873c 4276 6ebe
00000190: 6559 883d c4a7 24be d71b b23d 14b2 963d
000001a0: d5f8 973d 2e6c 843b 83d8 e23d dfa7 78be
000001b0: 7446 5cbe 17f1 783d ef77 203c 4a4b a73d
000001c0: e704 b33d 0e5a fb3d 7c1c ba3e 8f29 013c
000001d0: 47d5 a8bd 2067 47bd 89aa 253e 4264 f4bd
000001e0: 28b4 f03d 5372 693d c26c 1d3e 2278 a93c
000001f0: a8d1 7cbe a65d ee3d afd8 08be cc22 f33c
00000200: 3999 26be 3c48 3fbd 1255 773e 11d1 86bd
00000210: 6de1 0b3e 1753 993d 4c9f eb3c 79a7 e33d
00000220: 2782 65bb e63e 803c 7590 51bd 3432 dd3d
00000230: 9f36 acbd 2d07 3abe 2b03 b7bd 42b2 a73e
00000240: 1cfa 533d b189 293c 1158 24bd 6faa 0b3d
00000250: e04c 553d c0df 2abe e048 cb3d 77d6 01be
00000260: f2d1 b03e 7b86 9c3d 8c15 b53e 67ff ecba
00000270: 6ed8 e9bd 1106 42bd 4256 a83c b5fe 463e
00000280: cc16 d3bd 1a49 bcbb e2e0 5a3e ea29 2bbe
00000290: 0440 a93c d63c 463d bdd0 38bd 62d2 5ebe
000002a0: 568f a23e 82e0 9e3b c803 17be b364 ab3d
000002b0: 71b2 4f3e a632 3ebc fadb 153e f65b bc3d
000002c0: e183 8cbe b421 d1bd 8e7a 1e3d 3b40 293e
000002d0: 20b1 ca3c 2239 3b3e c2c1 40be b6be 5d3e
000002e0: b0f6 3e3d 1a1a 8f3d 8d0f 26be 88b2 203d
000002f0: 0ac9 cd3d b07b 56bd 0c77 09be b745 1a3d
00000300: de58 44bd b52b 833d 552d b8bd 1b23 58be
00000310: 7e10 1bbd 8936 3fbe 1b6a 0abe cce4 363e
00000320: fd45 04be 92c4 bd3d 1233 153e e25c 57bd
00000330: fe2d d3bd 58cd 443e 16d4 76bd 1fc5 d8bb
00000340: 09f5 633e cc1b 3fbd 6e87 38bd f509 aab9
00000350: 0bd3 103e 4fc5 97bd b4cb 35bd fb04 68bd
00000360: bdac 313e 9d1f c63d 1e1a 3f3e 8466 9c3b
00000370: 9c99 7dbd 2747 8dbc c0c1 333e d181 ecbc
00000380: 2724 9abd 38ce 873d 8185 c33c 1bbf 3a3d
00000390: 6d04 95bc e4ad 16bc b467 8bbd d0ac c0bd
000003a0: d4e4 01be 334a 5bbe 68c8 dc3d 97f3 7fbb
000003b0: defd b9bd 73a4 0bbc 7179 d3bc bda3 0bbe
000003c0: 3445 bb3d 4a8c 1d3e ec07 91bb e295 24be
000003d0: 6ded 14bd b04b bdbd 6a8f 33be e8b0 c5bd
000003e0: 6f4d adbd 325a 373d 7a0c 19be 9be7 7d3d
000003f0: 382a 61bd bfb7 50be 5c04 33be 5755 633d

l3.bias f4 [18]
0.24667652 -0.46864995 -0.037697777 0.60775036 -0.119285546 -0.32577837 0.16277805 -0.37184533
0.20803834 0.28217152 0.25823107 0.023505552 0.29929858 -0.40872258 0.30764458 0.21738367
-0.055380896 -0.005295085
00000000: c598 7c3e e3f2 efbe fc68 1abd 8795 1b3f
00000010: fb4b f4bd 6ccc a6be 4aaf 263e 8362 bebe
00000020: 0108 553e c978 903e dd36 843e b78e c03c
00000030: aa3d 993e 1644 d1be 9783 9d3e d399 5e3e
00000040: 14d7 62bd 6482 adbb
