data/result/g_520.pt (torch, 87406 bytes, 7 tensors)

G_attr_matrix.weight f4 [36, 5]
0.04552947 -0.036400106 -0.28390935 0.050315697 0.005539058 -0.075518966 0.043994118 0.121720895
0.07677331 -0.0116709955 -0.042073656 0.01769377 0.014526257 0.037758708 -0.003981384 -0.046255715
-0.08390876 -0.093890354 -0.057400208 -0.0110892 -0.00089602533 -0.102094986 0.0007057607 -0.010704755
0.020169202 0.0851007 0.0057261395 -0.022513712 0.22345287 -0.09307943 -0.026734361 -0.0077363835
-0.016232507 0.013479837 0.1540976 0.18650857 0.12936224 0.21068954 0.16063648 0.06305403
0.0037462832 0.010086374 0.003373398 -0.0471382 -0.12766092 -0.012804572 -0.01704823 0.0021785893
0.06276769 0.19701743 0.23404048 0.01670344 0.021357857 -0.06756586 -0.015657468 -0.011679893
-0.16579816 -0.22703181 0.06444728 0.17431486 0.0020823465 0.09328538 -0.00044789634 0.002044089
0.040123075 -0.32980457 0.004680301 0.04801616 -0.11808325 -0.14432442 -0.029082185 -0.02670094
0.07339716 0.013971504 0.041536547 -0.18352896 0.11477528 -0.18211035 0.11591777 -0.13411644
0.16924539 -0.016250964 -0.057875436 0.14856376 -0.08855478 0.0340733 0.29145268 0.43663687
0.1304618 0.06643761 -0.00036064695 -0.24640001 0.0033029246 0.06332132 -0.068740994 -0.047540102
0.13513672 -0.21879236 0.08650208 0.07156239 -0.20027508 -0.009882119 0.015152277 -0.010912021
-0.010981161 -0.19713488 0.06324599 -0.118443325 0.16377668 0.07593735 -0.0066292584 -0.009748737
-0.010963559 0.010345031 -0.0023800742 0.097496904 0.25373846 0.18151294 -0.1990948 -0.032298535
0.43192875 0.011411341 0.005782109 -0.19290589 -0.012467723 0.21688859 -0.23051852 -0.048045725
-0.15562634 0.1332908 0.015868211 0.048582256 -0.0220794 0.05828016 -0.03383171 -0.20851229
-0.3202796 0.16994606 0.18502654 0.24222618 -0.030337399 0.003253846 0.0058509284 -0.0045835306
-0.02927366 0.070432216 -0.025744706 -0.00030720467 0.005372177 0.13138658 -0.007259654 0.016211811
0.0126717 -0.04943221 -0.06540533 0.037275195 -0.065821566 -0.055873036 0.17518757 0.24993148
-0.007990067 -0.0029933867 0.029707389 -0.0037360762 -0.008728008 0.13080789 0.15614296 -0.37991333
0.03205945 0.15804185 0.00082134997 -0.0089449445 0.10481502 0.26635903 0.12441038 0.009669235
0.26814327 -0.15711954 -0.20974441 0.1296178
00000000: 1c7d 3a3d 4718 15bd 915c 91be d517 4e3d
00000010: fc80 b53b b0a9 9abd 2d33 343d ce48 f93d
00000020: 533b 9d3d b437 3fbc 6d55 2cbd 86f2 903c
00000030: 8aff 6d3c e0a8 1a3d 4576 82bb a276 3dbd
00000040: 5bd8 abbd 9649 c0bd 7b1c 6bbd 7aaf 35bc
00000050: 3ee3 6aba 2d17 d1bd cd02 393a ff62 2fbc
00000060: e239 a53c 4749 ae3d 57a2 bb3b ad6e b8bc
00000070: d4d0 643e 6ea0 bebd 0502 dbbc 7d81 fdbb
00000080: 09fa 84bc 89da 5c3c c3cb 1d3e 1afc 3e3e
00000090: 8977 043e 00bf 573e e47d 243e 7922 813d
000000a0: 3484 753b 5241 253c 3a14 5d3b fc13 41bd
000000b0: 8bb9 02be 44ca 51bc bba8 8bbc aac6 0e3b
000000c0: 598c 803d f0be 493e 4fa8 6f3e a7d5 883c
000000d0: acf6 ae3c f85f 8abd 1744 80bc 065d 3fbc
000000e0: fec6 29be 077b 68be effc 833d 987f 323e
000000f0: fa77 083b 680c bf3d a1d3 eab9 1ff6 053b
00000100: 1858 243d 25dc a8be 365d 993b 98ac 443d
00000110: a2d5 f1bd c8c9 13be c33d eebc eebb dabc
00000120: 4051 963d bce8 643c 3a22 2a3d 04ef 3bbe
00000130: 4d0f eb3d 237b 3abe 4c66 ed3d d255 09be
00000140: aa4e 2d3e be20 85bc cb0e 6dbd 1921 183e
00000150: 355c b5bd 7290 0b3d 4939 953e de8e df3e
00000160: c797 053e 7110 883d 3715 bdb9 4950 7cbe
00000170: e175 583b 9cae 813d 14c8 8cbd 69b9 42bd
00000180: 4861 0a3e 1b0b 60be 0128 b13d 4d8f 923d
00000190: e914 4dbe 9ce8 21bc 4241 783c 55c8 32bc
000001a0: 54ea 33bc badd 49be 1d87 813d 6a92 f2bd
000001b0: 13b5 273e 0b85 9b3d 403a d9bb 2bb9 1fbc
000001c0: 80a0 33bc 347e 293c 05fb 1bbb 75ac c73d
000001d0: 02ea 813e 87de 393e 82df 4bbe 784b 04bd
000001e0: c425 dd3e a2f6 3a3c d977 bd3b 1f89 45be
000001f0: 6c45 4cbc 0b18 5e3e 0c0d 6cbe 98cb 44bd
00000200: 835c 1fbe 627d 083e 0dfe 813c 30fe 463d
00000210: dcdf b4bc 2db7 6e3d 1f93 0abd 3f84 55be
00000220: b0fb a3be 5706 2e3e 9977 3d3e 240a 783e
00000230: 2386 f8bc 7a3e 553b 25b9 bf3b 7131 96bb
00000240: 51cf efbc c43e 903d 90e6 d2bc 5010 a1b9
00000250: 1609 b03b 348a 063e 64e2 edbb a2ce 843c
00000260: f69c 4f3c 6e79 4abd 3bf3 85bd e0ad 183d
00000270: 75cd 86bd 20db 64bd 5f64 333e 0aee 7f3e
00000280: c5e8 02bc b22c 44bb e95c f33c f5d8 74bb
00000290: ebff 0ebc 81f2 053e f1e3 1f3e 0084 c2be
000002a0: c550 033d b9d5 213e dd4f 573a d18d 12bc
000002b0: 42a9 d63d 3660 883e dfca fe3d b66b 1e3c
000002c0: 134a 893e f2e3 20be 3dc7 56be 87ba 043e

l1.weight f4 [100, 90]
0.18634453 -0.010415856 0.08419963 0.103510074 0.09397138 0.05203918 0.094764054 0.05031338
-0.24070622 -0.10608367 0.09335269 -0.19861448 -0.07928036 0.050031494 -0.041173182 0.08867731
0.023943733 -0.07412793 -0.039006848 0.09780804 0.14111477 -0.005794385 0.08261596 -0.09481496
0.014031851 0.060739283 0.18896368 0.07707924 0.1592446 0.008435089 0.07237418 -0.14105728
-0.23473568 -0.13964072 -0.08847885 0.043733962 0.15065876 -0.013285809 -0.10085417 0.18073593
-0.017858274 -0.06458742 0.116493955 0.03408156 0.0042405506 0.07283536 -0.12022833 -0.02989189
0.049147643 -0.06831401 0.11752291 -0.3799598 0.20108448 -0.06076153 -0.14520827 -0.0016206242
-0.049111627 -0.014294187 -0.020620445 0.15993126 -0.029149422 -0.15275949 0.0012762926 0.035303485
-0.062175 -0.10197103 0.022213962 -0.18242523 -0.0074155233 -0.17994162 -0.17714722 0.116120875
0.1078933 0.19787112 -0.17626189 -0.011332151 -0.20723559 -0.020907069 -0.08148335 0.039035544
0.0014396627 -0.045001794 0.037599273 0.15141112 -0.17715149 0.109917946 0.06711479 -0.073297665
0.046328478 0.1710225 0.25086462 -0.076546334 -0.059015054 -0.039452385 -0.14670493 0.046873488
0.19799435 -0.036220312 0.059825648 0.10361048 0.07179108 -0.025232183 -0.13214628 -0.0001102141
-0.12298545 -0.07206184 0.10806658 -0.16707289 0.06211666 0.051754475 0.0378293 0.040934723
-0.014402562 -0.04293556 -0.022183323 0.041505653 0.018599678 -0.061059073 -0.020546008 0.060831733
0.036198605 -0.0372762 -0.033193603 0.05583855 -0.17395045 -0.003203335 -0.06282539 0.090837024
0.026140274 0.07228926 -0.041521825 0.14334458 -0.10912117 0.008689594 -0.1991664 -0.066837035
0.07159245 -0.13807373 0.0012272827 -0.01665607 0.090594135 -0.12824857 -0.23585013 -0.12845322
-0.06408454 0.108198635 0.089024775 0.065530226 -0.023620361 -0.09936935 -0.030137243 -0.051989455
-0.08766075 -0.027922709 0.044954978 -0.08701779 -0.005863293 -0.04153131 0.021245347 0.1259581
-0.18842852 0.17841916 -0.14192775 -0.060032923 0.022393106 -0.057683337 0.032801792 -0.11149356
0.17386903 0.063062355 0.023784943 -0.07226756 -0.036176935 0.09766234 -0.08482935 -0.09267089
-0.24364288 0.11956881 -0.10165327 -0.03180417 0.002631818 0.14290555 0.02397571 -0.21152641
-0.03808373 -0.16751187 -0.05970287 0.08914519 0.032064155 -0.07599996 0.049595032 -0.17938899
-0.14743249 0.11935346 -0.035957783 -0.08170728 0.0010817719 0.12954861 0.04560796 0.03414761
-0.04935179 0.05403988 -0.20182852 0.07640334 0.26022106 0.0010379987 -0.007957193 -0.067656815
-0.08605434 0.14525196 -0.031739283 0.00043070846 0.13225527 0.0545663 0.0048533287 0.14488466
0.050404735 -0.08947388 -0.028399242 -0.022878725 -0.11810727 -0.12880374 0.054912243 -0.030633062
0.23808467 -0.06488549 0.14514264 0.06447051 0.0596404 0.05466419 0.18387352 -0.068685986
-0.046119485 0.067113176 0.034597095 0.13971576 -0.08563573 0.0044337977 0.16863762 -0.024412429
0.024937777 -0.1154883 0.109087646 0.07086429 -0.102708146 -0.21237583 -0.08521615 -0.11606857
-0.12645109 0.024017047 0.10384348 0.07122091 -0.15560347 -0.099770516 0.07343073 -0.0063200695
00000000: 1ad1 3e3e 44a7 2abc db70 ac3d 17fd d33d
00000010: 1174 c03d 0927 553d a813 c23d 6715 4e3d
00000020: b17b 76be 6542 d9bd b22f bf3d 9861 4bbe
00000030: be5d a2bd d3ed 4c3d 36a5 28bd 739c b53d
00000040: a625 c43c 62d0 97bd a5c5 1fbd 954f c83d
00000050: 6480 103e d3de bdbb 8e32 a93d 592e c2bd
00000060: d9e5 653c c1c9 783d b27f 413e b8db 9d3d
00000070: 0411 233e 5433 0a3c ea38 943d 5271 10be
00000080: 8d5e 70be fafd 0ebe 6634 b5bd 6222 333d
00000090: 4a46 1a3e b9ac 59bc a28c cebd d712 393e
000000a0: 844b 92bc 6946 84bd 6294 ee3d 1b99 0b3d
000000b0: 51f4 8a3b b52a 953d 453a f6bd d6df f4bc
000000c0: 0a4f 493d 37e8 8bbd daaf f03d 178a c2be
000000d0: 17e9 4d3e 15e1 78bd 7ab1 14be 206b d4ba
000000e0: 4629 49bd 2a32 6abc 35ec a8bc 05c5 233e
000000f0: c5ca eebc fc6c 1cbe 4649 a73a 639a 103d
00000100: 36ab 7ebd 30d6 d0bd 0efa b53c aecd 3abe
00000110: ebfd f2bb 9e42 38be 1566 35be c8d0 ed3d
00000120: 2af7 dc3d ba9e 4a3e ff7d 34be 7caa 39bc
00000130: 9135 54be 4d45 abbc bee0 a6bd bce3 1f3d
00000140: 10b3 bc3a cd53 38bd b201 1a3d 840b 1b3e
00000150: 3367 35be a91c e13d 7b73 893d 161d 96bd
00000160: eec2 3d3d 8620 2f3e 5471 803e 53c4 9cbd
00000170: c5b9 71bd d398 21bd d139 16be 6afe 3f3d
00000180: 08bf 4a3e c05b 14bd bd0b 753d bb31 d43d
00000190: 3407 933d b9b3 cebc 5b51 07be bf22 e7b8
000001a0: ccdf fbbd 2895 93bd 0352 dd3d 2815 2bbe
000001b0: 0a6e 7e3d 80fc 533d e5f2 1a3d 2bab 273d
000001c0: b9f8 6bbc 33dd 2fbd cdb9 b5bc d501 2a3d
000001d0: 5a5e 983c 1419 7abd 1a50 a8bc b22a 793d
000001e0: fd44 143d eeae 18bd 04f6 07bd f7b6 643d
000001f0: 1120 32be 0bef 51bb 99aa 80bd c308 ba3d
00000200: 2124 d63c 640c 943d ca12 2abd ecc8 123e
00000210: ec7a dfbd cd5e 0e3c 47f2 4bbe dbe1 88bd
00000220: 109f 923d 3363 0dbe c6dc a03a 4f72 88bc
00000230: 6b89 b93d 9853 03be b282 71be 3e89 03be
00000240: c13e 83bd 3f97 dd3d 9f52 b63d b634 863d
00000250: 7d7f c1bc 2882 cbbd 61e2 f6bc e5f2 54bd
00000260: 7b87 b3bd 2abe e4bc b622 383d 6236 b2bd
00000270: de20 c0bb bc1c 2abd b90a ae3c 29fb 003e
00000280: 68f3 40be 83b3 363e 8255 11be 15e5 75bd
00000290: bf71 b73c 5d45 6cbd 2c5b 063d bc56 e4bd
000002a0: b90a 323e d626 813d a4d8 c23c 0401 94bd
000002b0: 442e 14bd 3103 c83d 03bb adbd 3cca bdbd
000002c0: 857d 79be 7ee0 f43d 972f d0bd 1745 02bd
000002d0: 947a 2c3b d555 123e b568 c43c 619a 58be
000002e0: affd 1bbd 3b88 2bbe ff8a 74bd c191 b63d
000002f0: b455 033d dea5 9bbd 2924 4b3d bfb1 37be
00000300: 8bf8 16be 966f f43d 7848 13bd 2556 a7bd
00000310: 3eca 8d3a 64a8 043e 6acf 3a3d 5dde 0b3d
00000320: 1a25 4abd ec58 5d3d 23ac 4ebe 5b79 9c3d
00000330: b23b 853e 750d 883a e35e 02bc a88f 8abd
00000340: 423d b0bd eebc 143e 0d01 02bd b6d0 e139
00000350: ed6d 073e ea80 5f3d ac08 9f3b a55c 143e
00000360: 3275 4e3d 153e b7bd 87a5 e8bc 2a6c bbbc
00000370: 39e2 f1bd 21e5 03be a9eb 603d 30f2 fabc
00000380: 78cc 733e afe2 84bd 46a0 143e 1d09 843d
00000390: 7e49 743d 8fe7 5f3d 5749 3c3e 3dab 8cbd
000003a0: c9e7 3cbd a272 893d afb5 0d3d a611 0f3e
000003b0: c961 afbd 6449 913b 57af 2c3e 93fc c7bc
000003c0: 4f4a cc3c 2185 ecbd 5869 df3d 4c21 913d
000003d0: a658 d2bd 0d79 59be ce85 aebd 5cb5 edbd
000003e0: 657c 01be 66bf c43c e4ab d43d 45dc 913d
000003f0: 8456 1fbe 7c54 ccbd da62 963d 9618 cfbb

l1.bias f4 [100]
-0.029071318 0.016869532 0.16356857 0.066989355 0.12829663 0.009626652 0.19357324 -0.037968405
-0.041520126 -0.057208985 -0.03750867 -0.103211045 -0.022948636 0.0033659912 -0.03631124 0.11118377
0.04149265 0.045677997 -0.08139336 -0.03114812 0.17720662 -0.028880231 -0.031852886 0.119950674
0.025015943 0.15931898 -0.04750739 -0.11964575 -0.0002669549 -0.32658526 0.045929424 0.09777024
-0.15781997 -0.253495 -0.20676385 -0.0095140785 0.024980832 0.1504392 -0.0009412932 -0.04425939
-0.21980721 0.23287806 -0.13345152 0.0070074187 -0.05718397 -0.024446439 -0.00980125 -0.02863081
-0.0581227 -0.18146765 -0.009291108 0.16204476 0.111520454 -0.17466404 -0.01891406 -0.044884156
-0.037905667 0.06031431 -0.024747334 -0.0690143 -0.15262862 0.06334835 -0.020183828 0.10747647
0.10680843 -0.12575887 -0.0055312254 0.09804941 -0.026893433 0.00780577 0.09424909 -0.07599459
-0.13056684 0.18763816 0.08875167 0.047578923 -0.17215845 -0.057482626 -0.2140226 -0.10119347
0.039382953 -0.119983226 -0.026227336 0.059940748 0.033575073 0.018003074 -0.070124514 0.018482737
-0.13751279 -0.019598626 0.12997733 0.07602118 -0.021053579 0.03791087 0.12457907 -0.036477666
-0.0038354169 -0.09723363 -0.15255989 0.009855119
00000000: f926 eebc f931 8a3c 857e 273e b731 893d
00000010: 3160 033e 1bb9 1d3c 1038 463e c284 1bbd
00000020: 0211 2abd f853 6abd b1a2 19bd 5060 d3bd
00000030: c7fe bbbc f697 5c3b 18bb 14bd 51b4 e33d
00000040: 32f4 293d da18 3b3d 90b1 a6bd 582a ffbc
00000050: a775 353e 3c96 ecbc 2c78 02bd b3a8 f53d
00000060: 3cee cc3c 8424 233e 1c97 42bd d508 f5bd
00000070: 15f6 8bb9 2f36 a7be 7e20 3c3d c33b c83d
00000080: 8f9b 21be 19ca 81be e7b9 53be f0e0 1bbc
00000090: 9aa4 cc3c bc0c 1a3e 1ec1 76ba 5649 35bd
000000a0: 2415 61be 9677 6e3e 84a7 08be 7d9e e53b
000000b0: bd39 6abd e643 c8bc 6c95 20bc 298b eabc
000000c0: 1112 6ebd a8d2 39be bb39 18bc 10ef 253e
000000d0: d664 e43d 21db 32be a9f1 9abc 73d8 37bd
000000e0: f942 1bbd 230c 773d ecba cabc 5f57 8dbd
000000f0: ad4a 1cbe c8bc 813d 8e58 a5bc a01c dc3d
00000100: 61be da3d efc6 00be 483f b5bb 21ce c83d
00000110: 9e4f dcbc 8bc7 ff3b ab05 c13d 0da3 9bbd
00000120: 50b3 05be 3824 403e 70c3 b53d 1ee2 423d
00000130: 4e4a 30be e772 6bbd be28 5bbe 863e cfbd
00000140: 0550 213d c4b9 f5bd b6da d6bc 6e84 753d
00000150: 0486 093d 2f7b 933c 719d 8fbd 1c69 973c
00000160: 27d0 0cbe 4c8d a0bc c718 053e feb0 9b3d
00000170: 8e78 acbc 6e48 1b3d 5023 ff3d 9b69 15bd
00000180: 9e5b 7bbb 6d22 c7bd a938 1cbe 5d77 213c

l2.weight f4 [100, 100]
0.0677962 0.16111138 -0.06289511 -0.051787876 -0.06970148 0.14161119 -0.027358875 0.1033943
-0.08065829 -0.08886644 -0.0015754873 -0.09015934 -0.024453184 -0.03763415 0.02628065 0.020672971
-0.2249067 -0.13490407 0.019856619 0.17111275 0.013554394 0.12387208 0.07263323 0.048849672
0.046175845 0.052445486 -0.22365136 -0.11975876 -0.21057385 -0.13776009 0.111421816 -0.09400708
0.05592371 0.008569017 0.048005026 0.051015057 -0.08275218 -0.010880168 -0.09819522 0.087976724
-0.06720999 0.095690176 -0.024834001 -0.052053794 0.13403632 -0.07270888 -0.13015483 0.17801328
-0.058081564 0.048753187 -0.03418067 0.024084393 0.013936797 -0.07668011 0.13832735 0.05518242
-0.095153086 0.018057974 -0.12689929 -0.04283873 0.0039555035 0.11919911 -0.011881792 0.031323515
0.050390273 -0.116856165 0.05065234 -0.15293598 0.13133359 0.07157892 -0.08168575 0.07594349
0.10963098 0.10017978 0.10455842 0.029384898 0.23033059 0.024270797 -0.059033286 -0.02976847
0.1673594 -0.029836062 -0.08423057 -0.01713339 0.06286752 -0.07822246 -0.043613236 -0.10005039
-0.09744786 -0.10327807 -0.06909033 0.02689619 -0.026413761 -0.09643242 -0.036858972 0.009134641
-0.08465815 0.23550162 0.017098142 0.033137497 -0.113949805 0.03138974 -0.14981794 0.051079415
0.19682549 -0.006404108 0.20558393 -0.04955069 0.10403189 0.004917797 0.031182487 0.07810285
-0.0053086444 -0.03904333 -0.13023801 -0.10127205 0.005391519 -0.12238952 0.06020487 0.12245749
-0.054826833 -0.05059989 0.01924304 0.05606348 0.035867017 0.023279712 -0.043133844 -0.054901674
0.11345934 -0.11927799 -0.055339444 0.0035810112 0.123953484 0.0069672656 0.1338404 0.10862986
-0.0074684005 -0.07683735 -0.031854242 -0.030142702 0.067703724 -0.017958602 0.014272141 -0.050319716
-0.015626412 0.13370016 0.048875246 0.12747379 -0.05343595 0.0154849 -0.019513253 -0.01401183
-0.010592584 0.12821004 0.11896549 0.050428115 -0.10135547 0.06837872 -0.17479758 -0.0585834
0.033157524 0.09808405 -0.014355949 0.04128144 0.057464603 -0.02682218 0.11535877 -0.01179504
0.04094086 -0.14480352 -0.0274909 0.025138447 -0.095452875 0.0011511629 0.07489702 0.027543506
-0.0643589 0.011659721 -0.11028523 -0.15117408 -0.1269595 -0.18938698 0.06117813 -0.10531042
-0.040033795 0.025461081 -0.15911388 -0.051020227 -0.038150333 -0.071145974 0.15667349 0.017946739
-0.11401007 0.02620979 0.0936637 0.035512708 0.090470985 -0.13182163 -0.08361043 -0.04249053
0.052440975 0.036378533 0.14690189 0.058345553 -0.031309437 0.19121015 -0.15656492 -0.053936817
-0.034312673 -0.05366828 0.20333 0.11584793 -0.17052245 -0.13174236 0.008899743 -0.25811762
-0.16999379 -0.15172313 0.038155485 0.07931858 0.06955782 0.027848208 -0.23625475 0.20557356
0.018576885 0.04684754 -0.011766738 0.03495563 -0.05056987 -0.16350591 -0.13975763 0.006128584
0.09526611 0.15152647 -0.21521921 -0.046236802 0.13724206 0.10093764 0.20337547 0.028645054
-0.037795573 -0.17664638 -0.030213926 -0.07972044 -0.06848336 0.047775608 0.031275794 -0.053535726
0.085031606 0.18003352 0.22103925 -0.13435487 0.044295624 0.01580452 -0.11697683 0.0705136
00000000: bcd8 8a3d 62fa 243e 27cf 80bd 861f 54bd
00000010: a6bf 8ebd 8602 113e b81f e0bc 64c0 d33d
00000020: 2c30 a5bd 9cff b5bd 9580 ceba 76a5 b8bd
00000030: 0b52 c8bc 4426 1abd 854a d73c 5d5a a93c
00000040: f14d 66be 4b24 0abe 59aa a23c 2e38 2f3e
00000050: 4013 5e3c a5b0 fd3d bbc0 943d 9816 483d
00000060: e222 3d3d 14d1 563d dd04 65be 1544 f5bd
00000070: aca0 57be fb10 0dbe 1f31 e43d c986 c0bd
00000080: 4310 653d 1065 0c3c eba0 443d 2af5 503d
00000090: fa79 a9bd bb42 32bc 931a c9bd 242d b43d
000000a0: 64a5 89bd 36f9 c33d ad70 cbbc 5c36 55bd
000000b0: d140 093e 65e8 94bd 4f47 05be 1d49 363e
000000c0: efe6 6dbd 6cb1 473d 0801 0cbd a24c c53c
000000d0: 2a57 643c 760a 9dbd afa5 0d3e f606 623d
000000e0: 9fdf c2bd 51ee 933c e3f1 01be aa77 2fbd
000000f0: 2b9d 813b aa1e f43d d9ab 42bc 164d 003d
00000100: 0866 4e3d 4952 efbd d478 4f3d 409b 1cbe
00000110: 507c 063e f897 923d dc4a a7bd 4388 9b3d
00000120: 3586 e03d 0e2b cd3d ba22 d63d 99b8 f03c
00000130: c8db 6b3e 8dd3 c63c e3cc 71bd 02dd f3bc
00000140: 4360 2b3e c26a f4bc 1481 acbd 535b 8cbc
00000150: b0c0 803d 1933 a0bd cba3 32bd 38e7 ccbd
00000160: be92 c7bd 7483 d3bd 3b7f 8dbd 6655 dc3c
00000170: ac61 d8bc 5c7e c5bd 6ff9 16bd 76a9 153c
00000180: 4161 adbd 5627 713e 6711 8c3c 2fbb 073d
00000190: 845e e9bd 8792 003d e069 19be a638 513d
000001a0: 9f8c 493e 8dd9 d1bb 9884 523e aaf5 4abd
000001b0: ac0e d53d 7925 a13b 6a72 ff3c 63f4 9f3d
000001c0: 23f4 adbb e6eb 1fbd 1d5d 05be b867 cfbd
000001d0: 57ab b03b 5ba7 fabd 6299 763d feca fa3d
000001e0: 1a92 60bd d541 4fbd 94a3 9d3c d2a2 653d
000001f0: 4be9 123d 18b5 be3c 1dad 30bd 94e0 60bd
00000200: 5f5d e83d 0548 f4bd 9dab 62bd 66af 6a3b
00000210: 53db fd3d a94d e43b 750d 093e 5579 de3d
00000220: 7cb9 f4bb e75c 9dbd 9879 02bd d4ed f6bc
00000230: 40a8 8a3d eb1d 93bc b3d5 693c 0c1c 4ebd
00000240: f602 80bc b2e8 083e 6931 483d 7d88 023e
00000250: a8df 5abd 61b4 7d3c 42da 9fbc e091 65bc
00000260: 848c 2dbc 7e49 033e 2ea4 f33d b68d 4e3d
00000270: 7593 cfbd 240a 8c3d 23fe 32be 26f5 6fbd
00000280: 2fd0 073d 4ae0 c83d 3735 6bbc ba16 293d
00000290: 0160 6b3d 30ba dbbc 3841 ec3d fc3f 41bc
000002a0: 9ab1 273d 6047 14be 9934 e1bc 25ef cd3c
000002b0: cc7c c3bd 9ee2 963a 9c63 993d eba2 e13c
000002c0: 99ce 83bd 6a08 3f3c 39dd e1bd 61cd 1abe
000002d0: ac01 02be a9ee 41be eb95 7a3d fdac d7bd
000002e0: 7afa 23bd c293 d03c c0ee 22be 96fa 50bd
000002f0: 8643 1cbd fbb4 91bd 046f 203e 0a05 933c
00000300: 1d7e e9bd eab5 d63c c1d2 bf3d c675 113d
00000310: da48 b93d 40fc 06be f23b abbd 8d0a 2ebd
00000320: 59cc 563d a801 153d 736d 163e bffb 6e3d
00000330: 533e 00bd 98cc 433e 8e52 20be daec 5cbd
00000340: 728b 0cbd 45d3 5bbd bd35 503e ae41 ed3d
00000350: 709d 2ebe 78e7 06be 3ad0 113c fe27 84be
00000360: da12 2ebe 4f5d 1bbe ed48 1c3d c871 a23d
00000370: 5574 8e3d ed21 e43c c4ec 71be e081 523e
00000380: 8d2e 983c 35e3 3f3d 47c9 40bc a22d 0f3d
00000390: 5a22 4fbd 186e 27be a01c 0fbe 4ad2 c83b
000003a0: e11a c33d c129 1b3e 6d62 5cbe cd62 3dbd
000003b0: 2f89 0c3e 65b8 ce3d a941 503e 08a9 ea3c
000003c0: 88cf 1abd cae2 34be 3283 f7bc 7844 a3bd
000003d0: 0141 8cbd 5bb0 433d 0c1b 003d 4748 5bbd
000003e0: 0d25 ae3d b55a 383e 1d58 623e 5394 09be
000003f0: 546f 353d 7b78 813c 8c91 efbd 6f69 903d

l2.bias f4 [100]
0.028619166 -0.1744702 0.092518404 0.0152286505 -0.05723486 0.1127044 0.018064443 -0.15612687
-0.12724872 -0.026460331 0.031492658 0.16113736 0.038975265 0.03335159 0.09946568 0.10946597
0.0029642866 0.018393595 0.27907842 0.015557662 0.11902242 -0.06019256 0.048879467 0.058123767
-0.08849356 0.022343667 -0.0016482414 -0.12777518 0.046946995 -0.043754112 -0.010210657 -0.028854411
0.017433826 0.0012960804 -0.15978946 0.032040693 0.12776189 -0.0127669 0.047470603 -0.055955548
-0.013393885 -0.06562128 -0.03312472 0.01690587 -0.03584455 -0.033047974 -0.020836066 -0.08044789
-0.00018156688 0.036564488 0.016258389 -0.032722358 0.109053575 0.05224162 0.008600282 -0.0029991325
-0.0695195 0.05943424 -0.033372585 0.10463073 -0.12021266 -0.22441958 0.09764447 0.14966905
-0.034890525 -0.02208985 -0.016299697 0.061293814 0.04361831 -0.041581724 -0.16902222 0.012368977
0.06481144 -0.019018471 0.035334803 0.036051236 -0.22027563 0.11205751 0.020439168 0.011096053
0.031946085 -0.008126323 0.0056946455 0.15105355 -0.022498295 0.0067414935 -0.04413024 0.015984273
0.014348255 0.01851466 -0.3011899 0.09586496 -0.009015277 -0.040243696 -0.027478768 -0.015951086
-0.10157239 -0.049072403 -0.18666787 0.05477956
00000000: be72 ea3c 51a8 32be 4a7a bd3d 9781 793c
00000010: 1a6f 6abd 91d1 e63d e2fb 933c b9df 1fbe
00000020: 7d4d 02be 56c3 d8bc 72fe 003d 3101 253e
00000030: 87a4 1f3d ad9b 083d aab4 cb3d b22f e03d
00000040: 7a44 423b 2aae 963c 5ee3 8e3e 90e5 7e3c
00000050: 07c2 f33d 798c 76bd d635 483d 3013 6e3d
00000060: 1d3c b5bd 110a b73c ce09 d8ba 7fd7 02be
00000070: 7e4b 403d 8337 33bd 994a 27bc 1660 ecbc
00000080: 62d1 8e3c 3ee1 a93a d99f 23be 1a3d 033d
00000090: 03d4 023e 422c 51bc 8970 423d a531 65bd
000000a0: 0772 5bbc 7364 86bd c9ad 07bd 2e7e 8a3c
000000b0: bcd1 12bd 505d 07bd 66b0 aabc ddc1 a4bd
000000c0: fd62 3eb9 a5c4 153d 5030 853c e107 06bd
000000d0: 7b57 df3d 4ffb 553d 32e8 0c3c 188d 44bb
000000e0: 3d60 8ebd 5171 733d b1b1 08bd a348 d63d
000000f0: 0e32 f6bd 3fce 65be d3f9 c73d d842 193e
00000100: 5ee9 0ebd c6f5 b4bc f186 85bc 390f 7b3d
00000110: 1da9 323d 9951 2abd 2914 2dbe 40a7 4a3c
00000120: dcbb 843d a0cc 9bbc 3abb 103d 76aa 133d
00000130: ef8f 61be 687e e53d 0b70 a73c 38cc 353c
00000140: e6d9 023d 4524 05bc 269a ba3b c8ad 1a3e
00000150: 584e b8bc bfe7 dc3b e9c1 34bd 73f1 823c
00000160: f114 6b3c 0eac 973c 9035 9abe d954 c43d
00000170: d0b4 13bc 93d6 24bd 271b e1bc daab 82bc
00000180: 2f05 d0bd 2500 49bd dd25 3fbe 8860 603d

l3.weight f4 [18, 100]
0.092608795 -0.048790686 -0.020466289 0.14132579 -0.20098178 0.0047716517 -0.14624698 0.06050503
0.019059664 -0.089884095 0.055148814 0.12376169 0.072224565 0.051910974 -0.1362948 0.079054326
0.070807345 -0.101641685 -0.09997769 0.08785768 -0.023923917 -0.03954753 0.15125266 -0.016337814
-0.26250678 -0.11748323 -0.033921797 -0.25071478 0.119424134 0.0706078 -0.021466373 -0.0071934806
0.28186634 -0.25677598 -0.09547164 -0.14794199 0.012235204 -0.013209261 0.173844 -0.032309283
-0.00612036 0.15414464 0.009438789 0.11956737 -0.065024115 -0.00821003 0.18757373 0.037887335
0.14896162 -0.18592231 0.033053912 -0.22830611 -0.161305 -0.1379904 -0.070871666 -0.16177602
0.026398811 -0.0963674 -0.13308561 -0.061618343 0.22885935 0.1759973 0.038033914 0.0033394122
0.07050339 -0.21883006 0.21762325 0.066894285 -0.09552227 0.12416305 -0.22220254 0.047509965
0.063164234 0.1195588 0.044558678 -0.13472073 0.1896079 0.011874475 -0.26132515 -0.013809458
0.24465531 -0.16361716 0.04867346 -0.011613959 -0.073937155 0.07413447 -0.24882452 -0.13237128
-0.15976146 -0.22774576 0.23771787 0.070555925 0.14184366 0.11109387 0.06762668 -0.07640927
0.035604898 0.038550485 0.015699752 -0.22833242 0.06135204 -0.16095504 0.09181271 0.06862368
0.07554609 0.008339981 0.11318318 -0.24464369 -0.21757464 0.064691655 0.008415293 0.08288912
0.095550396 0.124202386 0.3645744 0.0078859385 -0.08309203 -0.04579903 0.16135941 -0.11530272
0.11835912 0.06365984 0.15521388 0.017996073 -0.24640343 0.119300336 -0.13894881 0.030041602
-0.15972224 -0.046743136 0.24078836 -0.06397791 0.13357662 0.07362437 0.02800122 0.11268137
-0.0056079603 0.012312468 -0.050558172 0.10307694 -0.08534964 -0.18273148 -0.087991886 0.32668403
0.05181179 0.0077674445 -0.04396872 0.03384499 0.052828602 -0.16949081 0.097894974 -0.12325754
0.34683245 0.07343941 0.356244 0.007753593 -0.116119586 -0.044192012 0.01224177 0.19999394
-0.1039294 -0.006610756 0.2158029 -0.16659199 0.010672086 0.04617969 -0.05052788 -0.21943249
0.32076976 -0.0025963848 -0.1476877 0.09312024 0.20390849 -0.009130218 0.15340152 0.08729549
-0.2740608 -0.10167028 0.03395573 0.16487613 0.016705913 0.18260275 -0.19626194 0.21635836
0.056864813 0.0670481 -0.16961743 0.040305875 0.104746215 -0.054921128 -0.13408892 0.037918214
-0.042091873 0.07252653 -0.092239305 -0.20896117 -0.04153351 -0.18392168 -0.13671583 0.1826149
-0.13470098 0.09280226 0.15028918 -0.05739462 -0.10163714 0.1968783 -0.057806995 -0.008072975
0.22039899 -0.042907882 -0.046675757 0.00068669737 0.14942254 -0.07258 -0.043555945 -0.056821767
0.17306513 0.09993552 0.18590531 0.008576292 -0.06129912 -0.010681408 0.17659563 -0.031758476
-0.07440066 0.06910783 0.018581022 0.046237566 -0.01527282 -0.0094191935 -0.06869164 -0.09210675
-0.12971689 -0.21505477 0.10736001 -0.0024047317 -0.093123026 -0.0122301215 -0.025267676 -0.14162427
0.08993394 0.15299343 -0.0026847357 -0.16148816 -0.03612969 -0.094756715 -0.17887118 -0.09638258
-0.08417703 0.04233511 -0.15105586 0.06582915 -0.053798098 -0.2068654 -0.17242798 0.06529802
00000000: aea9 bd3d bed8 47bd eba8 a7bc b5b7 103e
00000010: 2bce 4dbe 845b 9c3b c5c1 15be 1fd4 773d
00000020: 0323 9c3c 2715 b8bd b9e3 613d c576 fd3d
00000030: 79ea 933d 9aa0 543d dd90 0bbe 3ce7 a13d
00000040: 7103 913d 8429 d0bd 1ac1 ccbd baee b33d
00000050: 17fc c3bc 97fc 21bd fae1 1a3e e1d6 85bc
00000060: 4a67 86be 0c9b f0bd 95f1 0abd b05d 80be
00000070: a494 f43d d29a 903d 3fda afbc 4ab7 ebbb
00000080: c950 903e 2478 83be a386 c3bd 1b7e 17be
00000090: 2a76 483c a86b 58bc 2904 323e bd56 04bd
000000a0: 4d8d c8bb 18d8 1d3e 27a5 1a3c bddf f43d
000000b0: 5d2b 85bd 5d83 06bc 5413 403e c02f 1b3d
000000c0: 6589 183e 6b62 3ebe 8a63 073d 14c9 69be
000000d0: 232d 25be 5b4d 0dbe 2a25 91bd 9da8 25be
000000e0: 5242 d83c 455c c5bd 9847 08be 8463 7cbd
000000f0: 1b5a 6a3e a338 343e 73c9 1b3d 0ada 5a3b
00000100: 1564 903d fd14 60be a1d8 5e3e dfff 883d
00000110: 2ea1 c3bd 3249 fe3d 1089 63be cf99 423d
00000120: 405c 813d 3edb f43d 2983 363d 3bf4 09be
00000130: 9328 423e 288d 423c 69cc 85be 1141 62bc
00000140: ec86 7a3e 428b 27be d25d 473d 7a48 3ebc
00000150: 5d6c 97bd d0d3 973d dbcb 7ebe 568c 07be
00000160: 8298 23be 2f36 69be 506c 733e a07f 903d
00000170: 773f 113e 2f85 e33d db7f 8a3d 777c 9cbd
00000180: 71d6 113d 1de7 1d3d c49c 803c f9cf 69be
00000190: 474c 7b3d 66d1 24be 4d08 bc3d 928a 8c3d
000001a0: e9b7 9a3d 6aa4 083c 95cc e73d e083 7abe
000001b0: e3cb 5ebe 0f7d 843d 4ce0 093c c5c1 a93d
000001c0: edaf c33d d25d fe3d 7fa9 ba3e 0634 013c
000001d0: 272c aabd c497 3bbd 673b 253e d523 ecbd
000001e0: 4466 f23d 1760 823d 63f0 1e3e 806c 933c
000001f0: 2e51 7cbe bc53 f43d 9948 0ebe ce19 f63c
00000200: 3a8e 23be bb75 3fbd 3991 763e da06 83bd
00000210: 4fc8 083e 60c8 963d d162 e53c 7dc5 e63d
00000220: fbc2 b7bb 3cba 493c 1616 4fbd 011a d33d
00000230: cbcb aebd f61d 3bbe 1735 b4bd 2143 a73e
00000240: 9938 543d 0c86 fe3b 8b18 34bd 0ba1 0a3d
00000250: ce62 583d 008f 2dbe 297d c83d 736e fcbd
00000260: 0694 b13e 6767 963d 9d65 b63e da11 fe3b
00000270: 1bd0 edbd af02 35bd b491 483c 36cb 4c3e
00000280: f0d8 d4bd 0a9f d8bb 6ffb 5c3e 1797 2abe
00000290: f9d9 2e3c ea26 3d3d 53f6 4ebd e9b2 60be
000002a0: ef3b a43e 1c28 2abb 723b 17be d3b5 be3d
000002b0: 63cd 503e e996 15bc 4a15 1d3e fac7 b23d
000002c0: b251 8cbe 8238 d0bd 2a15 0b3d 4ad5 283e
000002d0: d7da 883c 37fc 3a3e e4f8 48be 0c8d 5d3e
000002e0: 14eb 683d 8450 893d 31b0 2dbe c617 253d
000002f0: 2f85 d63d faf4 60bd 9b4e 09be 2150 1b3d
00000300: 8768 2cbd ca88 943d f6e7 bcbd ebf9 55be
00000310: 0b1f 2abd f755 3cbe 3cff 0bbe 66ff 3a3e
00000320: 0eef 09be 1c0f be3d 68e5 193e 9f16 6bbd
00000330: 2227 d0bd 779a 493e 07c7 6cbd 8344 04bc
00000340: 46b0 613e 2dc0 2fbd 142f 3fbd 7b03 343a
00000350: 3902 193e d3a4 94bd b867 32bd f1bd 68bd
00000360: fc37 313e feaa cc3d f65d 3e3e 9383 0c3c
00000370: c914 7bbd 1301 2fbc 7cd5 343e 2d15 02bd
00000380: 605f 98bd 6888 8d3d 3a37 983c 9a63 3d3d
00000390: da3a 7abc f652 1abc 34ae 8cbd 77a2 bcbd
000003a0: 81d4 04be 5137 5cbe 91df db3d b498 1dbb
000003b0: 49b7 bebd d960 48bc 28fe cebc f405 11be
000003c0: 492f b83d 4faa 1c3e 64f2 2fbb 275d 25be
000003d0: bafc 13bd cf0f c2bd 022a 37be 3b64 c5bd
000003e0: 0265 acbd 9567 2d3d 63ae 1abe 6fd1 863d
000003f0: 655b 5cbd 86d4 53be f690 30be f8ba 853d

l3.bias f4 [18]
0.24655953 -0.46807376 -0.037419442 0.606935 -0.11904998 -0.3259328 0.16252668 -0.37142435
0.20773731 0.28162152 0.25785124 0.02331104 0.2989591 -0.40820602 0.3078133 0.21691233
-0.055332847 -0.0052788816
00000000: 1a7a 7c3e 5da7 efbe 2145 19bd 1860 1b3f
00000010: 7ad0 f3bd aae0 a6be 656d 263e 552b bebe
00000020: 17b9 543e b230 903e 1405 843e cbf6 be3c
00000030: 2b11 993e 6100 d1be b499 9d3e 441e 5e3e
00000040: b2a4 62bd 78fa acbb
