data/result/g_540.pt (torch, 87406 bytes, 7 tensors)

G_attr_matrix.weight f4 [36, 5]
0.047754247 -0.038712565 -0.27759254 0.04520013 0.0038637118 -0.0725513 0.039116193 0.120246686
0.07213974 -0.014673245 -0.038504787 0.01266936 0.012009912 0.0387406 -0.0010782491 -0.048154205
-0.0883206 -0.097982705 -0.052963287 -0.0076254737 -0.0010666621 -0.09390364 0.0070138094 -0.008520562
0.015172093 0.08926972 -0.00066425913 -0.021622684 0.23130791 -0.090874754 -0.019693369 -0.009321817
-0.01654005 0.006058859 0.14654331 0.19424136 0.12674645 0.21066754 0.15468962 0.06032141
0.0030066548 0.009399351 0.0024797108 -0.04149911 -0.12618822 -0.012723053 -0.016473033 -0.0008138262
0.06884999 0.19566923 0.22818007 0.01624333 0.020642273 -0.06837672 -0.01384792 -0.016788762
-0.165821 -0.22552136 0.0626635 0.17167366 0.00040014053 0.09371962 0.0007607449 0.0006854814
0.031164369 -0.34330493 -0.004470905 0.04667702 -0.12066689 -0.14896935 -0.026392812 -0.031516943
0.080592774 0.010058217 0.035512708 -0.17521188 0.10831358 -0.17288995 0.10678663 -0.13846661
0.16383833 -0.013674552 -0.056292746 0.14324087 -0.085641116 0.034970567 0.2949709 0.43120947
0.12846975 0.06229544 0.002316185 -0.23627365 -0.0021978847 0.057597782 -0.067619555 -0.051892
0.1349175 -0.21759808 0.08028013 0.075747855 -0.19816631 -0.007321664 0.012076394 -0.011847421
-0.009812795 -0.19783048 0.06821711 -0.12709512 0.1578675 0.07773127 -0.004130892 -0.0149781965
-0.009232785 0.010151193 0.00022475506 0.09626803 0.23850226 0.19222715 -0.19457795 -0.020901596
0.42922637 0.0115928305 0.002234924 -0.19528258 -0.009883151 0.21272127 -0.22908773 -0.0485846
-0.159765 0.13619466 0.01846226 0.04640238 -0.026128123 0.056413 -0.034972154 -0.20088823
-0.31712878 0.16381028 0.17946364 0.23935345 -0.024312355 0.004599903 -0.0007443291 -0.0017339082
-0.031685427 0.07623478 -0.02440229 -0.010725261 0.006325185 0.13182253 -0.0065864334 0.012771728
0.011112092 -0.04378928 -0.065982796 0.039607387 -0.07084572 -0.0575517 0.1804197 0.24454504
-0.009895278 -0.00059002184 0.024430098 -0.004281535 -0.0068036215 0.12715295 0.16007903 -0.37711814
0.03351888 0.16193517 -0.0023620669 -0.005341296 0.10585166 0.26734173 0.12554692 0.0009917107
0.27306184 -0.1492937 -0.21076863 0.1296233
00000000: f599 433d 1191 1ebd 9c20 8ebe c623 393d
00000010: 5436 7d3b c795 94bd 4d38 203d e543 f63d
00000020: 00be 933d 0d68 70bc 32b7 1dbd 2693 4f3c
00000030: 39c5 443c 77ae 1e3d 0954 8dba 583d 45bd
00000040: 6ee1 b4bd 28ab c8bd 08f0 58bd 1cdf f9bb
00000050: 3ecf 8bba 8d50 c0bd 19d4 e53b d499 0bbc
00000060: 5f94 783c 0bd3 b63d ad21 2eba 0e22 b1bc
00000070: fbdb 6c3e 8b1c babd fd53 a1bc 89ba 18bc
00000080: 007f 87bc 6589 c63b 730f 163e 35e7 463e
00000090: d2c9 013e 3bb9 573e f566 1e3e 9513 773d
000000a0: 4c0b 453b bcff 193c a582 223b f9fa 29bd
000000b0: 7c37 01be 5a74 50bc 74f2 86bc f456 55ba
000000c0: 3901 8d3d 845d 483e 09a8 693e bb10 853c
000000d0: fc19 a93c 1809 8cbd 63e2 62bc 9688 89bc
000000e0: fbcc 29be 12ef 66be b955 803d 38cb 2f3e
000000f0: f4c9 d139 12f0 bf3d ba6c 473a e1b1 333a
00000100: 6b4c ff3c aac5 afbe ab80 92bb 6730 3f3d
00000110: 3420 f7bd 6c8b 18be bd35 d8bc e917 01bd
00000120: d30d a53d 38cb 243c c675 113d be6a 33be
00000130: 83d3 dd3d 100a 31be f3b2 da3d 31ca 0dbe
00000140: 3cc5 273e 3a0b 60bc 3993 66bd bcad 123e
00000150: 9c64 afbd 4c3d 0f3d 6d06 973e 7dc7 dc3e
00000160: 938d 033e 8129 7f3d 23cb 173b b8f1 71be
00000170: 630a 10bb a7eb 6b3d 1f7c 8abd b58c 54bd
00000180: d027 0a3e 08d2 5ebe e969 a43d b121 9b3d
00000190: 1cec 4abe 92ea efbb 11dc 453c af1b 42bc
000001a0: d8c5 20bc 1394 4abe 6ab5 8b3d 3925 02be
000001b0: 05a8 213e 9231 9f3d 6f5c 87bb 1c67 75bc
000001c0: 1b45 17bc 3051 263c 3aac 6b39 2c28 c53d
000001d0: f039 743e 32d7 443e 713f 47be d339 abbc
000001e0: 8fc3 db3e dbef 3d3c cd77 123b 28f8 47be
000001f0: f1ec 21bc 9bd3 593e f995 6abe a500 47bd
00000200: 7099 23be 9d76 0b3e 2a3e 973c 6c10 3e3d
00000210: a50a d6bc 5111 673d f63e 0fbd a5b5 4dbe
00000220: b45e a2be e2bd 273e 51c5 373e 1219 753e
00000230: b42a c7bc c8ba 963b 151f 43ba 4e44 e3ba
00000240: 94c8 01bd fb20 9c3d 50e7 c7bc 01b9 2fbc
00000250: 7f43 cf3b 7cfc 063e 02d3 d7bb 8340 513c
00000260: 7e0f 363c 635c 33bd fd21 87bd 5b3b 223d
00000270: 9017 91bd 55bb 6bbd f1bf 383e 046a 7a3e
00000280: ce1f 22bc b2ab 1aba a121 c83c 1e4c 8cbb
00000290: eaf0 debb 6234 023e c2eb 233e a115 c1be
000002a0: 184b 093d 55d2 253e e8cc 1abb 0a06 afbb
000002b0: c1c8 d83d 04e1 883e 5f8f 003e 4afc 813a
000002c0: c3ce 8b3e 73e0 18be bbd3 57be f8bb 043e

l1.weight f4 [100, 90]
0.18455721 -0.010817839 0.08233828 0.10550761 0.093096144 0.049965516 0.09922411 0.053718027
-0.23537688 -0.10626854 0.097666346 -0.20065877 -0.09790837 0.061829414 -0.038813807 0.08209747
0.024173304 -0.07866286 -0.039211467 0.09987716 0.13460632 -0.0039030835 0.09050559 -0.09702149
0.013221777 0.06276716 0.18734103 0.07889881 0.15692197 0.007184118 0.06752582 -0.1388253
-0.22338848 -0.13918518 -0.08591599 0.04005144 0.1553968 -0.01788464 -0.09702973 0.17588305
-0.015830029 -0.062114783 0.11337944 0.03620156 0.0023864477 0.07200708 -0.1222236 -0.026492493
0.05117668 -0.0707407 0.11539399 -0.38284904 0.2103106 -0.06245284 -0.15440705 0.0066982876
-0.051647954 -0.0106565645 -0.026190048 0.14494783 -0.027066365 -0.13569604 0.009831702 0.033306878
-0.06615995 -0.10785175 0.015824275 -0.17277905 -0.0049903397 -0.1751792 -0.1806914 0.120943986
0.112366155 0.18455698 -0.17870566 -0.006912032 -0.20737866 -0.026876098 -0.08026969 0.04100802
-0.00023435667 -0.043209907 0.045287706 0.14436935 -0.17204581 0.10988565 0.06319583 -0.071378924
0.04835706 0.17290041 0.2515933 -0.07761569 -0.06163755 -0.03661227 -0.14132452 0.04456217
0.19567476 -0.042577878 0.06166291 0.09460206 0.06905811 -0.028498266 -0.107274845 -0.0022820057
-0.12155199 -0.07900674 0.09978293 -0.17105284 0.06417067 0.05514429 0.03659759 0.032675937
-0.019651826 -0.0418251 -0.022255048 0.044699155 0.020823872 -0.066502534 -0.023219245 0.06321787
0.034660056 -0.034147277 -0.028515218 0.056761056 -0.17019056 -0.006155681 -0.061028797 0.087517045
0.029330613 0.069431774 -0.038568284 0.15071014 -0.1113777 0.011645782 -0.20207441 -0.05926619
0.06835584 -0.13196379 0.0043967464 -0.019368704 0.08765755 -0.13450393 -0.2338117 -0.11941104
-0.057813697 0.10846249 0.09447149 0.074305736 -0.027876949 -0.11738301 -0.027061874 -0.04046645
-0.06701923 -0.03086156 0.038498297 -0.09098675 -0.0072607077 -0.041345984 0.024534151 0.12436137
-0.19497795 0.1792338 -0.14011955 -0.08141777 0.02074052 -0.052056774 0.030919096 -0.1170498
0.17328978 0.054975986 0.016548587 -0.07056433 -0.02827193 0.111886844 -0.08460517 -0.08372644
-0.2309515 0.12274029 -0.098604485 -0.028660852 0.00026109483 0.14639314 0.028196612 -0.21616098
-0.03979306 -0.1633289 -0.07063698 0.07908853 0.02672785 -0.06907533 0.030113976 -0.17491646
-0.16069175 0.11274375 -0.039881278 -0.07636287 0.008382399 0.13060848 0.04099712 0.029552326
-0.045382652 0.05565446 -0.20530507 0.07754052 0.2575124 -0.003549204 -0.012407642 -0.06571887
-0.08133792 0.14883019 -0.039814673 -0.004565268 0.12274061 0.052071568 -0.000524976 0.1481148
0.049992066 -0.09257642 -0.03164057 -0.02175264 -0.122553304 -0.13334964 0.059469815 -0.035046197
0.24232613 -0.05379043 0.14977519 0.06213403 0.05481074 0.05904958 0.18833508 -0.059013106
-0.046528764 0.064525716 0.028916428 0.14059159 -0.081995115 -0.00073392526 0.16595396 -0.014329129
0.020363454 -0.1121567 0.096346036 0.0753238 -0.09808742 -0.20824625 -0.080449335 -0.11955404
-0.1306486 0.023481164 0.109244354 0.078692585 -0.15450147 -0.09313909 0.07859574 -0.010488263
00000000: 91fc 3c3e 4e3d 31bc f9a0 a83d 6014 d83d
00000010: 31a9 be3d a4a8 4c3d 0336 cb3d 6f07 5c3d
00000020: a306 71be 52a3 d9bd 4b05 c83d 7e79 4dbe
00000030: 2f84 c8bd d740 7d3d 3afb 1ebd b822 a83d
00000040: 1807 c63c fe19 a1bd 349c 20bd 658c cc3d
00000050: 3dd6 093e e0ca 7fbb ff5a b93d 34b3 c6bd
00000060: 27a0 583c 128c 803d 54d6 3f3e b395 a13d
00000070: 27b0 203e c068 eb3b fa4a 8a3d 3828 0ebe
00000080: f3bf 64be 8f86 0ebe b9f4 afbd fb0c 243d
00000090: 5720 1f3e cf82 92bc 86b7 c6bd b01a 343e
000000a0: faad 81bc 126c 7ebd 7b33 e83d 1648 143d
000000b0: f365 1c3b 7378 933d 5e50 fabd c906 d9bc
000000c0: a39e 513d 80e0 90bd af53 ec3d ca04 c4be
000000d0: a95b 573e 8dce 7fbd e21c 1ebe 4f7d db3b
000000e0: ce8c 53bd df98 2ebc 838c d6bc 346d 143e
000000f0: 48ba ddbc e7f3 0abe 2615 213c cb6c 083d
00000100: de7e 87bd 61e1 dcbd e9a1 813c feec 30be
00000110: 0186 a3bb 2d62 33be 2b07 39be 7bb1 f73d
00000120: 3a20 e63d 81fc 3c3e 9efe 36be 547e e2bb
00000130: 125b 54be 432b dcbc 6f64 a4bd 07f8 273d
00000140: a4bd 75b9 dffc 30bd 9a7f 393d 8fd5 133e
00000150: c72c 30be ba0b e13d d16c 813d 1d2f 92bd
00000160: 0d12 463d ce0c 313e d6d0 803e faf4 9ebd
00000170: a877 7cbd bff6 15bd 60b7 10be d286 363d
00000180: f75e 483e 2466 2ebd 3f92 7c3d babe c13d
00000190: 576e 8d3d 3275 e9bc eab2 dbbd b48d 15bb
000001a0: 40f0 f8bd 49ce a1bd fe5a cc3d 7a28 2fbe
000001b0: ea6b 833d fbde 613d 5be7 153d 34d7 053d
000001c0: defc a0bc cc50 2bbd 3850 b6bc 7616 373d
000001d0: d396 aa3c 7b32 88bd 4936 bebc 5f78 813d
000001e0: b4f7 0d3d 04de 0bbd bf98 e9bc 487e 683d
000001f0: 6f46 2ebe 98b5 c9bb 55f9 79bd 233c b33d
00000200: c146 f03c 3f32 8e3d c7f9 1dbd c253 1a3e
00000210: fe19 e4bd f3cd 3e3c 98ec 4ebe 1bc1 72bd
00000220: 26fe 8b3d 8421 07be 9512 903b 1eab 9ebc
00000230: cd85 b33d 66bb 09be 566c 6fbe c68d f4bd
00000240: 0ece 6cbd 9521 de3d 457a c13d 9b2d 983d
00000250: 335e e4bc 8166 f0bd ddb0 ddbc 26c0 25bd
00000260: 6141 89bd 62d1 fcbc 64b0 1d3d 4357 babd
00000270: 3beb edbb 685a 29bd d8fb c83c 2db1 fe3d
00000280: 4da8 47be 1189 373e 807b 0fbe 5cbe a6bd
00000290: 06e8 a93c 7c39 55bd 0b4a fd3c ceb7 efbd
000002a0: e072 313e 802e 613d e790 873c 0884 90bd
000002b0: 899a e7bc ee24 e53d 7a45 adbd c578 abbd
000002c0: 8d7e 6cbe 435f fb3d 26f1 c9bd 2aca eabc
000002d0: 8ee3 8839 15e8 153e 95fc e63c 4e59 5dbe
000002e0: 0cfe 22bd b13f 27be 1faa 90bd 2bf9 a13d
000002f0: 5df4 da3c 5e77 8dbd 96b1 f63c 4d1d 33be
00000300: 618c 24be 32e6 e63d 8d5a 23bd 2364 9cbd
00000310: 5456 093c 3bbe 053e 99ec 273d b817 f23c
00000320: 29e3 39bd eef5 633d 7e3b 52be 90cd 9e3d
00000330: aad8 833e c399 68bb 6c49 4bbc 9d97 86bd
00000340: 7f94 a6bd f166 183e b614 23bd 3e98 95bb
00000350: 6e5f fb3d ff48 553d 8b9e 09ba 68ab 173e
00000360: 7bc4 4c3d b598 bdbd 8b99 01bd 9832 b2bc
00000370: 3afd fabd cf8c 08be 9f96 733d 9a8c 0fbd
00000380: 5724 783e 5b53 5cbd ab5e 193e 4180 7e3d
00000390: 3a81 603d f9dd 713d e9da 403e bab7 71bd
000003a0: f294 3ebd 0f26 843d 25e2 ec3c 3ef7 0f3e
000003b0: 0eed a7bd e464 40ba d6ef 293e b9c4 6abc
000003c0: 42d1 a63c 69b2 e5bd 1251 c53d 5d43 9a3d
000003d0: 0fe2 c8bd 813e 55be 9fc2 a4bd c0d8 f4bd
000003e0: bfc8 05be 925b c03c 81bb df3d 9429 a13d
000003f0: a235 1ebe b5bf bebd cef6 a03d f7d6 2bbc

l1.bias f4 [100]
-0.02704394 0.019950613 0.15901844 0.07082902 0.12883008 0.0071611386 0.19297594 -0.035334915
-0.038785398 -0.053567354 -0.039294835 -0.107193485 -0.024800625 0.008518225 -0.03296018 0.112611294
0.03868308 0.04214688 -0.08542103 -0.027514348 0.1702406 -0.030428266 -0.030274801 0.11675046
0.019557077 0.15301475 -0.047945544 -0.123228006 -0.0035557805 -0.32712814 0.049003772 0.100886226
-0.15625696 -0.25058606 -0.20554043 -0.013915703 0.023824433 0.14823453 -0.001873666 -0.046604205
-0.2195534 0.23144892 -0.13401924 0.008458374 -0.05419934 -0.019249784 -0.0052488716 -0.028205754
-0.062163 -0.17855433 -0.004828138 0.15722871 0.10616876 -0.17042719 -0.01730182 -0.044675298
-0.035393313 0.060360584 -0.028295772 -0.07154699 -0.14607452 0.06049073 -0.023921244 0.104303636
0.11162497 -0.12635586 -0.0054192767 0.0930513 -0.028893227 0.008247978 0.094999686 -0.076415375
-0.13167383 0.1863396 0.083582595 0.047932923 -0.17112911 -0.056739297 -0.216553 -0.10539009
0.042354006 -0.120961756 -0.027459329 0.05984124 0.037479717 0.020808725 -0.0683972 0.016443573
-0.13239074 -0.018046249 0.13447173 0.07337443 -0.016175648 0.035813022 0.12768804 -0.03611996
-0.0006156585 -0.099373244 -0.14622314 0.0062080175
00000000: 418b ddbc 786f a33c bbd5 223e ce0e 913d
00000010: 08ec 033e fca7 ea3b 7c9b 453e 58bb 10bd
00000020: 70dd 1ebd 7169 5bbd 9ff3 20bd 4288 dbbd
00000030: ae2a cbbc 0690 0b3c 4101 07bd c0a0 e63d
00000040: 2672 1e3d 35a2 2c3d 39f1 aebd c565 e1bc
00000050: 8d53 2e3e b344 f9bc dc02 f8bc dd1a ef3d
00000060: 2a36 a03c e6af 1c3e 8c62 44bd f75e fcbd
00000070: 1908 69bb 577d a7be 2eb8 483d 709d ce3d
00000080: d301 20be d14c 80be 3179 52be b0fe 63bc
00000090: 752b c33c cbca 173e cc95 f5ba 0de4 3ebd
000000a0: 9bd2 60be f200 6d3e 573c 09be fe94 0a3c
000000b0: 2100 5ebd b9b1 9dbc bafe abbb c10f e7bc
000000c0: a19e 7ebd f2d6 36be 5b35 9ebb 9000 213e
000000d0: 026f d93d 7784 2ebe 8cbc 8dbc 72fd 36bd
000000e0: 94f8 10bd a93c 773d 89cc e7bc 3a87 92bd
000000f0: 8f94 15be 21c5 773d 7cf6 c3bc 259d d53d
00000100: a29b e43d 6e63 01be 3094 b1bb ae91 be3d
00000110: 7db1 ecbc 8722 073c 328f c23d aa7f 9cbd
00000120: 81d5 06be cfcf 3e3e 5a2d ab3d 5055 443d
00000130: 783c 2fbe 7767 68bd 12c0 5dbe c2d6 d7bd
00000140: 657b 2d3d ccba f7bd 63f2 e0bc 171c 753d
00000150: 5584 193d 0f77 aa3c d513 8cbd acb4 863c
00000160: 7091 07be bad5 93bc f5b2 093e 5545 963d
00000170: cb82 84bc adb0 123d a7c0 023e 86f2 13bd
00000180: 2464 21ba 3384 cbbd 85bb 15be a06c cb3b

l2.weight f4 [100, 100]
0.08115229 0.17228365 -0.055518452 -0.05832338 -0.07041196 0.14554018 -0.010881612 0.098257795
-0.08185038 -0.09946491 -0.0064447112 -0.08179742 -0.015397352 -0.03626394 0.036633898 0.020514421
-0.22245216 -0.13185579 0.0027552918 0.17367984 0.010847235 0.12706193 0.09491593 0.04521733
0.054101955 0.052182812 -0.21360971 -0.11628958 -0.21065758 -0.13165367 0.121444024 -0.0902622
0.057106003 0.013377154 0.04197361 0.0516994 -0.0888196 0.0019755566 -0.109965 0.09120481
-0.07650754 0.10056673 -0.021554247 -0.04898938 0.12740843 -0.074099705 -0.13531387 0.1768281
-0.056068722 0.04857905 -0.041816033 0.015574836 0.00470242 -0.08595439 0.14698406 0.05206934
-0.09210224 0.0066120145 -0.12449262 -0.046625927 0.0034009102 0.11557231 -0.021225998 0.02981596
0.03936273 -0.11157712 0.06462837 -0.15127361 0.1306779 0.072584525 -0.06962377 0.061362065
0.10367831 0.09407341 0.10584483 0.027449207 0.22145458 0.017523123 -0.0625316 -0.022275325
0.18112774 -0.029975265 -0.08638359 -0.022716958 0.06670065 -0.09261951 -0.031816132 -0.08756315
-0.093620464 -0.096911654 -0.07821246 0.01795661 -0.025459755 -0.1026757 -0.046784136 0.0017361636
-0.07974633 0.25010473 0.013800136 0.036554713 -0.1160276 0.030119114 -0.14421207 0.052886274
0.19269615 -0.0045832912 0.1995334 -0.048587907 0.100446545 0.0046801935 0.036454298 0.07677067
-0.007174976 -0.040500294 -0.12864122 -0.108083524 0.0035668418 -0.12324195 0.061905794 0.12212546
-0.052957103 -0.051036593 0.018433593 0.05677842 0.039820194 0.02079353 -0.042446226 -0.04653145
0.11272012 -0.118586786 -0.054046184 0.003886382 0.12429152 0.005706923 0.13042106 0.107422866
-0.009889824 -0.08398017 -0.031307455 -0.02972397 0.064315766 -0.018587787 0.015740724 -0.049360093
-0.015747797 0.13173781 0.051437195 0.12834498 -0.04986537 0.018709406 -0.020694565 -0.01787806
-0.0058630523 0.122565314 0.11376941 0.05058742 -0.1043233 0.06723631 -0.17750561 -0.059628733
0.0366879 0.09905103 -0.0093271285 0.047514506 0.057893444 -0.02726658 0.107220046 -0.013062403
0.03899915 -0.14497226 -0.030139988 0.027540404 -0.09653275 0.004359353 0.074287206 0.02319851
-0.07192164 0.0033180655 -0.11076315 -0.15194929 -0.1309667 -0.19412139 0.062356878 -0.09712769
-0.04066087 0.033887666 -0.16064961 -0.04991406 -0.03964606 -0.072888084 0.15604098 0.02429979
-0.11954054 0.02201593 0.0883754 0.029011054 0.08976443 -0.12636803 -0.07959422 -0.034174193
0.058739863 0.050739173 0.14420082 0.05440075 -0.032024577 0.18884219 -0.15386961 -0.049613103
-0.035598997 -0.051416866 0.19810772 0.11191208 -0.17251427 -0.122148246 0.009414317 -0.26171064
-0.17650783 -0.15775384 0.038508233 0.07466782 0.068439335 0.02268785 -0.22691384 0.21010715
0.02390127 0.041514684 -0.014084382 0.03882121 -0.05312824 -0.17392875 -0.130386 0.009701145
0.10673468 0.14044563 -0.2146304 -0.042463087 0.124430776 0.10445928 0.19187376 0.038411528
-0.047573697 -0.17497982 -0.046630424 -0.08728542 -0.07696378 0.043271635 0.023052255 -0.047514852
0.08327186 0.18678533 0.22080836 -0.14432645 0.037587702 0.018415801 -0.124291025 0.0753966
00000000: 2c33 a63d 206b 303e 5167 63bd 7fe4 6ebd
00000010: 2534 90bd 7c08 153e ca48 32bc 623b c93d
00000020: 2ca1 a7bd 42b4 cbbd 282e d3bb 6885 a7bd
00000030: 2d45 7cbc 7f89 14bd 6d0d 163d dc0d a83c
00000040: 80ca 63be 3405 07be 2092 343b 21d9 313e
00000050: 9ab8 313c 861c 023e 4863 c23d cf35 393d
00000060: 039a 5d3d a5bd 553d 81bc 5abe 3b29 eebd
00000070: 9fb6 57be 38d0 06be a5b7 f83d 63db b8bd
00000080: fce7 693d da2b 5b3c 85ec 2b3d c0c2 533d
00000090: 0de7 b5bd 5778 013b 5435 e1bd 96c9 ba3d
000000a0: fcaf 9cbd eef5 cd3d 8892 b0bc 17a9 48bd
000000b0: 5b77 023e 96c1 97bd b88f 0abe 6d12 353e
000000c0: 51a8 65bd d3fa 463d 4a47 2bbd 992d 7f3c
000000d0: c216 9a3b db08 b0bd fd82 163e a946 553d
000000e0: 19a0 bcbd 99a9 d83b fdf5 febd d4fa 3ebd
000000f0: cee1 5e3b 2db1 ec3d 25e2 adbc 9a40 f43c
00000100: d03a 213d 8c82 e4bd e15b 843d 78e7 1abe
00000110: 6dd0 053e 32a7 943d e896 8ebd ca56 7b3d
00000120: 4b55 d43d 8fa9 c03d 2dc5 d83d 29dd e03c
00000130: fdc4 623e a78c 8f3c 9110 80bd be7a b6bc
00000140: 8d79 393e b08e f5bc e1e9 b0bd ea18 babc
00000150: 5a9a 883d 4caf bdbd a251 02bd 4f54 b3bd
00000160: 16bc bfbd 9e79 c6bd db2d a0bd be19 933c
00000170: fa90 d0bc a347 d2bd b9a0 3fbd fc8f e33a
00000180: 0b52 a3bd ba0d 803e f719 623c 65ba 153d
00000190: e19f edbd 5cbc f63c 54ac 13be 479f 583d
000001a0: 2452 453e 6f2f 96bb 7c52 4c3e 1d04 47bd
000001b0: ebb6 cd3d 4f5c 993b 1a51 153d f139 9d3d
000001c0: 101c ebbb a3e3 25bd 86ba 03be e55a ddbd
000001d0: adc1 693b 4766 fcbd ee90 7d3d ea1c fa3d
000001e0: 8ce9 58bd bf0b 51bd 0c02 973c 7d90 683d
000001f0: 801a 233d 3157 aa3c 18dc 2dbd c397 3ebd
00000200: ced9 e63d a1dd f2bd 885f 5dbd acb2 7e3b
00000210: 8d8c fe3d 2401 bb3b 198d 053e 8500 dc3d
00000220: ee08 22bc ccfd abbd 3f3c 00bd af7f f3bc
00000230: fcb7 833d 6a45 98bc b1f2 803c cf2d 4abd
00000240: 8601 81bc 47e6 063e cfaf 523d de6c 033e
00000250: a13f 4cbd 7844 993c a687 a9bc 0275 92bc
00000260: d91e c0bb 8603 fb3d f0ff e83d c134 4f3d
00000270: 74a7 d5bd 31b3 893d 08c4 35be 423d 74bd
00000280: 0d46 163d 44db ca3d d0d0 18bc 929e 423d
00000290: ad21 6d3d 2a5e dfbc 2f96 db3d b003 56bc
000002a0: 93bd 1f3d 9c73 14be 23e8 f6bc 6a9c e13c
000002b0: f6b2 c5bd e7d8 8e3b e423 983d cd0a be3c
000002c0: a74b 93bd e773 593b cad7 e2bd 9898 1bbe
000002d0: 221c 06be c2c7 46be ed69 7f3d e2ea c6bd
000002e0: 038c 26bd cbcd 0a3d 5581 24be af72 4cbd
000002f0: e863 22bd 5946 95bd 35c9 1f3e 5a10 c73c
00000300: acd1 f4bd c05a b43c 29fe b43d 97a8 ed3c
00000310: 6ad6 b73d 9f66 01be 4b02 a3bd 3dfa 0bbd
00000320: 3699 703d e1d3 4f3d 61a9 133e 52d3 5e3d
00000330: 342c 03bd d95f 413e ff8f 1dbe 1c37 4bbd
00000340: 41d0 11bd 7e9a 52bd c0dc 4a3e 2932 e53d
00000350: 95a7 30be dc28 fabd 823e 1a3c f0fe 85be
00000360: 78be 34be 398a 21be cfba 1d3d 71eb 983d
00000370: ec29 8c3d dfdb b93c 1a5c 68be 5426 573e
00000380: 99cc c33c 4d0b 2a3d 2ec2 66bc fd02 1f3d
00000390: ff9c 59bd 611a 32be e883 05be 8df1 1e3c
000003a0: b697 da3d fbd0 0f3e 12c8 5bbe c6ed 2dbd
000003b0: 90d5 fe3d bfee d53d 8e7a 443e 6855 1d3d
000003c0: a3dc 42bd e92d 33be 8bff 3ebd b3c2 b2bd
000003d0: 309f 9dbd 993d 313d 15d8 bc3c ef9e 42bd
000003e0: 708a aa3d a744 3f3e 961b 623e 50ca 13be
000003f0: 90f5 193d bcdc 963c 4b8c febd 8869 9a3d

l2.bias f4 [100]
0.031472053 -0.1746597 0.08737838 0.019573543 -0.05805206 0.11031299 0.016753234 -0.15549672
-0.12296959 -0.030497018 0.028533671 0.15418711 0.035049006 0.03213388 0.09947354 0.10758272
-0.00032563836 0.0216805 0.27981707 0.014539735 0.120082654 -0.060903046 0.045327738 0.055308234
-0.08843877 0.021482049 -0.0011757289 -0.12622328 0.04381931 -0.0446874 -0.008671338 -0.030341806
0.019164065 0.004249409 -0.15924966 0.032017265 0.1212106 -0.017417634 0.0455576 -0.057843357
-0.014920293 -0.06539399 -0.031798154 0.020876162 -0.036034323 -0.030341988 -0.020333802 -0.07671318
-0.002743052 0.040253874 0.017394478 -0.03609292 0.11322024 0.053674087 0.0064426945 -0.0043288823
-0.06846455 0.057939794 -0.03209482 0.10384249 -0.11099383 -0.22460005 0.09369792 0.1487065
-0.031871866 -0.021752214 -0.019028667 0.0610723 0.041040182 -0.04053578 -0.16687873 0.008067603
0.059584875 -0.016826134 0.036111817 0.03761397 -0.22054869 0.10621334 0.021132099 0.011174345
0.029716857 -0.00917459 0.0066944277 0.15068848 -0.024872396 0.005461948 -0.040441077 0.015331383
0.010334683 0.016657127 -0.30068997 0.09625471 -0.011049651 -0.0435584 -0.028832536 -0.014099309
-0.09901041 -0.04851863 -0.18605709 0.05289129
00000000: d7e8 003d fed9 32be 70f3 b23d b258 a03c
00000010: ffc7 6dbd c7eb e13d 143e 893c 883a 1fbe
00000020: 7bd7 fbbd e2d4 f9bc 72bf e93c 3ae3 1d3e
00000030: 8c8f 0f3d d19e 033d c9b8 cb3d 5454 dc3d
00000040: 71ba aab9 4e9b b13c 2f44 8f3e 1238 6e3c
00000050: e5ed f53d 7975 79bd 94a9 393d e38a 623d
00000060: 631f b5bd 1ffb af3c ea1a 9aba ad40 01be
00000070: e07b 333d 230a 37bd 3a12 0ebc 618f f8bc
00000080: f5fd 9c3c a03e 8b3b 5812 23be 8924 033d
00000090: 433d f83d 6daf 8ebc 9b9a 3a3d 28ed 6cbd
000000a0: 3f74 74bc 49ed 85bd c83e 02bd 7c04 ab3c
000000b0: ba98 13bd c38f f8bc 1393 a6bc cd1b 9dbd
000000c0: c7c4 33bb 3fe1 243d dd7e 8e3c 2bd6 13bd
000000d0: 03e0 e73d 5cd9 5b3d 3d1d d33b 4cd9 8dbb
000000e0: 2437 8cbd 4752 6d3d dc75 03bd 5fab d43d
000000f0: bc50 e3bd 8efd 65be b2e4 bf3d 8446 183e
00000100: 138c 02bd b331 b2bc 02e2 9bbc f326 7a3d
00000110: c019 283d d908 26bd 42e2 2abe fb2d 043c
00000120: 450f 743d f6d6 89bc fce9 133d 1b11 1a3d
00000130: 84d7 61be 6186 d93d 391d ad3c 9a14 373c
00000140: c470 f33c 0551 16bc ee5c db3b 154e 1a3e
00000150: 32c1 cbbc 24fa b23b 8ba5 25bd 7b30 7b3c
00000160: cd52 293c 8774 883c 09f4 99be 3021 c53d
00000170: 9809 35bc 4b6a 32bd 3632 ecbc ca00 67bc
00000180: f8c5 cabd 79bb 46bd c085 3ebe 8aa4 583d

l3.weight f4 [18, 100]
0.09340857 -0.047885377 -0.021286828 0.14602064 -0.19643204 0.0073572514 -0.14650759 0.063221924
0.020837577 -0.088687055 0.058531623 0.12342951 0.06815266 0.05260015 -0.13773498 0.07774952
0.074052654 -0.10102448 -0.099741556 0.086369045 -0.025590431 -0.043204304 0.15203616 -0.013389222
-0.26380718 -0.12007014 -0.030279653 -0.2530015 0.11864865 0.06998305 -0.023743786 -0.0060290573
0.2853214 -0.25799382 -0.09586748 -0.14750108 0.010743812 -0.012621898 0.17481828 -0.026986854
-0.002515586 0.15362734 0.007361932 0.118328676 -0.06322928 -0.008755485 0.18609405 0.03681034
0.14786783 -0.18375525 0.0316183 -0.22899957 -0.16239808 -0.13860899 -0.07396373 -0.16571066
0.029303398 -0.09572981 -0.12795787 -0.06192833 0.22860867 0.17549963 0.038209703 0.005374467
0.07433518 -0.21917239 0.22323139 0.06596495 -0.09801063 0.122946754 -0.22170477 0.043728415
0.06292459 0.11996158 0.04007958 -0.1320711 0.19025566 0.012182412 -0.25503656 -0.012615816
0.24854605 -0.16165598 0.050506704 -0.011858355 -0.07699182 0.072221585 -0.24803181 -0.1311008
-0.16161747 -0.22766106 0.2378658 0.06964224 0.13932982 0.1105033 0.0670346 -0.07476953
0.034299783 0.037556306 0.017007705 -0.22584681 0.0630484 -0.16125093 0.092137285 0.07216249
0.081741795 0.010612462 0.11383293 -0.24314389 -0.216935 0.06688103 0.013048429 0.08364276
0.09134409 0.12534814 0.364348 0.007886549 -0.080310695 -0.044807125 0.16288812 -0.11700179
0.118117884 0.060174875 0.15718535 0.021783566 -0.24908137 0.11786403 -0.13641441 0.026515292
-0.16061597 -0.048332628 0.24038711 -0.06448768 0.13677604 0.072073966 0.026452428 0.11439505
-0.006398688 0.014007808 -0.049438663 0.10754032 -0.08196268 -0.1846954 -0.09110461 0.32624757
0.053639024 0.0061494308 -0.046595044 0.03227976 0.052371576 -0.16831063 0.09772015 -0.12435588
0.34707505 0.07355618 0.35409614 0.0025788995 -0.11328511 -0.044809368 0.019155404 0.20092423
-0.10513021 -0.008336272 0.21743445 -0.1633581 0.015124876 0.04518353 -0.043360688 -0.22010778
0.31940997 -0.005217712 -0.14831804 0.09004109 0.20491424 -0.008943681 0.14875497 0.091600806
-0.27460253 -0.10021768 0.04121831 0.16729042 0.021236254 0.18557495 -0.19524531 0.21746537
0.051773753 0.06580393 -0.16955936 0.04226632 0.103753954 -0.053604018 -0.13521521 0.038132936
-0.045325115 0.07251498 -0.093780674 -0.20694205 -0.044350367 -0.18601958 -0.13662289 0.18648502
-0.13387907 0.09389151 0.14959517 -0.053206507 -0.09570275 0.19965151 -0.05812378 -0.005233217
0.22206883 -0.041834075 -0.042872436 0.00020458494 0.14414701 -0.071621634 -0.045049265 -0.057311375
0.17594847 0.10100562 0.1860946 0.005863029 -0.062442433 -0.014590081 0.17722495 -0.029091684
-0.0756382 0.06674226 0.021927923 0.0441664 -0.017477034 -0.011605403 -0.06845656 -0.09268987
-0.12703249 -0.21640642 0.107227325 -0.0015419534 -0.09493984 -0.011713759 -0.023980467 -0.13779868
0.09271412 0.15226775 -0.0042198864 -0.16121127 -0.033235136 -0.09535492 -0.18003264 -0.096418545
-0.0862121 0.04413381 -0.1527538 0.06529534 -0.054809358 -0.20755364 -0.17515187 0.06059248
00000000: fe4c bf3d 7523 44bd b761 aebc 6f86 153e
00000010: 7b25 49be 1915 f13b 1606 16be 7f7a 813d
00000020: 91b3 aa3c 8fa1 b5bd dbbe 6f3d 9cc8 fc3d
00000030: 9f93 8b3d 4173 573d 660a 0dbe 243b 9f3d
00000040: eba8 973d ece5 cebd 4d45 ccbd 41e2 b03d
00000050: 06a3 d1bc fff6 30bd 5eaf 1b3e 785e 5bbc
00000060: bc11 87be 55e7 f5bd 090d f8bc 6a89 81be
00000070: 10fe f23d 4653 8f3d 5482 c2bc 668f c5bb
00000080: a615 923e c417 84be 2b56 c4bd 860a 17be
00000090: d006 303c 14cc 4ebc 9003 333e 8913 ddbc
000000a0: 88dc 24bb 7c50 1d3e 5d3c f13b 4e56 f23d
000000b0: 5a7e 81bd 2a73 0fbc 708f 3e3e 70c6 163d
000000c0: aa6a 173e 562a 3cbe 3182 013d dd7e 6abe
000000d0: af4b 26be 84ef 0dbe 4c7a 97bd 0eb0 29be
000000e0: ae0d f03c fe0d c4bd 6307 03be 90a8 7dbd
000000f0: 6418 6a3e 2db6 333e c781 1c3d 4c1c b03b
00000100: 0b3d 983d ba6e 60be c596 643e a218 873d
00000110: ccb9 c8bd 82cb fb3d 9306 63be 911c 333d
00000120: 9cde 803d 6bae f53d 7c2a 243d a53d 07be
00000130: 61d2 423e bd98 473c 2794 82be 91b2 4ebc
00000140: db82 7e3e 2589 25be 1ee0 4e3d 8c49 42bc
00000150: e3ad 9dbd e9e8 933d 0dfc 7dbe 4a3f 06be
00000160: 0d7f 25be fb1f 69be 1893 733e 97a0 8e3d
00000170: 7aac 0e3e 8e4f e23d 7049 893d c420 99bd
00000180: ee7d 0c3d a4d4 193d be53 8b3c 6344 67be
00000190: 851f 813d f71e 25be 79b2 bc3d edc9 933d
000001a0: 3e68 a73d e4df 2d3c 3d21 e93d b6fa 78be
000001b0: 3524 5ebe ecf8 883d 14c9 553c e54c ab3d
000001c0: 9c12 bb3d 435b 003e d28b ba3e 9636 013c
000001d0: ef79 a4bd ad87 37bd 25cc 263e a29e efbd
000001e0: cae7 f13d ee79 763d 32f5 203e 7373 b23c
000001f0: 300f 7fbe b262 f13d 38b0 0bbe 9936 d93c
00000200: 8378 24be 6ff8 45bd 0a28 763e 1e12 84bd
00000210: 050f 0c3e 849b 933d c3b2 d83c f447 ea3d
00000220: 16ac d1bb 0181 653c 3280 4abd 193e dc3d
00000230: 0ddc a7bd ca20 3dbe 0e95 babd ec09 a73e
00000240: 98b4 5b3d 2a81 c93b 72da 3ebd c837 043d
00000250: 9483 563d 9f59 2cbe 8121 c83d 4cae febd
00000260: d2b3 b13e 9fa4 963d 174c b53e c102 293b
00000270: 0602 e8bd 078a 37bd cbeb 9c3c 15bf 4d3e
00000280: 824e d7bd dc94 08bc 23a7 5e3e 5947 27be
00000290: 54ce 773c 5d12 393d fa9a 31bd ef63 61be
000002a0: b489 a33e 57f9 aabb afe0 17be 7767 b83d
000002b0: 0ad5 513e 8488 12bc 3953 183e 3499 bb3d
000002c0: b498 8cbe ed3e cdbd 88d4 283d 2e4e 2b3e
000002d0: a7f7 ad3c 5c07 3e3e 63ee 47be 3eaf 5e3e
000002e0: b710 543d 36c4 863d f8a0 2dbe 731f 2d3d
000002f0: f47c d43d e38f 5bbd db75 0abe 4831 1c3d
00000300: d4a6 39bd bc82 943d 1510 c0bd 9ee8 53be
00000310: bba8 35bd eb7b 3ebe dfe6 0bbe eef5 3e3e
00000320: 9817 09be 314a c03d 7a2f 193e 11ef 59bd
00000330: ceff c3bd 7271 4c3e 3313 6ebd 687b abbb
00000340: 0366 633e 355a 2bbd 029b 2fbd da85 5639
00000350: 469b 133e 5dae 92bd 9485 38bd 55bf 6abd
00000360: d62b 343e 09dc ce3d 958f 3e3e a71e c03b
00000370: a3c3 7fbd 3c0b 6fbc 757a 353e af51 eebc
00000380: 33e8 9abd 2ab0 883d 30a2 b33c d4e7 343d
00000390: ff2b 8fbc 9724 3ebc f432 8cbd 30d4 bdbd
000003a0: ce14 02be a599 5dbe 009a db3d 5f1b caba
000003b0: d26f c2bd 11eb 3fbc af72 c4bc 191b 0dbe
000003c0: e7e0 bd3d 14ec 1b3e f946 8abb 9114 25be
000003d0: 9121 08bd 7149 c3bd 7a5a 38be 1677 c5bd
000003e0: f88f b0bd a7c5 343d 7e6b 1cbe 90b9 853d
000003f0: c77f 60bd f188 54be 035b 33be d22f 783d

l3.bias f4 [18]
0.24629797 -0.46708852 -0.03777402 0.6062785 -0.118934974 -0.32537082 0.16275012 -0.37085664
0.20740062 0.28088346 0.25729328 0.023035934 0.2982936 -0.40740505 0.30759376 0.2164935
-0.05530626 -0.005342994
00000000: 8935 7c3e 3a26 efbe eeb8 1abd 1135 1b3f
00000010: 2e94 f3bd 0197 a6be f8a7 263e ece0 bdbe
00000020: d460 543e f5cf 8f3e f2bb 833e dbb5 bc3c
00000030: f0b9 983e 6597 d0be ee7c 9d3e 79b0 5d3e
00000040: d188 62bd 4814 afbb
