data/result/g_580.pt (torch, 87406 bytes, 7 tensors)

G_attr_matrix.weight f4 [36, 5]
0	0x3d3579d0	0.044305623
1	0xbd00b55b	-0.031422954
2	0xbe8987c4	-0.26861393
3	0x3d23fd32	0.040036388
4	0x3bcdcd1b	0.006280554
5	0xbd9fe30e	-0.07806979
6	0x3d22c0f4	0.039734796
7	0x3de10e98	0.10989112
8	0x3d9a7428	0.07541686
9	0xbc6bc6f3	-0.014390695
10	0xbd083acf	-0.03325921
11	0x3c66e5c5	0.014092867
12	0x3c85ebc0	0.016347766
13	0x3d145afe	0.03621959
14	0xba511380	-0.0007975623
15	0xbd6f79e8	-0.05846587
16	0xbdb6635c	-0.0890567
17	0xbdce1449	-0.10062463
18	0xbd4dedbc	-0.05027555
19	0xbb2eccf0	-0.0026672445
20	0xbb93d809	-0.0045118374
21	0xbdaef668	-0.08543092
22	0x3b9bb7df	0.0047521438
23	0xbc1f6150	-0.009727791
24	0x3c07ab91	0.008280651
25	0x3dbf4249	0.09338815
26	0x3be78c57	0.0070662904
27	0xbcf4cbf8	-0.029882416
28	0x3e66e6fa	0.22549048
29	0xbda8d5d0	-0.082439065
30	0xbc93553d	-0.01798498
31	0xbc219eb4	-0.009864498
32	0xbc757d0f	-0.01498343
33	0xbb6629ab	-0.003512005
34	0x3e0f8231	0.14014508
35	0x3e4a02c2	0.19727615
36	0x3e04d94e	0.1297352
37	0x3e5800b5	0.2109402
38	0x3e19b5d4	0.15010768
39	0x3d79565c	0.060873374
40	0x3bc0e374	0.0058864895
41	0x3c1d9063	0.009616944
42	0x3b0e7c64	0.0021741623
43	0xbd399a31	-0.045313064
44	0xbdffb58b	-0.124857984
45	0xbc063efe	-0.008193729
46	0xbc371d2d	-0.01117639
47	0xbadebd8d	-0.0016993746
48	0x3d799cd0	0.060940564
49	0x3e42d7cb	0.19027631
50	0x3e5ce8ca	0.21573177
51	0x3c64a5b1	0.01395552
52	0x3cad017b	0.02111887
53	0xbd8467ac	-0.06465086
54	0xbca62bd3	-0.020284569
55	0xbcbbe38b	-0.02293565
56	0xbe239932	-0.15976408
57	0xbe621628	-0.22078764
58	0x3d86c5ec	0.06580719
59	0x3e28b572	0.16475466
60	0x3b74dc88	0.0037362892
61	0x3db5332e	0.088476524
62	0x3b2ce05f	0.0026378853
63	0x3b122b11	0.0022303502
64	0x3ce1df43	0.02757228
65	0xbeb65f4a	-0.35619575
66	0xbc5d9460	-0.013524145
67	0x3d8494b4	0.06473675
68	0xbdfdb9e7	-0.12388974
69	0xbe0b7809	-0.13620009
70	0xbcd7d8d4	-0.026348509
71	0xbd0d8313	-0.03454883
72	0x3da65ce1	0.08123184
73	0x3c1b3063	0.0094719855
74	0x3d20fb18	0.03930196
75	0xbe298990	-0.16556382
76	0x3dc90307	0.098150305
77	0xbe333d81	-0.1750393
78	0x3dc89b91	0.09795297
79	0xbe084b9d	-0.13310094
80	0x3e1dc251	0.15406157
81	0xbc862d5a	-0.016379047
82	0xbd52e436	-0.05148717
83	0x3e0dfe18	0.1386646
84	0xbda56d75	-0.08077518
85	0x3d2b1743	0.04177023
86	0x3e95e6ba	0.29277593
87	0x3edae73b	0.4275454
88	0x3df75977	0.12077611
89	0x3d7ef78c	0.062247798
90	0x3b05f7f9	0.0020441993
91	0xbe6b35eb	-0.22969787
92	0x3a112222	0.0005536397
93	0x3d4cabfa	0.049968697
94	0xbd65fcbd	-0.056149233
95	0xbd7cfef1	-0.06176657
96	0x3e04c145	0.12964351
97	0xbe5c081c	-0.21487468
98	0x3d926c1f	0.07149529
99	0x3dd23dfd	0.102657296
100	0xbe3fde1f	-0.18737076
101	0xbc0751dd	-0.008259264
102	0x3c7419b4	0.014898706
103	0xbc87a80b	-0.016559621
104	0xbbd7c12e	-0.006584308
105	0xbe43e377	-0.1912974
106	0x3d6b4b80	0.05744505
107	0xbdeeed19	-0.116663165
108	0x3e0c887b	0.13723938
109	0x3d8fb197	0.070162944
110	0xbb0e9cb7	-0.002176089
111	0xbc3484ba	-0.011017973
112	0xbc1f91fb	-0.009739394
113	0x3c6ca749	0.014444181
114	0x3ad684b0	0.0016366448
115	0x3dd44915	0.10365502
116	0x3e7528ed	0.23941393
117	0x3e462daa	0.19353357
118	0xbe409446	-0.18806562
119	0xbcc207a2	-0.02368528
120	0x3ed7df27	0.4216244
121	0x3c3d74aa	0.011563459
122	0x3b0637f0	0.0020480119
123	0xbe3d2029	-0.184693
124	0xbc3de155	-0.011589368
125	0x3e51642b	0.20448367
126	0xbe69c27d	-0.22828098
127	0xbd36e8e6	-0.044655703
128	0xbe1bcc4b	-0.1521465
129	0x3e08f7c2	0.13375762
130	0x3c9a7db5	0.01885877
131	0x3d4eaa94	0.050455645
132	0xbcccf486	-0.025018942
133	0x3d53272e	0.051551037
134	0xbd10666d	-0.03525393
135	0xbe46a6b9	-0.19399537
136	0xbe9b24b7	-0.3030145
137	0x3e22cb44	0.15897852
138	0x3e2f645d	0.1712813
139	0x3e6c249b	0.23060839
140	0xbcb51fa8	-0.022109821
141	0x3bbf6b88	0.005841676
142	0x3b0e4961	0.0021711218
143	0xba6c3972	-0.00090112456
144	0xbcf65ea1	-0.03007442
145	0x3d952aa7	0.07283526
146	0xbcc16a0b	-0.023610136
147	0xbc71e40d	-0.014763844
148	0xbad5a449	-0.0016299571
149	0x3e0ac9c3	0.13553528
150	0xbc126aa9	-0.008936563
151	0x3c84fbc2	0.016233329
152	0x3c8163d8	0.01579468
153	0xbd280dc2	-0.041028745
154	0xbd736f5c	-0.059432372
155	0x3d229dff	0.039701458
156	0xbd90fb34	-0.07079163
157	0xbd5aedc5	-0.05344941
158	0x3e361103	0.17779927
159	0x3e7c8944	0.24661738
160	0xbbefc2a2	-0.007316903
161	0xbad53d41	-0.0016268865
162	0x3cc02f52	0.023460064
163	0xbb53a87c	-0.003229647
164	0xbbe7a796	-0.0070695383
165	0x3e04e216	0.1297687
166	0x3e1ea1d7	0.15491425
167	0xbebd3b0e	-0.36959118
168	0x3d08c68e	0.03339248
169	0x3e277ab3	0.163554
170	0xbab65bbd	-0.0013912838
171	0xbbc34ea7	-0.005960304
172	0x3dcfa867	0.10139542
173	0x3e85647d	0.2605323
174	0x3df79f8d	0.12090979
175	0x3ba359fc	0.004985092
176	0x3e90d154	0.28284705
177	0xbe13b047	-0.14422713
178	0xbe4e1c4c	-0.20127982
179	0x3dfd9b02	0.12383081

l1.weight f4 [100, 90]
0	0x3e3c13e1	0.18366958
1	0xbc31aac4	-0.010843936
2	0x3da46436	0.08026926
3	0x3dd90d27	0.10598212
4	0x3dc7f420	0.0976336
5	0x3d49ece5	0.049298186
6	0x3de01d6d	0.109431125
7	0x3d68cdd3	0.056836914
8	0xbe6a24e0	-0.22865629
9	0xbde6ed44	-0.112757236
10	0x3db9e426	0.09076719
11	0xbe4f879c	-0.20266575
12	0xbdcbaefd	-0.09945486
13	0x3d969c2a	0.07354005
14	0xbd1e0808	-0.038581878
15	0x3da1b3de	0.07895635
16	0x3cbd39ad	0.023098791
17	0xbda6bcea	-0.08141501
18	0xbd28138a	-0.04103426
19	0x3dd1c45e	0.10242532
20	0x3e0b7795	0.13619836
21	0x3b8782c0	0.0041354597
22	0x3dc7bc68	0.097527325
23	0xbdcdb081	-0.10043431
24	0x3c60ebf7	0.013728133
25	0x3d85a4ed	0.06525598
26	0x3e3844cc	0.17994994
27	0x3d9f1dbf	0.077693455
28	0x3e1dc781	0.15408136
29	0x3c2edcca	0.010672757
30	0x3d77753d	0.06041454
31	0xbe0c4a08	-0.13700116
32	0xbe597a9e	-0.21238181
33	0xbe0ebfee	-0.13940403
34	0xbdabe7e2	-0.083938375
35	0x3d1b8c81	0.03797579
36	0x3e207ef9	0.15673436
37	0xbc7ce35c	-0.015435066
38	0xbdc258b6	-0.094895765
39	0x3e337154	0.175237
40	0xbc57e446	-0.013176983
41	0xbd8679fd	-0.06566236
42	0x3ddf111b	0.108919345
43	0x3d1e7fcb	0.03869609
44	0xba081dd8	-0.00051924353
45	0x3d8ea729	0.06965477
46	0xbdfeee0e	-0.12447749
47	0xbd14cd57	-0.03632864
48	0x3d56d0bc	0.05244516
49	0xbd947aed	-0.07250009
50	0x3de6933d	0.11258552
51	0xbec6d001	-0.3883057
52	0x3e6371fc	0.2221145
53	0xbd8a30df	-0.06747603
54	0xbe24b7c0	-0.1608572
55	0xbb9a09fb	-0.004700897
56	0xbd4eea66	-0.05051651
57	0xbc62bc66	-0.013838863
58	0xbcdd09fe	-0.026982304
59	0x3e0ba439	0.13636865
60	0xbcc88127	-0.024475647
61	0xbe0fe40e	-0.1405184
62	0x3c2c6825	0.010522877
63	0x3cfb0e30	0.030646414
64	0xbd8951a4	-0.06705025
65	0xbde15e29	-0.11004288
66	0x3c584374	0.013199676
67	0xbe2a4939	-0.16629495
68	0xba89e025	-0.0010519071
69	0xbe32fbb5	-0.17478831
70	0xbe369857	-0.1783155
71	0x3de7dc83	0.11321356
72	0x3de789df	0.11305594
73	0x3e3ee19d	0.18640752
74	0xbe33feac	-0.17577618
75	0x3bac2bd7	0.0052542496
76	0xbe54fe93	-0.20800237
77	0xbd0fc189	-0.03509668
78	0xbd9acc56	-0.07558505
79	0x3d2c68d3	0.042092156
80	0xbc3a335f	-0.011364787
81	0xbd406893	-0.04697473
82	0x3d4ff030	0.05076617
83	0x3e0ca5ea	0.13735166
84	0xbe2e754d	-0.17036934
85	0x3df805c6	0.12110476
86	0x3d807f0a	0.06274231
87	0xbd8dd826	-0.06925993
88	0x3d50ad67	0.05094662
89	0x3e33d8ab	0.17563121
90	0x3e7bc5d9	0.24587192
91	0xbd933976	-0.07188694
92	0xbd6b01bc	-0.0573747
93	0xbd213cad	-0.039364506
94	0xbe0b07c2	-0.13577178
95	0x3d45d577	0.04829928
96	0x3e4e8c11	0.20170619
97	0xbd534d6a	-0.0515875
98	0x3d7301a3	0.059327733
99	0x3dd80ba2	0.10549094
100	0x3d466c8c	0.048443362
101	0xbcd42ba9	-0.025899725
102	0xbdfda7b6	-0.12385504
103	0xbb251b78	-0.0025193375
104	0xbdfe7742	-0.124250904
105	0xbd888258	-0.06665486
106	0x3dd3059a	0.10303803
107	0xbe2143c4	-0.15748507
108	0x3d857377	0.06516164
109	0x3d5898ae	0.05287998
110	0x3d8c53bf	0.06851911
111	0x3cfd6be1	0.03093523
112	0xbd113de4	-0.035459414
113	0xbd19bd21	-0.037533883
114	0xbc36039b	-0.011109258
115	0x3d2b6e71	0.041853372
116	0x3d0807b8	0.033210486
117	0xbd612c8d	-0.054974128
118	0xbca793eb	-0.020456275
119	0x3d7ec2bc	0.062197432
120	0x3d185ac7	0.037195947
121	0xbd15f43a	-0.036609866
122	0xbd3506f6	-0.04419609
123	0x3d92de06	0.07171254
124	0xbe306633	-0.17226486
125	0xbb98a607	-0.004658464
126	0xbd62cec2	-0.05537296
127	0x3dab50a4	0.0836499
128	0x3cf17151	0.029472979
129	0x3d8b2ff2	0.06796254
130	0xbd283fe3	-0.041076552
131	0x3e1e8c5c	0.1548323
132	0xbde22b58	-0.110434234
133	0x3c1795f5	0.009252061
134	0xbe4c0f60	-0.1992774
135	0xbd7daab9	-0.061930392
136	0x3d916100	0.070985794
137	0xbe0166d5	-0.12636884
138	0x3abcd0c0	0.0014405474
139	0xbc86d4be	-0.016458865
140	0x3db8b7d6	0.09019439
141	0xbe168d14	-0.14702255
142	0xbe66d843	-0.22543435
143	0xbdf3bad7	-0.11900871
144	0xbd83e059	-0.06439275
145	0x3da70281	0.081547745
146	0x3db6512d	0.08902202
147	0x3d894312	0.06702246
148	0xbcd2d33a	-0.025735486
149	0xbde8732e	-0.11350094
150	0xbcedc438	-0.029024228
151	0xbc9064f0	-0.017626256
152	0xbd82d176	-0.06387608
153	0xbcea9ddb	-0.028639724
154	0x3d070edd	0.03297316
155	0xbdb0b45c	-0.08628151
156	0xb99cc98f	-0.00029904812
157	0xbd19150e	-0.037373595
158	0x3cb64e7b	0.02225422
159	0x3dea485e	0.11439584
160	0xbe3d9d00	-0.18516922
161	0x3e268a45	0.16263683
162	0xbe1638bb	-0.14670078
163	0xbda668df	-0.08125471
164	0x3cfa495b	0.030552557
165	0xbd4c37b7	-0.04985782
166	0x3d1cb80f	0.03826147
167	0xbe0d8890	-0.13821626
168	0x3e33b8d2	0.17550972
169	0x3d34f8a2	0.044182427
170	0x3cbc0359	0.022950815
171	0xbd90dd7f	-0.07073497
172	0xbd0bb0ec	-0.034104273
173	0x3e01e2c3	0.12684159
174	0xbdb298d5	-0.08720557
175	0xbdcb718d	-0.099337675
176	0xbe759e5a	-0.23986188
177	0x3df75250	0.12076247
178	0xbdce425a	-0.10071249
179	0xbcfba2df	-0.030717311
180	0xbbabb168	-0.0052396543
181	0x3e197111	0.14984538
182	0x3cfa14d1	0.030527504
183	0xbe5dc194	-0.21655875
184	0xbd630fed	-0.05543511
185	0xbe26d691	-0.16292788
186	0xbd9aa5da	-0.07551165
187	0x3db08b7a	0.08620353
188	0x3cd0e077	0.025497658
189	0xbd89bd69	-0.0672558
190	0x3d31cbf1	0.043407384
191	0xbe315da4	-0.17320877
192	0xbe14f49b	-0.14546435
193	0x3dfda1ee	0.12384401
194	0xbd29664c	-0.041357324
195	0xbd905da7	-0.07049113
196	0x3cb8772a	0.02251776
197	0x3e09ff6f	0.13476346
198	0x3d2f05cd	0.04273014
199	0x3ce66e3f	0.028128741
200	0xbd7d99b2	-0.061914153
201	0x3d5d0110	0.05395609
202	0xbe3c7595	-0.18404229
203	0x3d9fbe23	0.077999376
204	0x3e82a0f8	0.25513434
205	0xbb9a2650	-0.0047042742
206	0xbc8d0c45	-0.017217765
207	0xbd945b33	-0.07243957
208	0xbda5a2e6	-0.08087711
209	0x3e152801	0.14566042
210	0xbd31af59	-0.043380115
211	0xbbbd6cae	-0.005780778
212	0x3e08cf26	0.13360271
213	0x3d29d99d	0.041467298
214	0xbb1f0c56	-0.0024268827
215	0x3e18b266	0.14911804
216	0x3d4be61a	0.04977999
217	0xbdc5cec8	-0.09658581
218	0xbd061a24	-0.032739773
219	0xbca6b51f	-0.020350037
220	0xbdfd2124	-0.12359837
221	0xbe0dc217	-0.1384357
222	0x3d7cab5f	0.06168687
223	0xbd15a7f6	-0.036537133
224	0x3e794217	0.24341618
225	0xbd3b3e60	-0.045713782
226	0x3e1ab9e2	0.15109971
227	0x3d64ad31	0.05582923
228	0x3d5af08c	0.05345206
229	0x3d792acc	0.06083183
230	0x3e41f868	0.18942416
231	0xbd50fa35	-0.051019866
232	0xbd3863c4	-0.04501702
233	0x3d55398a	0.052056827
234	0x3cf49fa0	0.029861271
235	0x3e231186	0.15924653
236	0xbda7c208	-0.081913054
237	0xbc93b2c9	-0.018029587
238	0x3e2804f4	0.1640814
239	0xbc909719	-0.017650174
240	0x3c9acb3a	0.018895734
241	0xbdf5c3dd	-0.120002486
242	0x3dbdbf3c	0.09264991
243	0x3d9ceee2	0.07662751
244	0xbdb79c9c	-0.08965418
245	0xbe527798	-0.20553434
246	0xbd9ea4c9	-0.07746274
247	0xbe041329	-0.12897934
248	0xbe079f62	-0.13244393
249	0x3ca09c52	0.01960579
250	0x3dea72cb	0.11447676
251	0x3d9cbaad	0.07652793
252	0xbe173d0a	-0.14769378
253	0xbdbbd330	-0.0917114
254	0x3dbe028f	0.09277832
255	0xbb13fb07	-0.0022580044

l1.bias f4 [100]
0	0xbcc8a6a6	-0.024493527
1	0x3c8f8608	0.017519966
2	0x3e21851e	0.15773436
3	0x3d92faa1	0.0717671
4	0x3e025724	0.12728554
5	0x3c251340	0.01007539
6	0x3e422d75	0.18962653
7	0xbd04a6b4	-0.032385543
8	0xbd1aaee7	-0.037764456
9	0xbd576e51	-0.05259544
10	0xbd17d70c	-0.03707032
11	0xbdd113d3	-0.10208859
12	0xbcc82e0a	-0.024436016
13	0x3bd22388	0.006412927
14	0xbd02add5	-0.03190406
15	0x3de21d99	0.110408016
16	0x3d22fe2b	0.039793175
17	0x3d297e1c	0.041380033
18	0xbda88121	-0.082277544
19	0xbcda394f	-0.026638655
20	0x3e2e4536	0.1701859
21	0xbce8fe4f	-0.028441576
22	0xbcf35c17	-0.029706998
23	0x3df045de	0.11732076
24	0x3ca745be	0.020418998
25	0x3e1c5637	0.15267263
26	0xbd3ff5de	-0.046865337
27	0xbdf4ecda	-0.11959238
28	0xbb71627f	-0.003683239
29	0xbea4d747	-0.32195494
30	0x3d49d93c	0.049279436
31	0x3dccb124	0.099947244
32	0xbe1f7905	-0.15573509
33	0xbe7c28b8	-0.24624908
34	0xbe513d98	-0.20433652
35	0xbc33437d	-0.010941383
36	0x3cb7f69c	0.02245646
37	0x3e1689a1	0.14700939
38	0x3b0fd069	0.002194429
39	0xbd3412ad	-0.043963123
40	0xbe5fd905	-0.2186013
41	0x3e69911e	0.22809264
42	0xbe05e9d3	-0.13077478
43	0x3c06306e	0.0081902575
44	0xbd61421a	-0.05499468
45	0xbca525d8	-0.020159647
46	0xbbc2c22e	-0.005943558
47	0xbcda8cc5	-0.026678452
48	0xbd787756	-0.060660683
49	0xbe355d5d	-0.17711397
50	0xbb8fa973	-0.0043842136
51	0x3e1cf86e	0.15329143
52	0x3dd8f8ce	0.10594331
53	0xbe2bb54a	-0.16768375
54	0xbc92ac59	-0.017904447
55	0xbd30215d	-0.043000568
56	0xbd173c03	-0.036922466
57	0x3d6a80e5	0.05725183
58	0xbcd03e12	-0.025420222
59	0xbd8a026c	-0.06738743
60	0xbe14df46	-0.14538297
61	0x3d794e86	0.0608659
62	0xbcb2803b	-0.02178966
63	0x3ddbbdd1	0.10729564
64	0x3de5c051	0.11218322
65	0xbe0001cd	-0.12500687
66	0xbbb4da89	-0.0055192155
67	0x3dbb3e63	0.09142759
68	0xbceca782	-0.028888468
69	0x3c0aaeaf	0.008464499
70	0x3dbcc7b2	0.09217776
71	0xbd9863cd	-0.074409105
72	0xbe047a3d	-0.12937255
73	0x3e3c7712	0.18404797
74	0x3daa67a8	0.08320552
75	0x3d39d149	0.045365606
76	0xbe2f4f3e	-0.17120072
77	0xbd6aef19	-0.057356928
78	0xbe5cd891	-0.21566989
79	0xbdd332d7	-0.10312431
80	0x3d1ffa04	0.039056793
81	0xbdf576ee	-0.11985575
82	0xbcd93cdc	-0.026518278
83	0x3d81bcde	0.06334852
84	0x3d15eaf6	0.03660103
85	0x3ca63394	0.020288266
86	0xbd8c9629	-0.06864578
87	0x3c8386f5	0.016055563
88	0xbe06d854	-0.1316846
89	0xbc9172f7	-0.017755015
90	0x3e094892	0.1340659
91	0x3d95dcb6	0.07317488
92	0xbca672e6	-0.02031846
93	0x3d13576a	0.035972036
94	0x3dff798a	0.124743536
95	0xbd0f97d3	-0.0350569
96	0xbb9f8934	-0.004868651
97	0xbdc3623d	-0.09540222
98	0xbe191656	-0.14949927
99	0x3bea42c5	0.007149073

l2.weight f4 [100, 100]
0	0x3ddb6967	0.10713463
1	0x3e4a5fbc	0.19763082
2	0xbd866ffc	-0.06564328
3	0xbd9d54a1	-0.07682157
4	0xbd457708	-0.04820922
5	0x3dcdc1a1	0.100466974
6	0x3ba4c6ca	0.0050285803
7	0x3ddf106b	0.10891803
8	0xbd9a22d9	-0.07526178
9	0xbd9e2051	-0.077210076
10	0xbcd0ea57	-0.025502367
11	0xbdee9bda	-0.1165082
12	0xbcb98ee3	-0.022651142
13	0xbcdce1b3	-0.02696309
14	0x3cc2e105	0.023788938
15	0x3d03daf7	0.032191243
16	0xbe6ea00f	-0.23303245
17	0xbe13391a	-0.14377251
18	0xbcea14fa	-0.028574456
19	0x3e35e8f9	0.17764653
20	0xbc45ab56	-0.012064775
21	0x3e0d8487	0.13820086
22	0x3df9b873	0.12193384
23	0x3d3cff2f	0.0461418
24	0x3cb164ef	0.021654574
25	0x3d020fbe	0.031753294
26	0xbe4897ff	-0.19589232
27	0xbde94169	-0.11389429
28	0xbe775d4a	-0.2415668
29	0xbe10a9d0	-0.14127278
30	0x3e10387e	0.1408405
31	0xbdaa5968	-0.08317834
32	0x3d831b4c	0.06401691
33	0x3a67138c	0.00088148634
34	0x3d6f342d	0.058399368
35	0x3d71f23e	0.05906891
36	0xbdebb7e3	-0.11509683
37	0xbae0a9f6	-0.0017140496
38	0xbdfc4dc2	-0.123195186
39	0x3daa7c20	0.08324456
40	0xbd942bfc	-0.07234952
41	0x3dffccae	0.124902114
42	0xbcd74f8b	-0.026283046
43	0xbd1706b5	-0.03687163
44	0x3e113e94	0.14184028
45	0xbdb72561	-0.08942676
46	0xbe1f8100	-0.15576553
47	0x3e37175d	0.17880006
48	0xbdb40504	-0.08790019
49	0x3d504556	0.050847374
50	0xbd2500af	-0.040283855
51	0x3bfe5d95	0.0077626207
52	0xba2dcf03	-0.00066302734
53	0xbd944e35	-0.07241479
54	0x3e1d9455	0.15388615
55	0x3d409a8f	0.0470224
56	0xbdc80414	-0.09766403
57	0xbc3416bd	-0.010991749
58	0xbe04ffc6	-0.12988195
59	0xbd92c35d	-0.07166169
60	0x3ca7929b	0.02045565
61	0x3de4716b	0.11154445
62	0xbcf5cd3c	-0.03000509
63	0x3d29dcb8	0.04147026
64	0x3d83a750	0.06428397
65	0xbddc88ad	-0.10768256
66	0x3d973f4e	0.07385121
67	0xbe21d60f	-0.15804313
68	0x3e0cf462	0.137651
69	0x3dabb05a	0.08383246
70	0xbd2c81fb	-0.042116147
71	0x3d9d09ef	0.0766791
72	0x3dc040db	0.0938737
73	0x3de7212b	0.11285623
74	0x3dd500fe	0.1040058
75	0x3d12ca63	0.035837542
76	0x3e63b665	0.22237547
77	0x3d046f1e	0.032332532
78	0xbd87fe82	-0.066403404
79	0xbc567920	-0.013090402
80	0x3e40e4e0	0.18837309
81	0xbd196987	-0.037454154
82	0xbdc70404	-0.09717563
83	0xbd573803	-0.05254365
84	0x3d52ac84	0.051434055
85	0xbdd10482	-0.10205938
86	0xbc9bc335	-0.01901398
87	0xbd9d090d	-0.07667742
88	0xbdcee860	-0.10102916
89	0xbda8539f	-0.082190745
90	0xbda35ab3	-0.07976284
91	0x3d5bc1e9	0.053651724
92	0xbcee2d09	-0.029074209
93	0xbdc323db	-0.09528323
94	0xbd00e53f	-0.031468626
95	0xbc931517	-0.017954392
96	0xbd9a01e6	-0.07519893
97	0x3e7eab05	0.24869926
98	0x3ce0ac4a	0.027425904
99	0x3cd14e67	0.02555008
100	0xbdee442b	-0.11634096
101	0x3d0595ec	0.03261368
102	0xbe1a8600	-0.1509018
103	0x3d47503b	0.048660498
104	0x3e4601bc	0.19336599
105	0xbb253e3e	-0.0025214101
106	0x3e50646f	0.20350812
107	0xbd25f61e	-0.04051792
108	0x3dcbf61c	0.09959051
109	0x3a2454ce	0.00062687404
110	0x3cebe8a5	0.028797457
111	0x3d91c5b6	0.071177885
112	0xbcb5459e	-0.022127923
113	0xbd2f47cd	-0.042793084
114	0xbe0a9c6c	-0.13536233
115	0xbdde987f	-0.1086893
116	0xbb5bad53	-0.0033520057
117	0xbe049c3a	-0.1295022
118	0x3d82c8de	0.063859686
119	0x3df5412a	0.1197532
120	0xbd76a3c0	-0.060214758
121	0xbd6e3a81	-0.058161262
122	0x3c9faa6c	0.019490443
123	0x3d6d0006	0.05786135
124	0x3d347152	0.044053383
125	0x3c9306a2	0.017947499
126	0xbd4a8bf9	-0.049449895
127	0xbd352b9e	-0.04423105
128	0x3dda40d3	0.106568955
129	0xbdff0b24	-0.12453297
130	0xbd5b6e02	-0.05357171
131	0x3c032641	0.008004726
132	0x3df98d20	0.121851206
133	0x3b4a4f60	0.0030870065
134	0x3e074878	0.13211238
135	0x3de75a84	0.11296561
136	0xbc79c00e	-0.015243543
137	0xbda852f9	-0.08218951
138	0xbd0156ec	-0.031577036
139	0xbcddc7f8	-0.027072892
140	0x3d6ddd41	0.058072332
141	0xbc80c4f2	-0.01571891
142	0x3c6dd541	0.014516176
143	0xbd3ffa94	-0.04686983
144	0xbc39ea16	-0.011347314
145	0x3e0317a2	0.12801984
146	0x3d50290a	0.050820388
147	0x3df8a44b	0.121407114
148	0xbd793fee	-0.060851984
149	0x3c90efe1	0.017692508
150	0xbc8d8945	-0.01727737
151	0xbcb8494b	-0.022495886
152	0xbb4f7386	-0.003165455
153	0x3dfc8be9	0.12331373
154	0x3de842ed	0.1134089
155	0x3d5792ae	0.05263012
156	0xbdd0685c	-0.10176155
157	0x3d6bb81d	0.05754863
158	0xbe3af094	-0.18255836
159	0xbd859d8e	-0.06524192
160	0x3d287f96	0.0411373
161	0x3dd3a55e	0.10334276
162	0xbc1327ac	-0.0089816265
163	0x3d3b5b44	0.045741335
164	0x3d787209	0.060655627
165	0xbcf6639b	-0.030076792
166	0x3dcda24b	0.100407206
167	0xbc7adc84	-0.015311364
168	0x3d23e3be	0.040012114
169	0xbe0bc084	-0.13647658
170	0xbcbc71da	-0.023003507
171	0x3d14ecda	0.03635869
172	0xbdc02d40	-0.09383631
173	0x3c18a0e2	0.009315701
174	0x3d91ca79	0.07118697
175	0x3cc16f4e	0.023612645
176	0xbd8e544b	-0.06949671
177	0x3bc67eaa	0.00605758
178	0xbdf4ea82	-0.11958791
179	0xbe176b64	-0.1478706
180	0xbe0850c5	-0.13312061
181	0xbe4852a5	-0.19562776
182	0x3d767dbc	0.060178503
183	0xbdd3a60f	-0.103344075
184	0xbd2aab9c	-0.041667566
185	0x3d07a0e6	0.03311243
186	0xbe225a3a	-0.15854731
187	0xbd4aabb3	-0.04948015
188	0xbd0f7222	-0.035020955
189	0xbd89343c	-0.06699416
190	0x3e1dc5f1	0.1540754
191	0x3cd28838	0.02569972
192	0xbe0410e6	-0.12897071
193	0x3ca62f1e	0.02028614
194	0x3db8510f	0.08999836
195	0x3ca9baad	0.020718897
196	0x3dbcbabb	0.092153035
197	0xbe053075	-0.13006766
198	0xbd997781	-0.07493497
199	0xbd1d032e	-0.03833311
200	0x3d826aaf	0.063680045
201	0x3d5f6937	0.0545437
202	0x3e112f95	0.14178307
203	0x3d7b6cd0	0.06138307
204	0xbd27e481	-0.040989403
205	0x3e3f1d47	0.18663512
206	0xbe24c071	-0.16089036
207	0xbd48a791	-0.04898793
208	0xbd043e50	-0.03228599
209	0xbd46d761	-0.048545245
210	0x3e44a4b4	0.19203454
211	0x3dcfdd65	0.101496495
212	0xbe3c1873	-0.18368702
213	0xbdfcd1e7	-0.12344723
214	0x3b895ab2	0.00419172
215	0xbe871b96	-0.26388234
216	0xbe388e7d	-0.18023105
217	0xbe2c7444	-0.16841227
218	0x3d308f8b	0.043105643
219	0x3d8a3e05	0.067501105
220	0x3d965818	0.07341021
221	0x3d0c7c14	0.034298018
222	0xbe5f556e	-0.21809933
223	0x3e58255a	0.21107998
224	0x3c4d62cd	0.012535763
225	0x3d33ada1	0.043866757
226	0x3b6c6bd2	0.0036075008
227	0x3d3e13e7	0.0464057
228	0xbd682b7b	-0.05668209
229	0xbe3716ba	-0.17879763
230	0xbe0d2300	-0.13782883
231	0x3c5ae33a	0.013359839
232	0x3dbccc98	0.09218711
233	0x3e0d9415	0.1382602
234	0xbe5518b5	-0.20810206
235	0xbd219199	-0.039445493
236	0x3dcf0304	0.10107997
237	0x3db4bcd4	0.088250786
238	0x3e3d7ad6	0.1850389
239	0x3cc4f202	0.02404118
240	0xbd4d2d8d	-0.05009227
241	0xbe2ded15	-0.16984971
242	0xbce57f23	-0.028014725
243	0xbdb0dd14	-0.08635917
244	0xbda48cde	-0.08034681
245	0x3d3c9e78	0.046049565
246	0x3c9561eb	0.018235167
247	0xbd1d71a9	-0.038438473
248	0x3dab5c67	0.08367234
249	0x3e438b6d	0.19096155
250	0x3e65c0e5	0.22436865
251	0xbe13e381	-0.14442255
252	0x3d0e5ee6	0.03475847
253	0x3c110ac2	0.0088526625
254	0xbdf218e8	-0.11821157
255	0x3da09a9b	0.07841989

l2.bias f4 [100]
0	0x3d09bca0	0.033627152
1	0xbe34985f	-0.1763625
2	0x3da6f0c1	0.08151389
3	0x3cac87c2	0.021060828
4	0xbd735415	-0.05940636
5	0x3de52761	0.111891516
6	0x3c830700	0.015994549
7	0xbe1e2021	-0.15441944
8	0xbdeb2701	-0.11482049
9	0xbcfdc703	-0.030978685
10	0x3cca9d65	0.024733255
11	0x3e0f740d	0.14009114
12	0x3d0bbf3d	0.034117926
13	0x3cf41070	0.029792994
14	0x3dc835d0	0.09775889
15	0x3ddbb2e0	0.10727477
16	0x3adea3ee	0.0016986111
17	0x3cbe5003	0.023231512
18	0x3e8e75f0	0.27824354
19	0x3c7176af	0.014737769
20	0x3dee865d	0.116467215
21	0xbd83af8d	-0.06429968
22	0x3d344c7b	0.04401825
23	0x3d5f8a78	0.054575413
24	0xbdb5bf93	-0.088744305
25	0x3c9dfe70	0.019286364
26	0xbb0fd1da	-0.002194515
27	0xbe00bdfd	-0.12572475
28	0x3d3a6de2	0.04551495
29	0xbd27c283	-0.040956985
30	0xbc414cd7	-0.011798105
31	0xbcf11488	-0.029428735
32	0x3ca21016	0.019783061
33	0x3ba962dc	0.0051692557
34	0xbe2ae6b7	-0.16689573
35	0x3cfb2d6d	0.03066131
36	0x3ddc9aa8	0.10771686
37	0xbc8f8b18	-0.01752238
38	0x3d35d09d	0.044388402
39	0xbd700049	-0.058594022
40	0xbc86ed4c	-0.016470574
41	0xbd836245	-0.06415228
42	0xbd0cf88b	-0.034416717
43	0x3cbe0302	0.023194794
44	0xbd09424e	-0.0335105
45	0xbcf1e8ab	-0.02952989
46	0xbca407d4	-0.020023264
47	0xbd9d8cd3	-0.07692876
48	0xbb93400d	-0.0044937194
49	0x3d25bbb6	0.04046222
50	0x3ca52c89	0.020162838
51	0xbd0d4a24	-0.034494534
52	0x3df279fc	0.11839673
53	0x3d478ce7	0.04871836
54	0x3c103885	0.008802538
55	0xbb87a6a7	-0.0041397396
56	0xbd869d27	-0.06572943
57	0x3d7b0c7a	0.061291195
58	0xbd02c6a6	-0.031927727
59	0x3dccc8c2	0.09999229
60	0xbdceb880	-0.10093784
61	0xbe667d97	-0.22508846
62	0x3db81a1b	0.08989354
63	0x3e169ea1	0.1470895
64	0xbd07524b	-0.033037465
65	0xbcb022f2	-0.021501038
66	0xbc8a1cb6	-0.016859394
67	0x3d70a89f	0.05875456
68	0x3d19fd92	0.03759534
69	0xbd1d3d76	-0.03838869
70	0xbe2d7b1d	-0.16941495
71	0x3c0d9ddf	0.008643596
72	0x3d642e16	0.055708013
73	0xbc85cf98	-0.01633434
74	0x3d0b7831	0.03405017
75	0x3d00dee0	0.03146255
76	0xbe6209ab	-0.22074
77	0x3dc1e72d	0.094679214
78	0x3ca995a1	0.020701231
79	0x3c1863b2	0.009301113
80	0x3cfb40aa	0.030670483
81	0xbc1d17a2	-0.009588154
82	0x3c1aff94	0.009460349
83	0x3e1969de	0.14981791
84	0xbca30846	-0.019901406
85	0x3babab2e	0.005238912
86	0xbd2acfbc	-0.041702017
87	0x3c626c07	0.013819701
88	0x3c26278b	0.010141264
89	0x3c6aa83b	0.014322336
90	0xbe99cbd3	-0.30038318
91	0x3dc5837f	0.096442215
92	0xbc2c3573	-0.01051079
93	0xbd3a6e60	-0.045515418
94	0xbceaf864	-0.028682895
95	0xbc617c9a	-0.0137626175
96	0xbdc4761a	-0.095928386
97	0xbd3e05ed	-0.04639237
98	0xbe3e72e7	-0.1859852
99	0x3d594534	0.053044513

l3.weight f4 [18, 100]
0	0x3dc26403	0.09491732
1	0xbd40e22c	-0.047090694
2	0xbc9a35b7	-0.018824441
3	0x3e12e9cd	0.14347
4	0xbe498b1d	-0.19681974
5	0x3b96f257	0.004606526
6	0xbe17e256	-0.14832434
7	0x3d8715f0	0.06595981
8	0x3cb12685	0.021624813
9	0xbdb88d30	-0.090113044
10	0x3d6b7904	0.057488456
11	0x3e016a70	0.12638259
12	0x3d8e4959	0.06947584
13	0x3d4faf0b	0.050704043
14	0xbe0daece	-0.13836214
15	0x3da47f32	0.08032073
16	0x3d95810a	0.07300003
17	0xbdd1b9d6	-0.102405235
18	0xbdca4bfc	-0.09877774
19	0x3dace869	0.08442766
20	0xbccc9cd8	-0.024977133
21	0xbd2e944d	-0.0426219
22	0x3e1c4cd6	0.15263686
23	0xbc5ceb51	-0.013483838
24	0xbe884b8e	-0.26620144
25	0xbdef2729	-0.11677391
26	0xbd08182d	-0.03322618
27	0xbe81d6b2	-0.25359112
28	0x3df2f485	0.11863045
29	0x3d93853f	0.07203149
30	0xbca5b5ce	-0.020228293
31	0xbc19f092	-0.009395735
32	0x3e92d86f	0.2868075
33	0xbe870818	-0.26373363
34	0xbdc42e8e	-0.09579192
35	0xbe1482ea	-0.14503065
36	0x3be44a70	0.0069668815
37	0xbc649780	-0.013952136
38	0x3e2edcd5	0.17076428
39	0xbce2bfac	-0.027679287
40	0xbb9050d0	-0.004404165
41	0x3e1bc36b	0.15211265
42	0x3c292198	0.010322951
43	0x3df417db	0.119186126
44	0xbd8bacae	-0.068200454
45	0xbc0c7a9e	-0.008574156
46	0x3e3b3d9c	0.18285221
47	0x3d1f0d2e	0.03883093
48	0x3e140d58	0.14458215
49	0xbe3c0956	-0.18362936
50	0x3d001b09	0.031275783
51	0xbe685016	-0.226868
52	0xbe24c164	-0.16089398
53	0xbe0cba0c	-0.13742846
54	0xbd919122	-0.0710776
55	0xbe27db3b	-0.16392224
56	0x3ce71894	0.028209962
57	0xbdc979d2	-0.098376885
58	0xbe04e4dd	-0.1297793
59	0xbd6d161d	-0.057882417
60	0x3e69ce12	0.22832516
61	0x3e3243d0	0.17408681
62	0x3d1fedcf	0.03904515
63	0x3bdf9459	0.0068231043
64	0x3d961d5e	0.0732982
65	0xbe663bc1	-0.22483732
66	0x3e674a0d	0.22586842
67	0x3d8f9f3b	0.07012793
68	0xbdc235e2	-0.094829336
69	0x3df7ecbe	0.12105702
70	0xbe629370	-0.22126555
71	0x3d3564d4	0.04428561
72	0x3d822853	0.063553475
73	0x3df5fbd3	0.12010922
74	0x3d241d73	0.040067147
75	0xbe062fea	-0.13104215
76	0x3e43db8e	0.19126722
77	0x3c613103	0.013744595
78	0xbe811e23	-0.25218305
79	0xbc3ef422	-0.0116548855
80	0x3e7e0fac	0.24810666
81	0xbe285018	-0.16436803
82	0x3d467e77	0.04846045
83	0xbc4b55b3	-0.012410569
84	0xbd9ead5d	-0.0774791
85	0x3d915d7a	0.07097907
86	0xbe7b2878	-0.24527156
87	0xbe040497	-0.12892376
88	0xbe241b7d	-0.16026111
89	0xbe6c51b8	-0.23078048
90	0x3e742f6c	0.23846215
91	0x3d8d90ea	0.06912406
92	0x3e0cac04	0.13737494
93	0x3ddc82f8	0.10767168
94	0x3d84868a	0.06470974
95	0xbd922ec8	-0.07137829
96	0x3cf86a63	0.030324167
97	0x3d19ebdd	0.037578452
98	0x3c9a82d2	0.018861208
99	0xbe6ca4e1	-0.23109771
100	0x3d8498cc	0.06474456
101	0xbe2650b7	-0.16241728
102	0x3dc523eb	0.096259914
103	0x3d89ac3f	0.067223065
104	0x3da8aaf6	0.08235733
105	0x3c0a1232	0.00842719
106	0x3de7d763	0.11320379
107	0xbe7848b7	-0.24246489
108	0xbe5e966c	-0.21737069
109	0x3d8b11f7	0.06790536
110	0x3c52d11a	0.0128672365
111	0x3db502c2	0.08838417
112	0x3dc0a73a	0.09406896
113	0x3dfeac28	0.1243518
114	0x3ebb0cf3	0.36533317
115	0x3c3fecd1	0.011714176
116	0xbda65d6a	-0.08123286
117	0xbd3b250d	-0.04568963
118	0x3e29c937	0.16580664
119	0xbdef9383	-0.116980575
120	0x3df7c290	0.12097657
121	0x3d798d3f	0.06092572
122	0x3e23bce1	0.1599002
123	0x3cb8e950	0.02257219
124	0xbe819e89	-0.25316265
125	0x3dfbd5ce	0.122966394
126	0xbe0f5cca	-0.1400024
127	0x3cc6a229	0.024247246
128	0xbe2257de	-0.15853831
129	0xbd42520f	-0.04744154
130	0x3e793dc4	0.24339968
131	0xbd8bd754	-0.0682818
132	0x3e0bf771	0.1366861
133	0x3d89a960	0.06721759
134	0x3ccb4960	0.024815261
135	0x3df3acee	0.11898218
136	0xbc14d4d3	-0.009083944
137	0x3c65300d	0.013988507
138	0xbd620c5d	-0.05518757
139	0x3dda97c6	0.1067348
140	0xbdac6d27	-0.08419257
141	0xbe40bab7	-0.18821226
142	0xbdb8355f	-0.08994555
143	0x3ea672b0	0.32509375
144	0x3d426c35	0.047466476
145	0x3b901609	0.004397158
146	0xbd52d321	-0.05147088
147	0x3d028661	0.031866435
148	0x3d549e30	0.05190867
149	0xbe2d8b11	-0.16947581
150	0x3dcaff0f	0.0991193
151	0xbdff3459	-0.124611564
152	0x3eb36f3a	0.35045797
153	0x3d9ceab9	0.07661957
154	0x3eb71774	0.3576008
155	0x3bae01bf	0.0053102667
156	0xbdec85f1	-0.11548985
157	0xbd443067	-0.047897723
158	0x3c97fd30	0.018553346
159	0x3e53ac43	0.20671181
160	0xbdda0e40	-0.10647249
161	0xbc3f41b0	-0.011673376
162	0x3e61993b	0.22031109
163	0xbe239312	-0.15974072
164	0x3c68e657	0.014215074
165	0x3d256918	0.04038343
166	0xbd299446	-0.04140117
167	0xbe5d5d91	-0.21617724
168	0x3ea557f0	0.32293653
169	0xbc158035	-0.009124805
170	0xbe195ad4	-0.14976054
171	0x3dbce567	0.092234425
172	0x3e548d0f	0.20756935
173	0xbc2f422a	-0.010696927
174	0x3e196e97	0.14983593
175	0x3dc1c0c6	0.09460597
176	0xbe8d04ff	-0.27542874
177	0xbdc574d6	-0.09641425
178	0x3d33d3b2	0.04390306
179	0x3e2d4190	0.16919541
180	0x3caa47ab	0.020786127
181	0x3e3b59ea	0.18296018
182	0xbe493c4b	-0.19651906
183	0x3e60193f	0.2188463
184	0x3d4d49ab	0.050119083
185	0x3d87b3b5	0.06626073
186	0xbe2b9562	-0.16756204
187	0x3d371c2c	0.0447046
188	0x3dda60e5	0.106630124
189	0xbd64436b	-0.055728357
190	0xbe0bbd31	-0.1364639
191	0x3d21a310	0.03946215
192	0xbd3e085b	-0.046394687
193	0x3d8ed984	0.069750816
194	0xbdc1d85e	-0.09465097
195	0xbe51322a	-0.20429292
196	0xbd4a0405	-0.04932024
197	0xbe404986	-0.18778047
198	0xbe0bf876	-0.13668999
199	0x3e39249b	0.1808037
200	0xbe09e9ba	-0.13468066
201	0x3dc26173	0.09491243
202	0x3e1c2b1f	0.15250824
203	0xbd6ac423	-0.057315957
204	0xbdc6ee76	-0.097134516
205	0x3e4b84fc	0.19874948
206	0xbd7d1da4	-0.061795846
207	0xbb24ff39	-0.0025176539
208	0x3e65065c	0.22365707
209	0xbd2bf8ea	-0.04198543
210	0xbd348286	-0.04406979
211	0x3b69eaac	0.0035692854
212	0x3e158fda	0.14605656
213	0xbd9232fb	-0.0713863
214	0xbd3c58dd	-0.045983184
215	0xbd62ad1f	-0.055340882
216	0x3e347f53	0.17626695
217	0x3dd00fb8	0.10159248
218	0x3e3f5643	0.1868525
219	0x3b99a554	0.004688898
220	0xbd7bd3c6	-0.06148126
221	0xbc6129c5	-0.013742869
222	0x3e3670c3	0.17816453
223	0xbcfba7b3	-0.030719614
224	0xbd9ea8a2	-0.07747008
225	0x3d8eddcc	0.06975898
226	0x3c9f363a	0.019435037
227	0x3d34f035	0.04417439
228	0xbc857ed5	-0.01629583
229	0xbc55584a	-0.013021538
230	0xbd877cb1	-0.0661558
231	0xbdc9b4c9	-0.09848935
232	0xbe02f508	-0.12788785
233	0xbe62e570	-0.22157836
234	0x3ddc9240	0.107700825
235	0x3acfe98b	0.0015862448
236	0xbdccbe1e	-0.099971995
237	0xbc6258d9	-0.013815128
238	0xbce5dcae	-0.02805933
239	0xbe107e15	-0.14110596
240	0x3db58944	0.08864072
241	0x3e1a196a	0.15048757
242	0xba81f3ce	-0.0009914578
243	0xbe251660	-0.16121817
244	0xbd1f4a14	-0.038889006
245	0xbdc6fca0	-0.09716153
246	0xbe3b9a7e	-0.18320653
247	0xbdc2bb2f	-0.09508359
248	0xbdb58069	-0.08862383
249	0x3d33e368	0.043918043
250	0xbe1d23bc	-0.15345663
251	0x3d8ac7de	0.06776403
252	0xbd5b4d31	-0.053540412
253	0xbe540989	-0.20706762
254	0xbe31f34a	-0.17377964
255	0x3d7eaae6	0.0621747

l3.bias f4 [18]
0	0x3e7c2b83	0.24625973
1	0xbeee3c51	-0.46530393
2	0xbd1c038c	-0.03808932
3	0x3f1acb9a	0.6046692
4	0xbdf2cee9	-0.11855871
5	0xbea6211e	-0.3244714
6	0x3e266f33	0.16253357
7	0xbebd1745	-0.36931816
8	0x3e53529b	0.2063698
9	0x3e8ed398	0.27895808
10	0x3e830b4e	0.25594562
11	0x3cb94b16	0.022618812
12	0x3e983065	0.29724422
13	0xbecfc79b	-0.40581974
14	0x3e9d4f3f	0.30724522
15	0x3e5cdcf6	0.21568665
16	0xbd63b22e	-0.055589847
17	0xbba1200f	-0.0049171518
