data/result/g_590.pt (torch, 87406 bytes, 7 tensors)

G_attr_matrix.weight f4 [36, 5]
000000 c6 e9 26 3d 7d f6 d0 bc 89 c7 8b be d3 65 40 3d
       0.040750287 -0.02550816 -0.2730067 0.046972107
000010 b5 65 9c 3b 62 9e a8 bd 32 bf 31 3d 64 99 d0 3d
       0.0047728666 -0.08233334 0.04339523 0.10185507
000020 08 ba ac 3d 37 99 75 bc 0c 9a 0f bd 9f ee 08 3c
       0.0843392 -0.014990143 -0.03505902 0.008357673
000030 24 ab 42 3c 51 ab 0f 3d 57 a5 b7 bb 34 cb 7a bd
       0.011881623 0.03507549 -0.005604427 -0.061228946
000040 d7 60 b9 bd 9d 1e e0 bd bc 38 57 bd 94 9a da bb
       -0.09051674 -0.10943339 -0.05254434 -0.006671259
000050 2b 59 32 bb af d0 aa bd 89 27 f5 3b e1 fc 07 bc
       -0.0027213793 -0.083405845 0.0074815196 -0.008300037
000060 60 37 09 3c 6b af d0 3d 15 ca 06 3a af 8a 10 bd
       0.008375019 0.10189708 0.0005141807 -0.03528851
000070 96 bc 6f 3e 70 6a b9 bd 72 dc 5f bc 9d cc 7b bc
       0.23411784 -0.090535045 -0.013663398 -0.015368608
000080 f2 0c 91 bc 3a cd 0b bc c9 ac 0a 3e 1f 02 50 3e
       -0.017706368 -0.008532817 0.13542475 0.20313309
000090 74 a3 f8 3d c9 4c 53 3e 4c af 1c 3e 85 b0 55 3d
       0.12140551 0.2063476 0.15301245 0.052170295
0000a0 8e 17 b8 3a 7e e1 f0 3b d8 3c b2 3b de 8b 3a bd
       0.0014045106 0.0073510995 0.005439382 -0.045543544
0000b0 63 e4 06 be af f5 51 bc 7c 3a 2c bc e2 2b 05 ba
       -0.1317306 -0.012814923 -0.010511991 -0.00050800864
0000c0 a2 77 76 3d 83 64 3c 3e b8 2a 5e 3e a4 ee 7e 3c
       0.060172684 0.18397717 0.21695983 0.015559826
0000d0 56 08 5a 3c f7 cc 86 bd d0 9c b4 bc db 05 a0 bc
       0.0133076515 -0.06582063 -0.02204743 -0.019534042
0000e0 72 80 20 be 4d db 67 be 32 2d 84 3d c7 55 27 3e
       -0.15673998 -0.2264225 0.06453933 0.16341315
0000f0 b9 fb 1c 3c 7d 41 c1 3d 70 3f d7 3b 08 a4 a6 bb
       0.0095815 0.09436319 0.0065688416 -0.005085472
000100 2c 20 d5 3c 7b 60 b0 be 5d 37 ff bb 7b 1a 96 3d
       0.026016317 -0.3444861 -0.0077885822 0.073292695
000110 23 1c 05 be aa a7 10 be 09 14 03 bd 6d 84 1c bd
       -0.12999015 -0.14126459 -0.03200153 -0.03821223
000120 ac 8c b3 3d f5 68 69 3b 53 dd 02 3d 77 69 2b be
       0.087670654 0.0035615538 0.031949352 -0.1673945
000130 7b fc bf 3d 9f 7a 2d be 43 26 ba 3d 0c e4 0b be
       0.09374329 -0.16941307 0.09089329 -0.13661212
000140 29 8f 1c 3e 53 61 44 bc f2 86 5c bd 46 83 09 3e
       0.15288986 -0.0119860945 -0.05383963 0.13428983
000150 8d 6e a6 bd a1 c8 42 3d f7 5e 99 3e 95 0d d7 3e
       -0.08126555 0.047554616 0.29955265 0.4200255
000160 53 02 f5 3d 2d 0d 78 3d 31 46 82 bb d1 01 66 be
       0.11963334 0.06055944 -0.0039756526 -0.2246163
000170 13 4a 67 bb 39 50 64 3d 68 c0 75 bd cd 3b 8b bd
       -0.0035291954 0.05574057 -0.059997946 -0.067985155
000180 82 10 08 3e 7e 89 5f be eb 8b 8e 3d ff 19 d4 3d
       0.13287547 -0.21829793 0.06960281 0.10356521
000190 16 93 3d be dd 3c 26 bc e2 87 63 3c e8 8e 88 bc
       -0.1851314 -0.010146347 0.013887377 -0.016669706
0001a0 2d 84 80 bc 9f e3 45 be 4b 5c 5e 3d ff bd ee bd
       -0.015688026 -0.19325112 0.054287236 -0.11657333
0001b0 bc 77 0c 3e c8 bd 78 3d 47 88 e7 ba 64 a8 89 bc
       0.1371755 0.060727865 -0.0017664515 -0.016803928
0001c0 90 9f a1 bb 9f 09 76 3c 35 61 e6 3b b6 2c d7 3d
       -0.0049323514 0.015016942 0.007030631 0.10506575
0001d0 b7 b5 6c 3e cb 18 4a 3e e1 4e 3c be 87 7e 72 bc
       0.23116194 0.1973602 -0.18389465 -0.014800674
0001e0 a6 ad d5 3e c7 26 6a 3c 0d db a4 3a e8 47 3c be
       0.41734046 0.014291472 0.0012577489 -0.18386805
0001f0 93 9c e9 bb c4 29 48 3e f2 3e 6b be cd 24 2b bd
       -0.007129261 0.19547182 -0.2297323 -0.041783143
000200 09 10 1a be f4 e3 0d 3e 87 02 80 3c 44 01 48 3d
       -0.1504518 0.13856488 0.015626205 0.048829332
000210 c7 b7 d3 bc f6 0d 38 3d 45 a1 10 bd 92 cf 47 be
       -0.025844468 0.04493519 -0.03531005 -0.19512776
000220 ce 37 9a be 9a 65 1f 3e 86 a8 29 3e 70 c2 6a 3e
       -0.301207 0.15566102 0.16568193 0.22925735
000230 65 a0 b9 bc 88 54 e3 3b c5 73 ea 38 0f b6 0a 3c
       -0.02265949 0.006937567 0.00011179553 0.008466258
000240 ae 62 07 bd dd 87 95 3d f8 5c c9 bc 00 c9 ab bc
       -0.033053093 0.073013045 -0.024580464 -0.020969868
000250 6e c3 8e 3b f4 1e 0e 3e 6c da 5f bc a8 27 99 3c
       0.004356793 0.13878995 -0.013662916 0.018695667
000260 e6 13 47 3c cf 68 29 bd a3 57 73 bd a8 67 12 3d
       0.01215074 -0.04135972 -0.05940975 0.035743386
000270 d9 06 89 bd 71 c2 6c bd ab 4b 34 3e ea 5f 7d 3e
       -0.06690759 -0.05780262 0.1760699 0.2474362
000280 d5 31 63 bc 45 df d4 3b b6 89 c6 3c f6 83 ef bb
       -0.013866861 0.0064963424 0.024235588 -0.007309432
000290 de 73 1e bc 4b 84 00 3e fd aa 21 3e af bc bc be
       -0.00967118 0.12550466 0.15787883 -0.36862704
0002a0 22 13 f7 3c 40 df 21 3e cf b0 0b 3b 39 a5 ff bb
       0.03016049 0.1580782 0.0021315103 -0.0078016785
0002b0 f2 46 d5 3d 32 b4 86 3e 66 32 f7 3d 56 9e 08 3c
       0.10413922 0.26309353 0.120701596 0.0083385315
0002c0 93 ff 8f 3e cf 3e 0d be b7 ce 46 be 3c ae f9 3d
       0.28124675 -0.13793491 -0.19414793 0.12191436

l1.weight f4 [100, 90]
000000 a5 81 36 3e a5 12 cb bb bb 1c a8 3d a7 9a d5 3d
       0.17822893 -0.006197291 0.08208605 0.10429888
000010 a3 7f bc 3d 24 4b 4e 3d c1 60 e6 3d 5d 65 6c 3d
       0.09204032 0.05036463 0.11248923 0.057713855
000020 7d a6 67 be 31 88 e3 bd 6f c3 c2 3d dd 64 4e be
       -0.22622104 -0.11109961 0.09509932 -0.20155664
000030 4a dc e9 bd a6 9b b8 3d 36 7b 39 bd a1 dd a9 3d
       -0.1141897 0.090140626 -0.04528352 0.082942255
000040 7b a5 f7 3c 2f 99 90 bd 0d a3 1d bd ef ce cf 3d
       0.030230274 -0.070604675 -0.038485575 0.10146891
000050 a9 a0 f6 3d 27 e9 87 3c 9c 99 b2 3d 42 ce ca bd
       0.12042362 0.016590668 0.08720705 -0.09902622
000060 eb 75 95 3c c3 00 84 3d 0b d1 32 3e b0 fe a3 3d
       0.018244704 0.06445458 0.17462556 0.08007562
000070 c6 25 1e 3e 7b 01 5b 3c f2 41 71 3d 32 5f 0d be
       0.15444097 0.013367052 0.05890078 -0.13805845
000080 e3 d4 52 be 5d a7 01 be e0 61 a8 bd 16 25 1f 3d
       -0.20589022 -0.126615 -0.08221793 0.038853727
000090 bb 24 1d 3e 69 c5 25 bc 8a 79 c2 bd 9f 7c 36 3e
       0.15346043 -0.010117867 -0.09495838 0.17820977
0000a0 49 40 69 bc 90 36 79 bd 75 86 e1 3d d9 b6 1a 3d
       -0.014236518 -0.06084305 0.11011974 0.037772033
0000b0 6c 1b 8f 39 f3 ec ac 3d 3f 04 fd bd d7 07 e4 bc
       0.00027295516 0.08443632 -0.123543255 -0.02783577
0000c0 5e 99 4f 3d 36 23 92 bd 7b 5c e8 3d 78 ad c4 be
       0.05068337 -0.07135622 0.11345764 -0.38413596
0000d0 00 9f 63 3e 41 8f 83 bd 35 d6 20 be fd d6 ef 3b
       0.22228622 -0.06423808 -0.15706713 0.00731933
0000e0 7c d9 40 bd d6 5c ca bc 09 53 ee bc ff d3 f2 3d
       -0.04708241 -0.02470247 -0.029092329 0.11856841
0000f0 a3 98 d0 bc db 18 14 be 88 3e 49 3c de 6f 01 3d
       -0.025463408 -0.14462607 0.012282975 0.031600825
000100 23 27 8b bd 79 c9 e7 bd c0 94 05 3c 70 21 21 be
       -0.06794574 -0.11317725 0.008153141 -0.15735412
000110 c7 1c 74 ba a3 bc 30 be 92 8d 36 be df 83 d8 3d
       -0.00093121495 -0.17259459 -0.17827442 0.105720274
000120 0c 74 e3 3d a7 c7 3a 3e 6c a0 31 be 15 75 4c 3c
       0.111061186 0.18240224 -0.17346352 0.012479086
000130 d7 9f 56 be 68 1e 1a bd 39 d3 88 bd 70 7a 40 3d
       -0.20959412 -0.037626654 -0.066809125 0.046991765
000140 e7 77 87 bc f6 14 47 bd 95 05 5c 3d 59 c9 0e 3e
       -0.016536666 -0.048603974 0.05371626 0.13943996
000150 1e cf 2a be 83 0c be 3d fd db 80 3d 0e 1e 8f bd
       -0.16680571 0.0927973 0.062919594 -0.06988154
000160 2d 9c 4e 3d 7e ec 32 3e 07 ae 75 3e f1 31 88 bd
       0.05044191 0.17473027 0.23992167 -0.066501506
000170 b0 34 59 bd 82 4b 2f bd ab 56 10 be a4 c3 53 3d
       -0.053028762 -0.04279662 -0.14095561 0.05170025
000180 a5 ef 49 3e 98 c3 62 bd 91 c7 64 3d 87 29 e3 3d
       0.19720323 -0.055362314 0.055854384 0.11091905
000190 da ed 53 3d a0 6b b9 bc 23 a1 08 be 38 fa d9 3b
       0.051740505 -0.022634327 -0.13342719 0.006652143
0001a0 ec dc 05 be 6d 5b 7c bd 3a 80 e9 3d 06 34 13 be
       -0.13072556 -0.061610628 0.114014104 -0.14375314
0001b0 7e ff 8e 3d f4 d7 4b 3d ac eb 82 3d a0 c1 0c 3d
       0.06982325 0.049766496 0.06392607 0.034364343
0001c0 5b c7 26 bd 13 75 14 bd 49 15 cd bb b0 26 1e 3d
       -0.040717464 -0.036244463 -0.006258641 0.038611114
0001d0 30 3b f4 3c ad 4e 33 bd e9 9b 8d bc c4 c8 7a 3d
       0.029813379 -0.043776203 -0.017286258 0.06122662
0001e0 41 f5 bb 3c 6c ad 24 bd cc af 31 bd 21 aa a7 3d
       0.022944095 -0.04020445 -0.043380544 0.081867464
0001f0 21 e5 32 be 04 c5 b4 ba 51 02 6d bd fc ea b1 3d
       -0.17470218 -0.0013791625 -0.057863537 0.08687398
000200 af 53 dd 3c 9b 3a 93 3d bf e8 35 bd e7 a2 1f 3e
       0.027017443 0.071889125 -0.044411417 0.15589486
000210 0a 5e da bd 2c c0 c7 3b 52 a2 48 be e6 eb 3e bd
       -0.10662468 0.0060959067 -0.1959317 -0.04661169
000220 44 32 98 3d d0 4d 01 be f1 c0 18 bb 8a b3 4e bc
       0.074314624 -0.1262734 -0.0023308361 -0.012616048
000230 53 82 bf 3d 01 0e 14 be f9 32 64 be 47 f4 f2 bd
       0.09351029 -0.14458467 -0.2228507 -0.118629985
000240 d5 13 6f bd d7 99 b7 3d 90 d0 c1 3d 67 6b 68 3d
       -0.058368523 0.089648895 0.09463608 0.05674305
000250 07 3a eb bc 3e e1 03 be 74 d7 03 bd 3f 44 ba bb
       -0.028714193 -0.12878892 -0.032187894 -0.005684405
000260 43 b0 6d bd f6 4c d0 bc 85 a8 06 3d 3a d6 ae bd
       -0.058029424 -0.025427323 0.032875556 -0.08536954
000270 c4 a6 3f bb 92 07 09 bd 99 6d a0 3c 39 3a e7 3d
       -0.0029243687 -0.033454485 0.01958351 0.11290402
000280 b8 c6 3c be cb f0 21 3e f8 a3 0e be 60 a8 ba bd
       -0.1843518 0.15814511 -0.13929737 -0.09114146
000290 40 cf 02 3d f0 07 30 bd 56 de 0d 3d c8 02 11 be
       0.03193593 -0.04297632 0.034635864 -0.14161217
0002a0 66 ee 42 3e e6 8f 6b 3d 15 e3 e4 3c d8 25 97 bd
       0.19036254 0.05751028 0.027940312 -0.07380265
0002b0 4e 94 0c bd 06 b1 fc 3d 47 73 b3 bd 1f 76 e6 bd
       -0.034321122 0.12338452 -0.08762222 -0.112529986
0002c0 8b fa 68 be b6 94 f0 3d 1b e5 d4 bd e9 b3 0a bd
       -0.22751825 0.11747114 -0.10395261 -0.033862982
0002d0 33 ba 4d bc cf 83 22 3e 70 e4 22 3d 38 8c 66 be
       -0.0125566 0.15870593 0.039768636 -0.22514427
0002e0 d8 59 56 bd 02 2a 1e be 06 c8 a1 bd 13 a5 a6 3d
       -0.052331775 -0.15445712 -0.078994796 0.08136954
0002f0 f9 26 88 3c ed c7 87 bd 45 01 b9 3c d8 22 29 be
       0.016620146 -0.0662993 0.022583613 -0.16517198
000300 bf 92 25 be bf fe f3 3d 52 36 30 bd a6 39 81 bd
       -0.1616926 0.11913823 -0.043020554 -0.06309824
000310 08 a4 e7 3c 20 af 10 3e 8d 15 1e 3d fb c4 a2 3c
       0.028276458 0.14129305 0.03859477 0.019869318
000320 1e 6d 8e bd 06 63 83 3d 81 bf 4b be 0d b1 94 3d
       -0.06954406 0.064153716 -0.19897272 0.07260332
000330 ad 05 80 3e 2f 05 59 bc 60 ea e5 bc 14 b9 9f bd
       0.2500433 -0.013245865 -0.02806586 -0.07798973
000340 b5 b0 93 bd 50 c3 1c 3e 83 c6 18 bd 8f 26 6b bc
       -0.072114386 0.15308881 -0.03729869 -0.014352455
000350 3d ff 0e 3e e1 dc 30 3d 1c 0a 0f bc 59 c1 1f 3e
       0.13964553 0.043179397 -0.008730438 0.156011
000360 f0 b0 3f 3d f4 10 c6 bd 8c e7 1c bd df fc 85 bc
       0.0467996 -0.09671202 -0.038306758 -0.01635593
000370 40 2d 07 be 93 85 06 be 79 b2 8f 3d 06 e4 37 bd
       -0.13200855 -0.13136892 0.07016463 -0.044895194
000380 77 f3 80 3e 93 a0 3f bd a5 44 23 3e a9 90 90 3d
       0.2518575 -0.046783995 0.15944155 0.07058842
000390 4f 90 35 3d 67 2b 8e 3d 6d 8b 4a 3e 59 b0 37 bd
       0.044327077 0.06941872 0.19779749 -0.044845913
0003a0 6c ce 50 bd 25 e0 80 3d 92 71 16 3d ea d5 32 3e
       -0.05097811 0.06292752 0.036729403 0.17464414
0003b0 e1 02 a8 bd a7 67 c9 bc 72 79 1e 3e 5c 39 23 bd
       -0.08203674 -0.024585558 0.15476015 -0.039849624
0003c0 b9 a2 29 3c 34 6c fe bd 63 bc cd 3d cb 68 ae 3d
       0.0103537375 -0.12422982 0.100456975 0.085160814
0003d0 37 3d a7 bd 4d 96 48 be 50 e2 94 bd 14 38 09 be
       -0.08165973 -0.19588585 -0.07269728 -0.13400298
0003e0 b9 e5 0f be c9 02 2a 3c 4b eb f8 3d 70 ab 85 3d
       -0.14052476 0.010376641 0.121542536 0.0652684
0003f0 9a c7 20 be 1b d5 b4 bd 4c 6d d4 3d 73 25 83 bb
       -0.15701142 -0.08829709 0.10372409 -0.004002267

l1.bias f4 [100]
000000 ea 10 d0 bc 7c 01 6a 3c a4 ee 18 3e ac 3a 9e 3d
       -0.02539869 0.01428258 0.14934784 0.077260345
000010 4d ed f3 3d ad 64 63 3c 02 2d 3e 3e 83 ec 16 bd
       0.11910496 0.013878983 0.18571857 -0.03684665
000020 bf 7f 30 bd 1c d8 6f bd 15 c8 09 bd 95 00 d5 bd
       -0.04309058 -0.058555707 -0.03363808 -0.10400502
000030 9a 5d b8 bc c4 a5 30 3b 66 ad fc bc 02 79 e1 3d
       -0.02250557 0.0026954273 -0.030844402 0.110094085
000040 06 68 1b 3d d7 d0 1c 3d 53 8e 9a bd 06 08 f1 bc
       0.037941 0.038285103 -0.075466774 -0.029422771
000050 a0 ba 32 3e cd f2 17 bd b4 85 12 bd bd ca e2 3d
       0.17454004 -0.037096787 -0.03577204 0.110738255
000060 99 18 b9 3c 26 98 17 3e b1 f6 54 bd f0 c5 f3 bd
       0.022594737 0.14804134 -0.051993076 -0.11902988
000070 3e 5b 6a bb e4 86 a6 be 67 9b 3b 3d c0 98 d1 3d
       -0.003575995 -0.32524788 0.0458025 0.10234213
000080 6d af 1e be 15 71 77 be ef b0 53 be 6b 01 63 bc
       -0.15496607 -0.24164231 -0.20672964 -0.013855319
000090 58 a5 f4 3c 28 b7 12 3e a2 21 d1 3b 29 05 40 bd
       0.029863998 0.14327681 0.006382183 -0.04687992
0000a0 ee 62 5c be 8f 25 63 3e 27 45 fc bd 5b bf 10 3c
       -0.21522114 0.22182296 -0.12317877 0.008834685
0000b0 b6 81 63 bd 24 a7 88 bc 07 ac 69 3a e7 85 07 bd
       -0.055543624 -0.016681261 0.00089138787 -0.033086684
0000c0 fb 60 5e bd 77 57 36 be 96 50 1a bc b9 ee 1d 3e
       -0.054291707 -0.17806803 -0.009418627 0.15423097
0000d0 aa 2d db 3d 51 d4 30 be 26 ad a5 bc e6 0a 2a bd
       0.10702069 -0.17268492 -0.020224165 -0.0415143
0000e0 75 aa ef bc 0f 96 83 3d 41 3b bf bc aa 38 88 bd
       -0.029256085 0.06425106 -0.023343684 -0.06651433
0000f0 f8 23 14 be 8f 9e 61 3d 9f 7b a6 bc ce 18 ca 3d
       -0.14466846 0.055082854 -0.020322619 0.09868012
000100 e6 6f d3 3d 6d 73 02 be b5 e2 1a bc 75 26 b1 3d
       0.10324077 -0.12739344 -0.009453465 0.08649913
000110 98 c1 04 bd 51 e9 3d 3c b0 cf c6 3d 8b a3 98 bd
       -0.032411188 0.0115912715 0.09707582 -0.07453068
000120 14 c6 05 be 08 ca 34 3e 6d 97 ab 3d b1 9a 38 3d
       -0.13063842 0.17655194 0.083784916 0.0450694
000130 27 4a 31 be b1 b4 70 bd ef 0c 57 be d8 ea d4 bd
       -0.17313443 -0.05876607 -0.21001028 -0.103963554
000140 c4 38 18 3d 03 b6 f1 bd 44 e7 a9 bc bb 41 88 3d
       0.03716351 -0.11802294 -0.020740159 0.06653162
000150 e9 10 22 3d 7c 31 ce 3c 18 1f 8c bd 7f a0 a1 3c
       0.039566908 0.02517008 -0.06841868 0.01972985
000160 28 4b 00 be 00 ce 47 bc 88 37 0d 3e 83 de 88 3d
       -0.1252867 -0.01219511 0.13790715 0.06683066
000170 f2 46 84 bc 4c 95 f3 3c 6f 02 02 3e aa 63 16 bd
       -0.01614711 0.029734276 0.12696241 -0.03671614
000180 f3 56 07 bb fb b8 c8 bd 15 8c 19 be bb 8f 3c 3c
       -0.002065119 -0.09800907 -0.14994843 0.011508877

l2.weight f4 [100, 100]
000000 ac 0b e5 3d 17 d4 58 3e af 68 72 bd 5e 9f ac bd
       0.11183867 0.21174656 -0.059181865 -0.084288344
000010 af 03 33 bd 53 98 c0 3d 81 f9 32 3c 50 90 f7 3d
       -0.043704685 0.094040535 0.010923744 0.12088072
000020 b1 55 84 bd 96 e1 9b bd be b5 1a bd 5f 20 e9 bd
       -0.06461657 -0.076113865 -0.03777098 -0.113831274
000030 de fe 05 bd 6b 64 74 bc c5 78 82 3c d9 78 40 3d
       -0.032713763 -0.01491652 0.015926728 0.04699025
000040 d3 8d 75 be 44 67 19 be c7 47 1d bd 60 0c 32 3e
       -0.23979883 -0.14980799 -0.03839853 0.17387533
000050 95 83 0f bd 01 1f 0e 3e ce fc f7 3d 08 e5 5f 3d
       -0.035037596 0.13879015 0.121087655 0.05466178
000060 09 b5 6b 3c 4d 60 f1 3c 04 7c 3f be ac 15 f7 bd
       0.014386424 0.029464865 -0.18699652 -0.120646805
000070 72 f4 75 be bd 40 0e be 74 17 16 3e 41 af a1 bd
       -0.2401903 -0.13891883 0.14657384 -0.07894755
000080 b2 fc 8f 3d 2c 16 33 bc 8d e2 91 3d bc 1f 74 3d
       0.0703062 -0.010930579 0.07123289 0.059600577
000090 86 29 04 be 73 0a 0a 3c ae 2a 01 be b0 7c b9 3d
       -0.12906465 0.008425343 -0.12613937 0.090569854
0000a0 9b c3 9c bd 1b f1 06 3e f8 ea 34 bd 3c 65 56 bd
       -0.07654496 0.13177912 -0.044169396 -0.05234264
0000b0 94 13 18 3e cb 08 bd bd 72 a2 28 be 16 c9 37 3e
       0.14851218 -0.09230193 -0.16468218 0.17947802
0000c0 03 e9 cd bd 37 b9 65 3d c5 20 07 bd 05 19 8b bb
       -0.10054209 0.056084838 -0.032990236 -0.004244926
0000d0 5c 72 05 bc ca c1 56 bd 5e b7 27 3e db 69 4d 3d
       -0.008144941 -0.052430905 0.16378543 0.05014978
0000e0 45 99 c6 bd 9f ec 38 bc 61 2c 0b be 37 24 85 bd
       -0.096972026 -0.011286884 -0.13591148 -0.06501048
0000f0 51 1a c6 3c b2 09 f0 3d 28 b8 0d bd 51 d0 40 3d
       0.02418247 0.11720599 -0.034599453 0.047073666
000100 26 0d 91 3d a0 83 e2 bd 76 e9 8e 3d d5 21 1e be
       0.07082586 -0.11060262 0.06978123 -0.15442593
000110 80 30 09 3e ca 89 a8 3d 52 16 36 bd 37 94 b2 3d
       0.13397408 0.08229406 -0.04445488 0.08719676
000120 84 05 bf 3d 2d 42 fa 3d 33 c8 c2 3d b7 16 1d 3d
       0.09327224 0.12219653 0.09510841 0.03835174
000130 aa fe 65 3e 04 1e 20 3d d6 c8 92 bd 9f c1 55 bc
       0.22460428 0.039091125 -0.07167213 -0.013046651
000140 5d b6 46 3e 4a 58 41 bd df f6 cb bd f9 58 74 bd
       0.19405504 -0.04720334 -0.09959196 -0.059655163
000150 18 7b 78 3d c3 aa db bd b6 ef 1b bc 9f 81 b5 bd
       0.060664266 -0.107259296 -0.009517601 -0.08862614
000160 f5 f5 db bd 11 79 a5 bd 51 92 aa bd 92 da 63 3d
       -0.10740272 -0.08079732 -0.08328689 0.055628367
000170 d0 99 26 bd 9c 34 b9 bd a0 b7 ea bc 6d fd 95 bc
       -0.04067403 -0.090432376 -0.028652012 -0.01830932
000180 c4 9f a0 bd ab ee 7d 3e bf af 18 3d 4f 57 f6 3b
       -0.07842973 0.24798076 0.03727698 0.007517732
000190 a6 7a eb bd ce bf 28 3d 5b ca 1b be 0b 11 3f 3d
       -0.11498003 0.041198544 -0.15213911 0.046647113
0001a0 bd 81 46 3e e6 13 74 bb 78 89 55 3e 87 1b 0c bd
       0.19385429 -0.0037243306 0.20853221 -0.03420594
0001b0 72 af d4 3d fa c8 06 3a db 29 bb 3c 3d 31 93 3d
       0.10385026 0.0005141642 0.022847107 0.07187126
0001c0 58 41 d6 bc d0 a6 11 bd 38 ae 0e be 77 0b cf bd
       -0.026154205 -0.035559475 -0.13933647 -0.101096086
0001d0 b2 1a 0c bc 8d f9 09 be f6 c2 68 3d 2e 55 f2 3d
       -0.0085512865 -0.13474102 0.056826554 0.11832653
0001e0 43 9a 93 bd 9c c8 82 bd 9d 2f 96 3c 2d 2b 77 3d
       -0.072071575 -0.063859195 0.01833325 0.06034391
0001f0 1e 87 39 3d 6e 43 74 3c 52 eb 53 bd 7a 39 3d bd
       0.045294873 0.014908655 -0.05173809 -0.046197392
000200 b2 3a d1 3d cf 76 06 be c4 1a 52 bd 3b c5 56 3c
       0.10216273 -0.1313126 -0.051295057 0.013108547
000210 a8 a5 03 3e 66 58 5c bb 6a ba 0a 3e 8c 8c ee 3d
       0.12856162 -0.0033622026 0.13547674 0.11647901
000220 cc c5 a7 bc 77 11 9c bd d1 75 09 bd 1a af b9 bc
       -0.02048006 -0.07620519 -0.033559624 -0.022666503
000230 b4 e7 59 3d 72 f6 47 bc fd b6 87 3b eb f0 56 bd
       0.053199485 -0.012204753 0.004141687 -0.05247585
000240 81 fd 20 bc b5 3f 04 3e 7d 32 42 3d 2f 21 f1 3d
       -0.009826065 0.12914927 0.04741143 0.117739074
000250 b7 0a 92 bd 14 15 90 3c 66 cd 40 bc 7a d3 e8 bc
       -0.0713095 0.017588176 -0.011767721 -0.028421152
000260 de bb e6 bb 24 a9 03 3e a9 78 f1 3d 5e 31 5a 3d
       -0.0070414385 0.12857491 0.11790592 0.053269736
000270 9a 44 c2 bd 7e 6c 73 3d c4 3b 3d be ba 3b 81 bd
       -0.09485741 0.059429638 -0.1847983 -0.0631022
000280 31 bf 2f 3d ef cb d6 3d a4 a9 5e bc 37 95 3b 3d
       0.042906944 0.10488116 -0.01359025 0.0457966
000290 ff 39 7d 3d 2f db 01 bd 16 31 c9 3d 64 8c 7f bc
       0.061822888 -0.03170317 0.098238155 -0.015597437
0002a0 9a 46 1d 3d 97 0b 0b be 6b 98 93 bc 25 ad 39 3d
       0.03839741 -0.1357864 -0.018017014 0.04533114
0002b0 9b 30 c2 bd 7b 03 48 3c 9a 34 88 3d 4f dc e1 3c
       -0.09481927 0.012207861 0.06650658 0.027570872
0002c0 4c 6c 89 bd 1f fa 0b 3c b9 51 01 be 39 56 18 be
       -0.06710109 0.00854352 -0.12628831 -0.14876641
0002d0 f4 cc 04 be e0 03 4d be 8d 15 78 3d f4 1a d6 bd
       -0.12968808 -0.2002101 0.060567427 -0.1045436
0002e0 9b b1 1c bd 39 11 f1 3c e0 85 21 be 9d a5 5f bd
       -0.038255315 0.029427158 -0.15773726 -0.0546013
0002f0 4c ad 07 bd 8a 16 7e bd fb 9e 1e 3e 75 78 c1 3c
       -0.033124253 -0.062033214 0.15490334 0.023617009
000300 59 a5 08 be 42 13 c9 3c a3 d3 bf 3d ed ce 81 3c
       -0.13344325 0.024545316 0.093665384 0.01584574
000310 87 8b c0 3d 75 bb 09 be 70 3f 94 bd ec f2 44 bd
       0.09401613 -0.13450415 -0.07238662 -0.04808323
000320 21 e9 80 3d a8 0b 86 3d 1f 32 08 3e b5 ed 79 3d
       0.06294466 0.06545192 0.1330037 0.06101771
000330 bf 38 3b bd d3 ff 42 3e 3f b3 1f be 36 a0 3b bd
       -0.045708414 0.19042902 -0.1559572 -0.045807086
000340 0a 42 fd bc b1 de 54 bd 40 55 3d 3e 59 c1 d5 3d
       -0.030915279 -0.051970188 0.18489552 0.10437269
000350 f2 ac 3e be 84 06 fb bd 18 e8 8b 3b 88 be 84 be
       -0.18620661 -0.12257102 0.004269611 -0.25926614
000360 c4 dd 3c be 91 1c 31 be de a3 22 3d fc 93 86 3d
       -0.18443972 -0.17296053 0.039707057 0.065711945
000370 ba b3 88 3d f9 d3 ac 3c 7d ae 62 be 0e 32 59 3e
       0.06674905 0.02109717 -0.22136874 0.212105
000380 64 a3 96 3c 65 de 1f 3d e1 9f 6c bb fa 3c 28 3d
       0.018388458 0.03903045 -0.0036106037 0.041073777
000390 8c 59 7e bd 7f fc 3b be 78 f3 0f be f1 22 10 3c
       -0.062097117 -0.18358038 -0.1405772 0.008797393
0003a0 cc 7e b8 3d 8a da 06 3e 71 c7 4b be 7d 6c 0e bd
       0.090085596 0.13169304 -0.199003 -0.03477143
0003b0 f4 78 d6 3d d2 db bd 3d a8 b9 39 3e bc 12 df 3c
       0.10472289 0.09270443 0.18137228 0.027230613
0003c0 2d 27 5b bd 08 20 2e be ef ff e3 bc 0e 32 b9 bd
       -0.053504158 -0.17004406 -0.027832 -0.0904275
0003d0 f9 5f a0 bd 0d b9 46 3d 53 66 99 3c d4 b8 13 bd
       -0.07830805 0.048516322 0.01872555 -0.036064938
0003e0 04 f6 a0 3d 0b 49 43 3e 7a ba 67 3e ac da 15 be
       0.07859424 0.19070832 0.22629729 -0.14634198
0003f0 48 aa ea 3c b2 23 4c 3c c5 07 e6 bd 4e fd a1 3d
       0.02864565 0.012459682 -0.11231951 0.07909642

l2.bias f4 [100]
000000 d5 43 fc 3c b3 25 35 be 6f 81 a5 3d 7a 0c 9d 3c
       0.030794064 -0.17690162 0.08081328 0.019170988
000010 3f 73 67 bd 0c 53 e9 3d 0b 34 7b 3c e1 d6 1d be
       -0.05650639 0.11392793 0.015332232 -0.15414001
000020 45 c5 e4 bd 89 28 f2 bc 50 38 c7 3c bb 21 0e 3e
       -0.11170439 -0.029560344 0.024318844 0.13880055
000030 10 16 09 3d e5 ec 02 3d a5 bd c8 3d 2b 13 d8 3d
       0.033468306 0.0319642 0.09801797 0.10550531
000040 34 39 a2 3b af 2d d0 3c 3d 79 8e 3e f9 bb 89 3c
       0.004950667 0.025412409 0.27826872 0.016813265
000050 06 d7 ec 3d f0 7a 88 bd da be 35 3d c6 f9 4e 3d
       0.1156445 -0.066640735 0.044371463 0.05053117
000060 d7 2e b5 bd 71 f1 a9 3c 3e eb 53 bb ae 1c 00 be
       -0.088468246 0.020745011 -0.003233626 -0.1251094
000070 e4 f9 33 3d b9 66 29 bd 7c 8c 2a bc ca c8 dd bc
       0.043939486 -0.04135773 -0.010409471 -0.027073283
000080 f6 60 89 3c 20 c2 f0 3b cf bc 2b be 5b 2f 05 3d
       0.016769867 0.0073473603 -0.16771244 0.032515865
000090 a9 da d4 3d 87 85 c6 bc 74 5f 3a 3d c7 89 74 bd
       0.103932686 -0.024233593 0.045501187 -0.059701707
0000a0 c6 f0 83 bc 2f 3e 84 bd 0a da 0f bd 4d 41 c1 3c
       -0.01610602 -0.06457173 -0.035120048 0.023590708
0000b0 ec 74 01 bd c4 fd 04 bd b9 3c a1 bc ea e8 9c bd
       -0.031605646 -0.032468572 -0.019682275 -0.07661612
0000c0 e4 95 0a bb 0f c4 1e 3d 14 e2 a4 3c 77 c8 07 bd
       -0.002114647 0.038761195 0.020127334 -0.033150163
0000d0 03 ce f7 3d 13 3b 4b 3d 43 c1 ca 3b 6c 09 9e ba
       0.120998405 0.049616884 0.0061875894 -0.0012057251
0000e0 81 bc 7e bd 23 31 75 3d 05 24 e5 bc bf 39 cd 3d
       -0.06219149 0.059861314 -0.027971277 0.1002078
0000f0 05 c6 c1 bd 38 91 66 be 55 17 b6 3d c5 d3 15 3e
       -0.09461597 -0.22516334 0.08891169 0.14631565
000100 38 28 ed bc bd 95 a9 bc c6 4f 97 bc d8 23 69 3d
       -0.028949842 -0.020701284 -0.018470656 0.05691895
000110 4f d9 1f 3d f9 b8 21 bd 67 58 2d be a6 3e 14 3c
       0.0390256 -0.039483044 -0.16928254 0.00904814
000120 f0 cb 67 3d b2 db 8e bc 21 67 09 3d 43 1c 07 3d
       0.056590974 -0.017438743 0.033545617 0.032985937
000130 91 5f 62 be 2f 8e be 3d fd 53 a0 3c be 9d 3b 3c
       -0.22106768 0.09304463 0.019571299 0.011451183
000140 9b 7d fa 3c 1b 82 fa ba e9 3d 17 3c 62 6b 19 3e
       0.030577471 -0.0019112261 0.009231069 0.1498237
000150 d2 54 85 bc b4 42 80 3b 3c 47 30 bd e8 79 7f 3c
       -0.016275797 0.0039142016 -0.043036684 0.01559303
000160 2c 57 47 3c 28 1b 5a 3c 36 c8 99 be 52 ca c3 3d
       0.0121667795 0.013312139 -0.3003556 0.09560074
000170 39 5b 23 bc 93 a4 32 bd 58 8f dd bc 52 69 6d bc
       -0.00997048 -0.04361398 -0.02704589 -0.014490442
000180 18 62 c4 bd 66 ea 33 bd 3e 62 3e be 85 71 5c 3d
       -0.095890224 -0.04392471 -0.18592164 0.0538192

l3.weight f4 [18, 100]
000000 89 36 bf 3d 6e 5a 42 bd 86 01 8b bc 87 f5 0b 3e
       0.09336574 -0.04744952 -0.0169685 0.1366788
000010 38 02 4c be 8e 0e 2c 3a 7d cf 13 be 79 2d 86 3d
       -0.19922721 0.0006563448 -0.14434619 0.06551642
000020 75 dd c3 3c c7 bd b6 bd c6 21 57 3d 93 4d 04 3e
       0.02390931 -0.08922916 0.052522443 0.12920217
000030 20 b2 9b 3d 06 bc 52 3d 17 2d 0e be 5d 88 a2 3d
       0.07602334 0.051448844 -0.13884388 0.079361655
000040 51 e3 a3 3d 08 21 d0 bd d9 04 ca bd 96 f5 b4 3d
       0.080023415 -0.1016255 -0.09864206 0.08835904
000050 7e dc d3 bc b4 71 1f bd 93 44 1e 3e 0d e7 9a bc
       -0.025861975 -0.038926795 0.15455846 -0.018909002
000060 ea 9f 88 be d1 94 e6 bd 15 98 13 bd 63 39 81 be
       -0.26684505 -0.11258853 -0.03603371 -0.25239095
000070 20 57 f3 3d 6a 51 9b 3d 5a b2 99 bc cd 5c 1a bc
       0.11881852 0.07583888 -0.018761802 -0.0094215395
000080 cd 7f 8f 3e c4 26 86 be 80 3f c4 bd d8 17 11 be
       0.28027192 -0.2620145 -0.09582424 -0.14169252
000090 ea 1a 58 3b 82 c0 41 bc a1 2b 2e 3e 6f ed 06 bd
       0.0032975026 -0.011825683 0.1700883 -0.032941278
0000a0 6a c6 24 bc 0c d1 1b 3e 1f 57 17 3c 33 cc f9 3d
       -0.010057071 0.15216464 0.00923708 0.12197151
0000b0 67 43 99 bd 43 5b 34 bc c8 43 39 3e c0 29 23 3d
       -0.07483559 -0.011008087 0.18092263 0.039834738
0000c0 af 8b 18 3e 90 55 41 be 87 6d 08 3d 56 a7 69 be
       0.14897035 -0.18880296 0.03330758 -0.2281774
0000d0 37 d1 23 be 07 43 0d be fd da 8c bd 5a af 28 be
       -0.15997778 -0.137951 -0.06877706 -0.16473141
0000e0 c6 6a 03 3d df 51 ca bd e7 de 04 be 50 41 5f bd
       0.03208425 -0.09878897 -0.12975655 -0.054505646
0000f0 dd 61 6b 3e d4 b2 31 3e 71 7e 27 3d 14 2b 7b 3b
       0.2298655 0.17353374 0.04089207 0.0038325237
000100 89 35 90 3d f3 e3 63 be 44 13 71 3e c7 f2 94 3d
       0.07041461 -0.22254924 0.23542506 0.072728686
000110 29 b5 cb bd 91 9d f2 3d 0b 0d 63 be 16 0e 42 3d
       -0.09946663 0.1184646 -0.22172944 0.047376715
000120 aa 67 85 3d fe 0d ec 3d 6d 9f 2d 3d 33 30 05 be
       0.06513913 0.11526106 0.04238837 -0.13006668
000130 ee a2 44 3e 3f ee 85 3c 88 71 85 be aa 41 31 bc
       0.19202778 0.016348956 -0.2606318 -0.010818878
000140 74 c1 7f 3e c2 7a 25 be 00 67 49 3d 87 38 4a bc
       0.2497614 -0.1616011 0.049170494 -0.012342579
000150 be 47 93 bd 08 e8 9e 3d fe 51 79 be e6 51 06 be
       -0.07191418 0.077591 -0.24347684 -0.1311718
000160 d9 7f 24 be 39 79 6f be da 5c 74 3e 29 01 8e 3d
       -0.16064395 -0.23386087 0.23863545 0.06933815
000170 5e 41 10 3e 43 c6 e1 3d 48 cb 8b 3d d1 ad 91 bd
       0.14087436 0.110241435 0.06825882 -0.07113231
000180 15 60 e6 3c 0a 6c 15 3d ed c2 9a 3c 93 da 73 be
       0.028121987 0.036479987 0.018891776 -0.23813848
000190 ea 77 81 3d fe 6f 27 be ee b8 ca 3d 88 6a 74 3d
       0.063217 -0.16351315 0.09898554 0.05967191
0001a0 f9 9f a4 3d 5e a7 a2 3b 7b 92 f0 3d 89 a5 79 be
       0.08038325 0.0049637994 0.11746689 -0.24379553
0001b0 ca e6 5c be 28 f4 8d 3d a7 3a 01 3c c7 c2 bd 3d
       -0.21572414 0.06931335 0.007887519 0.092656665
0001c0 6d 91 cb 3d bb 9a 01 3e 8d 34 bb 3e 2d 8a 3c 3c
       0.09939847 0.12656681 0.3656353 0.011507553
0001d0 3f 46 98 bd dc 9b 34 bd 90 cd 2a 3e 66 6d e5 bd
       -0.074352734 -0.04409395 0.16679978 -0.11202507
0001e0 35 f1 f7 3d f5 a6 81 3d ed 31 26 3e ec a0 92 3c
       0.121065535 0.06330673 0.16229983 0.017899
0001f0 07 44 82 be 9b 16 03 3e 91 f4 12 be 8d 7d c9 3c
       -0.25442526 0.12801592 -0.14351107 0.024596
000200 b6 db 20 be 2f 02 35 bd 4b 36 7a 3e be e6 8e bd
       -0.15708813 -0.044191536 0.24434774 -0.06977604
000210 aa 55 05 3e 84 7c 90 3d 27 1c c5 3c b9 9e fc 3d
       0.1302096 0.070549995 0.024061276 0.123349614
000220 88 5d 4b bc d9 c1 85 3c 76 d4 63 bd 93 8b cf 3d
       -0.012412436 0.016327785 -0.05562254 0.101340435
000230 b1 59 b8 bd 1a ef 41 be de eb bb bd 8e e7 a7 3e
       -0.09001482 -0.18938866 -0.091758475 0.3279385
000240 dc 90 28 3d 59 ad 8a 3a eb 61 5d bd 87 73 ff 3c
       0.041153774 0.0010580226 -0.05404846 0.031183017
000250 2c ca 6a 3d 77 ab 33 be d6 5b d0 3d 8e 12 02 be
       0.057321712 -0.17545877 0.10173766 -0.1270239
000260 2e 47 b4 3e 34 84 9d 3d 3b 20 b8 3e c7 f5 73 3b
       0.35210556 0.07691231 0.3596209 0.0037225352
000270 af 3a e6 bd 7a dd 48 bd 94 ae 99 3c 95 6b 57 3e
       -0.11241662 -0.04903934 0.018760003 0.21037133
000280 d8 d6 d7 bd 62 49 54 bc 2f 96 64 3e da 7e 25 be
       -0.10539025 -0.012956949 0.22322915 -0.16161671
000290 37 14 36 3c 5c 77 2f 3d c2 34 09 bd f1 d8 5b be
       0.011113218 0.04283844 -0.03349758 -0.21469475
0002a0 43 c1 a2 3e cb d5 54 bc ad 9c 1a be 7a 9f c4 3d
       0.31788072 -0.012990425 -0.1509883 0.0960073
0002b0 71 fe 56 3e e8 21 85 bc cd ee 1c 3e 58 32 c6 3d
       0.20995499 -0.01625152 0.1532547 0.09677571
0002c0 e5 03 8d be 17 2d bf bd 00 69 14 3d df 0f 2f 3e
       -0.27542034 -0.09334772 0.03623295 0.17095898
0002d0 a5 1a bb 3c 98 c4 3e 3e ca c2 48 be ce 17 61 3e
       0.022839854 0.18629682 -0.19605556 0.21981737
0002e0 d1 11 63 3d 65 e7 94 3d 66 4f 2a be 29 97 29 3d
       0.055436913 0.072706975 -0.1663185 0.041403923
0002f0 cb 4a db 3d c4 a6 6d bd 90 63 0c be 10 3f 25 3d
       0.10707625 -0.05802037 -0.13709855 0.040343344
000300 7b e7 2e bd ef ec 8f 3d f7 fc b9 bd 23 56 51 be
       -0.042701226 0.07027613 -0.09081452 -0.20443015
000310 01 30 54 bd 5a 47 41 be f0 b6 0c be 8d b0 31 3e
       -0.051803593 -0.18874875 -0.1374166 0.17352505
000320 d0 96 0c be a0 15 c1 3d e8 2d 1f 3e 48 48 85 bd
       -0.13729405 0.09427953 0.15544856 -0.06507927
000330 b1 d4 c9 bd 8b eb 48 3e 26 8a 6c bd 09 e3 6e bb
       -0.09855021 0.19621103 -0.057748936 -0.0036451241
000340 69 09 67 3e a2 60 26 bd ce 7e 4a bd 2e 73 04 3c
       0.22562183 -0.0406195 -0.049437337 0.008084102
000350 4f d0 19 3e 6f 80 8b bd d0 74 3c bd bb 20 64 bd
       0.1502087 -0.06811606 -0.04600984 -0.055695277
000360 77 fa 3b 3e 2c 95 d5 3d 7a 00 40 3e 22 27 26 3c
       0.18357264 0.10428843 0.18750182 0.010141166
000370 6e 8e 7b bd a7 bd 4d bc 68 4c 38 3e 73 c4 12 bd
       -0.06141513 -0.012557424 0.17997897 -0.03583188
000380 38 fe 9f bd 17 a3 99 3d 89 3a 79 3c 33 fc 37 3d
       -0.0781216 0.0750181 0.01521171 0.04491825
000390 4e c7 6f bc 96 f6 31 bc c3 47 84 bd 99 34 cf bd
       -0.01463492 -0.010862013 -0.06459 -0.10117454
0003a0 41 a2 09 be 5b 6b 5d be fa fa db 3d cf d1 cc 3b
       -0.13440801 -0.21622984 0.10741229 0.006250597
0003b0 ac 8f d4 bd d9 a6 4a bc bf cb e2 bc 55 9e 16 be
       -0.10378966 -0.012368881 -0.027685044 -0.14708836
0003c0 c5 89 a6 3d 25 ce 18 3e 27 bf 14 bb 73 e2 22 be
       0.08131746 0.14922388 -0.0022696943 -0.15906696
0003d0 88 17 36 bd eb 92 cd bd 8e af 3d be cd 12 c4 bd
       -0.044456035 -0.10037788 -0.18524 -0.095738985
0003e0 21 f7 a9 bd 6f 9c 15 3d 53 2e 1b be 5c a4 85 3d
       -0.08299089 0.03652614 -0.1515439 0.0652549
0003f0 9e 78 56 bd 03 eb 53 be 97 ef 30 be ea 92 7a 3d
       -0.052361123 -0.20695119 -0.17278896 0.061175264

l3.bias f4 [18]
000000 c9 0b 7c 3e db e7 ed be 18 04 1b bd 8a c1 1a 3f
       0.2461387 -0.46465954 -0.0378457 0.6045157
000010 9f ce f2 bd d2 01 a6 be d7 42 26 3e aa db bc be
       -0.11855816 -0.32423264 0.16236435 -0.3688634
000020 91 88 53 3e 98 bb 8e 3e 47 e7 82 3e 44 37 ba 3c
       0.20657565 0.27877498 0.25567076 0.02273143
000030 46 43 98 3e 21 83 cf be 41 59 9d 3e 5e c7 5c 3e
       0.29738826 -0.4052973 0.30732158 0.21560428
000040 7c d1 62 bd 98 a5 9d bb
       -0.05537556 -0.004811
