data/result/g_600.pt (torch, 87406 bytes, 7 tensors)

G_attr_matrix.weight f4 [36, 5]
0	0x3d330338	0.04370424
1	0xbcef8047	-0.029235972
2	0xbe86f613	-0.26359615
3	0x3d0f0dfb	0.034925442
4	0x3b97820e	0.004623658
5	0xbda4e8cd	-0.08052216
6	0x3d2b1e1b	0.041776758
7	0x3de8f69c	0.11375162
8	0x3d90ebfd	0.07076261
9	0xbc757af4	-0.014982928
10	0xbcd0ef89	-0.025504844
11	0x3c98bc32	0.018644426
12	0x3c5d188d	0.013494623
13	0x3d155128	0.03645435
14	0x3b79ebcb	0.0038134928
15	0xbd53e19a	-0.051728822
16	0xbda25e10	-0.07928097
17	0xbdddf9c7	-0.10838657
18	0xbd6dd509	-0.058064494
19	0x3b360993	0.0027776703
20	0xbbeee20f	-0.007290132
21	0xbda4db35	-0.08049623
22	0x3bb5f1d7	0.005552511
23	0xbc584f30	-0.0132024735
24	0xba124127	-0.00055791665
25	0x3dcbc832	0.099502936
26	0x3a89a388	0.0010501007
27	0xbd313161	-0.043259982
28	0x3e6edf91	0.23327471
29	0xbddd1ebd	-0.107968785
30	0xbc6b87e7	-0.014375663
31	0xbc46685c	-0.012109842
32	0xbc8acf59	-0.016944574
33	0xbc1c4da1	-0.009539993
34	0x3e0dd8ed	0.13852282
35	0x3e541408	0.20710766
36	0x3e0b80a6	0.13623294
37	0x3e5636bb	0.20919316
38	0x3e194a05	0.14969642
39	0x3d6b0a36	0.057382785
40	0x3c032fdf	0.008007019
41	0x3c2785fe	0.010224817
42	0xbb5c1ffa	-0.0033588395
43	0xbd3d457b	-0.04620884
44	0xbe01bb7b	-0.12669174
45	0xbb552f13	-0.003252928
46	0xbbdd254f	-0.0067488323
47	0xbc202fb0	-0.009776995
48	0x3d6a1a81	0.057154182
49	0x3e457ab5	0.1928509
50	0x3e578490	0.21046662
51	0x3c260c81	0.010134817
52	0x3cc09adb	0.02351134
53	0xbd86acef	-0.06575953
54	0xbbf2df1a	-0.0074118497
55	0xbcd5c697	-0.026095672
56	0xbe23b9e3	-0.15988879
57	0xbe5f2f16	-0.21795306
58	0x3d83d704	0.06437495
59	0x3e3426f9	0.17592992
60	0xbae04ea6	-0.0017113283
61	0x3da7366c	0.08164677
62	0xbb46c0e3	-0.0030327372
63	0x3b633b78	0.0034672897
64	0x3ccbc134	0.0248724
65	0xbeb3a0d5	-0.35083643
66	0xbcb32f1b	-0.021873048
67	0x3d7d637e	0.06186246
68	0xbdf352dd	-0.11881039
69	0xbe1116ae	-0.14168808
70	0xbcb4e612	-0.022082362
71	0xbcde11ef	-0.02710816
72	0x3da27ca3	0.07933929
73	0x3c4c49cd	0.012468767
74	0x3d1a0e74	0.03761144
75	0xbe22f970	-0.15915465
76	0x3dd07dc2	0.101802364
77	0xbe337cb4	-0.17528039
78	0x3dc975e9	0.09836943
79	0xbe06b2e8	-0.13154185
80	0x3e1d070f	0.15334724
81	0xbc9d9f79	-0.019241082
82	0xbd3cd024	-0.046096936
83	0x3e0aae67	0.13543092
84	0xbda7df4e	-0.08196889
85	0x3d519e10	0.05117613
86	0x3e947ed3	0.2900301
87	0x3edb051b	0.42777333
88	0x3e01fd6b	0.12694328
89	0x3d6dc45d	0.058048595
90	0x3b1b3635	0.0023683433
91	0xbe67ae5b	-0.22625105
92	0xbb1f3e40	-0.0024298579
93	0x3d397c79	0.045284722
94	0xbd541fd4	-0.051788166
95	0xbd7a15a7	-0.061055806
96	0x3e086cd7	0.13322769
97	0xbe5fc633	-0.21852951
98	0x3d6f1956	0.05837377
99	0x3debbc29	0.11510498
100	0xbe34d4ae	-0.17659256
101	0xbc377aef	-0.011198743
102	0x3c9e063d	0.019290084
103	0xbc96e13b	-0.018417945
104	0xbbc97fa0	-0.0061492473
105	0xbe3f5994	-0.18686515
106	0x3d6827bf	0.05667853
107	0xbdef2f8f	-0.11678993
108	0x3e0da804	0.13833624
109	0x3d921ea1	0.07134748
110	0xbbdd30ee	-0.0067502176
111	0xbbc11562	-0.0058924416
112	0xbc4a932d	-0.012364191
113	0x3c187266	0.009304618
114	0xbba2d002	-0.004968644
115	0x3dc387f8	0.09547418
116	0x3e7a10e4	0.24420506
117	0x3e3f61cb	0.18689649
118	0xbe428ff2	-0.19000223
119	0xbcddd5f1	-0.027079554
120	0x3ed7e585	0.42167297
121	0x3c12fcd4	0.008971412
122	0xbb1e427f	-0.0024148521
123	0xbe3e17b8	-0.18563735
124	0xbc8372a6	-0.01604588
125	0x3e4a01d1	0.19727255
126	0xbe723370	-0.23652434
127	0xbd343c46	-0.044002794
128	0xbe1d6daa	-0.15373865
129	0x3e06a30f	0.1314814
130	0x3c92dba5	0.017927
131	0x3d57cedb	0.052687507
132	0xbcc87899	-0.024471568
133	0x3d58c430	0.052921474
134	0xbd0b8938	-0.03406641
135	0xbe440a5a	-0.19144574
136	0xbe97f6f2	-0.29680592
137	0x3e203be8	0.15647852
138	0x3e30345c	0.17207474
139	0x3e6b3b5c	0.22971863
140	0xbc8ab09e	-0.01692992
141	0x3bc70849	0.0060739857
142	0x3c0d0fd9	0.008609735
143	0xbb6afbfd	-0.0035855763
144	0xbcedc04b	-0.029022356
145	0x3d9d2b3e	0.076742634
146	0xbca80e0f	-0.020514516
147	0xbc6a58b4	-0.014303375
148	0xbbfe39eb	-0.007758369
149	0x3e13756b	0.1440026
150	0x3b2c009a	0.0026245476
151	0x3c303a39	0.010756069
152	0x3c9c2ffb	0.019065848
153	0xbd250c66	-0.040295027
154	0xbd5d2be6	-0.053996943
155	0x3d579ee5	0.052641768
156	0xbd996317	-0.07489603
157	0xbd4e8ef9	-0.050429318
158	0x3e3599f2	0.17734507
159	0x3e81582d	0.25262585
160	0xbbb48127	-0.00550856
161	0xbba5be78	-0.005058106
162	0x3c52606b	0.012840371
163	0x3bd2ad84	0.006429376
164	0xbc224a68	-0.009905435
165	0x3e062711	0.1310084
166	0x3e18ddba	0.14928332
167	0xbec04e5c	-0.37559783
168	0x3d1dcbdb	0.03852449
169	0x3e1f41de	0.1555247
170	0xbb03f388	-0.002013417
171	0xbbe3f7a5	-0.0069570118
172	0x3dcf923a	0.101353124
173	0x3e82c416	0.25540227
174	0x3dee7081	0.11642552
175	0x3b8d7aaf	0.0043176035
176	0x3e8e72ff	0.2782211
177	0xbe12503d	-0.14288421
178	0xbe4e43b0	-0.20143008
179	0x3decbf86	0.11559968

l1.weight f4 [100, 90]
0	0x3e3f368b	0.1867315
1	0xbc6fb0fe	-0.014629601
2	0x3d999796	0.07499616
3	0x3dded2c9	0.10880048
4	0x3dcd4298	0.100224674
5	0x3d3aef32	0.04563827
6	0x3deaa71c	0.11457655
7	0x3d6d9716	0.058005415
8	0xbe6017c7	-0.2188407
9	0xbddfd7db	-0.10929843
10	0x3db58e7f	0.088650696
11	0xbe53922f	-0.20661233
12	0xbdd9f0a3	-0.10641601
13	0x3db61b8d	0.08891974
14	0xbd3257d6	-0.043540798
15	0x3da2e973	0.07954683
16	0x3cd3b042	0.025840882
17	0xbd97d51f	-0.074136965
18	0xbd3f5b9b	-0.04671822
19	0x3ddab961	0.106798895
20	0x3deee3d9	0.11664552
21	0x3cbe37c5	0.023219952
22	0x3d9d3c5d	0.07677529
23	0xbdcf712c	-0.10129008
24	0x3ca29478	0.019846186
25	0x3d8eb87d	0.06968782
26	0x3e2c4b0c	0.16825503
27	0x3d9e21ac	0.07721266
28	0x3e17ddce	0.14830706
29	0x3c8f0aa7	0.017461134
30	0x3d6fc6f7	0.058539357
31	0xbe080c13	-0.13285856
32	0xbe4f0a5f	-0.202188
33	0xbe00bd82	-0.12572291
34	0xbd9cb330	-0.07651365
35	0x3d0a617b	0.03378437
36	0x3e2263e2	0.15858415
37	0xbc27993f	-0.010229408
38	0xbdb78db5	-0.08962575
39	0x3e317380	0.17329216
40	0xbc11d417	-0.008900664
41	0xbd82e550	-0.06391394
42	0x3dd4365a	0.10361929
43	0x3d3059cf	0.0430544
44	0xbba5193f	-0.00503841
45	0x3db4aaff	0.088216774
46	0xbe03e988	-0.12882054
47	0xbce7d74a	-0.0283009
48	0x3d63fd18	0.05566129
49	0xbd9d3e80	-0.076779366
50	0x3ddda91b	0.1082327
51	0xbec5e69a	-0.38652498
52	0x3e66839c	0.22511142
53	0xbd847d71	-0.064692385
54	0xbe232a88	-0.15934193
55	0x3c1a4905	0.009416823
56	0xbd6b3055	-0.05741914
57	0xbd32fee4	-0.043700114
58	0xbcbce072	-0.023056243
59	0x3de0e339	0.10980839
60	0xbca53263	-0.020165628
61	0xbe13649a	-0.14393845
62	0x3c4acc56	0.012377819
63	0x3cd6e5e5	0.02623267
64	0xbd91ce91	-0.071194775
65	0xbdf66d9f	-0.12032627
66	0x3bf8dc9d	0.0075946585
67	0xbe1f20e6	-0.15539894
68	0x3b935f8a	0.004497473
69	0xbe338cd2	-0.17534187
70	0xbe3fcbfa	-0.18730155
71	0x3de3a2b3	0.11115017
72	0x3de8b027	0.113617234
73	0x3e3a81de	0.18213603
74	0xbe3a8e43	-0.18218331
75	0x3c899f09	0.016799467
76	0xbe53e416	-0.20692477
77	0xbd04f755	-0.032462437
78	0xbd9103c9	-0.070808
79	0x3d321c13	0.043483805
80	0xbc9c727a	-0.019097555
81	0xbd3fad88	-0.04679635
82	0x3d630e94	0.055433825
83	0x3e0f2bb7	0.1398152
84	0xbe2c3912	-0.16818646
85	0x3dc32ed6	0.095304176
86	0x3d78dc0b	0.060756724
87	0xbd83eba5	-0.0644143
88	0x3d648bc9	0.055797372
89	0x3e3824a5	0.17982729
90	0x3e7cc529	0.24684586
91	0xbd96601f	-0.073425524
92	0xbd76df8d	-0.06027179
93	0xbd10e9a3	-0.035379063
94	0xbe06f052	-0.13177612
95	0x3d3656ee	0.044516496
96	0x3e48ba3c	0.19602293
97	0xbd80b46a	-0.06284411
98	0x3d84dc6b	0.06487354
99	0x3ddcf027	0.10787993
100	0x3d307e1a	0.04308901
101	0xbcf4ebcc	-0.029897593
102	0xbe0058bf	-0.12533854
103	0x3c323243	0.010876241
104	0xbe04ccc3	-0.12968735
105	0xbd8538cc	-0.06504974
106	0x3ddf980a	0.10917671
107	0xbe187579	-0.14888562
108	0x3d8209bb	0.06349512
109	0x3d6b2c1f	0.057415124
110	0x3d6b95aa	0.057515778
111	0x3d4f3ef5	0.05059715
112	0xbd59cebe	-0.05317568
113	0xbd3c3c21	-0.04595578
114	0xbbcbe4b7	-0.0062223333
115	0x3d3c4557	0.045964565
116	0x3c9a55bf	0.018839715
117	0xbd4cde22	-0.05001653
118	0xbcd41dde	-0.025893148
119	0x3d740fb2	0.05958528
120	0x3cc4728d	0.023980403
121	0xbd0658f2	-0.03279967
122	0xbd0bf8d4	-0.034172848
123	0x3d9f13fb	0.07767483
124	0xbe2a33be	-0.166213
125	0xbc02c1b9	-0.007980757
126	0xbd54343d	-0.05180763
127	0x3daa215b	0.08307143
128	0x3d0cdd7d	0.034390915
129	0x3d88076d	0.06642041
130	0xbd166a9a	-0.036722757
131	0x3e181225	0.14850672
132	0xbdecfc62	-0.11571576
133	0x3c6151b2	0.013752388
134	0xbe50736e	-0.20356533
135	0xbd484f7a	-0.04890392
136	0x3d88ced4	0.06680074
137	0xbe07c8c8	-0.13260186
138	0x3ba511ac	0.005037507
139	0xbca57565	-0.02019758
140	0x3db01414	0.085975796
141	0xbe1bd680	-0.15218544
142	0xbe5a4ff2	-0.21319559
143	0xbe008112	-0.12549236
144	0xbd8c248e	-0.0684291
145	0x3dc24d14	0.09487358
146	0x3da6e40d	0.08148966
147	0x3d0630be	0.032761328
148	0xbcb2d3f9	-0.021829592
149	0xbe086357	-0.13319145
150	0xbcca0a94	-0.024663247
151	0x38800bb8	6.1056984e-05
152	0xbd73582f	-0.05941027
153	0xbd0734bf	-0.033009287
154	0x3cd758c1	0.026287438
155	0xbdbbf263	-0.09177091
156	0xbb9a42bb	-0.004707662
157	0xbcff8511	-0.03119138
158	0x3ce0af49	0.027427332
159	0x3de6ba13	0.112659596
160	0xbe43977c	-0.19100755
161	0x3e21862f	0.15773843
162	0xbe0c5afb	-0.13706581
163	0xbdad9823	-0.084762834
164	0x3cdf5f0b	0.027267
165	0xbd133de3	-0.03594769
166	0x3d3240f9	0.043518994
167	0xbe094032	-0.13403395
168	0x3e398421	0.1811681
169	0x3d429919	0.047509287
170	0x3cadc1d4	0.021210589
171	0xbd93912b	-0.07205423
172	0xbcff1780	-0.031139135
173	0x3df8b0d7	0.121431045
174	0xbdba4ab5	-0.090962805
175	0xbde5b224	-0.11215618
176	0xbe6e6fd0	-0.2328484
177	0x3e002942	0.12515739
178	0xbdc547ed	-0.096328594
179	0xbcd851eb	-0.026406249
180	0xbbe90411	-0.0071110805
181	0x3e1cc739	0.15310372
182	0x3d0bc5ac	0.03412406
183	0xbe6078e9	-0.21921124
184	0xbd4305ec	-0.04761307
185	0xbe23a1f4	-0.15979749
186	0xbd99cdec	-0.075099796
187	0x3da81249	0.082066126
188	0x3cd11483	0.025522476
189	0xbd902b59	-0.07039518
190	0x3b8bce11	0.0042665084
191	0xbe2ed4bd	-0.1707334
192	0xbe25037b	-0.16114609
193	0x3de4a342	0.111639515
194	0xbd0efb54	-0.034907654
195	0xbd772970	-0.060342252
196	0x3cec99d8	0.028881952
197	0x3e15140a	0.14558426
198	0x3d288ef0	0.04115194
199	0x3cd0e015	0.025497476
200	0xbda1ce73	-0.07900705
201	0x3d87172f	0.06596219
202	0xbe4fa85e	-0.2027907
203	0x3d92c445	0.07166342
204	0x3e7ec0ff	0.2487831
205	0xbbf231bb	-0.0073911822
206	0xbcc82af9	-0.024434553
207	0xbda6b144	-0.081392795
208	0xbda15367	-0.07877236
209	0x3e112cea	0.1417729
210	0xbd09268e	-0.033484034
211	0xbc0d4fa2	-0.008624943
212	0x3e1be529	0.15224136
213	0x3d1a4b2f	0.037669357
214	0xbb529bd1	-0.003213633
215	0x3e18a532	0.14906767
216	0x3d6b2eb9	0.057417605
217	0xbdddb36d	-0.108252384
218	0xbd001d61	-0.031278018
219	0xbcd5f4f8	-0.026117787
220	0xbe015d41	-0.1263323
221	0xbe060d5d	-0.13091035
222	0x3d82a1c1	0.06378508
223	0xbd202acf	-0.039103325
224	0x3e7c218c	0.24622172
225	0xbd481770	-0.048850477
226	0x3e1db7cc	0.15402144
227	0x3d85a077	0.06524747
228	0x3d4d1538	0.050069064
229	0x3d825b7d	0.06365106
230	0x3e449796	0.1919845
231	0xbd60a103	-0.054841053
232	0xbd1ff52a	-0.039052166
233	0x3d4a38d7	0.049370613
234	0x3cbe3ec0	0.02322328
235	0x3e406046	0.18786725
236	0xbdbde8d8	-0.09272927
237	0xbccad139	-0.024757968
238	0x3e224347	0.15845977
239	0xbd229c9d	-0.03970014
240	0x3c83b547	0.01607765
241	0xbde22571	-0.11042298
242	0x3dd19dd9	0.10235185
243	0x3da28d1a	0.07937069
244	0xbdafd08f	-0.08584701
245	0xbe4da574	-0.20082647
246	0xbda4e29f	-0.08051037
247	0xbe0691f9	-0.13141622
248	0xbe0a03ce	-0.13478014
249	0x3c664880	0.014055371
250	0x3df758aa	0.12077458
251	0x3d8a4bdf	0.067527525
252	0xbe291b95	-0.16514428
253	0xbda57db8	-0.080806196
254	0x3dcb5241	0.09927798
255	0xbbd04c28	-0.006356735

l1.bias f4 [100]
0	0xbca4d3e3	-0.020120567
1	0x3cb29d85	0.021803627
2	0x3e1ed02f	0.15509103
3	0x3d860e71	0.06545723
4	0x3dfa9d02	0.12236978
5	0x3c01a9b0	0.007913992
6	0x3e4641e8	0.19361079
7	0xbcea0f9f	-0.028571902
8	0xbd10eb48	-0.03538063
9	0xbd4f9275	-0.05067678
10	0xbd2376a3	-0.039908063
11	0xbdc5dc9f	-0.09661221
12	0xbccea41e	-0.025224742
13	0x3c1ec613	0.009690779
14	0xbd0d0ac5	-0.0344341
15	0x3deb4f96	0.11489789
16	0x3d094e04	0.033521667
17	0x3d200dcc	0.039075658
18	0xbda5ceb4	-0.08096066
19	0xbcd07a3b	-0.025448909
20	0x3e2d48c8	0.16922295
21	0xbcf98a77	-0.030461533
22	0xbcd7bdce	-0.026335623
23	0x3df2fd20	0.11864686
24	0x3c5c321c	0.013439681
25	0x3e1a77b2	0.15084723
26	0xbd2bdcff	-0.041958805
27	0xbdfc061a	-0.12305851
28	0xb98f3eca	-0.00027321867
29	0xbea17e83	-0.31541833
30	0x3d69c0b9	0.05706856
31	0x3dcf5ce3	0.101251386
32	0xbe23ad98	-0.1598419
33	0xbe8037e1	-0.25042632
34	0xbe4c6abb	-0.1996259
35	0xbc29a935	-0.0103552835
36	0x3ca173ac	0.019708477
37	0x3e1ab035	0.1510628
38	0xbbc545ee	-0.006020299
39	0xbd4a225f	-0.049349185
40	0xbe61b9ef	-0.22043584
41	0x3e6bbf74	0.23022252
42	0xbdfd3179	-0.12362952
43	0x3b933c7a	0.0044932934
44	0xbd43d8c8	-0.04781416
45	0xbcb94ab5	-0.02261863
46	0xbbce518d	-0.0062963427
47	0xbcb78a4b	-0.02240481
48	0xbd86c6d5	-0.06580893
49	0xbe2b6e15	-0.16741212
50	0xbc1ae916	-0.009454986
51	0x3e1c8056	0.15283331
52	0x3dd38475	0.103279985
53	0xbe296ca0	-0.16545343
54	0xbbfff6b4	-0.0078113917
55	0xbd251bcc	-0.040309712
56	0xbd0b07bb	-0.03394292
57	0x3d5d71b6	0.05406352
58	0xbcc99c64	-0.024610706
59	0xbd7f7c7f	-0.062374588
60	0xbe0f6c04	-0.14006048
61	0x3d7d5021	0.061843995
62	0xbc9de06f	-0.019272057
63	0x3dd95ce9	0.10613424
64	0x3de73052	0.11288513
65	0xbdf62a41	-0.12019778
66	0x39998fc2	0.00029289542
67	0x3dbc2a6c	0.09187779
68	0xbcff90af	-0.03119692
69	0x3c0d152c	0.008611005
70	0x3dc67b2c	0.09691462
71	0xbd99af1b	-0.07504102
72	0xbe072b75	-0.13200171
73	0x3e3f4004	0.18676764
74	0x3da4fd77	0.08056157
75	0x3d57df7b	0.052703362
76	0xbe289b8b	-0.16465585
77	0xbd5cad26	-0.053876065
78	0xbe5e170a	-0.21688476
79	0xbdc9a8f8	-0.09846681
80	0x3d3352d4	0.043780163
81	0xbe00ddeb	-0.12584655
82	0xbc99fea9	-0.01879819
83	0x3d7e4b05	0.062083263
84	0x3d152cb8	0.0364196
85	0x3c9c0ffc	0.01905059
86	0xbd80298f	-0.06257927
87	0x3c98dd69	0.018660264
88	0xbe0c34c3	-0.13692002
89	0xbc720325	-0.0147712575
90	0x3e0c0643	0.13674264
91	0x3d91e999	0.07124633
92	0xbcae28ba	-0.021259654
93	0x3d0d0c9e	0.03443586
94	0x3e027511	0.1273997
95	0xbd1c0726	-0.038092755
96	0xbc0ca3ff	-0.008584022
97	0xbdbe4cff	-0.092920296
98	0xbe1422b6	-0.14466366
99	0x3a1020e5	0.0005498066

l2.weight f4 [100, 100]
0	0x3df13a01	0.117786415
1	0x3e665493	0.224932
2	0xbd744ee5	-0.059645552
3	0xbdb491cb	-0.0881687
4	0xbd3ea647	-0.046545293
5	0x3da4fe8f	0.08056366
6	0x3c9c528d	0.019082332
7	0x3dfaa860	0.12239146
8	0xbd8a33aa	-0.067481354
9	0xbd8ba4ef	-0.06818568
10	0xbd232062	-0.039825805
11	0xbdebe041	-0.115173824
12	0xbd038e86	-0.032118343
13	0xbc048737	-0.008088878
14	0x3c79bbaf	0.015242501
15	0x3d69192e	0.05690878
16	0xbe79421f	-0.2434163
17	0xbe1805f6	-0.14846024
18	0xbd27e27b	-0.040987473
19	0x3e3808b2	0.17972067
20	0xbd09e353	-0.03366406
21	0x3e0fa483	0.140276
22	0x3e012947	0.12613402
23	0x3d550543	0.05200697
24	0x3bd0aaae	0.006368003
25	0x3cc73960	0.02431935
26	0xbe393a95	-0.18088754
27	0xbe075695	-0.13216622
28	0xbe753796	-0.23946986
29	0xbe0f1227	-0.13971768
30	0x3e1e24e5	0.15443762
31	0xbd9079ef	-0.07054507
32	0x3d958eee	0.07302652
33	0xbcaf6247	-0.021409167
34	0x3d90a047	0.070618205
35	0x3d63f7af	0.05565613
36	0xbe074ae6	-0.13212165
37	0x3be2ef53	0.0069255023
38	0xbe0a6835	-0.13516314
39	0x3da74406	0.08167271
40	0xbda13fe0	-0.07873511
41	0x3e0e4200	0.13892365
42	0xbd0df260	-0.034654975
43	0xbd5f0dd9	-0.054456566
44	0x3e198dac	0.1499545
45	0xbdbf621d	-0.093448855
46	0xbe2729d6	-0.16324553
47	0x3e2f26a2	0.17104581
48	0xbddf1354	-0.108923584
49	0x3d77ffa0	0.060546517
50	0xbd12082b	-0.03565232
51	0xbbeb8899	-0.0071879146
52	0xbc763ca9	-0.015029111
53	0xbd535ec0	-0.051604033
54	0x3e29d3f5	0.16584761
55	0x3d3825f3	0.044958066
56	0xbdbc543d	-0.09195755
57	0xbbd863fe	-0.006603717
58	0xbe0a03be	-0.1347799
59	0xbd8c55f1	-0.068523295
60	0x3cf36efb	0.029716006
61	0x3de3a58b	0.11115559
62	0xbd03faf3	-0.032221746
63	0x3d56c438	0.052433223
64	0x3d9272ee	0.07150827
65	0xbdd5c63b	-0.104382
66	0x3da6a63b	0.08137175
67	0xbe191f06	-0.14953241
68	0x3e030da1	0.12798168
69	0x3dabee87	0.08395105
70	0xbd1ca8a2	-0.03824676
71	0x3dad512b	0.08462747
72	0x3dac87da	0.08424349
73	0x3e03fc56	0.12889227
74	0x3dc9d8c1	0.09855796
75	0x3d2a28ca	0.041542806
76	0x3e64c04e	0.22338983
77	0x3d3e7104	0.0464945
78	0xbd986bfd	-0.07442472
79	0xbc3b126b	-0.011417965
80	0x3e457fa1	0.19286968
81	0xbd6709e3	-0.056405913
82	0xbdaee2b4	-0.08539334
83	0xbd694eaa	-0.056959786
84	0x3d836b74	0.064169794
85	0xbdd83012	-0.10556044
86	0xbb9a9243	-0.004717143
87	0xbdb403ea	-0.08789809
88	0xbde39d1a	-0.11113949
89	0xbd9d3db8	-0.076777875
90	0xbda73da8	-0.08166057
91	0x3d570b38	0.052500933
92	0xbd142d98	-0.036176294
93	0xbdb27929	-0.08714516
94	0xbcb66ed9	-0.022269653
95	0xbca61b38	-0.02027665
96	0xbdb88577	-0.090098314
97	0x3e82a119	0.25513533
98	0x3d0fb5d0	0.0350855
99	0xb98eb6a4	-0.00027220428
100	0xbdf1e887	-0.11811929
101	0x3d103b02	0.035212524
102	0xbe1951af	-0.14972566
103	0x3d45c5e0	0.04828441
104	0x3e447655	0.19185765
105	0xbb5eecbf	-0.0034015623
106	0x3e51994b	0.20468633
107	0xbd124a9a	-0.035715677
108	0x3dcdaa5b	0.10042258
109	0xb89fb387	-7.6151504e-05
110	0x3cfffa1a	0.031247187
111	0x3d8d58f5	0.06901733
112	0xbcc826f2	-0.024432633
113	0xbd254756	-0.040351234
114	0xbe0a0444	-0.1347819
115	0xbdd3002a	-0.10302766
116	0xbbfce7dd	-0.00771807
117	0xbe0c6fab	-0.13714473
118	0x3d839662	0.064251676
119	0x3df1971a	0.117963985
120	0xbd82e71d	-0.063917376
121	0xbd821949	-0.06352479
122	0x3ca5e94a	0.020252842
123	0x3d81825c	0.06323692
124	0x3d41ab01	0.047282223
125	0x3c8d62c8	0.017259017
126	0xbd596c2a	-0.05308167
127	0xbd3ad7b3	-0.045615863
128	0x3dd6407a	0.10461517
129	0xbe024a2b	-0.12723605
130	0xbd58e74f	-0.052954968
131	0x3bff9d30	0.0078007206
132	0x3df7b89a	0.12095757
133	0xbb1c6e1e	-0.0023869346
134	0x3e09258f	0.13393234
135	0x3dee5c08	0.11638647
136	0xbca48ad4	-0.02008573
137	0xbd9dda00	-0.07707596
138	0xbd073df4	-0.033018067
139	0xbccdf516	-0.02514128
140	0x3d63a4ca	0.055577077
141	0xbc4741c6	-0.012161678
142	0x3c12a24e	0.008949829
143	0xbd514680	-0.051092625
144	0xbc170a16	-0.009218713
145	0x3e02ca48	0.12772477
146	0x3d3aa60a	0.045568503
147	0x3dfdfd86	0.124018714
148	0xbd8a7f9c	-0.06762621
149	0x3c8adefd	0.016952032
150	0xbc88afb4	-0.016685344
151	0xbcc1602f	-0.023605434
152	0x3b5b1362	0.00334283
153	0x3e041eb4	0.12902337
154	0x3deea22c	0.116520256
155	0x3d5bc3c6	0.0536535
156	0xbdc4004d	-0.0957037
157	0x3d6a5db9	0.057218287
158	0xbe3ddbee	-0.18540928
159	0xbd798673	-0.060919236
160	0x3d262155	0.04055913
161	0x3dda4b9b	0.10658952
162	0xbc1ccb0b	-0.009569894
163	0x3d346faf	0.044051822
164	0x3d8b587a	0.06803985
165	0xbcf4342c	-0.029810034
166	0x3dca798e	0.09886466
167	0xbc910a15	-0.017705003
168	0x3d25ad23	0.04044832
169	0xbe0cd6f3	-0.13753872
170	0xbca073e0	-0.019586504
171	0x3d3b9c0b	0.04580311
172	0xbdc179bb	-0.09447046
173	0x3c55f3ca	0.013058612
174	0x3d8c41dd	0.068485
175	0x3ce8f581	0.028437378
176	0xbd8d31f0	-0.068942904
177	0x3bca2d7c	0.006169973
178	0xbdfa51a1	-0.12222601
179	0xbe1ac080	-0.15112495
180	0xbe074cd5	-0.13212903
181	0xbe510887	-0.20413409
182	0x3d7bcff6	0.061477624
183	0xbdcf772f	-0.10130154
184	0xbd368db8	-0.044568747
185	0x3d047500	0.032338142
186	0xbe276a50	-0.16349149
187	0xbd592601	-0.05301476
188	0xbd0bd560	-0.034139037
189	0xbd8faeff	-0.070158
190	0x3e2163fd	0.15760799
191	0x3cf9d9bd	0.030499334
192	0xbe08c50c	-0.13356417
193	0x3cb14027	0.021637036
194	0x3db09b34	0.08623353
195	0x3c8af3dd	0.016961986
196	0x3dbee651	0.09321273
197	0xbe06127f	-0.13092993
198	0xbd95fd25	-0.07323674
199	0xbd2e537a	-0.04256008
200	0x3d848fe1	0.06472755
201	0x3d8763c6	0.06610827
202	0x3e0b499c	0.13602298
203	0x3d69ce1a	0.05708132
204	0xbd3b87c6	-0.04578378
205	0x3e3c933a	0.18415537
206	0xbe20102b	-0.15631168
207	0xbd2912dd	-0.041277755
208	0xbcf4fca6	-0.029905628
209	0xbd418908	-0.047249824
210	0x3e3b51ad	0.18292876
211	0x3ddc6398	0.107611835
212	0xbe40bf39	-0.18822946
213	0xbdf58fe7	-0.11990338
214	0x3b6de68a	0.0036300742
215	0xbe841a56	-0.25801343
216	0xbe40cd4a	-0.18828312
217	0xbe311769	-0.17294087
218	0x3d2ac36b	0.04169027
219	0x3d857daf	0.06518113
220	0x3d875bf5	0.06609336
221	0x3cc12bdd	0.023580486
222	0xbe5ef92a	-0.21774736
223	0x3e5e4315	0.21705277
224	0x3c6369be	0.013880191
225	0x3d30b694	0.04314287
226	0x3b22cbc9	0.0024840704
227	0x3d1a1a25	0.03762259
228	0xbd70bb83	-0.058772575
229	0xbe3545f5	-0.17702468
230	0xbe0d9614	-0.13826782
231	0x3bfc14e5	0.0076929205
232	0x3dab4a3b	0.08363768
233	0x3e01942a	0.12654176
234	0xbe43fe1f	-0.19139908
235	0xbcf7cc45	-0.03024877
236	0x3dc82239	0.097721525
237	0x3dc8293b	0.09773489
238	0x3e319116	0.17340502
239	0x3cda0cd1	0.02661744
240	0xbd694b78	-0.05695674
241	0xbe2a4236	-0.1662682
242	0xbccb2e56	-0.024802368
243	0xbdc00209	-0.09375388
244	0xbd993b7e	-0.0748205
245	0x3d31a040	0.043365717
246	0x3c534851	0.01289566
247	0xbcdc12db	-0.02686446
248	0x3d9d048f	0.07666885
249	0x3e4450b4	0.19171411
250	0x3e667d2e	0.2250869
251	0xbe15eb87	-0.14640628
252	0x3ce65008	0.028114334
253	0x3c83e148	0.016098633
254	0xbdd9dd1a	-0.10637875
255	0x3da3788d	0.079819776

l2.bias f4 [100]
0	0x3d146e2d	0.036237884
1	0xbe357995	-0.17722161
2	0x3da4453f	0.0802102
3	0x3ca8d931	0.020611377
4	0xbd84829a	-0.06470223
5	0x3de312ec	0.110875934
6	0x3c6bcc60	0.0143919885
7	0xbe1d8c12	-0.15385464
8	0xbde5bcdd	-0.112176634
9	0xbcffdf07	-0.031234277
10	0x3cea39d4	0.028592028
11	0x3e0bf13d	0.13666244
12	0x3d14ec47	0.036358144
13	0x3ce7cee1	0.02829689
14	0x3dc78338	0.09741825
15	0x3ddd9a3f	0.10820436
16	0xbb2bd120	-0.0026217178
17	0x3ca7899e	0.020451363
18	0x3e8e4a52	0.27791077
19	0x3c4c300e	0.012462629
20	0x3ded58c7	0.115891986
21	0xbd8281d3	-0.06372418
22	0x3d31dcbc	0.0434234
23	0x3d67413e	0.056458704
24	0xbdb67f17	-0.08910959
25	0x3cb144be	0.021639224
26	0xbbb5da21	-0.0055496846
27	0xbdff61cb	-0.124698244
28	0x3d39005d	0.045166362
29	0xbd25e0e4	-0.040497676
30	0xbc5e2414	-0.013558406
31	0xbce071dc	-0.027398042
32	0x3cb4e329	0.022080975
33	0x3b84d48c	0.004053658
34	0xbe2f6da0	-0.17131662
35	0x3d0341b8	0.032045096
36	0x3dcd394e	0.100206956
37	0xbc9f11a2	-0.019417588
38	0x3d358fc4	0.04432656
39	0xbd727962	-0.05919779
40	0xbc605577	-0.013692251
41	0xbd84e06a	-0.06488116
42	0xbd1187b8	-0.035529822
43	0x3cbb309a	0.022850323
44	0xbd0fc999	-0.035104368
45	0xbd01ecc5	-0.03171994
46	0xbca1c098	-0.019745156
47	0xbd9c0ba3	-0.07619407
48	0xbbbc0999	-0.005738449
49	0x3d2871f5	0.041124303
50	0x3ca4a3f4	0.02009771
51	0xbd0a59de	-0.03377711
52	0x3dfcbbf9	0.123405404
53	0x3d421d2a	0.047391094
54	0x3c364031	0.011123703
55	0xbc3f3d2d	-0.0116723
56	0xbd84952d	-0.064737655
57	0x3d7bdd51	0.06149036
58	0xbcd7ce06	-0.026343357
59	0x3dcc8cd2	0.09987797
60	0xbdcf1a63	-0.10112455
61	0xbe66e606	-0.22548684
62	0x3db44bdc	0.088035315
63	0x3e15d642	0.14632514
64	0xbceb84d3	-0.028749859
65	0xbcc73066	-0.02431507
66	0xbc757c1f	-0.014983206
67	0x3d78a25f	0.060701724
68	0x3d2abfaf	0.04168671
69	0xbd1ac1ff	-0.037782665
70	0xbe2ca65e	-0.16860339
71	0x3be9e4cc	0.0071378704
72	0x3d5d58ca	0.054039754
73	0xbc6c8ecf	-0.014438345
74	0x3d0423d2	0.032260723
75	0x3cfc4e05	0.030798921
76	0xbe62484a	-0.22097889
77	0x3dbfe6cc	0.09370193
78	0x3cbdf1f6	0.023186665
79	0x3c2d112a	0.010563174
80	0x3cf396b0	0.02973494
81	0xbba90101	-0.0051575904
82	0x3c16785e	0.009183971
83	0x3e18a98d	0.14908428
84	0xbcb13187	-0.021630062
85	0x3ba3a288	0.0049937405
86	0xbd286aad	-0.04111736
87	0x3ca2fd21	0.019896092
88	0x3c1e9a0c	0.009680282
89	0x3c441d4e	0.011969877
90	0xbe99933d	-0.29995146
91	0x3dc70081	0.09716893
92	0xbc6e18e9	-0.014532306
93	0xbd30d1a5	-0.043168683
94	0xbcdeabd8	-0.02718155
95	0xbc95a957	-0.018269224
96	0xbdbf79d1	-0.093494065
97	0xbd376169	-0.044770632
98	0xbe3e7fcd	-0.1860344
99	0x3d583918	0.052788824

l3.weight f4 [18, 100]
0	0x3dbfd80a	0.09367378
1	0xbd40e531	-0.047093574
2	0xbc847c87	-0.01617266
3	0x3e0fd7ad	0.14047118
4	0xbe450a4e	-0.19242212
5	0x3b20a6df	0.0024513525
6	0xbe14e192	-0.14539173
7	0x3d8b01a2	0.06787421
8	0x3cc69528	0.024241045
9	0xbdb4817f	-0.08813762
10	0x3d6091f6	0.0548267
11	0x3e0414a5	0.128985
12	0x3d8d1a4d	0.06889782
13	0x3d535265	0.05159225
14	0xbe0dde37	-0.138543
15	0x3da13672	0.07871713
16	0x3d9e8195	0.077395596
17	0xbdca4f48	-0.09878403
18	0xbdc98a48	-0.09840828
19	0x3db20547	0.08692413
20	0xbcd6bf50	-0.026214272
21	0xbd1dfd4d	-0.038571645
22	0x3e1df108	0.15423977
23	0xbc8153ee	-0.015787091
24	0xbe882857	-0.26593277
25	0xbdece850	-0.115677476
26	0xbd13223a	-0.035921313
27	0xbe81f973	-0.25385627
28	0x3df17510	0.11789906
29	0x3d9cf032	0.07663001
30	0xbc9a89f8	-0.018864617
31	0xbba4514b	-0.0050145737
32	0x3e9192b0	0.28432226
33	0xbe86536c	-0.2623552
34	0xbdc3ca56	-0.09560077
35	0xbe1212ca	-0.1426498
36	0x3bfdf43e	0.007750063
37	0xbc5185de	-0.012788264
38	0x3e2e75f0	0.17037177
39	0xbcf2a0a3	-0.029617613
40	0xbc0788f8	-0.008272402
41	0x3e1b48cd	0.1516449
42	0x3c07155f	0.008244841
43	0x3df52a5e	0.119709715
44	0xbd916b5f	-0.071005575
45	0xbc2cdb2a	-0.0105503
46	0x3e385701	0.1800194
47	0x3d1a7a5a	0.03771434
48	0x3e194f82	0.14971736
49	0xbe40d753	-0.1883214
50	0x3d0d266b	0.034460466
51	0xbe6b3a8c	-0.22971553
52	0xbe23992c	-0.15976399
53	0xbe0c7847	-0.13717757
54	0xbd8dd3fe	-0.069252
55	0xbe26eb0c	-0.16300601
56	0x3d07943a	0.033100344
57	0xbdc56be6	-0.096397206
58	0xbe06a06f	-0.13147138
59	0xbd65e5d9	-0.056127403
60	0x3e69fc93	0.22850256
61	0x3e31e249	0.17371477
62	0x3d2381ae	0.039918594
63	0x3ba300aa	0.0049744444
64	0x3d899751	0.067183144
65	0xbe64a028	-0.2232672
66	0x3e6f3f59	0.23364009
67	0x3d93f146	0.07223754
68	0xbdc64917	-0.096819095
69	0x3df07548	0.117411196
70	0xbe63751a	-0.2221264
71	0x3d45be26	0.048277043
72	0x3d834e7a	0.064114526
73	0x3df758b7	0.12077468
74	0x3d298019	0.04138193
75	0xbe05369f	-0.13009118
76	0x3e452d11	0.19255473
77	0x3c581512	0.013188617
78	0xbe81c6b4	-0.2534691
79	0xbc480dad	-0.012210292
80	0x3e80dc28	0.25167966
81	0xbe28ded6	-0.16491255
82	0x3d34dc06	0.044155143
83	0xbc4eb773	-0.01261698
84	0xbd9cc9bf	-0.076556675
85	0x3d95983c	0.07304427
86	0xbe7be23f	-0.24598025
87	0xbe062424	-0.13099724
88	0xbe22540e	-0.15852377
89	0xbe6c8230	-0.23096538
90	0x3e748748	0.2387973
91	0x3d8c9181	0.0686369
92	0x3e0e1100	0.13873672
93	0x3de44f10	0.111478925
94	0x3d842400	0.06452179
95	0xbd89d050	-0.067291856
96	0x3ce7ee61	0.02831191
97	0x3d1e4b4f	0.03864604
98	0x3ca5a349	0.020219462
99	0xbe6f8f3b	-0.23394482
100	0x3d818ff9	0.06326289
101	0xbe274b87	-0.16337405
102	0x3dcd122c	0.10013232
103	0x3d816678	0.063183725
104	0x3db3991f	0.0876944
105	0x3be2f0be	0.0069256714
106	0x3defb8eb	0.11705192
107	0xbe77940d	-0.2417757
108	0xbe5cb79f	-0.21554421
109	0x3d9127c3	0.07087662
110	0x3c1e6188	0.009666808
111	0x3dbe0e81	0.0928011
112	0x3dbeeaaf	0.09322106
113	0x3e01f482	0.12690929
114	0x3ebb60b3	0.36597213
115	0x3c3311a8	0.010929503
116	0xbd9b9b9d	-0.0759804
117	0xbd282361	-0.041049365
118	0x3e2b4824	0.16726738
119	0xbde67dac	-0.11254439
120	0x3df828c0	0.121171474
121	0x3d82678f	0.063674085
122	0x3e2605e2	0.16213182
123	0x3ca8a313	0.020585572
124	0xbe81e341	-0.25368693
125	0x3dfff537	0.12497943
126	0xbe125c58	-0.14293039
127	0x3cbc5ec9	0.022994416
128	0xbe21eb7b	-0.15812485
129	0xbd312ec1	-0.04325748
130	0x3e7aa97b	0.24478714
131	0xbd86e13a	-0.06585927
132	0x3e0879d5	0.13327725
133	0x3d905670	0.07047737
134	0x3cc5e0cb	0.024155041
135	0x3dfb4aa9	0.122701
136	0xbc0763e5	-0.008263563
137	0x3c7c30c6	0.015392488
138	0xbd6240fa	-0.055237748
139	0x3dd5a347	0.10431533
140	0xbdb505f7	-0.08839028
141	0xbe42c42b	-0.19020145
142	0xbdbe4681	-0.09290791
143	0x3ea6b54b	0.3256019
144	0x3d37b728	0.044852406
145	0x3ad1e6a7	0.0016014174
146	0xbd620807	-0.055183437
147	0x3cecc252	0.028901253
148	0x3d700f09	0.05860809
149	0xbe333ac8	-0.17502892
150	0x3dd2fee3	0.10302522
151	0xbe041976	-0.12900338
152	0x3eb48606	0.35258502
153	0x3da014ec	0.078164905
154	0x3eb7dd54	0.35911047
155	0x3bb18676	0.0054176403
156	0xbde4ec89	-0.11177928
157	0xbd420d0c	-0.047375724
158	0x3c8c7662	0.017146293
159	0x3e564c97	0.20927654
160	0xbdd990ba	-0.106233075
161	0xbc54d397	-0.0129899
162	0x3e63d03c	0.22247404
163	0xbe23f371	-0.16010834
164	0x3c03bee3	0.008041116
165	0x3d2f6302	0.04281903
166	0xbd126b2f	-0.03574675
167	0xbe5ca194	-0.21546012
168	0x3ea3ea79	0.32014826
169	0xbc6c93d7	-0.014439545
170	0xbe1b36b0	-0.1515758
171	0x3dc6f3b9	0.09714455
172	0x3e563214	0.20917541
173	0xbc3b097b	-0.011415835
174	0x3e1cd422	0.15315297
175	0x3dc7038d	0.09717474
176	0xbe8cd445	-0.275057
177	0xbdc5267e	-0.096264824
178	0x3d2f27c9	0.04276255
179	0x3e2d715f	0.16937779
180	0x3ccb85fa	0.024844158
181	0x3e3b3997	0.18283688
182	0xbe4cb4e4	-0.1999088
183	0x3e611904	0.21982199
184	0x3d52de54	0.05148156
185	0x3d8d5cfe	0.069025025
186	0xbe2c77f0	-0.16842628
187	0x3d26d4d4	0.040730312
188	0x3de03678	0.10947889
189	0xbd614c56	-0.05500444
190	0xbe0c7b77	-0.13718973
191	0x3d230c8e	0.039806895
192	0xbd36842d	-0.044559646
193	0x3d927746	0.07151656
194	0xbdc1b813	-0.094589375
195	0xbe4d4416	-0.20045504
196	0xbd55b65e	-0.052175872
197	0xbe3f9887	-0.18710528
198	0xbe0b94b1	-0.1363094
199	0x3e35edab	0.17766444
200	0xbe0d28d1	-0.13785101
201	0x3dc317c1	0.09526015
202	0x3e2027d1	0.15640189
203	0xbd7aa7dc	-0.06119524
204	0xbdb92a17	-0.09041231
205	0x3e4b3087	0.1984273
206	0xbd6e07bc	-0.058112845
207	0xba83a25a	-0.0010042891
208	0x3e6809f6	0.2266005
209	0xbd211f15	-0.039336283
210	0xbd47131e	-0.048602216
211	0x3c005ffd	0.007835385
212	0x3e13d5fc	0.14437097
213	0xbd8aa033	-0.06768837
214	0xbd3f1b3b	-0.04665683
215	0xbd6a1814	-0.05715187
216	0x3e3b8f27	0.18316327
217	0x3ddc1aeb	0.10747322
218	0x3e3fa4c0	0.18715191
219	0x3c23e7a8	0.010003962
220	0xbd7d4c84	-0.06184055
221	0xbc4a627e	-0.012352584
222	0x3e373130	0.17889857
223	0xbd0cd2fc	-0.034380898
224	0xbd9c8c92	-0.07643999
225	0x3d9160db	0.07098552
226	0x3c8a4498	0.016878411
227	0x3d350b42	0.04420019
228	0xbc88c06d	-0.016693318
229	0xbc254151	-0.010086373
230	0xbd817c2f	-0.06322514
231	0xbdc8872b	-0.09791406
232	0xbe06e933	-0.13174896
233	0xbe5cf534	-0.21577913
234	0x3dde0c79	0.10842223
235	0x3baa0f14	0.0051897857
236	0xbdce3f72	-0.10070695
237	0xbc67ab50	-0.014139965
238	0xbcd65933	-0.02616558
239	0xbe140002	-0.14453128
240	0x3da92804	0.082595855
241	0x3e18a3c6	0.14906225
242	0xbb290951	-0.0025792907
243	0xbe248363	-0.16065745
244	0xbd24cb34	-0.040232852
245	0xbdcbf39e	-0.09958576
246	0xbe3e0abd	-0.18558784
247	0xbdc6ac06	-0.097007796
248	0xbda741ad	-0.081668235
249	0x3d16ae21	0.036787156
250	0xbe1ab6af	-0.15108751
251	0x3d823460	0.06357646
252	0xbd579bcd	-0.052638818
253	0xbe533858	-0.20626962
254	0xbe3251a9	-0.17413963
255	0x3d806fcd	0.06271324

l3.bias f4 [18]
0	0x3e7bda49	0.24594988
1	0xbeede6d0	-0.46465158
2	0xbd1e7d4b	-0.038693707
3	0x3f1aa152	0.60402405
4	0xbdf2e0e9	-0.118593045
5	0xbea5ef03	-0.32408914
6	0x3e261ef1	0.1622274
7	0xbebcda09	-0.36885098
8	0x3e526aa2	0.2054849
9	0x3e8e943b	0.27847466
10	0x3e828518	0.25492167
11	0x3cb5f865	0.02221317
12	0x3e97b678	0.296314
13	0xbecf8912	-0.40534264
14	0x3e9d18ff	0.30683133
15	0x3e5c5d5b	0.21519987
16	0xbd64e00f	-0.05587774
17	0xbba6959d	-0.0050837533
