data/result/g_630.pt (torch, 87406 bytes, 7 tensors)

G_attr_matrix.weight f4 [36, 5]
0	0x3d339d7f	0.04385137
1	0xbcbf4d8c	-0.023352407
2	0xbe8205cb	-0.25395045
3	0x3d07da95	0.03316744
4	0x3c09c96a	0.008409837
5	0xbda834a9	-0.08213169
6	0x3d2b1224	0.041765347
7	0x3de71afc	0.11284444
8	0x3d97979a	0.074019626
9	0xbc6872f0	-0.0141875595
10	0xbce07a61	-0.027402105
11	0x3c910def	0.01770684
12	0x3ccb754c	0.024836205
13	0x3ce1635a	0.027513195
14	0x3ba1079c	0.004914237
15	0xbd70e990	-0.058816493
16	0xbdafa11b	-0.0857565
17	0xbdd04e19	-0.10171146
18	0xbd876d9a	-0.06612702
19	0xbbdaeab6	-0.0066808118
20	0x3b207abd	0.002448722
21	0xbda56c38	-0.08077282
22	0x3b928acb	0.004472112
23	0xbbfcb8e8	-0.007712472
24	0xbb0a9546	-0.0021146103
25	0x3de7dfe0	0.11321998
26	0xbbae5200	-0.0053198338
27	0xbd478e72	-0.04871983
28	0x3e73a087	0.23791705
29	0xbde02354	-0.10944238
30	0xbc9bc3e1	-0.0190143
31	0xbc21a1f4	-0.009865273
32	0xbc8e806f	-0.017395226
33	0xbc817cf2	-0.015806649
34	0x3e09f9f4	0.13474256
35	0x3e4edd41	0.20201589
36	0x3e0331e5	0.12812002
37	0x3e553302	0.20820239
38	0x3e10b81b	0.1413273
39	0x3d613da0	0.05499041
40	0xb890e214	-6.9085654e-05
41	0x3c05bd86	0.008162862
42	0xba95110e	-0.001137288
43	0xbd2b9608	-0.041891128
44	0xbe045044	-0.12921244
45	0xbc3c6581	-0.01149881
46	0xbc028c60	-0.007968038
47	0xbc00735b	-0.007840003
48	0x3d5fb60e	0.05461698
49	0x3e3c972a	0.1841704
50	0x3e586b8f	0.2113478
51	0x3c8282f2	0.01593158
52	0x3c9a19bc	0.0188111
53	0xbd6ba630	-0.057531536
54	0xbc83facd	-0.016110802
55	0xbcb142e9	-0.02163835
56	0xbe198bb7	-0.14994703
57	0xbe65aaa6	-0.22428378
58	0x3d8cc9fa	0.068744615
59	0x3e29e2dc	0.16590446
60	0xbb85ffce	-0.004089332
61	0x3da99f53	0.08282342
62	0xbb91eafd	-0.0044530616
63	0x3bb4a4b3	0.0055127977
64	0x3c84e05a	0.01622026
65	0xbec44c47	-0.38339445
66	0xbd0e2ff7	-0.03471371
67	0x3da76c66	0.08174972
68	0xbddef276	-0.108860895
69	0xbe2d892b	-0.16946857
70	0xbcd2e5e6	-0.02574439
71	0xbcdd7dc9	-0.027037518
72	0x3d9ff553	0.07810464
73	0x3c27b228	0.010235347
74	0x3d1b1e75	0.037870843
75	0xbe244051	-0.1604016
76	0x3dcd2166	0.10016136
77	0xbe330dd1	-0.1748574
78	0x3dbc1328	0.09183341
79	0xbe059b1a	-0.13047448
80	0x3e15613a	0.1458787
81	0xbc81ad66	-0.015829753
82	0xbd3d6109	-0.046235118
83	0x3dfbbb7d	0.1229162
84	0xbd8dff6a	-0.06933482
85	0x3d470be1	0.048595313
86	0x3e96bac4	0.29439366
87	0x3ed95f10	0.4245534
88	0x3e034117	0.12817799
89	0x3d803716	0.06260507
90	0x3a41dbf3	0.0007395141
91	0xbe608248	-0.21924698
92	0x3bafc255	0.0053637424
93	0x3d46a814	0.048500136
94	0xbd39a14b	-0.045319837
95	0xbd5aa473	-0.053379487
96	0x3dffcb14	0.12489906
97	0xbe69deb8	-0.22838867
98	0x3d630372	0.055423208
99	0x3dfbeedc	0.12301418
100	0xbe3025ef	-0.1720197
101	0xbbf68423	-0.007523076
102	0x3c6c6b32	0.014429854
103	0xbc8adf25	-0.016952107
104	0xb8efdc96	-0.000114374954
105	0xbe4590e7	-0.19293557
106	0x3d827796	0.063704655
107	0xbe084b1e	-0.13309905
108	0x3e120def	0.14263128
109	0x3d991045	0.07473806
110	0xba2cb8ac	-0.00065887976
111	0xbc041b3c	-0.008063134
112	0xbc1c3115	-0.009533186
113	0x3c40a045	0.011756961
114	0xbbba70cd	-0.0056897164
115	0x3dd544a0	0.1041348
116	0x3e76811e	0.24072692
117	0x3e4394cd	0.19099732
118	0xbe424baf	-0.18974183
119	0xbcb2121a	-0.021737147
120	0x3ed2e65f	0.41191384
121	0x3c113241	0.008862079
122	0x3b8bc8c4	0.0042658765
123	0xbe360b20	-0.17777681
124	0xbc9d672d	-0.019214237
125	0x3e43706b	0.19085853
126	0xbe76246e	-0.24037334
127	0xbd0e0d9f	-0.03468096
128	0xbe1079c1	-0.14108945
129	0x3df95bdb	0.12175723
130	0x3c43c405	0.01194859
131	0x3d5e4385	0.05426361
132	0xbcd27c4e	-0.025694039
133	0x3d5d16e9	0.053976927
134	0xbd202215	-0.039095003
135	0xbe4622e2	-0.19349244
136	0xbe94a8e5	-0.29035106
137	0x3e22707b	0.1586322
138	0x3e2d5bc5	0.16929539
139	0x3e682e02	0.226738
140	0xbccd92a8	-0.025094345
141	0x3bb21995	0.0054351785
142	0x3c35c1fe	0.011093615
143	0xba5a10e6	-0.0008318558
144	0xbcfd3d3a	-0.030912984
145	0x3d98a027	0.07452422
146	0xbccaa38a	-0.024736185
147	0xbc6706ca	-0.01410074
148	0xbbe5c7d7	-0.007012348
149	0x3e199d1b	0.15001337
150	0xbc11d6d6	-0.008901319
151	0x3c893efb	0.016753664
152	0x3c94891c	0.018131785
153	0xbd189e16	-0.037260137
154	0xbd50e021	-0.050994996
155	0x3d1f8bad	0.038951565
156	0xbd869a80	-0.06572437
157	0xbd558d7e	-0.05213689
158	0x3e35c56a	0.17751089
159	0x3e81d1c5	0.25355354
160	0xbc1387e5	-0.009004568
161	0xbbde5781	-0.0067853336
162	0x3c6a29ac	0.014292162
163	0x3b1438d7	0.0022616887
164	0xbc498dbd	-0.012301859
165	0x3e0380fa	0.1284217
166	0x3e156c7c	0.14592165
167	0xbeba44ac	-0.36380517
168	0x3d08e467	0.033420946
169	0x3e1b7202	0.1518021
170	0x3be3d407	0.006952766
171	0xbbf08546	-0.007340106
172	0x3dd33712	0.10313238
173	0x3e7fa372	0.24964693
174	0x3de8eb19	0.11372966
175	0x3c99180e	0.018688228
176	0x3e8e9028	0.27844357
177	0xbe027de3	-0.12743334
178	0xbe482a05	-0.19547279
179	0x3dfd5b2a	0.12370904

l1.weight f4 [100, 90]
0	0x3e455206	0.1926957
1	0xbc65693f	-0.014002143
2	0x3d97a009	0.07403571
3	0x3ddedefd	0.108823754
4	0x3dce52eb	0.10074409
5	0x3d3cc266	0.04608383
6	0x3de0e0cf	0.10980379
7	0x3d5c1ec9	0.053740297
8	0xbe5aacfb	-0.2135505
9	0xbdd46200	-0.103702545
10	0x3dbe80da	0.0930192
11	0xbe54d5cc	-0.20784682
12	0xbddeffe8	-0.10888654
13	0x3dbfe7a6	0.09370355
14	0xbd6214cd	-0.05519562
15	0x3d94535f	0.07242464
16	0x3cbfd0ee	0.023415055
17	0xbd9ca230	-0.07648122
18	0xbd83daf8	-0.06438249
19	0x3dddfd60	0.10839343
20	0x3db97abd	0.090566136
21	0x3cdb48b4	0.026768066
22	0x3db1d564	0.08683279
23	0xbddcb227	-0.10776167
24	0x3c8d0f97	0.017219348
25	0x3d90a7b4	0.07063237
26	0x3e34f99e	0.17673346
27	0x3d921a6e	0.07133947
28	0x3e1708cd	0.14749451
29	0x3c409010	0.011753097
30	0x3d8b3e9b	0.067990504
31	0xbe0756fa	-0.13216773
32	0xbe3fb0f9	-0.18719853
33	0xbde55ecb	-0.11199721
34	0xbd981703	-0.07426264
35	0x3d05f9cd	0.03270893
36	0x3e244f73	0.16045932
37	0xbc5a6235	-0.013329078
38	0xbdb33944	-0.08751157
39	0x3e2ee6b0	0.17080188
40	0xbc04322d	-0.008068603
41	0xbd7dcc7d	-0.061962593
42	0x3dd04a0b	0.101703726
43	0x3d3569d4	0.04429038
44	0xbbbd5867	-0.0057783606
45	0x3d93a136	0.07208483
46	0xbe04b46e	-0.12959453
47	0xbd2692a5	-0.040667195
48	0x3d69850d	0.057011653
49	0xbd9e1a86	-0.07719903
50	0x3ddbbff6	0.10729973
51	0xbec40c4c	-0.38290632
52	0x3e63656d	0.2220666
53	0xbd6e0ade	-0.058115833
54	0xbe24ae9e	-0.16082236
55	0x3c8fa671	0.01753542
56	0xbdadc226	-0.084842965
57	0xbd619e68	-0.05508271
58	0xbc366afb	-0.011133905
59	0x3dbf0c92	0.093285695
60	0xbc9e7dab	-0.019347033
61	0xbe1731d9	-0.14765109
62	0x3d111ce7	0.035427954
63	0x3cd1d6ca	0.025615115
64	0xbd951b52	-0.072806016
65	0xbdf70765	-0.12061957
66	0x3c06929b	0.008213664
67	0xbe21af15	-0.15789445
68	0x3bc75e41	0.006084234
69	0xbe39dc1f	-0.18150376
70	0xbe463cd9	-0.19359149
71	0x3de2f723	0.11082294
72	0x3e09d926	0.13461742
73	0x3e34e88d	0.17666836
74	0xbe3e6ebe	-0.18596932
75	0x3c4e76c2	0.012601556
76	0xbe4bc285	-0.19898422
77	0xbd1aa655	-0.037756283
78	0xbd94e633	-0.072704695
79	0x3d13886d	0.036018778
80	0xbd1b0d24	-0.03785433
81	0xbd41eb90	-0.04734379
82	0x3d6f79fc	0.058465943
83	0x3e050d91	0.12993456
84	0xbe29ee88	-0.16594899
85	0x3e092a9e	0.13395163
86	0x3d7ec681	0.062201027
87	0xbd811bd5	-0.06304137
88	0x3d688ce0	0.056774974
89	0x3e390c50	0.18071103
90	0x3e7ba232	0.24573591
91	0xbd9ad5d9	-0.075603195
92	0xbd80bac8	-0.06285626
93	0xbd046d97	-0.032331076
94	0xbde6dd77	-0.1127271
95	0x3d2db1c3	0.042405855
96	0x3e4c4b3e	0.19950578
97	0xbd80b15e	-0.0628383
98	0x3d8f27a7	0.06989985
99	0x3dc49652	0.09598984
100	0x3d88bccb	0.066766344
101	0xbd0862a2	-0.03329719
102	0xbe0b447d	-0.13600345
103	0x3cce050d	0.025148893
104	0xbe0821b9	-0.13294114
105	0xbd9cd3de	-0.07657598
106	0x3dcdc2b4	0.10046902
107	0xbe1d980c	-0.15390033
108	0x3d0cc898	0.03437099
109	0x3d7991f0	0.060930192
110	0x3d1877b4	0.037223533
111	0x3d50e4a8	0.050999314
112	0xbd1794ba	-0.03700707
113	0xbd313ca3	-0.04327072
114	0xbb82dba3	-0.003993468
115	0x3d4a907a	0.04945419
116	0x3d3390ae	0.04383915
117	0xbd62ef15	-0.055403788
118	0xbcf3b2ae	-0.029748287
119	0x3d3b6e24	0.045759335
120	0xbc1eabb2	-0.00968449
121	0xbcf52a0f	-0.029927282
122	0xbc272f66	-0.010204172
123	0x3d796898	0.060890764
124	0xbe27e5c8	-0.16396248
125	0xbc372420	-0.011178046
126	0xbd466430	-0.04843539
127	0x3d9d4869	0.07679827
128	0x3d1e056a	0.038579382
129	0x3d793e25	0.06085028
130	0xbd0a34cd	-0.03374176
131	0x3e153262	0.14570001
132	0xbdf6c79c	-0.12049791
133	0x3c8bae93	0.017051017
134	0xbe5343b3	-0.20631294
135	0xbd6d5421	-0.05794156
136	0x3d82b5be	0.06382321
137	0xbe052d40	-0.13005543
138	0x3c142b46	0.00904352
139	0xbcbba4d4	-0.022905745
140	0x3daa4452	0.08313812
141	0xbe1dfec2	-0.15429214
142	0xbe57c21a	-0.21070138
143	0xbe01abf4	-0.12663251
144	0xbd958f49	-0.0730272
145	0x3ded14ae	0.1157621
146	0x3d4ad8ef	0.04952329
147	0x3d10c753	0.03534634
148	0xbbce5228	-0.006296415
149	0xbe0d5098	-0.13800275
150	0xbcb12d2b	-0.021627983
151	0x3b7d52be	0.0038654055
152	0xbca37075	-0.019951085
153	0xbd123cd5	-0.035702545
154	0x3c7847fb	0.01515388
155	0xbdcd1fd7	-0.100158386
156	0xbc23b689	-0.00999225
157	0xbcf73908	-0.030178562
158	0x3d0493c8	0.032367498
159	0x3dea8cb8	0.11452621
160	0xbe47fd77	-0.19530283
161	0x3e19e701	0.15029527
162	0xbdff8f03	-0.12478449
163	0xbdaafc68	-0.08348924
164	0x3cff2051	0.03114334
165	0xbd3d36c4	-0.046194807
166	0x3d5a04a6	0.05322709
167	0xbe0047ae	-0.12527344
168	0x3e38bb48	0.18040192
169	0x3d1d98c1	0.038475756
170	0x3bf36d2d	0.0074287863
171	0xbd92bd87	-0.07165056
172	0xbcd20f7f	-0.025642155
173	0x3de4cc24	0.11171749
174	0xbdb926b2	-0.09040584
175	0xbd8735af	-0.06602036
176	0xbe7195ea	-0.23592344
177	0x3e043458	0.12910593
178	0xbdbe6f65	-0.092985906
179	0xbcbddd38	-0.023176774
180	0xbb5126fc	-0.0031914106
181	0x3e1c0013	0.15234403
182	0x3cea763d	0.028620834
183	0xbe5a343c	-0.21308988
184	0xbd4657a6	-0.04842343
185	0xbe2906ab	-0.1650645
186	0xbd9f1f7d	-0.07769678
187	0x3d9bf8d3	0.07615819
188	0x3d04a55b	0.032384258
189	0xbd5c1690	-0.053732455
190	0x3b3d884e	0.0028920355
191	0xbe34c944	-0.17654902
192	0xbe1d900e	-0.15386984
193	0x3dfb9859	0.122849174
194	0xbd4a717d	-0.049424637
195	0xbd85c8e7	-0.0653246
196	0x3cca3fbc	0.024688594
197	0x3e0d836a	0.13819662
198	0x3cfbf33b	0.03075563
199	0x3d02fffc	0.031982407
200	0xbdab747b	-0.08371826
201	0x3d8eab7e	0.06966303
202	0xbe54b2b4	-0.20771295
203	0x3d797ca3	0.06090988
204	0x3e773b5d	0.24143739
205	0xba79b35c	-0.0009525323
206	0xbc42fc6a	-0.0119010005
207	0xbda65277	-0.08121198
208	0xbdad0a13	-0.08449187
209	0x3e0d8622	0.13820699
210	0xbd29385e	-0.04131352
211	0xbb2b430d	-0.0026132495
212	0x3e198c50	0.14994931
213	0x3d461c43	0.048366796
214	0x3a98224a	0.0011606899
215	0x3e120f91	0.1426375
216	0x3d838637	0.06422084
217	0xbde97f37	-0.114012174
218	0xbcce9988	-0.025219694
219	0xbd03492b	-0.0320522
220	0xbdf5a36f	-0.11994063
221	0xbe11375f	-0.14181279
222	0x3d6010c7	0.0547035
223	0xbd077d52	-0.0330785
224	0x3e752a2d	0.2394187
225	0xbd57f30c	-0.052722022
226	0x3e1705fa	0.14748374
227	0x3d743790	0.0596233
228	0x3d673340	0.05644536
229	0x3d69263c	0.05692123
230	0x3e3e126c	0.18561715
231	0xbd5cd63f	-0.05391526
232	0xbd146aed	-0.036234785
233	0x3d48bc6d	0.04900782
234	0x3c81299a	0.015766907
235	0x3e341b95	0.17588647
236	0xbdc12a35	-0.094318785
237	0xbd191b6e	-0.037379675
238	0x3e27175e	0.16317508
239	0xbd6debab	-0.05808608
240	0x3cb6d23e	0.022317048
241	0xbdf075c7	-0.11741214
242	0x3dc94663	0.09827878
243	0x3d958515	0.07300774
244	0xbdb36050	-0.087586045
245	0xbe4d383d	-0.20040984
246	0xbd829730	-0.06376493
247	0xbe0e3e11	-0.13890864
248	0xbe04b465	-0.1295944
249	0xbb98711f	-0.004652157
250	0x3dedd89c	0.116135806
251	0x3d487ece	0.048949055
252	0xbe241158	-0.16022241
253	0xbdb7e035	-0.08978311
254	0x3dd7156f	0.10502135
255	0xbc030d88	-0.007998832

l1.bias f4 [100]
0	0xbc9d5763	-0.019206708
1	0x3ccb2542	0.02479804
2	0x3e2552d5	0.16144879
3	0x3d8bd025	0.0682681
4	0x3dfecc24	0.124412805
5	0x3c09c5e0	0.0084089935
6	0x3e3fb375	0.18720801
7	0xbd06022a	-0.032716908
8	0xbd211073	-0.039322328
9	0xbd67c2f6	-0.056582414
10	0xbd0ae317	-0.033907976
11	0xbdc6f908	-0.09715468
12	0xbccd37c6	-0.025051009
13	0xba359fc6	-0.000692841
14	0xbce14ad1	-0.027501496
15	0x3de53c9f	0.11193203
16	0x3d1dfdb8	0.038572043
17	0x3d2343b7	0.0398595
18	0xbda62abf	-0.08113622
19	0xbcd86c5b	-0.026418855
20	0x3e2a460d	0.16628285
21	0xbcec1c77	-0.028822167
22	0xbcd7fae2	-0.026364747
23	0x3df5ed7a	0.12008186
24	0x3c841a46	0.01612581
25	0x3e1ddb83	0.15415768
26	0xbd2b6fe2	-0.041854747
27	0xbdeaca0f	-0.11464321
28	0x3a8d5e25	0.0010785504
29	0xbe9f82c5	-0.31154457
30	0x3d42f4c6	0.047596715
31	0x3dc3d074	0.09561244
32	0xbe22b50f	-0.15889381
33	0xbe7c4ccb	-0.24638669
34	0xbe4ae081	-0.19812204
35	0xbbead18b	-0.0071660927
36	0x3ca9a92b	0.020710548
37	0x3e16aab4	0.14713556
38	0x3b5343b5	0.0032236401
39	0xbd2da8aa	-0.04239718
40	0xbe63132d	-0.22175284
41	0x3e62e7ca	0.22158733
42	0xbe02f52c	-0.12788838
43	0x3b2d055c	0.00264009
44	0xbd69da7d	-0.057093132
45	0xbcb3a65d	-0.021929914
46	0xbbb2c345	-0.005455407
47	0xbce44cb1	-0.0278686
48	0xbd8208cb	-0.063493334
49	0xbe356761	-0.17715217
50	0xbaa2f086	-0.0012431301
51	0x3e1c5dec	0.15270203
52	0x3de3dc8f	0.111260526
53	0xbe2bcb56	-0.16776785
54	0xbc6fd754	-0.014638741
55	0xbd2612a7	-0.040545132
56	0xbd1c02fe	-0.03808879
57	0x3d557e8c	0.052122638
58	0xbc8ecc81	-0.0174315
59	0xbd82f4d8	-0.063943565
60	0xbe10cdaf	-0.14140962
61	0x3d78557b	0.060628396
62	0xbcbbfb92	-0.022947107
63	0x3de273bc	0.11057231
64	0x3de2aa8b	0.11067685
65	0xbdf7a006	-0.12091069
66	0x3a3b7727	0.0007151239
67	0x3dbe7547	0.09299713
68	0xbd08d480	-0.03340578
69	0x3c3d9802	0.011571886
70	0x3dc408bd	0.09571979
71	0xbda1e6bd	-0.07905338
72	0xbe044dfd	-0.12920375
73	0x3e3a591a	0.18198052
74	0x3dabcfbc	0.083892316
75	0x3d48d37d	0.049029816
76	0xbe2d127c	-0.16901582
77	0xbd690587	-0.056890037
78	0xbe5b3789	-0.21407904
79	0xbdca5e56	-0.098812744
80	0x3d0bda08	0.034143478
81	0xbdf13043	-0.11776783
82	0xbca66437	-0.020311458
83	0x3d85a53d	0.06525657
84	0x3d1147dc	0.03546892
85	0x3cbddf30	0.023177713
86	0xbd8007bf	-0.062514775
87	0x3c8554af	0.016275732
88	0xbe058d11	-0.13042094
89	0xbcb8b11a	-0.022545386
90	0x3e08f2aa	0.13373819
91	0x3d916763	0.070997976
92	0xbcb8bbd2	-0.022550497
93	0x3d254c3f	0.040355917
94	0x3e029c9b	0.12755053
95	0xbd046671	-0.03232426
96	0xbc005d88	-0.0078348
97	0xbdc002df	-0.093755476
98	0xbe1be29d	-0.15223165
99	0x3bf8ed81	0.007596672

l2.weight f4 [100, 100]
0	0x3e09e3f7	0.13465868
1	0x3e6c85cf	0.23097919
2	0xbd586f2d	-0.0528404
3	0xbdaa1594	-0.08304897
4	0xbd3fde9d	-0.04684316
5	0x3d848662	0.06470944
6	0x3a853cfe	0.0010165272
7	0x3df46ebe	0.11935185
8	0xbd7080a8	-0.058716446
9	0xbda0c794	-0.078505665
10	0xbcc66bcc	-0.024221323
11	0xbdd1dcbe	-0.10247181
12	0xbc74595d	-0.014913884
13	0xbc834e8e	-0.016028669
14	0x3d08ff47	0.033446576
15	0x3d6b97a6	0.05751767
16	0xbe6a4d6d	-0.22881098
17	0xbe043628	-0.12911284
18	0xbd243987	-0.040093925
19	0x3e3287e8	0.17434657
20	0xbd557533	-0.052113723
21	0x3e18bb72	0.14915255
22	0x3dfed983	0.12443831
23	0x3d45ac11	0.0482598
24	0x3b9c3164	0.00476663
25	0x3cea7d04	0.028624065
26	0xbe33f418	-0.17573583
27	0xbe0fcbae	-0.14042541
28	0xbe7bca78	-0.24588954
29	0xbe05bbfb	-0.1305999
30	0x3e1b90ed	0.15192004
31	0xbda39092	-0.07986559
32	0x3d935d5e	0.07195543
33	0xbbdbdf22	-0.006709949
34	0x3db656f0	0.08903301
35	0x3d6b4421	0.05743802
36	0xbe01c902	-0.12674335
37	0x3b3dacef	0.0028942188
38	0xbe03e058	-0.12878549
39	0x3da7480e	0.0816804
40	0xbd8f3b08	-0.06993681
41	0x3e05d8d3	0.13070993
42	0xbcc78308	-0.024354473
43	0xbd6c70a3	-0.057724606
44	0x3e1430a1	0.14471675
45	0xbdc77dff	-0.09740829
46	0xbe278872	-0.16360644
47	0x3e2d9bd5	0.16953976
48	0xbdf58eaf	-0.11990105
49	0x3d84c565	0.064829625
50	0xbd322db1	-0.043500606
51	0xbc0f7e9e	-0.008758215
52	0x3ae7fc86	0.0017699159
53	0xbd48c474	-0.049015477
54	0x3e2cbbb1	0.16868474
55	0x3d4c9646	0.049948
56	0xbdafb3e4	-0.08579233
57	0xbab5a31f	-0.0013857818
58	0xbe1172f0	-0.14204001
59	0xbdb07d3c	-0.086176366
60	0x3cd7677e	0.026294466
61	0x3def31b8	0.11679405
62	0xbd623143	-0.05522276
63	0x3d07dcaa	0.033169426
64	0x3d3100eb	0.043213766
65	0xbde2f140	-0.11081171
66	0x3da5a803	0.08088686
67	0xbe216116	-0.15759692
68	0x3e0b3858	0.13595712
69	0x3da958f2	0.08268918
70	0xbd3c1372	-0.045916982
71	0x3dbdc4d7	0.0926606
72	0x3db64201	0.08899308
73	0x3df1237b	0.117743455
74	0x3daeb8d1	0.08531345
75	0x3d166a30	0.036722362
76	0x3e67e822	0.22647145
77	0x3d4a6e7d	0.049421776
78	0xbd86e3e0	-0.065864325
79	0xbaa0480c	-0.0012228503
80	0x3e4180aa	0.18896738
81	0xbce387d4	-0.027774729
82	0xbdad1bf7	-0.084525995
83	0xbd8d0789	-0.06886203
84	0x3d782013	0.060577463
85	0xbde61fac	-0.1123651
86	0x3c90db32	0.017682645
87	0xbdb18b30	-0.08669126
88	0xbdd168d6	-0.10225074
89	0xbd91dad3	-0.071218155
90	0xbdc5b84d	-0.09654293
91	0x3d57b663	0.052664172
92	0xbcf8b926	-0.030361723
93	0xbd9f45c7	-0.07776981
94	0xbcf867f6	-0.03032301
95	0xbca13f29	-0.019683437
96	0xbd9f9d98	-0.077937305
97	0x3e6ff9c1	0.23435117
98	0x3d3c6f18	0.046004385
99	0xbaf272ff	-0.0018497406
100	0xbe02353f	-0.12715624
101	0x3cdebc87	0.027189506
102	0xbe17e84d	-0.1483471
103	0x3d64fa71	0.055902902
104	0x3e38b861	0.18039085
105	0xbba6096a	-0.00506704
106	0x3e5148c4	0.20437914
107	0xbd02098d	-0.03174739
108	0x3dd8b609	0.105815955
109	0x3c0ea9fb	0.008707519
110	0x3d135a4b	0.035974782
111	0x3d766320	0.060153127
112	0xbcde5039	-0.027137863
113	0xbd13dd96	-0.036099993
114	0xbe0b59bc	-0.1360845
115	0xbdd6b9a9	-0.104846306
116	0xbc8c3100	-0.017113209
117	0xbe0a4f7d	-0.13506885
118	0x3d85cc22	0.06533076
119	0x3defe039	0.11712689
120	0xbd830dd0	-0.06399119
121	0xbd807b45	-0.06273512
122	0x3c268ba4	0.010165129
123	0x3d46cad3	0.048533272
124	0x3d61f5db	0.055166107
125	0x3c0a69ea	0.008448103
126	0xbd4f0562	-0.050542243
127	0xbd4c99e3	-0.049951445
128	0x3dd589e4	0.10426691
129	0xbe037d1e	-0.12840697
130	0xbd5fbcf8	-0.054623574
131	0x3c79b995	0.015242
132	0x3df8d2ec	0.12149605
133	0xbb21c73f	-0.002468541
134	0x3dec9ed7	0.11553734
135	0x3dfb42ce	0.12268601
136	0xbcabd7ad	-0.020976866
137	0xbda90a13	-0.08253875
138	0xbd25dd34	-0.04049416
139	0xbcd77890	-0.026302606
140	0x3d6cb7ce	0.057792477
141	0xbc96d04c	-0.01840987
142	0x3be2c3cd	0.006920314
143	0xbd2fa63e	-0.04288315
144	0xbca7062b	-0.020388683
145	0x3e098232	0.13428572
146	0x3d4d51f0	0.05012697
147	0x3dee5d08	0.11638838
148	0xbd6416d1	-0.055685822
149	0x3ca4b8f1	0.020107718
150	0xbc544390	-0.012955561
151	0xbca16418	-0.019701049
152	0xbbaa80ee	-0.005203358
153	0x3e12721d	0.14301343
154	0x3dee19eb	0.11626037
155	0x3d64d55e	0.055867545
156	0xbdc8a5ea	-0.097972706
157	0x3d6170a2	0.055039056
158	0xbe3b92a8	-0.18317664
159	0xbd817d69	-0.06322748
160	0x3d39e2f2	0.045382448
161	0x3ddcf5bc	0.107890576
162	0xbbb20158	-0.005432289
163	0x3d501b81	0.05080748
164	0x3d8ebe24	0.0696986
165	0xbd0678ba	-0.032829978
166	0x3dc7aead	0.09750114
167	0xbc741028	-0.01489643
168	0x3d29b9a0	0.04143679
169	0xbe0b60ae	-0.13611099
170	0xbd008e7d	-0.031385887
171	0x3d2ee922	0.0427028
172	0xbdb89be9	-0.090141125
173	0x38968fd5	7.179348e-05
174	0x3d8eccbb	0.06972643
175	0x3ce79a24	0.028271742
176	0xbd9ccc0b	-0.076561056
177	0x3ba88b20	0.005143538
178	0xbe022a24	-0.12711388
179	0xbe247447	-0.16059981
180	0xbe0ef07f	-0.1395893
181	0xbe52f304	-0.20600516
182	0x3d5bd907	0.05367377
183	0xbdcc331f	-0.09970688
184	0xbd1f2367	-0.03885212
185	0x3d0e0a41	0.034677748
186	0xbe2e2a19	-0.17008246
187	0xbd5b76c2	-0.053580053
188	0xbcf5d664	-0.030009456
189	0xbd8b05ff	-0.06788253
190	0x3e24829d	0.1606545
191	0x3c3eed2a	0.011653224
192	0xbe06ef48	-0.13177216
193	0x3c8e4dd0	0.017371088
194	0x3d9eaa2b	0.07747301
195	0x3cbec9f7	0.023289664
196	0x3dbb11ee	0.09134279
197	0xbe071285	-0.13190658
198	0xbd979352	-0.07401146
199	0xbd142ec5	-0.036177415
200	0x3d9d58f1	0.0768298
201	0x3db50df8	0.08840555
202	0x3e058546	0.13039121
203	0x3d451a21	0.04812062
204	0xbcc71c54	-0.0243055
205	0x3e3271f8	0.17426288
206	0xbe14ea2c	-0.14542454
207	0xbd3e72a9	-0.046496067
208	0xbce9138e	-0.028451707
209	0xbd4b3e2c	-0.04961984
210	0x3e1ff377	0.15620218
211	0x3df0266d	0.11726079
212	0xbe4ae7a7	-0.19814931
213	0xbdf65843	-0.12028553
214	0x3b9cc33a	0.004784015
215	0xbe7ce9b2	-0.24698523
216	0xbe3e6476	-0.1859301
217	0xbe367e67	-0.17821656
218	0x3d07a877	0.033119645
219	0x3d814743	0.0631242
220	0x3d88a243	0.06671574
221	0x3cc654e4	0.0242104
222	0xbe54a9f2	-0.20767954
223	0x3e6e4a53	0.2327054
224	0x3ab1978a	0.001354919
225	0x3d74d276	0.059771024
226	0x3a774465	0.0009432494
227	0x3d381fc0	0.044952154
228	0xbd7f41a6	-0.062318467
229	0xbe3cc796	-0.18435511
230	0xbe0931fa	-0.13397971
231	0x3ce95482	0.02848268
232	0x3db33ec3	0.08752205
233	0x3ddc0fa9	0.107451744
234	0xbe334903	-0.1750832
235	0xbcc60299	-0.02417116
236	0x3daefebf	0.08544683
237	0x3dd893f6	0.10575096
238	0x3e2da9da	0.16959324
239	0x3d05416a	0.032533087
240	0xbd9e5369	-0.07730753
241	0xbe0fd372	-0.14045504
242	0xbd0d2e65	-0.034468073
243	0xbdcd8cb0	-0.100366
244	0xbd792451	-0.06082565
245	0x3d102369	0.03519002
246	0x3af6d360	0.0018831305
247	0xbcd071c1	-0.025444867
248	0x3d82c3ff	0.063850395
249	0x3e33eb00	0.17570114
250	0x3e5dbefc	0.21654886
251	0xbe299e8f	-0.16564392
252	0x3d2e802d	0.042602707
253	0xba7e6dd9	-0.00097056996
254	0xbdd2b865	-0.10289077
255	0x3da36004	0.07977298

l2.bias f4 [100]
0	0x3cfc43be	0.03079402
1	0xbe36874d	-0.1782505
2	0x3da06dd4	0.07833448
3	0x3c8ffca9	0.017576532
4	0xbd823ef0	-0.063596606
5	0x3ddfd85a	0.10929938
6	0x3c3a4d0c	0.0113709085
7	0xbe1ce658	-0.15322244
8	0xbdd8399b	-0.10557862
9	0xbd09faa3	-0.03368629
10	0x3ce5093f	0.02795851
11	0x3e0386b5	0.12844355
12	0x3d0dd92f	0.03463095
13	0x3cde3c37	0.027128322
14	0x3dbee70e	0.09321414
15	0x3dd02c8e	0.10164748
16	0xba6933f4	-0.0008895986
17	0x3c973fde	0.018463071
18	0x3e8dca97	0.27693626
19	0x3c8597d0	0.016307741
20	0x3dde0845	0.10841421
21	0xbd810863	-0.06300428
22	0x3d2548f3	0.040352773
23	0x3d563481	0.052296165
24	0xbdb4108c	-0.087922186
25	0x3ca5d9e2	0.020245496
26	0xba2fa89b	-0.00067008444
27	0xbdfedf8e	-0.124449834
28	0x3d3b760e	0.045766883
29	0xbd2a29fc	-0.041543946
30	0xbc9eb938	-0.019375429
31	0xbcc9ebcb	-0.024648568
32	0x3cb1ca37	0.021702869
33	0x3bc804bc	0.00610408
34	0xbe321c41	-0.1739359
35	0x3cdfe064	0.027328677
36	0x3dc345c8	0.09534794
37	0xbcbf4665	-0.023348996
38	0x3d4367e6	0.047706507
39	0xbd7f727b	-0.062365036
40	0xbc428791	-0.011873142
41	0xbd812ac1	-0.06306983
42	0xbd1a00fe	-0.037598602
43	0x3cc5a8f3	0.024128413
44	0xbd09848e	-0.03357368
45	0xbd01632d	-0.031588722
46	0xbc9e48da	-0.019321848
47	0xbd9d7473	-0.076882266
48	0xbb9062ed	-0.004406324
49	0x3d40084b	0.04688291
50	0x3c9fff3e	0.019530889
51	0xbcf72b8e	-0.030172136
52	0x3dff6005	0.12469486
53	0x3d3143c1	0.043277506
54	0x3c1024c6	0.00879783
55	0xbbf1e1c0	-0.007381648
56	0xbd898cb5	-0.06716291
57	0x3d81c7f1	0.06336964
58	0xbccd34c3	-0.025049573
59	0x3dc66197	0.096865825
60	0xbdc5fdd8	-0.096675575
61	0xbe66e725	-0.22549112
62	0x3da6bec6	0.08141856
63	0x3e143dc0	0.14476681
64	0xbcf1f439	-0.0295354
65	0xbcbde0c0	-0.023178458
66	0xbc82c6ac	-0.015963875
67	0x3d8417a0	0.064498186
68	0x3d043eee	0.032286577
69	0xbd1aa7f0	-0.037757814
70	0xbe2e78a7	-0.17038213
71	0x3bfda59f	0.007740691
72	0x3d4fb1a8	0.050706536
73	0xbc9b9f40	-0.018996835
74	0x3cfde6fa	0.030993927
75	0x3cf4602e	0.029831018
76	0xbe62703e	-0.2211313
77	0x3dab3044	0.08358815
78	0x3ca608dc	0.020267896
79	0x3bd50533	0.006500864
80	0x3ce76ef0	0.028251141
81	0xbba6f881	-0.005095542
82	0x3c2e538a	0.010640034
83	0x3e181ce4	0.14854771
84	0xbca825b3	-0.020525789
85	0x3ba2142c	0.0049462523
86	0xbd0963d4	-0.03354247
87	0x3c863c3a	0.01638614
88	0x3bff220e	0.007786042
89	0x3c13b334	0.009014893
90	0xbe99a3e2	-0.30007845
91	0x3dc48883	0.0959635
92	0xbbda1cf8	-0.0066562854
93	0xbd2a8110	-0.04162699
94	0xbcd82354	-0.026384033
95	0xbc62cdcd	-0.013843012
96	0xbdbadaf9	-0.09123797
97	0xbd27328a	-0.040819682
98	0xbe3e01cf	-0.18555377
99	0x3d56f418	0.05247888

l3.weight f4 [18, 100]
0	0x3dc586ce	0.096448526
1	0xbd4078b0	-0.046990097
2	0xbc97fea7	-0.018554045
3	0x3e10c2cb	0.14136808
4	0xbe4a83d2	-0.19776848
5	0xba4a90fa	-0.00077272917
6	0xbe0dfec5	-0.13866718
7	0x3d8d6eb7	0.06905883
8	0x3ca8d478	0.020609125
9	0xbdb5a9f0	-0.08870304
10	0x3d66273d	0.056189764
11	0x3e000bd2	0.12504509
12	0x3d93d5f7	0.07218545
13	0x3d5461fd	0.05185126
14	0xbe0e636e	-0.13905117
15	0x3da000e8	0.07812673
16	0x3d98b44f	0.07456266
17	0xbdd0e68d	-0.10200224
18	0xbdcab79e	-0.098983034
19	0x3db05cad	0.086114265
20	0xbcdc0dae	-0.026861992
21	0xbd17c27c	-0.03705071
22	0x3e1ef76a	0.15524068
23	0xbc5e1c6d	-0.013556582
24	0xbe878583	-0.2646905
25	0xbdefc67d	-0.117077805
26	0xbd11e538	-0.03561899
27	0xbe822dde	-0.2542562
28	0x3df440a4	0.11926392
29	0x3d9f0214	0.07764068
30	0xbcad384e	-0.021145012
31	0xba7fb4b6	-0.0009754406
32	0x3e91e534	0.2849518
33	0xbe81032b	-0.2519773
34	0xbdc6747d	-0.09690187
35	0xbe1572c0	-0.14594555
36	0x3b9db3bd	0.0048126862
37	0xbc2981d2	-0.010345893
38	0x3e32e212	0.17469051
39	0xbcdd01f8	-0.026978478
40	0xbb8777b2	-0.004134142
41	0x3e1ad9b8	0.15122116
42	0x3bd484ec	0.006485572
43	0x3dfd49ad	0.12367568
44	0xbd8841d7	-0.06653183
45	0xbbe6f0c1	-0.007047743
46	0x3e393d78	0.18089855
47	0x3d18f336	0.03734132
48	0x3e1bbc6b	0.15208595
49	0xbe408213	-0.1879962
50	0x3d088d6f	0.033338007
51	0xbe69c923	-0.22830634
52	0xbe23ab80	-0.15983391
53	0xbe0c69bc	-0.1371221
54	0xbd87de85	-0.06634239
55	0xbe28cc7a	-0.16484252
56	0x3ce50553	0.02795664
57	0xbdb76eb8	-0.08956665
58	0xbe067843	-0.13131814
59	0xbd7fe761	-0.06247652
60	0x3e67b102	0.22626117
61	0x3e30a00a	0.1724855
62	0x3d117496	0.035511576
63	0x3c11fc96	0.008910319
64	0x3d8f2f11	0.06991399
65	0xbe66ac8c	-0.22526759
66	0x3e6811dd	0.22663064
67	0x3d883ff7	0.06652825
68	0xbdbb4efa	-0.09145923
69	0x3dfc0c4f	0.12307035
70	0xbe632bd7	-0.22184692
71	0x3d41ceb1	0.047316257
72	0x3d84ad91	0.06478418
73	0x3dfbfa3d	0.123035885
74	0x3d27022c	0.040773556
75	0xbe08f6bb	-0.1337537
76	0x3e455b1b	0.19273035
77	0x3c65f477	0.014035336
78	0xbe825c82	-0.25461203
79	0xbc4947dd	-0.0122852
80	0x3e801931	0.2501922
81	0xbe24c299	-0.16089858
82	0x3d272283	0.040804397
83	0xbc6d7091	-0.01449217
84	0xbd945b60	-0.07243991
85	0x3da045d5	0.078258194
86	0xbe7effd9	-0.24902286
87	0xbe09859c	-0.13429874
88	0xbe21692b	-0.15762775
89	0xbe6ea1f8	-0.23303974
90	0x3e759c5d	0.23985429
91	0x3d8cc523	0.06873538
92	0x3e0f171a	0.13973656
93	0x3dea1eb0	0.114316344
94	0x3d8a78cf	0.06761324
95	0xbda5f24e	-0.081028566
96	0x3cf50f58	0.029914543
97	0x3d1a49f7	0.037668195
98	0x3ca1613b	0.019699683
99	0xbe6b1878	-0.22958553
100	0x3d8737ef	0.06602465
101	0xbe284d1d	-0.16435666
102	0x3dc98de0	0.09841514
103	0x3d81e2fa	0.063421205
104	0x3dac87b4	0.08424321
105	0x3bb1aab1	0.0054219593
106	0x3e012c3b	0.12614529
107	0xbe779182	-0.241766
108	0xbe614bf9	-0.22001638
109	0x3d9379a9	0.07200939
110	0x3c4047a4	0.01173583
111	0x3db70653	0.08936753
112	0x3dc56729	0.09638817
113	0x3e0394e8	0.12849772
114	0x3ebba1df	0.36646935
115	0x3c4188df	0.011812418
116	0xbda0faac	-0.07860312
117	0xbd31fd96	-0.04345473
118	0x3e2bff8a	0.16796699
119	0xbde9c5f1	-0.114147075
120	0x3dfa6462	0.12226178
121	0x3d853a55	0.065052666
122	0x3e288ac1	0.1645918
123	0x3cc13133	0.02358303
124	0xbe81cc0b	-0.25350985
125	0x3e000c02	0.1250458
126	0xbe101294	-0.14069587
127	0x3cae8614	0.021304168
128	0xbe213f4d	-0.15746804
129	0xbd368152	-0.044556923
130	0x3e7ab844	0.24484354
131	0xbd837025	-0.06417874
132	0x3e08530e	0.13312933
133	0x3da5b31a	0.080908015
134	0x3cb39244	0.02192033
135	0x3df806e1	0.12110687
136	0xbc4111ad	-0.011783999
137	0x3c997819	0.018734025
138	0xbd5242af	-0.051333126
139	0x3dd9a66f	0.10627448
140	0xbdb03de6	-0.08605556
141	0xbe44e144	-0.19226557
142	0xbdc39e2f	-0.095516555
143	0x3ea98aac	0.3311361
144	0x3d5185c6	0.051152967
145	0x3b7b2b2d	0.0038325295
146	0xbd639e45	-0.05557086
147	0x3cf0f073	0.02941153
148	0x3d7c7259	0.061632488
149	0xbe35e5f2	-0.17763498
150	0x3dd2fb8b	0.10301884
151	0xbe055e6f	-0.13024305
152	0x3eb52ffe	0.35388178
153	0x3da1564b	0.07877787
154	0x3eba13e7	0.3634331
155	0x3b8cd1cc	0.0042974707
156	0xbdeb01ee	-0.114749774
157	0xbd305403	-0.04304887
158	0x3c9efc9b	0.019407561
159	0x3e507cef	0.20360158
160	0xbddca68e	-0.10773955
161	0xbc7c766f	-0.015409096
162	0x3e6153a1	0.22004558
163	0xbe1f6a3a	-0.15567866
164	0x3c3aa223	0.0113911955
165	0x3d206566	0.0391592
166	0xbd322913	-0.043496203
167	0xbe62bef8	-0.22143161
168	0x3ea734e3	0.32657537
169	0xbc3179b0	-0.010832235
170	0xbe1c1ba3	-0.15244918
171	0x3dc2cef2	0.09512128
172	0x3e5826a5	0.21108492
173	0xbc0d236e	-0.008614404
174	0x3e1dbbe8	0.15403712
175	0x3dc3c5ac	0.09559187
176	0xbe8d5403	-0.27603158
177	0xbdc18981	-0.09450055
178	0x3d314234	0.043276027
179	0x3e2f33fc	0.17109674
180	0x3cb4b331	0.022058101
181	0x3e41ee5d	0.18938585
182	0xbe4f6714	-0.20254165
183	0x3e6095cc	0.21932143
184	0x3d5eb2c9	0.05436972
185	0x3d96af9a	0.07357712
186	0xbe318cdc	-0.1733889
187	0x3d1f9c48	0.0389674
188	0x3de4432d	0.11145625
189	0xbd61ee80	-0.055159092
190	0xbe0ca57c	-0.13735002
191	0x3d287917	0.041131105
192	0xbd32d10d	-0.043656398
193	0x3d986eb1	0.07442988
194	0xbdb78aa0	-0.089619875
195	0xbe5b5329	-0.21418442
196	0xbd53c17d	-0.051698197
197	0xbe40f718	-0.18844259
198	0xbe0d370e	-0.13790533
199	0x3e3bdc8b	0.18345849
200	0xbe0aeaeb	-0.13566177
201	0x3dc333d4	0.0953137
202	0x3e1e5649	0.15462603
203	0xbd7c1c9a	-0.061550714
204	0xbdc43659	-0.095806785
205	0x3e4a220e	0.19739553
206	0xbd4b84b0	-0.049687088
207	0xb9df2b43	-0.00042566107
208	0x3e640666	0.22268066
209	0xbd1f175e	-0.038840644
210	0xbd3c8cd2	-0.046032734
211	0x3b55f3f6	0.0032646633
212	0x3e1751d2	0.14777306
213	0xbd898194	-0.06714168
214	0xbd412b9d	-0.047160733
215	0xbd6a1942	-0.057152994
216	0x3e392035	0.18078692
217	0x3dd6d0d1	0.10489047
218	0x3e3f2f19	0.1867031
219	0x3be51937	0.0069915312
220	0xbd7f0f7e	-0.062270634
221	0xbc2d633d	-0.010582742
222	0x3e3961dc	0.18103737
223	0xbd07a816	-0.033119284
224	0xbd9a5c31	-0.07537115
225	0x3d90e185	0.070742644
226	0x3ca2ef0e	0.01988938
227	0x3d338c33	0.043834876
228	0xbc89d541	-0.01682532
229	0xbc54a963	-0.012979838
230	0xbd80bd64	-0.062861234
231	0xbdc5cdc0	-0.09658384
232	0xbe07304f	-0.13202022
233	0xbe51d57c	-0.20491594
234	0x3ddb212f	0.10699689
235	0x3b03287c	0.0020013144
236	0xbdd727a2	-0.10505606
237	0xbc368f2b	-0.011142532
238	0xbcad681e	-0.021167811
239	0xbe13ceef	-0.14434408
240	0x3daea353	0.085272454
241	0x3e17572d	0.14779349
242	0xbb939f53	-0.004505077
243	0xbe1df493	-0.15425329
244	0xbd07ec73	-0.03318448
245	0xbdc72b78	-0.09725088
246	0xbe3e0038	-0.18554771
247	0xbdc3cd13	-0.09560599
248	0xbda3221b	-0.079654895
249	0x3d0ee1f4	0.034883454
250	0xbe1bb577	-0.15205942
251	0x3d82e03c	0.063904256
252	0xbd5612c6	-0.052263997
253	0xbe545ac6	-0.20737752
254	0xbe2dc004	-0.1696778
255	0x3d79078e	0.06079822

l3.bias f4 [18]
0	0x3e7bd8da	0.24594441
1	0xbeed4e05	-0.46348587
2	0xbd1d99e5	-0.038476843
3	0x3f1a65d1	0.6031161
4	0xbdf261e4	-0.118350774
5	0xbea58ff7	-0.323364
6	0x3e264e1b	0.16240732
7	0xbebc443e	-0.36770815
8	0x3e522441	0.20521642
9	0x3e8e1694	0.277516
10	0x3e822dee	0.25425667
11	0x3cb700e9	0.022339301
12	0x3e978f0b	0.2960132
13	0xbecebe31	-0.4037948
14	0x3e9d3900	0.3070755
15	0x3e5c0e39	0.214898
16	0xbd6568e5	-0.05600824
17	0xbb93648e	-0.004498071
