data/result/g_660.pt (torch, 87406 bytes, 7 tensors)

G_attr_matrix.weight f4 [36, 5]
0.03792035 -0.024507415 -0.24938026 0.03117978 0.0035963892 -0.08571591 0.035842657 0.105937146
0.07292082 -0.017587926 -0.028325655 0.013146885 0.014893258 0.02832143 0.0032446953 -0.063836664
-0.09090475 -0.11001797 -0.06552185 -0.007824722 -0.0048511177 -0.0701975 0.002176878 -0.0070609907
0.0028463951 0.10990283 -0.0007095586 -0.059742045 0.2430111 -0.09985142 -0.016790321 -0.008322323
-0.0154210655 -0.009768553 0.12726742 0.2101529 0.12535617 0.2087619 0.14608644 0.05206123
0.0042575696 0.0050659054 0.0043507256 -0.04169537 -0.12754261 -0.0034710972 -0.006473781 -0.0042420253
0.054481316 0.17933446 0.20465373 0.013313187 0.02319735 -0.053989325 -0.014448155 -0.024440978
-0.14883442 -0.218519 0.06625056 0.16842142 0.0021881706 0.082241595 -0.0032837724 0.0032928083
0.011736857 -0.36728254 -0.021975962 0.09772049 -0.12319775 -0.16725527 -0.029899642 -0.031533748
0.08070541 0.0072526243 0.03892118 -0.15622193 0.08659065 -0.16812766 0.08423135 -0.1282856
0.13999033 -0.014171508 -0.045471177 0.12504876 -0.07162827 0.051301222 0.2981656 0.4178351
0.13354778 0.055271287 0.0018906755 -0.20747441 0.0019487147 0.04693295 -0.043173555 -0.05041449
0.12326045 -0.24037471 0.058360267 0.12519611 -0.17174174 -0.008912862 0.018294003 -0.011468222
-0.0051206746 -0.19382252 0.06635331 -0.13292612 0.14070633 0.08280106 -0.0049707494 -0.0100291185
-0.011157795 0.010171847 -4.324203e-05 0.09900841 0.23674244 0.19091035 -0.18748423 -0.0114114145
0.40468216 0.0098709855 -5.5981887e-05 -0.17380457 -0.016008994 0.18383785 -0.2385252 -0.038398482
-0.13812041 0.11953811 0.015024406 0.052677482 -0.024518711 0.044420816 -0.04029506 -0.18561366
-0.28736165 0.15079264 0.15534179 0.22335428 -0.021235276 0.004371358 0.007676194 0.00059226813
-0.033271633 0.07655504 -0.022744093 -0.016524063 -0.008550458 0.14753158 -0.006838649 0.013900113
0.014506873 -0.036161885 -0.055336338 0.042029448 -0.07050889 -0.05562841 0.17620163 0.24021493
-0.008807208 -0.0064261365 0.01812254 -0.0011933965 -0.009566618 0.12677866 0.1463232 -0.3541762
0.027764663 0.15339865 -0.0025751623 -0.007997122 0.098126434 0.24980086 0.108647875 0.01310191
0.28313008 -0.12373311 -0.19022119 0.11234745
00000000: 5e52 1b3d c6c3 c8bc 8a5d 7fbe bd6c ff3c
00000010: 66b1 6b3b d38b afbd c0cf 123d 93f5 d83d
00000020: 8357 953d 8e14 90bc 340b e8bc 0866 573c
00000030: da02 743c 5802 e83c f4a4 543b ccbc 82bd
00000040: 452c babd 1a51 e1bd 5230 86bd 4333 00bc
00000050: 20f6 9ebb b5c3 8fbd f4a9 0e3b e25f e7bb
00000060: 968a 3a3b bc14 e13d ac01 3aba 13b4 74bd
00000070: e7d7 783e e77e ccbd db8b 89bc 5a5a 08bc
00000080: a3a8 7cbc 480c 20bc 6452 023e 5232 573e
00000090: 5e5d 003e aec5 553e af97 153e 283e 553d
000000a0: 1583 8b3b e5ff a53b 8890 8e3b c4c8 2abd
000000b0: 889a 02be 597b 63bb 0322 d4bb b000 8bbb
000000c0: cd27 5f3d 74a3 373e bf90 513e 8e1f 5a3c
000000d0: 5e08 be3c e923 5dbd f4b7 6cbc 7238 c8bc
000000e0: 0d68 18be 72c3 5fbe 60ae 873d aa76 2c3e
000000f0: 6967 0f3b 486e a83d 8f34 57bb 28cc 573b
00000100: f24b 403c 750c bcbe ef06 b4bc ae21 c83d
00000110: 1a4f fcbd f744 2bbe 18f0 f4bc 8829 01bd
00000120: e148 a53d 6ca7 ed3b d16b 1f3d a4f8 1fbe
00000130: 7056 b13d a829 2cbe 7c81 ac3d 4d5d 03be
00000140: a059 0f3e 9d2f 68bc fc3f 3abd c80c 003e
00000150: d8b1 92bd 3b21 523d 29a9 983e 7bee d53e
00000160: c0c0 083e 2564 623d 8bd0 f73a 2c74 54be
00000170: 046c ff3a c43c 403d c1d6 30bd 6d7f 4ebd
00000180: fa6f fc3d ca24 76be 2d0b 6f3d 6933 003e
00000190: 11dd 2fbe 4107 12bc 4edd 953c 36e5 3bbc
000001a0: 55cb a7bb 6979 46be 3fe4 873d c91d 08be
000001b0: 5215 103e 9a93 a93d abe1 a2bb 2c51 24bc
000001c0: 2fcf 36bc d2a7 263c c75e 35b8 ecc4 ca3d
000001d0: 9c6c 723e 017e 433e defb 3fbe f1f6 3abc
000001e0: 8032 cf3e eab9 213c 18ce 6ab8 d3f9 31be
000001f0: 4b25 83bc fd3f 3c3e f33f 74be ba47 1dbd
00000200: 706f 0dbe 66d0 f43d ed28 763c 58c4 573d
00000210: 77db c8bc 9af2 353d 6f0c 25bd 8211 3ebe
00000220: 1121 93be 6369 1a3e eb11 1f3e fcb6 643e
00000230: 9af5 adbc 9c3d 8f3b 9588 fb3b 7142 1b3a
00000240: d647 08bd e4c8 9c3d d251 babc 795d 87bc
00000250: 3817 0cbc 8512 173e bf16 e0bb 4dbd 633c
00000260: 3cae 6d3c 7c1e 14bd 5ba8 62bd 1227 2c3d
00000270: f766 90bd 9eda 63bd 336e 343e e7fa 753e
00000280: 1c4c 10bc 5792 d2bb b975 943c be6b 9cba
00000290: 4ebd 1cbc 44d2 013e c0d5 153e 9556 b5be
000002a0: b872 e33c 8914 1d3e 0ec4 28bb 5c06 03bc
000002b0: 83f6 c83d cccb 7f3e c782 de3d 65a9 563c
000002c0: 6df6 903e c967 fdbd 58c9 42be 6b16 e63d

l1.weight f4 [100, 90]
0.18590944 -0.0058181817 0.07978835 0.10508397 0.0937078 0.050620377 0.11438315 0.053715464
-0.21259369 -0.105771065 0.0840333 -0.2031534 -0.09783458 0.09232206 -0.0419431 0.07778916
0.020032281 -0.07603638 -0.063813776 0.10381606 0.08974649 0.017992077 0.088517316 -0.1093274
0.019162413 0.06593534 0.17336227 0.07567014 0.15142609 0.005574905 0.08658831 -0.13620296
-0.18928638 -0.11754136 -0.076145805 0.037885167 0.15238753 -0.004789271 -0.092902996 0.17728657
-0.012692648 -0.05548547 0.10542321 0.039604172 -0.0008907698 0.06401856 -0.12459356 -0.03885759
0.05207978 -0.07237609 0.1116884 -0.3759874 0.21331286 -0.04027084 -0.14591226 0.00844958
-0.08474295 -0.049465794 -0.017265838 0.10704182 -0.0239129 -0.13488534 0.02963602 0.030193944
-0.065171346 -0.120739594 0.0013242291 -0.15076178 0.0020471842 -0.17639676 -0.18914591 0.108020335
0.126388 0.19017826 -0.18768786 0.0060485895 -0.19784914 -0.050352525 -0.06942902 0.036146026
-0.049633514 -0.05005883 0.06370771 0.11351866 -0.17520851 0.12779623 0.06872798 -0.06739567
0.05241339 0.17614539 0.23118828 -0.06882469 -0.056938518 -0.03566604 -0.123930916 0.04651327
0.19131298 -0.0729588 0.06617104 0.09188668 0.058757417 -0.02826057 -0.13095812 0.036758006
-0.11510612 -0.0696552 0.100097254 -0.1417088 0.041767873 0.056244344 0.051648267 0.039983254
-0.040096737 -0.04290366 -0.00073769386 0.044857375 0.041561488 -0.0428705 -0.026116453 0.03451047
0.013860564 -0.03408052 -0.007842221 0.050742395 -0.16521564 -0.00723964 -0.051463824 0.07695303
0.034830295 0.062793985 -0.038337555 0.14411451 -0.11701975 0.012517426 -0.20191717 -0.057357866
0.068649635 -0.119393505 0.0045454977 -0.018254789 0.08769044 -0.15064456 -0.21933594 -0.11183629
-0.07331042 0.112866625 0.046402507 0.043943685 -0.012649975 -0.12692453 -0.026384007 0.008811413
-0.020251654 -0.030836655 0.02280038 -0.090817615 -0.006583715 -0.034425914 0.026195258 0.10955556
-0.18516642 0.13992561 -0.1369481 -0.0752888 0.03749355 -0.06251898 0.060544167 -0.13006683
0.18529253 0.027397284 -0.0109031405 -0.07488388 -0.009943717 0.08852296 -0.10265253 -0.07027058
-0.23435873 0.124834485 -0.09732232 -0.027675586 -0.0052473783 0.15518849 0.03463972 -0.21950908
-0.04979372 -0.15865114 -0.07806469 0.07236599 0.029085668 -0.054969512 -0.006851306 -0.16935316
-0.15145831 0.12479013 -0.041750435 -0.053399716 0.02922489 0.14487042 0.038396757 0.024967613
-0.069064625 0.06483769 -0.21472472 0.064014904 0.24200279 -0.0078308815 -0.014167573 -0.07821137
-0.0788041 0.13467774 -0.018735148 -0.009063421 0.14952604 0.043339755 -0.0064792256 0.14725655
0.066459246 -0.120632604 -0.02956677 -0.03252509 -0.12645614 -0.14518598 0.05722703 -0.04012191
0.2458246 -0.046579324 0.15401007 0.07412793 0.049166102 0.06219673 0.19225639 -0.048126597
-0.04824113 0.0597012 0.018757433 0.1693414 -0.09553125 -0.030679058 0.15606944 -0.044767104
0.015339262 -0.12300384 0.07660501 0.07980063 -0.075808376 -0.19319189 -0.068589546 -0.13734646
-0.1365837 -0.0032187558 0.12031289 0.04791752 -0.17587131 -0.07093379 0.1033408 -0.006828577
00000000: 0b5f 3e3e 72a6 bebb 1368 a33d 4436 d73d
00000010: e0e9 bf3d 5057 4f3d b741 ea3d bf04 5c3d
00000020: 29b2 59be 809e d8bd a719 ac3d 7207 50be
00000030: 7f5d c8bd 5913 bd3d 87cc 2bbd ec4f 9f3d
00000040: bd1a a43c f6b8 9bbd ccb0 82bd 849d d43d
00000050: 02cd b73d 1f64 933c 9148 b53d 0be7 dfbd
00000060: 7efa 9c3c 1c09 873d e185 313e f2f8 9a3d
00000070: 710f 1b3e b1ad b63b 3655 b13d ca78 0bbe
00000080: 4ad4 41be 86b9 f0bd 55f2 9bbd 7a2d 1b3d
00000090: 7a0b 1c3e 51ef 9cbb ed43 bebd 9c8a 353e
000000a0: d3f4 4fbc bb44 63bd 20e8 d73d fc37 223d
000000b0: 8d82 69ba 2a1c 833d e92a ffbd 2329 1fbd
000000c0: 9b51 553d ea39 94bd e3bc e43d 6c81 c0be
000000d0: b06e 5a3e 09f3 24bd 066a 15be 1b70 0a3c
000000e0: b68d adbd a59c 4abd 1671 8dbc be38 db3d
000000f0: fce4 c3bc 621f 0abe 3dc7 f23c 4a59 f73c
00000100: 8e78 85bd 5246 f7bd c191 ad3a 4c61 1abe
00000110: 0d2a 063b 5aa1 34be 77af 41be c439 dd3d
00000120: db6b 013e 17be 423e 3f31 40be 3f33 c63b
00000130: f798 4abe 733e 4ebd cd30 8ebd db0d 143d
00000140: 834c 4bbd 7d0a 4dbd 3079 823d 797c e83d
00000150: dc69 33be 04dd 023e 41c1 8c3d be06 8abd
00000160: 6caf 563d 755f 343e 9fbc 6c3e f6f3 8cbd
00000170: 5d38 69bd 8e16 12bd 7ecf fdbd b384 3e3d
00000180: 8de7 433e 6c6b 95bd af84 873d 152f bc3d
00000190: 9eab 703d b682 e7bc e319 06be 908f 163d
000001a0: c2bc ebbd 63a7 8ebd caff cc3d 1d1c 11be
000001b0: ca14 2b3d 7860 663d 228d 533d 7bc5 233d
000001c0: 7a3c 24bd c0bb 2fbd cc61 41ba 5ebc 373d
000001d0: 613c 2a3d fa98 2fbd 2cf2 d5bc da5a 0d3d
000001e0: 6b17 633c 0498 0bbd a97c 00bc 42d7 4f3d
000001f0: 4a2e 29be 813a edbb bbcb 52bd 8d99 9d3d
00000200: 36aa 0e3d 229a 803d d707 1dbd c192 133e
00000210: 0da8 efbd e415 4d3c 60c3 4ebe 15f0 6abd
00000220: 2e98 8c3d 9584 f4bd 66f2 943b 118b 95bc
00000230: 0c97 b33d 9142 1abe 9a99 60be 6d0a e5bd
00000240: c623 96bd 9e26 e73d 8e10 3e3d 4bfe 333d
00000250: d741 4fbc 81f8 01be 4623 d8bc bf5d 103c
00000260: cce6 a5bc 279d fcbc ddc7 ba3c 96fe b9bd
00000270: 34bc d7bb 3002 0dbd 7097 d63c aa5e e03d
00000280: 449c 3dbe a948 0f3e 1f3c 0cbe 0431 9abd
00000290: d692 193d f309 80bd 29fd 773d 3d30 05be
000002a0: 53bd 3d3e 4570 e03c 16a3 32bc b85c 99bd
000002b0: f9ea 22bc 874b b53d 7d3b d2bd 06ea 8fbd
000002c0: bcfb 6fbe 39a9 ff3d ed50 c7bd e9b7 e2bc
000002d0: 33f2 abbb bbe9 1e3e 61e2 0d3d fdc6 60be
000002e0: 80f4 4bbd 7275 22be 61e0 9fbd 9f34 943d
000002f0: 1145 ee3c b627 61bd ec80 e0bb ea6a 2dbe
00000300: e317 1bbe f891 ff3d 8102 2bbd a9b9 5abd
00000310: 0969 ef3c e958 143e eb45 1d3d e188 cc3c
00000320: c171 8dbd 9fc9 843d cce0 5bbe 3f1a 833d
00000330: 94cf 773e 194d 00bc 1c1f 68bc 482d a0bd
00000340: 0b64 a1bd f6e8 093e 747a 99bc be7e 14bc
00000350: 5b1d 193e 0785 313d af4f d4bb 6cca 163e
00000360: c91b 883d 3a0e f7bd 0336 f2bc 0739 05bd
00000370: b87d 01be a2ab 14be e466 6a3d df56 24bd
00000380: 72b9 7b3e f6c9 3ebd d1b4 1d3e 62d0 973d
00000390: 6562 493d 00c2 7e3d dcde 443e 6520 45bd
000003a0: 7e98 45bd 3f89 743d 30a9 993c d567 2d3e
000003b0: e3a5 c3bd a652 fbbc abd0 1f3e b65d 37bd
000003c0: 8751 7b3c 70e9 fbbd 16e3 9c3d 836e a33d
000003d0: 6c41 9bbd 18d4 45be ad78 8cbd 8da4 0cbe
000003e0: 99dc 0bbe c3f1 52bb 9b66 f63d 2945 443d
000003f0: 9c17 34be bc45 91bd 57a4 d33d 41c2 dfbb

l1.bias f4 [100]
-0.023759512 0.020150835 0.15455619 0.066568114 0.12125239 0.009543621 0.1849137 -0.029290006
-0.037615765 -0.052285664 -0.039478388 -0.098225564 -0.027890902 0.007613002 -0.031746633 0.10966424
0.036351357 0.037933674 -0.08110586 -0.024397088 0.16715293 -0.02665413 -0.028988536 0.11572595
0.017350623 0.15022728 -0.04588526 -0.1154275 -0.0012832867 -0.31143168 0.052941997 0.09813092
-0.15349022 -0.24482076 -0.19784763 -0.009894008 0.023327421 0.14611748 -0.00082599395 -0.045311145
-0.21545486 0.21986505 -0.12671748 0.006495311 -0.049616624 -0.022125851 -0.0037272233 -0.023590345
-0.059613835 -0.17116287 -0.006479546 0.14941092 0.10557146 -0.16188881 -0.015058288 -0.03643019
-0.034367044 0.05609636 -0.022779526 -0.06573291 -0.14163692 0.058683686 -0.02156237 0.10502694
0.110567376 -0.11945198 -0.007736563 0.08947328 -0.029269945 0.009469147 0.09062453 -0.07306194
-0.13196005 0.18090905 0.0819577 0.047043942 -0.16623811 -0.05228805 -0.21080798 -0.100315414
0.03826058 -0.11841186 -0.02198461 0.06500362 0.03515398 0.018774519 -0.064584084 0.013741645
-0.1313825 -0.017647915 0.12853596 0.07124746 -0.018885363 0.03437029 0.1230227 -0.035259414
-0.005756866 -0.09189003 -0.1459603 0.0047648153
00000000: 4fa3 c2bc 5d13 a53c fa43 1e3e dd54 883d
00000010: 2c53 f83d d95c 1c3c 045a 3d3e 98f1 efbc
00000020: fd12 1abd 7e29 56bd 17b4 21bd 7c2a c9bd
00000030: 767b e4bc 7d76 f93b c208 02bd a597 e03d
00000040: 29e5 143d 5760 1b3d d41a a6bd 67dc c7bc
00000050: 232a 2b3e c359 dabc 5e79 edbc ba01 ed3d
00000060: e522 8e3c 2ed5 193e 2ff2 3bbd 4165 ecbd
00000070: f533 a8ba f973 9fbe b5d9 583d ddf8 c83d
00000080: 8a2c 1dbe 4bb2 7abe 9298 4abe 7a1a 22bc
00000090: 2619 bf3c d29f 153e 8487 58ba 2e98 39bd
000000a0: 33a0 5cbe 4e24 613e 3ac2 01be 9ed6 d43b
000000b0: cd3a 4bbd 4641 b5bc 6e44 74bb 8a40 c1bc
000000c0: a32d 74bd 5245 2fbe 5f52 d4bb 2dff 183e
000000d0: da35 d83d 2ec6 25be 0ab7 76bc d337 15bd
000000e0: 75c4 0cbd 4cc5 653d 219c babc fa9e 86bd
000000f0: 4509 11be 4e5e 703d 91a3 b0bc 5d18 d73d
00000100: 2671 e23d 3da3 f4bd ff82 fdbb c43d b73d
00000110: 86c7 efbc 7b24 1b3c 5b99 b93d 80a1 95bd
00000120: 8920 07be 3940 393e 70d9 a73d 26b1 403d
00000130: 533a 2abe ff2b 56bd 0cde 57be 2b72 cdbd
00000140: 20b7 1c3d eb81 f2bd 1219 b4bc 9e20 853d
00000150: 9ffd 0f3d 05cd 993c a944 84bd a324 613c
00000160: 2289 06be 5c92 90bc ee9e 033e 30ea 913d
00000170: 7ab5 9abc dcc7 0c3d 53f3 fb3d 2d6c 10bd
00000180: 18a4 bcbb d730 bcbd 9e76 15be 2b22 9c3b

l2.weight f4 [100, 100]
0.14163974 0.23836802 -0.050493944 -0.09079737 -0.044722818 0.049030717 0.01208429 0.11439285
-0.058551732 -0.07498961 -0.025951 -0.10279042 -0.016029226 -0.020294039 0.038532425 0.067422435
-0.22658448 -0.12452653 -0.039746325 0.1761463 -0.055014804 0.15157478 0.13184947 0.053060673
-0.0029139104 0.029018003 -0.17002963 -0.13923463 -0.24906349 -0.12791128 0.1565922 -0.07869329
0.070946105 -0.0110305585 0.09259703 0.055917062 -0.12898827 0.0053432193 -0.1288523 0.0818627
-0.06976199 0.13659959 -0.015611089 -0.060043875 0.14129218 -0.10097915 -0.16505855 0.15364245
-0.13360496 0.06212672 -0.04015734 3.929136e-05 0.006770839 -0.05446995 0.16989963 0.04709413
-0.094506174 0.0012018104 -0.14184956 -0.09165319 0.02324101 0.11478213 -0.060434032 0.035047267
0.042444225 -0.10535107 0.08231396 -0.1503631 0.12491242 0.08678387 -0.0437756 0.09499809
0.08366109 0.12543696 0.088505775 0.04340627 0.2172675 0.044233188 -0.068129994 0.0019169105
0.18861413 -0.026606629 -0.078217745 -0.06488817 0.05846314 -0.10793668 0.03268051 -0.08924278
-0.09627532 -0.079367705 -0.10261808 0.05677686 -0.02945043 -0.07405168 -0.03585985 -0.015261691
-0.08162856 0.23345606 0.045090307 -0.008754011 -0.1257191 0.027773058 -0.14727189 0.05404336
0.18397139 -0.006930254 0.20827144 -0.034774873 0.0964498 0.004795663 0.037497316 0.06264448
-0.028509399 -0.044646755 -0.13032448 -0.107976936 -0.011684984 -0.1396418 0.0669389 0.11721277
-0.06422563 -0.06268509 0.01483049 0.0531825 0.04955938 0.017101727 -0.052282065 -0.040494986
0.10587885 -0.13139513 -0.058363143 0.014487867 0.117950834 -0.0059683556 0.1241416 0.12465214
-0.021156004 -0.08534212 -0.036450867 -0.022507707 0.048806086 -0.013155035 0.017006127 -0.043149132
-0.01722095 0.12416681 0.05108176 0.11181993 -0.060674127 0.012287527 -0.011452035 -0.02404165
0.0067147156 0.12893432 0.11276656 0.055269808 -0.09768743 0.05013623 -0.18746153 -0.06570773
0.04478403 0.109732516 -0.0014078104 0.04479963 0.074066944 -0.03336439 0.09198542 -0.021520486
0.041313015 -0.13058573 -0.028836805 0.042588793 -0.08737809 0.0080267135 0.07230707 0.030504964
-0.07879401 0.0005747987 -0.13142987 -0.15294208 -0.14685263 -0.20099288 0.05704882 -0.09690841
-0.0428996 0.038665876 -0.17250443 -0.055275906 -0.029145509 -0.07193044 0.1536804 0.028247027
-0.1387881 0.01907606 0.08236667 0.017518297 0.089411214 -0.13172874 -0.07351192 -0.034348976
0.077420294 0.096353136 0.12363769 0.037265405 -0.0251507 0.1712653 -0.13375755 -0.035849225
-0.01612419 -0.04648176 0.14666621 0.12753116 -0.19585736 -0.11376834 -0.001085764 -0.24617018
-0.1962031 -0.16365236 0.03217738 0.057763204 0.0649644 0.030588735 -0.21410964 0.23001625
0.0026088005 0.05696631 0.00844873 0.034262978 -0.07051661 -0.1877197 -0.12997794 0.03246334
0.08666629 0.1021873 -0.17310606 -0.022203632 0.08572043 0.113280244 0.16249216 0.032446023
-0.07680345 -0.1348872 -0.03175473 -0.09876686 -0.05558305 0.044983793 -0.002749621 -0.026575519
0.057957057 0.18342836 0.210333 -0.15626064 0.029059637 0.011906762 -0.10191833 0.084201515
00000000: 020a 113e bf16 743e bdd2 4ebd f9f3 b9bd
00000010: 462f 37bd 6fd4 483d 30fd 453c cc46 ea3d
00000020: f1d3 6fbd 2794 99bd 3197 d4bc c983 d2bd
00000030: b94f 83bc af3f a6bc 2dd4 1d3d c614 8a3d
00000040: c305 68be c407 ffbd 0bcd 22bd b25f 343e
00000050: 3457 61bd 6b36 1b3e 8c03 073e 2656 593d
00000060: 4ef7 3ebb 2ab7 ed3c 3f1c 2ebe 8693 0ebe
00000070: 800a 7fbe 2dfb 02be b559 203e f329 a1bd
00000080: 314c 913d 84b9 34bc 83a3 bd3d 4a09 653d
00000090: 8015 04be 2c16 af3b dbf1 03be a2a7 a73d
000000a0: 60df 8ebd c3e0 0b3e a7c5 7fbc 91f0 75bd
000000b0: e6ae 103e 28ce cebd 1c05 29be 7254 1d3e
000000c0: bdcf 08be 9678 7e3d 067c 24bd c7cc 2438
000000d0: eadd dd3b e21b 5fbd 2bfa 2d3e c6e5 403d
000000e0: 748c c1bd 1186 9d3a 0341 11be abb4 bbbd
000000f0: ee63 be3c e512 eb3d ad89 77bd b98d 0f3d
00000100: ffd9 2d3d 4dc2 d7bd 3994 a83d c9f8 19be
00000110: 15d2 ff3d bebb b13d 0b4e 33bd 5c8e c23d
00000120: 8156 ab3d 8c72 003e 8442 b53d c6ca 313d
00000130: 5f7b 5e3e dc2d 353d bd87 8bbd d840 fb3a
00000140: 1024 413e 25f6 d9bc a030 a0bd 17e4 84bd
00000150: 0c77 6f3d e80d ddbd 00dc 053d ebc4 b6bd
00000160: ff2b c5bd 898b a2bd 6e29 d2bd da8e 683d
00000170: 0742 f1bc 68a8 97bd c7e1 12bd 2c0c 7abc
00000180: e02c a7bd 1b0f 6f3e 9db0 383d fc6c 0fbc
00000190: 82bc 00be 5384 e33c 71ce 16be 925c 5d3d
000001a0: ff62 3c3e 2f17 e3bb 1c45 553e 1970 0ebd
000001b0: 7987 c53d f024 9d3b c996 193d c04b 803d
000001c0: 8b8c e9bc 84df 36bd c873 05be 0323 ddbd
000001d0: 6072 3fbc 43fe 0ebe 4317 893d 400d f03d
000001e0: ba88 83bd 0a61 80bd 95fb 723c e5d5 593d
000001f0: c7fe 4a3d ec18 8c3c b825 56bd 12de 25bd
00000200: 03d7 d83d 728c 06be 310e 6fbd 855e 6d3c
00000210: 3590 f13d 3292 c3bb f43d fe3d 9f49 ff3d
00000220: 5b4f adbc d9c7 aebd 814d 15bd 1562 b8bc
00000230: e4e8 473d 3788 57bc 6f50 8b3c 25bd 30bd
00000240: f312 8dbc 2b4b fe3d 1c3b 513d d901 e53d
00000250: 6f85 78bd a051 493c 51a1 3bbc fff2 c4bc
00000260: 1e07 dc3b 5c07 043e 27f2 e63d 9862 623d
00000270: 5910 c8bd a65b 4d3d eaf5 3fbe c691 86bd
00000280: 766f 373d 71bb e03d 4786 b8ba d17f 373d
00000290: 69b0 973d 19a9 08bd da62 bc3d bb4b b0bc
000002a0: d637 293d 44b8 05be 2a3b ecbc 9671 2e3d
000002b0: 49f3 b2bd 7a82 033c bb15 943d 8ce5 f93c
000002c0: c15e a1bd 16ae 163a 8d95 06be d99c 1cbe
000002d0: 8960 16be 14d1 4dbe 06ac 693d eb77 c6bd
000002e0: 7eb7 2fbd 1c60 1e3d 00a5 30be fd68 62bd
000002f0: 90c2 eebc 4450 93bd 655e 1d3e 4f66 e73c
00000300: 781e 0ebe 6645 9c3c dbaf a83d 8882 8f3c
00000310: 3a1d b73d e6e3 06be 6b8d 96bd 83b1 0cbd
00000320: 888e 9e3d cb54 c53d c235 fd3d 9ca3 183d
00000330: d708 cebc 2c60 2f3e bdf7 08be a3d6 12bd
00000340: e116 84bc a863 3ebd ab2f 163e 8797 023e
00000350: d58e 48be 60ff e8bd 3250 8eba 0914 7cbe
00000360: 77e9 48be 7c94 27be 6ecc 033d 1c99 6c3d
00000370: 0e0c 853d 3a95 fa3c 8f3f 5bbe 6189 6b3e
00000380: 69f8 2a3b 8155 693d 8b6c 0a3c 5657 0c3d
00000390: 036b 90bd 9839 40be f018 05be 47f8 043d
000003a0: 197e b13d 9347 d13d b742 31be 64e4 b5bc
000003b0: 318e af3d 79ff e73d 5864 263e 1fe6 043d
000003c0: 214b 9dbd df1f 0abe 3f11 02bd 4846 cabd
000003d0: 0dab 63bd ed40 383d fc32 34bb e7b4 d9bc
000003e0: 6164 6d3d a5d4 3b3e 8961 573e ca02 20be
000003f0: 7a0e ee3c 9414 433c 8fba d0bd d871 ac3d

l2.bias f4 [100]
0.032821223 -0.17820004 0.072680004 0.0232154 -0.062493045 0.10965088 0.009611334 -0.15175107
-0.10090126 -0.034820963 0.027960883 0.12317344 0.03415259 0.026329577 0.09233274 0.10384437
0.0004993516 0.017002437 0.2763529 0.014058167 0.11085396 -0.06623079 0.036837596 0.05187213
-0.08883279 0.019093217 -0.0011855529 -0.121391095 0.04136617 -0.043287832 -0.01340346 -0.0242675
0.019471006 0.0045307134 -0.17732419 0.029495165 0.090242594 -0.026636882 0.046239566 -0.06450282
-0.013157122 -0.061564405 -0.03395397 0.025832629 -0.029696168 -0.034581594 -0.0201503 -0.06854552
-0.0090273 0.042716887 0.018282259 -0.028958555 0.1338559 0.04001639 0.007382497 -0.00475925
-0.063249834 0.059896793 -0.026299907 0.09612016 -0.08670577 -0.22576971 0.08242936 0.14316614
-0.030747088 -0.022499993 -0.018440682 0.060536236 0.036348265 -0.0357073 -0.17191617 0.0035799863
0.04621527 -0.0139547745 0.030075256 0.028268062 -0.22162801 0.069772266 0.019416107 0.008313473
0.02274541 -0.0032757805 0.008060979 0.14794505 -0.01923403 0.0016154518 -0.03600872 0.018791262
0.008564278 0.0022207748 -0.29988486 0.0956738 -0.009150291 -0.041166704 -0.025816124 -0.014285006
-0.08873228 -0.039406702 -0.18494715 0.05655666
00000000: 8c6f 063d 127a 36be 41d9 943d 392e be3c
00000010: b5f8 7fbd a490 e03d db78 1d3c a264 1bbe
00000020: 52a5 cebd 6da0 0ebd 390e e53c 5b42 fc3d
00000030: 96e3 0b3d 20b1 d73c f318 bd3d 5bac d43d
00000040: ebe6 023a b248 8b3c 217e 8d3e 3a54 663c
00000050: 6707 e33d 02a4 87bd 05e3 163d df77 543d
00000060: f7ed b5bd 6169 9c3c 8e64 9bba e59b f8bd
00000070: 936f 293d 954e 31bd 309a 5bbc a3cc c6bc
00000080: a981 9f3c 6176 943b 7994 35be d89f f13c
00000090: 1cd1 b83d 9735 dabc b365 3d3d 0e1a 84bd
000000a0: f890 57bc f52a 7cbd 5113 0bbd f39e d33c
000000b0: 6145 f3bc 6ea5 0dbd 3e12 a5bc 9861 8cbd
000000c0: 3ee7 13bc e7f7 2e3d adc4 953c 7e3a edbc
000000d0: 8511 093e 3ae8 233d e0e8 f13b 7cf3 9bbb
000000e0: 2189 81bd 5756 753d e772 d7bc a5da c43d
000000f0: cb92 b1bd 2d30 67be b9d0 a83d 259a 123e
00000100: 51e1 fbbc e851 b8bc ea10 97bc d8f4 773d
00000110: ebe1 143d d141 12bd cb0a 30be 349e 6a3b
00000120: 394c 3d3d 91a2 64bc 6260 f63c 6c92 e73c
00000130: 74f2 62be c3e4 8e3d 870e 9f3c 3c35 083c
00000140: 9554 ba3c 7aae 56bb 3212 043c e87e 173e
00000150: af90 9dbc 91bd d33a e17d 13bd 22f0 993c
00000160: 2f51 0c3c 6b8a 113b 828a 99be a0f0 c33d
00000170: 1aeb 15bc 6b9e 28bd 567c d3bc a80b 6abc
00000180: 45b9 b5bd ec68 21bd c962 3dbe f5a7 673d

l3.weight f4 [18, 100]
0.09801566 -0.0464938 -0.020630494 0.1451001 -0.19798881 0.0023506645 -0.14758743 0.07210512
0.022012236 -0.09317524 0.059095636 0.12676881 0.06795306 0.048553605 -0.13969961 0.07933874
0.070726864 -0.10331356 -0.098025806 0.08207413 -0.026280563 -0.042747274 0.15199171 -0.010603471
-0.26726678 -0.11820152 -0.03354141 -0.2549926 0.11751669 0.07315958 -0.021933822 -0.0061155134
0.2887181 -0.26161355 -0.09651553 -0.14577825 0.00749772 -0.012060457 0.17035246 -0.02677686
-0.0022170881 0.15013881 0.008203647 0.121320695 -0.06767651 -0.006361645 0.1805989 0.03746281
0.14435638 -0.1813222 0.03396564 -0.22785635 -0.15981358 -0.13708635 -0.07019951 -0.1678524
0.02882456 -0.09326219 -0.12853017 -0.060058005 0.22555275 0.17226711 0.0367334 0.0112887835
0.07660282 -0.23031585 0.23107272 0.072962694 -0.09318241 0.12307133 -0.22139452 0.04409029
0.063258536 0.1218098 0.038359016 -0.1314479 0.19342344 0.0124494 -0.24730125 -0.012387133
0.25065374 -0.1652127 0.045953616 -0.015068807 -0.08082812 0.07361913 -0.24480392 -0.12877838
-0.1607887 -0.23369966 0.24045934 0.06818661 0.13481244 0.10798833 0.06361609 -0.074353464
0.031673986 0.037734736 0.021557996 -0.22812954 0.0686207 -0.16551426 0.09746265 0.066253245
0.08407269 0.008310392 0.117515855 -0.24032173 -0.21996427 0.06846749 0.015591148 0.09246921
0.09264914 0.12558813 0.36744833 0.014343877 -0.08340886 -0.04454811 0.1705905 -0.11734835
0.124281615 0.059526935 0.16277403 0.028006108 -0.25773937 0.124818966 -0.13915639 0.018930104
-0.1582878 -0.049435478 0.24335545 -0.069342375 0.13717474 0.071197875 0.020681392 0.12241176
-0.00840236 0.01839663 -0.05696288 0.10731075 -0.08380393 -0.19490771 -0.09542674 0.32805976
0.049292475 0.004015957 -0.0574007 0.027900951 0.055001862 -0.17076148 0.10523533 -0.13089845
0.355493 0.0802334 0.3604944 0.00087161467 -0.11464323 -0.046635956 0.023782125 0.20678431
-0.10988649 -0.01725699 0.2227224 -0.15148431 0.01836259 0.033832047 -0.03907782 -0.21430016
0.32578078 -0.011327029 -0.15362337 0.093133405 0.21113452 -0.010238631 0.15174982 0.099043116
-0.27692723 -0.09475771 0.051954765 0.17203034 0.023431344 0.1844923 -0.19734742 0.22037189
0.044719927 0.069362916 -0.1686953 0.044924486 0.1091349 -0.05439874 -0.13835321 0.042190593
-0.048844807 0.06793733 -0.0944251 -0.2081075 -0.050251108 -0.18920647 -0.13766617 0.18518125
-0.13463175 0.09588073 0.15266277 -0.057985988 -0.097009234 0.2013006 -0.05840092 0.0025525033
0.22415657 -0.04322986 -0.042813547 0.005231816 0.14298347 -0.06990534 -0.0478248 -0.055858627
0.17740762 0.1045621 0.18764088 0.0028546364 -0.061716367 -0.01704695 0.1778732 -0.030358419
-0.077809736 0.06992546 0.022168426 0.043168545 -0.018326737 -0.018729383 -0.06332433 -0.10260612
-0.12855455 -0.21407735 0.10742527 0.0025434603 -0.10287235 -0.012989542 -0.025504844 -0.144812
0.08687546 0.14662509 -0.0028043718 -0.15691516 -0.033883825 -0.096995875 -0.18566698 -0.09528713
-0.08753172 0.040999863 -0.151479 0.06391695 -0.052330423 -0.20715001 -0.17372398 0.05820543
00000000: 6fbc c83d 4870 3ebd 4801 a9bc 1f95 143e
00000010: 94bd 4abe 9b0d 1a3b 2921 17be d9ab 933d
00000020: 0153 b43c a9d2 bebd 440e 723d afcf 013e
00000030: f92a 8b3d 25e0 463d 6a0d 0fbe 597c a23d
00000040: 3fd9 903d 0f96 d3bd c1c1 c8bd 7b16 a83d
00000050: 564a d7bc c417 2fbd b7a3 1b3e 2eba 2dbc
00000060: 31d7 88be a313 f2bd b862 09bd 648e 82be
00000070: 97ac f03d b1d4 953d 8fae b3bc a564 c8bb
00000080: dcd2 933e 36f2 85be efa9 c5bd e546 15be
00000090: 6faf f53b 3999 45bc e070 2e3e 255b dbbc
000000a0: 914c 11bb fdbd 193e 9768 063c fc76 f83d
000000b0: fb99 8abd 5975 d0bb ebee 383e 9a72 193d
000000c0: 29d2 133e 87ac 39be 8e1f 0b3d 2d53 69be
000000d0: 2ca6 23be 5d60 0cbe c3c4 8fbd 80e1 2bbe
000000e0: 7c21 ec3c 3f00 bfbd 6a9d 03be 62ff 75bd
000000f0: 4df7 663e ca66 303e c375 163d 97f4 383c
00000100: f0e1 9c3d ebd7 6bbe 549e 6c3e 776d 953d
00000110: 6bd6 bebd d20c fc3d 3fb5 62be 0598 343d
00000120: b18d 813d 6b77 f93d 581e 1d3d 479a 06be
00000130: cb10 463e 91f8 4b3c 8a3c 7dbe 67f3 4abc
00000140: b055 803e 852d 29be dc39 3c3d 28e3 76bc
00000150: 3789 a5bd a0c5 963d e1ad 7abe 7bde 03be
00000160: cba5 24be f74e 6fbe f93a 763e 6ca5 8b3d
00000170: 460c 0a3e fc28 dd3d 2749 823d a146 98bd
00000180: 95bc 013d bd8f 1a3d 659a b03c ca9a 69be
00000190: 0289 8c3d 927c 29be 7f9a c73d c8af 873d
000001a0: 4d2e ac3d 4f28 083c 27ac f03d e616 76be
000001b0: 503e 61be af38 8c3d 0472 7f3c 7f60 bd3d
000001c0: d5be bd3d 2d9a 003e 3022 bc3e 9502 6b3c
000001d0: 44d2 aabd 1478 36bd 47af 2e3e 5554 f0bd
000001e0: 5c87 fe3d 84d2 733d 3cae 263e 116d e53c
000001f0: 6af6 83be 16a1 ff3d 037f 0ebe 4e13 9b3c
00000200: 3216 22be db7c 4abd 2c32 793e 6003 8ebd
00000210: 8977 0c3e 31d0 913d 066c a93c 04b3 fa3d
00000220: 0daa 09bc 88b4 963c e951 69bd bdc5 db3d
00000230: 65a1 abbd e395 47be 186f c3bd 73f7 a73e
00000240: e8e6 493d 4a98 833b ff1c 6bbd 8990 e43c
00000250: a249 613d 19dc 2ebe 9f85 d73d 3e0a 06be
00000260: 2e03 b63e 6951 a43d b992 b83e 127d 643a
00000270: 12ca eabd 5805 3fbd bbd2 c23c 44bf 533e
00000280: 2b0c e1bd 885e 8dbc 5711 643e b41e 1bbe
00000290: 246d 963c 7993 0a3d 1010 20bd 8071 5bbe
000002a0: bdcc a63e 0195 39bc 724f 1dbe babc be3d
000002b0: a633 583e eebf 27bc 4e64 1b3e 1ed7 ca3d
000002c0: 68c9 8dbe 5510 c2bd 85ce 543d b928 303e
000002d0: 17f3 bf3c 8deb 3c3e 7115 4abe 2ba9 613e
000002e0: 3e2c 373d 250e 8e3d 76be 2cbe bd02 383d
000002f0: 1e82 df3d 37d1 5ebd 77ac 0dbe 0bd0 2c3d
00000300: 7e11 48bd ba22 8b3d f261 c1bd 221a 55be
00000310: 1bd4 4dbd 57bf 41be 5cf8 0cbe 27a0 3d3e
00000320: e8dc 09be 1e5d c43d a153 1c3e b782 6dbd
00000330: c7ac c6bd bf21 4e3e ce35 6fbd e647 273b
00000340: 4d89 653e cb11 31bd 425d 2fbd a76f ab3b
00000350: 426a 123e 882a 8fbd f0e3 43bd 04cc 64bd
00000360: 58aa 353e a724 d63d ee24 403e da14 3b3b
00000370: 4dca 7cbd 0ca6 8bbc 6424 363e 38b2 f8bc
00000380: b65a 9fbd 1435 8f3d 8f9a b53c 80d1 303d
00000390: f421 96bc 5d6e 99bc 30b0 81bd 2823 d2bd
000003a0: cea3 03be 1837 5bbe c801 dc3d 2fb0 263b
000003b0: bdae d2bd 17d2 54bc 89ef d0bc 9949 14be
000003c0: c3eb b13d e324 163e 8dc9 37bb 5eae 20be
000003d0: c4c9 0abd c6a5 c6bd 7c1f 3ebe e625 c3bd
000003e0: d543 b3bd 79ef 273d 501d 1bbe e4e6 823d
000003f0: 6d58 56bd 221f 54be b3e4 31be d168 6e3d

l3.bias f4 [18]
0.2458549 -0.46194926 -0.03861061 0.60213864 -0.118003845 -0.32262498 0.1625297 -0.36667672
0.2046137 0.2766816 0.25335857 0.02190701 0.295335 -0.4028212 0.30673242 0.21403056
-0.056071155 -0.004246952
00000000: 63c1 7b3e 9d84 ecbe 2926 1ebd c225 1a3f
00000010: 00ac f1bd 1a2f a5be 306e 263e 0dbd bbbe
00000020: 4186 513e 36a9 8d3e 37b8 813e 5476 b33c
00000030: 2636 973e 953e cebe 080c 9d3e d42a 5b3e
00000040: deaa 65bd 042a 8bbb
