data/result/g_680.pt (torch, 87406 bytes, 7 tensors)

G_attr_matrix.weight f4 [36, 5]
000000 59 46 1e 3d e6 26 af bc 1c 86 7b be 4d 78 fe 3c
       0.038641308 -0.021380853 -0.24562877 0.031063223
000010 65 c5 af 3b 43 30 ae bd 62 07 16 3d 0f e2 d2 3d
       0.0053641074 -0.08505299 0.036628135 0.102970235
000020 8d 96 9d 3d 68 f2 75 bc 89 cf ed bc 01 bb 20 3c
       0.07694731 -0.015011407 -0.029029625 0.00981021
000030 34 5d 46 3c c6 27 e7 3c 75 56 7c 3b 16 35 8c bd
       0.012107182 0.028217208 0.003850368 -0.06846063
000040 59 47 c1 bd 7e ba df bd 8d c3 84 bd 3a 22 d1 bb
       -0.094374366 -0.109242424 -0.06482611 -0.006382254
000050 44 06 b8 bb c2 9c 83 bd 67 5e 20 3b 4d 1b 22 bc
       -0.0056159813 -0.064263836 0.002447033 -0.009894204
000060 63 12 17 3c 84 a6 ec 3d d3 b4 9a 3b 68 02 87 bd
       0.009220692 0.11555198 0.004721263 -0.06592256
000070 ce 34 7f 3e 01 4b b6 bd 3c 67 5f bc 21 e7 1b bc
       0.24922487 -0.089010246 -0.013635453 -0.009515555
000080 20 05 6b bc fa 4b 32 bc f2 51 fe 3d a8 d9 5d 3e
       -0.014344484 -0.010882372 0.124179736 0.2166506
000090 0b 11 03 3e 3e 75 5b 3e d1 81 17 3e b9 ed 54 3d
       0.1279947 0.21431443 0.14795615 0.051984522
0000a0 16 46 18 3b 96 30 01 3c b5 ea 4f 3b 0b d5 1f bd
       0.0023235134 0.007885119 0.003172559 -0.039021533
0000b0 c8 76 03 be f4 53 48 bb cc db 47 bb ec ef d6 bb
       -0.1283828 -0.0030567618 -0.0030496 -0.0065593626
0000c0 d7 93 61 3d ca 26 35 3e 23 f1 4b 3e 11 a9 88 3c
       0.05507263 0.17690578 0.19916205 0.01668218
0000d0 dd fa b9 3c d5 bb 4d bd 5d bd 89 bc 0d c6 e4 bc
       0.022702629 -0.05022796 -0.016813928 -0.02792647
0000e0 06 9f 12 be 54 3b 5e be fe 55 8a 3d ad 76 2b 3e
       -0.14318475 -0.2170232 0.06754683 0.1674449
0000f0 a0 cf a6 3b c0 cf a9 3d e3 38 20 bb 4a bb 24 3a
       0.005090669 0.08291578 -0.002444797 0.0006284012
000100 11 6a d2 3b 8f a8 bb be d3 3e bf bc f9 bc cd 3d
       0.0064213355 -0.36652038 -0.023345387 0.10045809
000110 0f e6 eb bd 80 9d 2a be dc c7 04 bd e5 92 0b bd
       -0.115184896 -0.16661644 -0.032417163 -0.034075636
000120 f5 51 ae 3d 1d 3b 94 3b 99 5f 26 3d d8 3a 1d be
       0.08511726 0.0045236484 0.040618513 -0.15354478
000130 3e 93 a8 3d c7 6f 28 be c6 e3 a0 3d a3 aa 00 be
       0.08231209 -0.1644889 0.07855944 -0.12565093
000140 7d 19 0c 3e d1 20 4d bc 10 44 2e bd c7 d9 ef 3d
       0.13681598 -0.012520031 -0.04254538 0.117114596
000150 39 cd 84 bd f9 52 58 3d 99 4e 9d 3e c3 9b d2 3e
       -0.064844556 0.052813504 0.30724028 0.41134462
000160 cb 20 03 3e c2 48 69 3d a1 c7 9a 3a f5 82 4c be
       0.12805478 0.056954153 0.0011808762 -0.19971831
000170 63 8f c5 3b 97 7b 3a 3d d4 71 2d bd 68 d4 5c bd
       0.006029056 0.04552802 -0.042344883 -0.053913504
000180 26 e5 fb 3d ff 0c 7d be 62 0d 71 3d 70 0f 01 3e
       0.12299566 -0.24711989 0.058850653 0.12603545
000190 43 ec 2e be e5 26 11 bc 78 24 7a 3c c4 11 27 bc
       -0.17082314 -0.008859371 0.015267484 -0.010197107
0001a0 ce 46 f3 bb 46 d7 48 be 75 10 8a 3d b6 52 09 be
       -0.007424212 -0.1961337 0.0674142 -0.13410458
0001b0 67 28 0e 3e c6 fa a7 3d 9b 45 14 bc 4a 83 2b bc
       0.138826 0.08202128 -0.009049798 -0.0104683135
0001c0 b7 7c 13 bc b0 dc 2b 3c 8a 5e 0a 39 d6 1d c3 3d
       -0.009001902 0.010489628 0.00013195924 0.09527175
0001d0 95 9b 6d 3e 29 ec 46 3e e4 5d 3f be 5b cf f3 bb
       0.23203881 0.19426025 -0.1868816 -0.00744049
0001e0 71 cb cc 3e 10 36 3e 3c da c3 e2 ba a5 18 2f be
       0.39998963 0.011609569 -0.00173008 -0.17099245
0001f0 d6 d4 1a bc 3a a7 3b 3e 31 ef 72 be c3 b3 1e bd
       -0.009450158 0.1832551 -0.23724057 -0.038745653
000200 59 f1 0a be a6 14 fc 3d eb 66 77 3c ab 15 61 3d
       -0.1356863 0.12308626 0.015100221 0.054952305
000210 3a e1 cb bc a8 3c 21 3d 09 cd 24 bd 99 c8 3a be
       -0.02488767 0.039364487 -0.0402346 -0.18240584
000220 e4 df 90 be 17 39 18 3e 42 ff 18 3e 27 4d 62 3e
       -0.28295815 0.14865528 0.14941123 0.22099744
000230 b9 87 aa bc e5 46 aa 3b 39 e6 55 3b db 9a c3 3a
       -0.02081667 0.0051964396 0.0032638444 0.001492347
000240 b0 2b 08 bd 75 0b 9b 3d 37 27 a0 bc 70 e2 ac bc
       -0.03324479 0.07570545 -0.01954995 -0.021104068
000250 65 37 c4 bb c0 5f 15 3e 5a 33 a9 bb 2a 01 85 3c
       -0.005988049 0.14587307 -0.0051635923 0.016235907
000260 08 b8 0d 3c 05 09 15 bd e9 55 5b bd f6 bd 30 3d
       0.0086498335 -0.036385555 -0.053548727 0.04314991
000270 3e a3 8c bd 26 7d 6f bd a3 03 33 3e 2e b5 70 3e
       -0.068670735 -0.05846896 0.17481856 0.23506615
000280 36 2c 1b bc b2 c8 c8 bb d1 c9 8f 3c cd a3 eb ba
       -0.00947099 -0.0061274404 0.017552288 -0.0017977894
000290 06 6a 2f bc cf a4 03 3e e3 2e 15 3e 50 a0 b4 be
       -0.01070643 0.12855838 0.14568667 -0.3527856
0002a0 40 e1 da 3c 33 09 1c 3e 21 95 89 bb 92 e9 fa bb
       0.026718736 0.15237884 -0.0041986858 -0.0076572383
0002b0 3a 49 c0 3d 69 d3 7e 3e 2e ac df 3d 9d 2a 58 3c
       0.09388967 0.24885334 0.109215125 0.013193754
0002c0 94 19 93 3e 02 00 02 be dc 2e 3d be 08 1f e1 3d
       0.28730452 -0.12695315 -0.18474907 0.10992247

l1.weight f4 [100, 90]
000000 46 d6 3c 3e 94 a2 5e bb e0 bf a4 3d 66 9d d6 3d
       0.18441114 -0.0033971416 0.0804441 0.1047924
000010 73 55 bb 3d 12 4f 51 3d b5 9c ec 3d 16 c5 58 3d
       0.091471575 0.051100798 0.11553327 0.05292233
000020 33 cf 56 be 0e 51 dd bd 92 17 b7 3d b8 0e 50 be
       -0.20977478 -0.108064756 0.089400426 -0.20318115
000030 a8 b1 dc bd 5e 49 cb 3d eb ca 55 bd 56 5f 9c 3d
       -0.10776073 0.09926103 -0.05219547 0.076353714
000040 63 6e a2 3c 02 3b 9e bd 40 d7 83 bd 78 fe d4 3d
       0.019828027 -0.077260986 -0.0643754 0.104000986
000050 1b 3f bb 3d 0d 90 93 3c fe 5c af 3d 67 39 e8 bd
       0.09142896 0.018013025 0.08562659 -0.11339074
000060 c4 ba 91 3c b2 a9 87 3d f9 66 34 3e 74 b5 a4 3d
       0.017789252 0.06624164 0.17617406 0.08042422
000070 d4 c8 19 3e 51 ce 4f 3b b6 dc ad 3d d5 99 0b be
       0.15018016 0.0031708668 0.08489363 -0.13632901
000080 cd 51 39 be 47 75 e7 bd a8 9d 9a bd ba d1 19 3d
       -0.18097611 -0.11301666 -0.07549602 0.037553526
000090 16 db 1a 3e b8 3f 41 bb de 1d bc bd 3e 54 35 3e
       0.15122637 -0.0029487442 -0.09185384 0.17707917
0000a0 61 17 50 bc 44 ec 65 bd 3d d4 d6 3d 79 25 23 3d
       -0.012700886 -0.056133524 0.104897 0.03983066
0000b0 0d 0f 8d ba 09 51 89 3d 77 be fe bd 3b f7 30 bd
       -0.0010761932 0.06704909 -0.12438672 -0.043204527
0000c0 7a 8d 53 3d ef 68 93 bd a0 77 e4 3d 6a bd bf be
       0.051648594 -0.07197749 0.11155629 -0.374492
0000d0 d3 93 59 3e 03 56 01 bd f7 96 0f be f2 33 00 3c
       0.21247797 -0.031576168 -0.14022432 0.007824885
0000e0 18 8a ae bd ac 71 4c bd bb eb a1 bc b6 b3 e9 3d
       -0.08522433 -0.049913093 -0.019765725 0.1141123
0000f0 a5 de c1 bc f2 eb f9 bd 26 d2 00 3d a2 ad f6 3c
       -0.023665735 -0.12203206 0.031450413 0.030112091
000100 59 3d 8b bd a2 f5 fb bd 91 15 8e ba 25 e9 16 be
       -0.067988105 -0.1230271 -0.0010840168 -0.14737375
000110 bd 3c 5b 3b c9 88 31 be 42 f2 3b be fa de d4 3d
       0.003345295 -0.17337336 -0.18354133 0.10394092
000120 1e 32 01 3e 36 47 40 3e 89 2e 3d be 87 0e 87 3b
       0.12616774 0.18777165 -0.18474783 0.004121605
000130 c0 4f 49 be a1 35 50 bd 77 8d 8b bd 64 4f 18 3d
       -0.19659328 -0.050832395 -0.06814092 0.037185088
000140 a0 f3 6e bd f1 d9 57 bd 86 fe 89 3d 78 27 da 3d
       -0.058337808 -0.05269808 0.067379996 0.10652059
000150 35 36 36 be 43 15 fd 3d c4 43 a3 3d 9f 2c 8a bd
       -0.17794116 0.12357571 0.0797191 -0.06746792
000160 c1 5e 56 3d ad 82 34 3e ef 6e 65 3e 01 e8 82 bd
       0.052336458 0.17627974 0.22405599 -0.063919075
000170 74 c7 60 bd 03 00 15 bd 53 8d fd bd 09 df 45 3d
       -0.054877713 -0.036376964 -0.12380471 0.048308406
000180 79 57 3e 3e b7 ff a1 bd ea 63 86 3d 0b 8a ba 3d
       0.18588056 -0.07910102 0.06562026 0.09108361
000190 ad d2 77 3d d0 12 e4 bc c7 3d 1e be aa 09 3d 3d
       0.06050365 -0.027841002 -0.15453254 0.046151794
0001a0 9a e7 0e be 9a 78 7e bd 2f 62 d6 3d f1 4b 0c be
       -0.13955536 -0.062126733 0.10467946 -0.13700844
0001b0 02 ea 27 3d 6b 2a 65 3d cc 27 79 3d 77 66 c0 3c
       0.04099465 0.055948656 0.06082897 0.023486359
0001c0 53 3d 40 bd 4f 67 51 bd 0f ad fa bb 26 1a 36 3d
       -0.046933483 -0.051123913 -0.0076500247 0.04445853
0001d0 c2 50 27 3d 14 d3 18 bd a3 02 d3 bc 8c 23 11 3d
       0.0408485 -0.037310675 -0.025758093 0.03543429
0001e0 b0 fe 3c 3c 4f e6 0f bd 69 4f 97 bb c2 2a 71 3d
       0.011535332 -0.03513175 -0.0046176207 0.058878668
0001f0 bb 9b 29 be 39 98 e3 bb 1a 08 48 bd e2 53 93 3d
       -0.16563313 -0.0069456366 -0.04883585 0.07193734
000200 81 4e 12 3d ea f8 76 3d 6b a1 1f bd ba 12 0d 3e
       0.0357194 0.060295977 -0.0389723 0.13776675
000210 09 76 f0 bd 8d aa 48 3c aa d9 4d be 93 7d 38 bd
       -0.117412634 0.012247694 -0.20102564 -0.045041632
000220 f7 b0 8d 3d 31 a6 d1 bd 7e 54 25 3b 08 b5 8f bc
       0.06918519 -0.102367766 0.0025227363 -0.017542377
000230 86 06 b5 3d f1 fc 1c be 47 a5 5a be 0d d5 e7 bd
       0.08839135 -0.15330864 -0.21352111 -0.11319933
000240 88 fd 98 bd 3b 1e f5 3d 0a b9 2d 3d be 66 2f 3d
       -0.07470232 0.11968657 0.042412795 0.042822592
000250 c7 ff bf bc c9 1d 05 be 82 ba d9 bc 72 53 3e 3c
       -0.023437394 -0.12999643 -0.026578192 0.011616575
000260 a8 13 69 bb ce ff f9 bc df b4 c2 3c 32 00 bb bd
       -0.0035564695 -0.030517485 0.023767887 -0.09130897
000270 4f c7 08 bc 60 95 01 bd 53 07 d1 3c da d2 e0 3d
       -0.0083483 -0.031636596 0.025516188 0.10977717
000280 cf 18 3b be a8 a6 f4 3d 14 62 0e be d4 af b6 bd
       -0.18271182 0.1194585 -0.13904601 -0.08920255
000290 72 f2 1c 3d 3b f6 90 bd 27 d9 85 3d 20 25 0f be
       0.03831715 -0.07078215 0.06535559 -0.13979006
0002a0 16 f4 43 3e 0b 3c de 3c 68 50 74 bc 3d e4 9d bd
       0.1913608 0.02712824 -0.0149117485 -0.077095486
0002b0 61 f2 1a bc 06 38 c0 3d 0b f6 dc bd b4 78 78 bd
       -0.009457202 0.093856856 -0.107891165 -0.060661986
0002c0 30 94 6a be 9b ca ff 3d 59 1f c8 bd 85 4d e3 bc
       -0.22908092 0.12489816 -0.09771604 -0.027746925
0002d0 4d 96 19 bc 28 d3 20 3e 6d 9f 1f 3d e9 ff 63 be
       -0.009374213 0.1570555 0.0389704 -0.2226559
0002e0 b9 14 47 bd 1e fa 1d be 8f 6c a1 bd dd c5 99 3d
       -0.048603747 -0.15427443 -0.07882034 0.075084426
0002f0 02 1a d6 3c 63 e2 5f bd fe 81 5f 3b 41 6c 29 be
       0.026135448 -0.05465926 0.003410458 -0.16545202
000300 7b 58 21 be 0f 1a 04 3e 61 ea 44 bd e4 28 4c bd
       -0.15756409 0.12900566 -0.048075084 -0.049843684
000310 3d 15 dd 3c af 40 13 3e 57 1f 25 3d 31 ae ac 3c
       0.026987666 0.14380144 0.04031309 0.021079155
000320 ca f1 9f bd 6f 3f 92 3d 81 59 55 be b2 6a 88 3d
       -0.078097895 0.07141005 -0.20834924 0.066609755
000330 0a 41 78 3e 27 5a 45 bc 38 9d 81 bc 89 2e b6 bd
       0.2424356 -0.01204542 -0.015822038 -0.088955946
000340 f9 ac 98 bd 4b cd 10 3e 49 08 44 bc 9b 7e 52 bc
       -0.07454867 0.14140813 -0.011964866 -0.012847568
000350 75 44 20 3e b8 6a 12 3d 19 f2 2d bc d2 59 19 3e
       0.15651114 0.035746306 -0.010616803 0.1497567
000360 27 92 8f 3d 42 cc 01 be f8 7b 02 bd a5 03 0a bd
       0.07010298 -0.12675574 -0.031856507 -0.033694882
000370 e4 5a 05 be b1 6d 17 be ef c4 69 3d 12 69 35 bd
       -0.13022953 -0.14787938 0.057072576 -0.044289656
000380 88 8c 7f 3e 03 26 18 bd f4 8e 21 3e 75 7c b4 3d
       0.24955952 -0.037145626 0.15777189 0.08812801
000390 03 8c 3a 3d 59 ae 84 3d 19 01 49 3e 4a 6f 40 bd
       0.04554368 0.06478567 0.19629325 -0.046981134
0003a0 64 9a 5c bd 2d 00 81 3d da 0d 9a 3c 95 ba 34 3e
       -0.053858176 0.06298862 0.018805433 0.176493
0003b0 5f 70 c1 bd 7c 08 be bc 54 f3 20 3e 49 30 79 bd
       -0.09445261 -0.023197405 0.15717822 -0.060837064
0003c0 3a bb 37 3c 2d 00 05 be 47 62 a0 3d 8d d6 ab 3d
       0.011214072 -0.12988348 0.07831245 0.08390532
0003d0 de 45 8e bd c5 39 3e be 0a 6b 7f bd 4f eb 0f be
       -0.0694692 -0.18576725 -0.06235794 -0.14054607
0003e0 f1 31 10 be 0f 8e 4f bc 1f d9 f5 3d 91 a0 5a 3d
       -0.14081551 -0.012668147 0.12004303 0.053375784
0003f0 b8 ec 38 be 93 b1 83 bd 3e 59 d5 3d c7 0b 7e bb
       -0.18059051 -0.06430354 0.10417412 -0.0038764344

l1.bias f4 [100]
000000 5e 08 c2 bc d3 49 a2 3c 30 22 1a 3e f0 3e 8e 3d
       -0.02368563 0.019810593 0.15052104 0.06945598
000010 10 c6 00 3e a6 7d 36 3c 06 68 3c 3e 0f 70 02 bd
       0.12575555 0.011138355 0.18399057 -0.03184515
000020 68 36 15 bd 0c ee 56 bd 42 58 2a bd 08 73 c7 bd
       -0.03642884 -0.052473113 -0.041588075 -0.09738737
000030 70 f4 d4 bc b6 cf ac 3b 45 60 f7 bc 35 25 dd 3d
       -0.025995463 0.0052737845 -0.030197272 0.10798112
000040 d3 20 23 3d 74 c8 1b 3d 52 c0 a7 bd 2f b9 a6 bc
       0.039826225 0.038032964 -0.08190979 -0.020351974
000050 c0 8b 2b 3e 77 12 de bc 6f 3b ed bc 90 d7 eb 3d
       0.16752529 -0.027108414 -0.028959004 0.11515725
000060 40 11 77 3c 50 e2 1a 3e 88 54 48 bd 95 16 e8 bd
       0.015079796 0.15125394 -0.04890874 -0.11332432
000070 b7 16 a7 bb 5c ed 9e be e4 62 52 3d be 94 cc 3d
       -0.0050991434 -0.31040466 0.05136384 0.09989308
000080 28 38 1d be 0e 16 78 be 3a 03 47 be 4e 77 2e bc
       -0.15353453 -0.24227163 -0.19434825 -0.010648562
000090 08 3e be 3c e1 b0 12 3e 43 be 2c 3b f5 33 35 bd
       0.023222938 0.14325286 0.0026358522 -0.044239003
0000a0 de 88 5b be 19 87 5e 3e 42 ac 00 be 6d 1e ea 3b
       -0.2143893 0.21731223 -0.12565711 0.0071447403
0000b0 a0 25 5c bd 48 71 bf bc 43 7d 39 bb 7c 33 c4 bc
       -0.05374682 -0.023369446 -0.0028303422 -0.02395033
0000c0 3b 7d 79 bd d0 7a 2f be 01 db b8 bb ac c0 15 3e
       -0.060910445 -0.17136693 -0.0056413417 0.1462428
0000d0 0f 5f df 3d 3a 0e 28 be fb f4 8a bc 23 49 18 bd
       0.10906803 -0.16411677 -0.016962519 -0.037179124
0000e0 29 ab 0c bd fe 52 6a 3d 5f d4 bc bc 2a 07 87 bd
       -0.03434292 0.057208054 -0.023050485 -0.06593163
0000f0 63 e9 0f be e1 7f 62 3d 12 eb bb bc 59 47 d6 3d
       -0.14053874 0.055297736 -0.022939239 0.10462827
000100 c1 2e df 3d b8 6e f3 bd 79 60 f3 bb 5c 88 b5 3d
       0.108975895 -0.11886352 -0.007427272 0.08863899
000110 bc 56 fa bc df de 00 3c d0 2b b4 3d 04 d9 97 bd
       -0.030558936 0.007865637 0.08797419 -0.07414439
000120 41 5a 06 be 6f 34 38 3e c7 3e a2 3d e7 91 36 3d
       -0.13120367 0.17988752 0.0792213 0.044572737
000130 b1 63 27 be 73 6b 5b bd bd d9 56 be f2 e7 d4 bd
       -0.16346623 -0.05356927 -0.20981498 -0.103958026
000140 5a 3e 17 3d 6a 7d ec bd 7b 9e af bc cd 81 89 3d
       0.036924697 -0.11547358 -0.021437874 0.06714211
000150 7a d0 19 3d 2d 00 93 3c 00 18 88 bd a1 f4 5b 3c
       0.037552334 0.01794442 -0.06645203 0.013425023
000160 57 ea 05 be a7 96 97 bc 55 d0 04 3e aa 7e 98 3d
       -0.13077675 -0.018504454 0.12970097 0.07446034
000170 d1 3f 73 bc d4 54 01 3d 8c 07 fb 3d a5 e7 08 bd
       -0.014846758 0.03157504 0.12257299 -0.03342404
000180 bb f0 86 bb 63 7c bd bd 0e be 14 be 89 29 00 3c
       -0.004118053 -0.092522405 -0.14525625 0.007822403

l2.weight f4 [100, 100]
000000 cd 53 17 3e 58 75 7b 3e 5e 7a 40 bd ea 33 c0 bd
       0.14778061 0.24556482 -0.0469917 -0.09384902
000010 66 99 42 bd f9 2a 26 3d 44 d9 ad 3c af cf f7 3d
       -0.047509573 0.040568326 0.021221764 0.121001594
000020 47 2d 56 bd b6 26 c1 bd 74 5e c4 bc 13 e2 de bd
       -0.052289274 -0.09431212 -0.02397082 -0.10882964
000030 e2 a4 44 bc c2 b0 aa bc 19 fe 06 3d ef 61 97 3d
       -0.012002202 -0.020836238 0.03295717 0.07391726
000040 1c 79 6c be 9c bc ee bd eb 28 28 bd 8a aa 31 3e
       -0.23093075 -0.11657068 -0.041054647 0.17350212
000050 63 1f 87 bd a8 27 1f 3e f6 38 0c 3e ac 4b 61 3d
       -0.065977834 0.15542471 0.13693604 0.055003807
000060 e1 14 5f bc 95 6d d3 3c 1c a8 22 be 3f c4 0e be
       -0.013615818 0.025809089 -0.15884441 -0.1394205
000070 de 55 7e be e1 3c 00 be 2b cd 25 3e 6a e9 96 bd
       -0.24837443 -0.12523223 0.16191547 -0.07368739
000080 3e e7 69 3d fa 78 d9 bb b4 17 bf 3d 41 af 4d 3d
       0.057105295 -0.006636736 0.09330693 0.050215963
000090 7b a4 07 be a2 27 b2 3c f8 7f 09 be 1f 1a 9c 3d
       -0.13246338 0.021747414 -0.13427722 0.0762217
0000a0 bc 05 76 bd 19 6d 0a 3e f6 c0 1a bb 8e 6b 86 bd
       -0.060064062 0.1351818 -0.002361355 -0.06563483
0000b0 e4 91 04 3e 4c 68 d5 bd c1 0a 29 be 5f 32 18 3e
       0.12946278 -0.10420284 -0.16508009 0.14862965
0000c0 15 67 08 be fe 23 7f 3d be 73 20 bd dc 16 12 3c
       -0.13320573 0.062290184 -0.03917288 0.008916583
0000d0 f8 f0 0a 3c 68 19 52 bd d7 0b 3a 3e 57 6d 51 3d
       0.008480303 -0.05129376 0.18168579 0.051129665
0000e0 b9 5c b7 bd 49 3d 8f bb f9 ac 11 be 6a f8 ca bd
       -0.08953232 -0.0043713194 -0.1422614 -0.099106625
0000f0 37 46 00 3d 3e da f5 3d f0 f5 58 bd 55 c4 13 3d
       0.031316962 0.12004517 -0.05296892 0.03607591
000100 92 b9 ab 3c 3f ee dd bd 20 fd b2 3d 3a cf 12 be
       0.02096251 -0.108364575 0.08739686 -0.14336863
000110 ef d9 05 3e f9 41 bc 3d ef df 19 bd 73 df ac 3d
       0.13071416 0.09192271 -0.037567075 0.08441057
000120 c3 ca ae 3d fb 53 fd 3d f8 71 b4 3d de bf 55 3d
       0.085347675 0.12369534 0.088108 0.052184932
000130 ac f9 56 3e 1d 88 48 3d d9 68 94 bd cc 00 e8 3b
       0.2099368 0.048957933 -0.072465606 0.007080173
000140 21 a0 40 3e 5c 2a d7 bc 1b ae ad bd 7b 07 a4 bd
       0.18811084 -0.026265316 -0.084804736 -0.08009239
000150 8f 52 50 3d 91 b6 e0 bd 78 4e 2d 3d b1 73 af bd
       0.050859984 -0.10972322 0.04231116 -0.08566988
000160 9d 5f c6 bd 04 af a3 bd bb 12 ee bd 81 a5 23 3d
       -0.096862055 -0.07992366 -0.11624666 0.03995276
000170 38 47 15 bd 99 c5 95 bd 99 51 fa bc 8c 3f 9c bc
       -0.036444873 -0.073130794 -0.030556487 -0.01907327
000180 85 7a ae bd 2c 11 6a 3e 53 69 7e 3d 1b ea 78 bc
       -0.085194625 0.22858113 0.062112164 -0.015192534
000190 0e 1e 04 be 67 c2 fa 3c 7d 81 18 be f7 e9 59 3d
       -0.1290209 0.030610276 -0.14893146 0.053201642
0001a0 72 a3 37 3e d7 8b f2 bb 12 d0 58 3e 08 24 ca bc
       0.17933443 -0.007401924 0.21173123 -0.024675384
0001b0 cc ea ca 3d 61 42 04 3c 00 0d 01 3d 97 06 76 3d
       0.09908065 0.008072467 0.03150654 0.06006488
0001c0 e0 3f 05 bd 4f e4 13 bd 92 08 0c be 30 90 dc bd
       -0.03253162 -0.036106404 -0.13675144 -0.10769689
0001d0 05 14 98 bc 35 f3 11 be eb 3a 83 3d 1f a6 ec 3d
       -0.018564234 -0.14252932 0.06407722 0.115551226
0001e0 2c b0 92 bd ab 5c 85 bd cc 5f 52 3c d7 a7 51 3d
       -0.07162508 -0.06511816 0.012840223 0.051185455
0001f0 4a 2c 4f 3d 57 cb d5 3b ad 83 51 bd fa 62 2d bd
       0.050579347 0.006524484 -0.051150966 -0.04233072
000200 13 e9 d3 3d e1 3d 0a be 25 4d 71 bd 5c b5 91 3c
       0.1034719 -0.13500167 -0.05891146 0.017786674
000210 e8 f0 f7 3d fa 21 20 bc 22 45 ed 3d 0c 76 fe 3d
       0.12106496 -0.009773726 0.11585452 0.124248594
000220 a1 4a d7 bc 10 e2 a7 bd 99 c5 27 bd 2b c4 dc bc
       -0.026280703 -0.08197415 -0.04095993 -0.026949009
000230 d1 c2 42 3d 51 bc 39 bc 9f c8 99 3c a7 f5 42 bd
       0.047549073 -0.011336402 0.018772421 -0.047597554
000240 71 4c 9e bc 95 fd 01 3e 63 fa 58 3d 42 4b de 3d
       -0.01932356 0.1269439 0.052973162 0.10854198
000250 68 dc 80 bd 31 88 8c 3c 43 6a 93 bb de 39 e5 bc
       -0.06292039 0.017154785 -0.0044987514 -0.027981695
000260 aa 9e cc ba 4d ea 09 3e 94 0f ef 3d 0a 37 68 3d
       -0.001561125 0.13468285 0.11672893 0.056693114
000270 12 95 bd bd ff bd 36 3d d0 2b 40 be d5 39 80 bd
       -0.092569485 0.04461479 -0.18766713 -0.062610306
000280 f3 32 52 3d 38 27 e4 3d 72 af 62 ba c7 e7 4a 3d
       0.05131812 0.11140293 -0.0008647359 0.049537446
000290 8e d4 9c 3d f0 a4 0d bd 0d 1a be 3d ea c7 b0 bc
       0.07657729 -0.034581125 0.092823125 -0.021579701
0002a0 7c 33 23 3d 8b 73 01 be 1d 76 f7 bc ab 86 39 3d
       0.03984402 -0.12641732 -0.030207688 0.045294445
0002b0 df 5a b0 bd 59 05 b9 3b 0d 7a 8e 3d b9 54 02 3d
       -0.08611082 0.0056463894 0.06956873 0.03181908
0002c0 48 20 9a bd c3 7d 00 3b 39 8c 0c be a6 24 1b be
       -0.075256884 0.001960621 -0.13725366 -0.15150699
0002d0 81 2e 14 be 4d 9f 53 be 62 03 6a 3d 8d af c9 bd
       -0.14470865 -0.20666237 0.057132132 -0.09847937
0002e0 b7 f1 29 bd 8d fe 18 3d b8 3c 2a be 3e 2a 67 bd
       -0.041490283 0.037352134 -0.16624725 -0.05643677
0002f0 1d 16 e1 bc 7f 36 8b bd 44 dd 1e 3e 9e b2 9f 3c
       -0.027476365 -0.06797504 0.15514094 0.019494351
000300 ba 57 11 be 09 a6 9b 3c b8 b4 a8 3d fe 4b 97 3c
       -0.14193621 0.01900007 0.08237594 0.018468853
000310 0c 6b b6 3d 19 8a 04 be ca 8b 93 bd d6 41 21 bd
       0.08907136 -0.12943305 -0.07204397 -0.039369427
000320 47 79 a4 3d 62 b6 d4 3d 9e a4 ee 3d 21 c7 03 3d
       0.08030944 0.10386349 0.11652492 0.032172326
000330 28 3a f9 bc 12 6a 26 3e a2 95 f2 bd 0c 30 d0 bc
       -0.030423239 0.162514 -0.118449464 -0.025413536
000340 bb ca 04 bc e7 fb 64 bd 40 93 0e 3e 53 ed f6 3d
       -0.008104975 -0.055904295 0.13923359 0.12056985
000350 5c 0a 46 be 02 3b e5 bd 0b ce 1b bc 24 12 7b be
       -0.1933989 -0.111928955 -0.009509574 -0.24518639
000360 ac 83 4e be f1 37 28 be ec 71 d1 3c 73 93 5d 3d
       -0.20167416 -0.1642759 0.025567017 0.054095697
000370 20 69 7f 3d 91 4d c7 3c b6 12 62 be a8 26 6e 3e
       0.062356114 0.024328979 -0.2207745 0.23256934
000380 06 a4 0a bb 08 7a 4e 3d 93 70 95 3c 3f 88 01 3d
       -0.0021154894 0.050409347 0.018242156 0.031624075
000390 57 1a 97 bd 17 6f 40 be 92 5e 06 be 9c 11 0d 3d
       -0.07378071 -0.18792377 -0.13122013 0.03444062
0003a0 a0 43 b6 3d ae 78 c4 3d a1 e3 37 be 16 de aa bc
       0.08899617 0.0959333 -0.17957927 -0.020857852
0003b0 d6 21 a4 3d b9 53 f5 3d be c3 1f 3e 3c fe 05 3d
       0.08014266 0.119788595 0.15602013 0.03271316
0003c0 31 dc 9f bd 1f 8c 08 be 73 5b 13 bd a6 13 d4 bd
       -0.0780567 -0.13334702 -0.035975885 -0.1035531
0003d0 51 4d 73 bd 68 3d 38 3d 0b 82 55 bc b5 48 ea bc
       -0.059399907 0.044980437 -0.013031493 -0.028599123
0003e0 50 f6 64 3d 6e fb 38 3e 14 6c 61 3e ab 16 20 be
       0.055898964 0.18064663 0.22013885 -0.15633647
0003f0 7a fc f6 3c 20 4e b3 3c ff f9 be bd 09 2a b4 3d
       0.030149687 0.021887839 -0.09325027 0.0879708

l2.bias f4 [100]
000000 91 13 f1 3c 71 97 37 be 43 99 8d 3d 53 28 b9 3c
       0.029428275 -0.17928864 0.06913998 0.022602236
000010 14 86 76 bd 54 9d dd 3d a8 18 63 3c c9 9e 1a be
       -0.06018646 0.108210236 0.013860859 -0.15099634
000020 88 74 c8 bd 4b e5 13 bd 1a 88 de 3c 39 11 f1 3d
       -0.097878516 -0.036107343 0.027164508 0.11770863
000030 64 46 08 3d 6e f4 dd 3c 04 ac ba 3d 23 f4 d3 3d
       0.033270255 0.027094092 0.091148406 0.103493
000040 9f 56 85 3a 95 01 89 3c ed c7 8d 3e 01 b0 68 3c
       0.001017291 0.016724387 0.27691594 0.014202119
000050 f6 bb de 3d 98 ec 84 bd 0b cc 10 3d 58 6c 4b 3d
       0.108756945 -0.06490439 0.03535084 0.04966387
000060 ca 56 b5 bd 65 7f 8f 3c 16 bc 96 b9 15 ea f4 bd
       -0.08854444 0.017516801 -0.00028750364 -0.1195871
000070 ef e8 28 3d ca c1 2d bd 36 2a 5a bc 75 e7 b1 bc
       0.041237768 -0.04242114 -0.013315728 -0.021716813
000080 ae 53 97 3c 9e 5a 04 3c 99 3c 3b be 6e dd e2 3c
       0.018472519 0.008078245 -0.18284835 0.027693477
000090 6a 6f b7 3d 5d 1e d4 bc 46 99 3f 3d 5d 22 85 bd
       0.089567974 -0.025893385 0.046777032 -0.06500695
0000a0 5d 32 62 bc 69 05 78 bd b6 82 0f bd d7 c5 de 3c
       -0.013805953 -0.060552035 -0.035036765 0.027193947
0000b0 56 fd df bc 0f 7a 04 bd 4d 40 ab bc ef c9 88 bd
       -0.02734248 -0.032342967 -0.020904684 -0.06679141
0000c0 bd bf 0a bc 2a 89 2f 3d 93 07 a0 3c 85 e1 d9 bc
       -0.0084685655 0.04285542 0.019534862 -0.026596794
0000d0 09 87 0d 3e ba fd 23 3d 8b 5c d2 3b 2d 25 b5 bb
       0.13821043 0.040036894 0.0064197234 -0.0055281133
0000e0 e9 2c 7a bd 85 23 7c 3d 66 15 c9 bc 83 88 c5 3d
       -0.061077986 0.06155731 -0.024546336 0.09645178
0000f0 b5 f7 a9 bd 2e 5b 67 be 28 58 a3 3d d9 6b 11 3e
       -0.082991995 -0.22593376 0.07975799 0.14201297
000100 98 20 fd bc d5 32 b3 bc 2f 20 95 bc b6 24 75 3d
       -0.030899331 -0.021874825 -0.018203823 0.059849463
000110 fd 14 0c 3d e6 50 15 bd 3c aa 32 be 69 7d ab 3b
       0.034199703 -0.036454104 -0.17447752 0.005233456
000120 8b 3e 36 3d 4a f2 88 bc f2 0d e7 3c 31 06 e6 3c
       0.04449324 -0.016717095 0.028204892 0.028079124
000130 4c 2f 63 be a2 25 82 3d da 91 8c 3c 36 db d4 3b
       -0.22186011 0.06354834 0.017159391 0.0064958585
000140 b3 f1 ba 3c d1 49 4d 3a 4d a9 1f 3c 39 1d 17 3e
       0.02282033 0.0007831129 0.009744954 0.14757241
000150 3f 25 a4 bc d1 4f 56 3b 24 57 0c bd ca 88 7f 3c
       -0.020037292 0.0032701383 -0.03426279 0.015596578
000160 13 1f 25 3c 90 a3 98 b8 aa 76 99 be 04 1d c3 3d
       0.010078209 -7.278391e-05 -0.29973346 0.09527019
000170 67 ea 07 bc 7d a6 22 bd 79 ae d7 bc 31 40 83 bc
       -0.008295632 -0.039709557 -0.026328312 -0.01602182
000180 65 34 b9 bd 67 c1 22 bd 0e 44 3d be ea 5b 5f 3d
       -0.090431966 -0.039735224 -0.18482992 0.054531015

l3.weight f4 [18, 100]
000000 6f a2 c8 3d 70 06 3d bd f7 fb b2 bc 26 26 11 3e
       0.09796607 -0.046148717 -0.021848662 0.14174709
000010 7d 9e 4b be 3a 9c 68 ba 45 2a 13 be 8c 4d 94 3d
       -0.19884677 -0.0008873377 -0.14371593 0.072413534
000020 31 1e b9 3c 63 90 bb bd cb 78 63 3d 9d 1a 04 3e
       0.022597404 -0.09158399 0.05553512 0.12900777
000030 63 93 8f 3d 0e 93 46 3d 37 be 0f be 4f a8 a1 3d
       0.07010534 0.048480086 -0.14037405 0.078934304
000040 f2 5e 94 3d f5 87 d5 bd 1a c5 c8 bd d5 8c ad 3d
       0.07244672 -0.10426322 -0.09803219 0.08474127
000050 92 ce dd bc 72 d3 29 bd 24 9a 1b 3e 1f 3a 5b bc
       -0.02707604 -0.041461416 0.15195519 -0.013380556
000060 2d b4 88 be 3b 54 ee bd ae c7 0e bd 3a 39 82 be
       -0.26699963 -0.116371594 -0.0348584 -0.25434285
000070 28 c4 f2 3d 8e b4 9e 3d 5a b9 b3 bc a1 29 87 bb
       0.1185382 0.07749282 -0.021938968 -0.0041248356
000080 19 9b 92 3e 27 aa 83 be 5a b9 c5 bd 96 84 14 be
       0.28633955 -0.25715753 -0.09654494 -0.14503703
000090 c9 0e df 3b 3e 49 34 bc 60 fe 2f 3e 8f ae e4 bc
       0.0068071824 -0.01100379 0.1718688 -0.027915267
0000a0 c4 35 4a bb 32 33 19 3e 5a 79 03 3c 8d b0 f9 3d
       -0.00308548 0.14960936 0.008024538 0.121918775
0000b0 f7 6a 90 bd 4b 20 91 bb 36 ac 37 3e fb 1f 1f 3d
       -0.07051652 -0.0044288984 0.17936787 0.03884886
0000c0 52 8b 18 3e 22 84 3d be 1e dc 0e 3d 6b aa 68 be
       0.14896896 -0.18507436 0.03487789 -0.2272126
0000d0 c7 34 23 be 6c 2f 0a be 0b ff 8b bd 65 2f 2c be
       -0.15938102 -0.13494653 -0.06835755 -0.16814955
0000e0 c3 da eb 3c 98 a1 c3 bd 9c a5 02 be 4b 8e 77 bd
       0.028790837 -0.09552306 -0.12758487 -0.060438436
0000f0 5b cb 67 3e 0e d2 2f 3e ff ee 15 3d 62 47 34 3c
       0.22636168 0.17169973 0.036604878 0.011003347
000100 59 dd 9c 3d 8a 3b 68 be 02 2f 6c 3e 24 fe 94 3d
       0.07659406 -0.22678962 0.23064807 0.07275036
000110 bc c0 c5 bd a9 ac fe 3d 87 df 62 be 00 f8 42 3d
       -0.09655902 0.12435276 -0.22155581 0.047599792
000120 ce a5 81 3d 38 84 f3 3d 0c dd 18 3d 1a f9 05 be
       0.06330453 0.11890453 0.03732018 -0.13083306
000130 68 9e 46 3e 4f 3c 71 3c 75 56 80 be c2 d6 52 bc
       0.19396365 0.014723851 -0.2506596 -0.012868585
000140 8f 67 81 3e 0f e3 26 be 05 0b 46 3d 9b 57 81 bc
       0.2527432 -0.16297553 0.048350353 -0.015788844
000150 7f 94 9f bd 26 18 9e 3d 37 77 77 be 4a 4f 07 be
       -0.07791995 0.0771945 -0.2416657 -0.1321384
000160 a6 2c 24 be 79 76 71 be 60 87 76 3e 56 d2 8b 3d
       -0.16032657 -0.2358035 0.24075079 0.06827228
000170 bc d0 0a 3e 2e 4a dc 3d de ab 85 3d e3 69 9e bd
       0.13556188 0.10756336 0.06526922 -0.0773504
000180 13 a1 f3 3c 25 ee 19 3d 73 c5 b4 3c dc 61 6e be
       0.029739892 0.037580628 0.022066807 -0.23279518
000190 f6 31 8d 3d eb 16 2a be d3 ad c6 3d 01 df 7e 3d
       0.06894295 -0.16610305 0.09701123 0.06222439
0001a0 4d 1c a9 3d 06 67 b2 3b 15 29 fb 3d 7c c6 76 be
       0.08257351 0.0054444103 0.12263695 -0.24099153
0001b0 0c 6d 61 be 26 96 91 3d fb f3 49 3c 8b ae c3 3d
       -0.22014254 0.07108717 0.012326236 0.09554776
0001c0 8f ff c2 3d 30 2b 01 3e ed 42 bc 3e 53 25 70 3c
       0.095214 0.12614131 0.3676981 0.014657336
0001d0 c7 2c a8 bd df 76 37 bd ee a3 2f 3e fd 6c e9 bd
       -0.082116656 -0.0447911 0.17152378 -0.11397741
0001e0 ab a7 fe 3d 72 f5 7a 3d a4 cd 27 3e 77 43 d4 3c
       0.12434324 0.06126923 0.1638704 0.025911076
0001f0 3f 42 84 be 5c f7 02 3e d3 2d 10 be 8a 08 99 3c
       -0.25831792 0.12789673 -0.1407998 0.01868083
000200 47 78 20 be 97 fb 3b bd d5 d8 79 3e ef ac 8a bd
       -0.15670882 -0.04589423 0.24399121 -0.06771266
000210 2c d2 09 3e cb e4 9b 3d 64 86 a1 3c 37 81 fe 3d
       0.1345908 0.07611998 0.019717403 0.124269895
000220 f0 4e 20 bc 21 ba a5 3c 25 ae 60 bd 24 2e d9 3d
       -0.009784445 0.020230355 -0.054853577 0.10604504
000230 fb 96 ad bd ee 39 49 be 90 94 c5 bd f1 15 a8 3e
       -0.08476063 -0.19651005 -0.09647477 0.3282924
000240 70 92 3e 3d ec 86 a6 3b 78 24 74 bd ae 6c ec 3c
       0.046526372 0.005082002 -0.05960509 0.028860416
000250 71 c6 77 3d 12 31 33 be 70 51 db 3d de 8d 05 be
       0.060491983 -0.17499188 0.10708892 -0.130424
000260 66 b9 b6 3e f2 64 aa 3d 28 1b ba 3e e6 52 49 3a
       0.35688323 0.08320035 0.36348844 0.00076798943
000270 33 24 eb bd 08 13 46 bd 86 9e c9 3c 19 f0 53 3e
       -0.11481514 -0.048357993 0.024611723 0.20697059
000280 f3 b8 e0 bd 8c b6 99 bc 75 13 65 3e 0e 8c 1a be
       -0.10972776 -0.018763803 0.22370704 -0.15092489
000290 55 36 94 3c 62 a9 18 3d 3d 61 23 bd 7e a8 5b be
       0.018092314 0.03727091 -0.039887656 -0.21450993
0002a0 c0 59 a5 3e 45 24 31 bc 3e 6f 1e be 55 2e c7 3d
       0.32295036 -0.01081187 -0.15472123 0.09725634
0002b0 86 4b 59 3e e8 a4 5f bc f0 a5 1a 3e 35 53 ce 3d
       0.21220216 -0.013650157 0.15102363 0.10074464
0002c0 b6 fb 8d be 9f 1d bc bd a3 ff 47 3d 94 5f 30 3e
       -0.27731103 -0.09185337 0.04882778 0.1722396
0002d0 cc a9 ce 3c ad 67 3f 3e 93 f9 47 be df de 61 3e
       0.02522745 0.18691893 -0.19528799 0.22057675
0002e0 3c 53 44 3d 3a f0 96 3d d4 57 2a be c2 ae 26 3d
       0.04793094 0.07370038 -0.16635066 0.040694006
0002f0 71 62 e3 3d 33 3d 63 bd a6 52 0e be 0b f9 30 3d
       0.111027606 -0.055478286 -0.13898715 0.043206256
000300 ee 86 44 bd 2f f9 8a 3d 2e 3f bf bd 27 19 58 be
       -0.04798024 0.06785809 -0.093382224 -0.21103345
000310 ed e6 56 bd fd d0 41 be 56 63 0d be c0 e6 38 3e
       -0.05246632 -0.18927379 -0.13807425 0.18056774
000320 f7 2e 0a be f5 fc c4 3d 1e 12 1b 3e bc 21 7b bd
       -0.13494478 0.0961856 0.1514363 -0.06131147
000330 80 37 cb bd ff aa 4b 3e 6e 6a 5b bd 4d 6e 35 3b
       -0.09922695 0.19889449 -0.053568296 0.0027684153
000340 3f 48 66 3e 79 a8 29 bd 09 d2 3e bd f4 77 02 3c
       0.22488497 -0.041420434 -0.046587024 0.007963169
000350 4f 38 14 3e c7 b9 8e bd 95 8a 46 bd 8c c2 66 bd
       0.14474605 -0.06969028 -0.048472006 -0.056337878
000360 41 e5 37 3e b9 27 d6 3d a5 2d 40 3e 5c 69 b4 3b
       0.17958547 0.10456795 0.18767412 0.005505724
000370 89 06 80 bd 51 5d 7f bc 2d 97 36 3e 4e c0 07 bd
       -0.062512465 -0.015586213 0.17831106 -0.03314238
000380 76 98 9e bd 36 dc 94 3d 02 11 ad 3c cf 62 33 3d
       -0.07743923 0.072685644 0.021126274 0.043795403
000390 be b3 8e bc a7 ec 7d bc d1 6f 7f bd 53 cc cf bd
       -0.017419692 -0.015498317 -0.062362496 -0.101463936
0003a0 ec e7 06 be 32 a7 55 be 76 ea db 3d 7a 58 7b 3b
       -0.13174409 -0.20864561 0.10738079 0.0038352297
0003b0 4f 13 d6 bd 7d 15 41 bc 61 7e b8 bc b3 2f 16 be
       -0.104529016 -0.011784908 -0.0225212 -0.14666633
0003c0 7e c6 af 3d 70 62 15 3e 07 ce 41 bb 8c 42 20 be
       0.08582781 0.14588332 -0.0029572265 -0.15650386
0003d0 3c e4 13 bd 4e f2 c2 bd 1a 51 3f be f4 04 bf bd
       -0.036106333 -0.09518872 -0.18683282 -0.093271166
0003e0 e7 4d a9 bd 23 dc 17 3d 93 fb 19 be e3 ff 83 3d
       -0.08266812 0.037075173 -0.15037374 0.06445291
0003f0 a9 82 54 bd 21 7c 51 be ef 6f 2f be a1 b8 6c 3d
       -0.05188242 -0.20457508 -0.17132543 0.057793263

l3.bias f4 [18]
000000 ee a3 7b 3e c8 18 ec be 97 8c 1e bd 8a fe 19 3f
       0.24574253 -0.46112657 -0.038708296 0.6015402
000010 9e 57 f1 bd c0 ec a4 be 5c 61 26 3e b8 5f bb be
       -0.1178429 -0.32211876 0.16248077 -0.36596465
000020 e5 30 51 3e 2e 34 8d 3e e2 6f 81 3e 06 0a b3 3c
       0.20428808 0.27578872 0.25280672 0.021855365
000030 47 19 97 3e e8 d6 cd be a9 05 9d 3e f5 c6 5a 3e
       0.29511473 -0.40203023 0.3066838 0.21364959
000040 d4 ef 65 bd e0 6a 82 bb
       -0.05613692 -0.0039800256
