data/result/g_690.pt (torch, 87406 bytes, 7 tensors)

G_attr_matrix.weight f4 [36, 5]
0	0x3d1ae6ff	0.03781795
1	0xbcc6fc0e	-0.02429011
2	0xbe78a1fa	-0.24280539
3	0x3d0eefd5	0.03489669
4	0x3c00a720	0.007852346
5	0xbdabdcd8	-0.08391732
6	0x3d0fb4bd	0.035084475
7	0x3dcdaf2a	0.100431755
8	0x3da83b1b	0.082143985
9	0xbc44ae54	-0.012004454
10	0xbce45305	-0.027871618
11	0x3c67362f	0.0141120395
12	0x3c62c9b8	0.013842039
13	0x3cc776da	0.024348665
14	0x3abbb4f8	0.0014320901
15	0xbd93b4b0	-0.07212198
16	0xbdb792c4	-0.0896354
17	0xbddd7fca	-0.108153895
18	0xbd88d673	-0.06681528
19	0xbc44799a	-0.011991883
20	0xbb532678	-0.0032218974
21	0xbd8c6cfa	-0.06856723
22	0x3b94f8a9	0.004546244
23	0xbc387646	-0.011258667
24	0x3c080bf5	0.008303632
25	0x3deae661	0.114697225
26	0xba40c675	-0.0007353791
27	0xbd8620ca	-0.06549223
28	0x3e756389	0.23963751
29	0xbdb5359e	-0.08848117
30	0xbca7c438	-0.020479307
31	0xbc31a1e2	-0.0108418185
32	0xbc68765b	-0.014188374
33	0xbc11e004	-0.008903507
34	0x3e039c82	0.12852672
35	0x3e519989	0.20468725
36	0x3dfe08ed	0.12404046
37	0x3e4fae6a	0.20281377
38	0x3e1bff80	0.15234184
39	0x3d6b7774	0.057486966
40	0x3b1bc707	0.0023769753
41	0x3c067bbf	0.008208214
42	0x3c1f40bf	0.0097200265
43	0xbd25d3a4	-0.04048504
44	0xbe080c6a	-0.13285986
45	0xbc57ca63	-0.013170811
46	0xbadfb608	-0.0017067799
47	0x39895ffd	0.00026202193
48	0x3d5c5484	0.053791538
49	0x3e30ad5c	0.17253631
50	0x3e4fa87f	0.2027912
51	0x3c084741	0.0083177695
52	0x3c84ef2c	0.016227327
53	0xbd4ea0c8	-0.0504463
54	0xbc4df749	-0.012571164
55	0xbcbdb251	-0.023156317
56	0xbe1bdf6f	-0.15221952
57	0xbe653277	-0.22382532
58	0x3d819b68	0.063284695
59	0x3e2e72c0	0.17035961
60	0x3b859f6d	0.004077843
61	0x3daef494	0.08542743
62	0x3ad0b90b	0.0015924288
63	0xbb34e1d6	-0.002760043
64	0x3c08e647	0.008355684
65	0xbebe6cf9	-0.37192515
66	0xbcc91f62	-0.024551097
67	0x3deb0685	0.11475853
68	0xbdfa1bc0	-0.12212324
69	0xbe27587d	-0.1634235
70	0xbd07d7ee	-0.03316491
71	0xbd16650a	-0.036717452
72	0x3dae883d	0.08522079
73	0x3bc95b9e	0.006144955
74	0x3d06fbe1	0.032955054
75	0xbe1d68ac	-0.1537196
76	0x3d9d7b47	0.07689529
77	0xbe2c6b5e	-0.16837832
78	0x3da20ead	0.079129554
79	0xbe06b587	-0.13155185
80	0x3e0d23b0	0.13783145
81	0xbc4c74b7	-0.012478999
82	0xbd2b5627	-0.04183021
83	0x3ded56f0	0.11588848
84	0xbd853f1f	-0.0650618
85	0x3d7bbe19	0.061460588
86	0x3e9decbe	0.30844682
87	0x3ed12a0e	0.40852398
88	0x3e03a0a7	0.12854253
89	0x3d5fd5f5	0.054647405
90	0xba64d55c	-0.0008729303
91	0xbe4cf37a	-0.20014754
92	0x3c016404	0.007897381
93	0x3d48aae9	0.048991118
94	0xbd1bdc2e	-0.038051777
95	0xbd5e524b	-0.0542777
96	0x3df97b18	0.121816814
97	0xbe799489	-0.24373068
98	0x3d7c1ec1	0.061552767
99	0x3e03a999	0.12857665
100	0xbe2e6e63	-0.17034297
101	0xbc2b6744	-0.010461632
102	0x3c8a003a	0.016845811
103	0xbbebbc38	-0.0071940683
104	0xba4da402	-0.00078445685
105	0xbe45492f	-0.19266199
106	0x3d82fba9	0.063956566
107	0xbe074212	-0.13208798
108	0x3e1b3aac	0.151591
109	0x3dc2053a	0.09473653
110	0xbb442972	-0.002993193
111	0xbc341fd2	-0.010993915
112	0xbbb735ca	-0.005591129
113	0x3bdc8160	0.00672929
114	0xbb80d913	-0.0039321273
115	0x3dcd8678	0.100354135
116	0x3e6b138a	0.22956672
117	0x3e4ad41e	0.19807479
118	0xbe4171c1	-0.1889105
119	0xbc5c1fab	-0.013435285
120	0x3eca1ecb	0.39476618
121	0x3c0124f3	0.007882345
122	0x3c3625de	0.011117427
123	0xbe2a189e	-0.16610953
124	0xbc14f59c	-0.009091761
125	0x3e36f2c0	0.1786604
126	0xbe7f3d72	-0.24925783
127	0xbc9a5df2	-0.018843625
128	0xbe07ea51	-0.13272978
129	0x3dfc2e4e	0.123135194
130	0x3c5116c6	0.012761777
131	0x3d70668e	0.058691554
132	0xbce63a67	-0.02810402
133	0x3d27142e	0.04079073
134	0xbd2805c9	-0.041021142
135	0xbe3ce576	-0.18446907
136	0xbe8dcfb6	-0.27697533
137	0x3e142812	0.1446841
138	0x3e197551	0.14986159
139	0x3e60c382	0.2194958
140	0xbc9f68e6	-0.0194592
141	0x3b5a9001	0.0033349993
142	0x3b5d2f64	0.003375017
143	0xbb1d5538	-0.0024007093
144	0xbce0a786	-0.027423631
145	0x3d961b62	0.073294416
146	0xbca298c5	-0.019848237
147	0xbccd557a	-0.025065172
148	0xbbea204d	-0.007144964
149	0x3e18d33d	0.14924331
150	0xbbc584c9	-0.006027792
151	0x3c52e481	0.012871862
152	0x3c4c8aeb	0.0124842925
153	0xbd138df2	-0.03602404
154	0xbd5477f5	-0.051872212
155	0x3d2bdb31	0.041957084
156	0xbd91bc68	-0.07116014
157	0xbd71ad82	-0.05900336
158	0x3e34d1e9	0.176582
159	0x3e7142b5	0.23560603
160	0xbc3f0157	-0.011658034
161	0xbabb781e	-0.0014302765
162	0x3c66ef96	0.014095208
163	0xbbb47f1a	-0.0055083157
164	0xbbd876c6	-0.006605956
165	0x3e039205	0.12848671
166	0x3e170f9c	0.14752048
167	0xbeb49312	-0.35268456
168	0x3cbfcce7	0.023413135
169	0x3e1f1ca7	0.15538274
170	0x3a6c00fd	0.0009002833
171	0xbba4f33e	-0.0050338795
172	0x3dc80424	0.09766415
173	0x3e80e017	0.25170967
174	0x3de3db01	0.11125756
175	0x3cb37880	0.021908045
176	0x3e943318	0.2894523
177	0xbdf7aff9	-0.12094111
178	0xbe3566dd	-0.1771502
179	0x3ddff900	0.10936165

l1.weight f4 [100, 90]
0	0x3e3c111c	0.18365902
1	0xbad1a3c7	-0.0015994244
2	0x3da13a4e	0.07872449
3	0x3dd8856c	0.10572323
4	0x3dbcd040	0.09219408
5	0x3d4d2927	0.050088074
6	0x3dee3138	0.116304815
7	0x3d486e7d	0.048933495
8	0xbe54da71	-0.20786454
9	0xbdd575c4	-0.10422853
10	0x3d96e266	0.07367401
11	0xbe5251cc	-0.20539016
12	0xbdd9b5f2	-0.106304064
13	0x3dbf0ddf	0.093288176
14	0xbd5af5ae	-0.053456955
15	0x3d9ed3b7	0.07755225
16	0x3cabf8bc	0.02099263
17	0xbd9b4ce9	-0.07583029
18	0xbd7e6e19	-0.062116716
19	0x3dd95c8f	0.10613357
20	0x3da22646	0.07917456
21	0x3c971759	0.01844375
22	0x3da6dc0f	0.081474416
23	0xbdeca36e	-0.11554609
24	0x3c8f8dd9	0.017523693
25	0x3d8b73e2	0.06809212
26	0x3e34a03d	0.17639251
27	0x3da3ca85	0.07997612
28	0x3e17e5f3	0.14833812
29	0xb95a0371	-0.00020791382
30	0x3dc92af1	0.098226435
31	0xbe09b1cd	-0.13446732
32	0xbe2baba4	-0.16764694
33	0xbddcd752	-0.107832566
34	0xbd9be518	-0.076120555
35	0x3d120387	0.035647895
36	0x3e1c5381	0.15266229
37	0xbb520841	-0.0032048377
38	0xbdb66464	-0.08905867
39	0x3e334e28	0.17510283
40	0xbc329ad4	-0.010901172
41	0xbd79c284	-0.06097652
42	0x3dcec4ac	0.10096106
43	0x3d2b0fa1	0.04176295
44	0xbb2b1e1c	-0.0026110476
45	0x3d98cb1e	0.074606165
46	0xbe015a52	-0.1263211
47	0xbd30aefb	-0.043135624
48	0x3d5a2a71	0.05326313
49	0xbd9399ca	-0.07207067
50	0x3de0d58e	0.10978232
51	0xbec0ec4e	-0.37680286
52	0x3e5ca6b0	0.21547961
53	0xbd2cb55f	-0.042165156
54	0xbe1b8eb3	-0.15191154
55	0x3baedc7a	0.0053363414
56	0xbdad98dd	-0.08476422
57	0xbd4bcfbd	-0.04975866
58	0xbccb4d27	-0.024817063
59	0x3ddeb474	0.108742625
60	0xbcb162e6	-0.021653604
61	0xbe038424	-0.12843376
62	0x3cb822e3	0.022477573
63	0x3ce68617	0.02814011
64	0xbd82d1f4	-0.06387702
65	0xbe02f8ac	-0.12790173
66	0xbb125795	-0.0022330035
67	0xbe138cf5	-0.1440924
68	0x3bb581f1	0.005539172
69	0xbe2e06ea	-0.16994825
70	0xbe3c89f9	-0.18412007
71	0x3dd4cb0f	0.10390293
72	0x3df77f1c	0.12084791
73	0x3e40fa23	0.1884542
74	0xbe3e333d	-0.18574233
75	0x3bd964cc	0.0066343304
76	0xbe466639	-0.19374932
77	0xbd5ff50f	-0.054677065
78	0xbd8d3216	-0.06894319
79	0x3d161302	0.03663922
80	0xbd847a69	-0.064686604
81	0xbd5efadd	-0.05443846
82	0x3d8aa36f	0.06769454
83	0x3dafe99f	0.085894816
84	0xbe3ab06b	-0.1823136
85	0x3de730e4	0.11288622
86	0x3d86590c	0.06559953
87	0xbd85e1a8	-0.06537181
88	0x3d5e5aff	0.054286
89	0x3e366f5e	0.1781592
90	0x3e5c3552	0.21504715
91	0xbd81f206	-0.063449904
92	0xbd5b8695	-0.053595144
93	0xbd154c4b	-0.03644971
94	0xbe0480e6	-0.12939796
95	0x3d48838c	0.048953578
96	0x3e3b581e	0.18295333
97	0xbdaa0664	-0.08302
98	0x3d8088ab	0.06276067
99	0x3dbfb351	0.09360374
100	0x3d6f074d	0.058356572
101	0xbce3b466	-0.027795982
102	0xbe1bb67a	-0.15206328
103	0x3d359306	0.044329666
104	0xbe10944f	-0.14119075
105	0xbd7d54c2	-0.06184841
106	0x3ddc7231	0.10763968
107	0xbe0e8507	-0.13917933
108	0x3d6edd7c	0.058316693
109	0x3d637c61	0.05553854
110	0x3cad9114	0.021187343
111	0x3ba3d5b2	0.0049998397
112	0xbd4e8b80	-0.050426006
113	0xbd1ebc30	-0.03875369
114	0x3ba954bc	0.005167572
115	0x3d336aac	0.043802902
116	0x3d273c22	0.04082883
117	0xbcf2bf66	-0.029632282
118	0xbccfbec9	-0.025359528
119	0x3ce40f83	0.027839428
120	0x3cd29d20	0.025709689
121	0xbd115f75	-0.035491426
122	0x3ca5871d	0.020206029
123	0x3d7d2032	0.061798282
124	0xbe288029	-0.16455139
125	0xbbb1a6a3	-0.005421476
126	0xbd772c4c	-0.06034498
127	0x3db0cf09	0.08633239
128	0x3d0e3935	0.034722526
129	0x3d843b69	0.06456644
130	0xbd215c90	-0.039394915
131	0x3e10308c	0.14081019
132	0xbdf28d42	-0.11843349
133	0x3c41c493	0.011826652
134	0xbe4d5e9a	-0.20055619
135	0xbd1ca754	-0.038245514
136	0x3d8ed3d8	0.06974
137	0xbdbcd621	-0.09220529
138	0x3b0b53f3	0.0021259754
139	0xbc836c29	-0.016042786
140	0x3db66745	0.08906416
141	0xbe1c403a	-0.15258875
142	0xbe5b1bd8	-0.2139734
143	0xbdf3ec79	-0.11910338
144	0xbd9fe661	-0.07807613
145	0x3e013cd6	0.12620863
146	0x3d30fb54	0.043208435
147	0x3d4624b6	0.048374854
148	0xbced338b	-0.028955242
149	0xbe05bd8c	-0.13060588
150	0xbcdde09c	-0.027084641
151	0x3cd8005f	0.026367364
152	0x3c9a740f	0.01885417
153	0xbcf6b39b	-0.03011494
154	0x3cbbe351	0.022935541
155	0xbdb790ab	-0.0896314
156	0xbc01e1aa	-0.007927338
157	0xbd05ce39	-0.032667372
158	0x3cd3e2a3	0.025864905
159	0x3de1f39a	0.110327914
160	0xbe3902e3	-0.18067507
161	0x3e0069fa	0.12540427
162	0xbe1015a4	-0.14070755
163	0xbdc094d9	-0.094033904
164	0x3d1e7c08	0.038692504
165	0xbda3b3ec	-0.07993302
166	0x3d97c20a	0.07410057
167	0xbe130446	-0.14357099
168	0x3e3f2d33	0.18669586
169	0x3cde0c2d	0.027105415
170	0xbccd1aa1	-0.025037112
171	0xbda683f7	-0.08130639
172	0xbbc66228	-0.0060541816
173	0x3db30255	0.08740679
174	0xbde94384	-0.11389831
175	0xbd7d5155	-0.061845142
176	0xbe6de25a	-0.23230878
177	0x3dff6935	0.124712385
178	0xbdc8be3a	-0.09801908
179	0xbce66a89	-0.028126972
180	0xbc529735	-0.012853433
181	0x3e24d01b	0.16095011
182	0x3d0f2809	0.03495029
183	0xbe602e39	-0.21892633
184	0xbd565dfc	-0.052335724
185	0xbe217b2e	-0.15769646
186	0xbdad86e6	-0.084729955
187	0x3d89ae73	0.06722727
188	0x3d00e26b	0.03146593
189	0xbd3b87c5	-0.045783777
190	0xbc8401a9	-0.016114073
191	0xbe2deb82	-0.1698437
192	0xbe2399b9	-0.1597661
193	0x3e0a2fc8	0.1349479
194	0xbd4e98e5	-0.05043878
195	0xbd47cee0	-0.048781276
196	0x3ce5debe	0.028060313
197	0x3e14d7c5	0.14535435
198	0x3d1d267a	0.038366772
199	0x3cd42f39	0.025901424
200	0xbdc07942	-0.09398128
201	0x3da2a45f	0.079415075
202	0xbe616775	-0.22012122
203	0x3d8916b8	0.066937864
204	0x3e7a2797	0.24429165
205	0xbc021e0e	-0.007941736
206	0xbc8699a1	-0.016430678
207	0xbdc30bd8	-0.095237434
208	0xbd9fe2f0	-0.07806957
209	0x3e0bdddc	0.13658851
210	0x3bb24ee6	0.0054415343
211	0xbc0c5225	-0.008564507
212	0x3e2c55dc	0.16829628
213	0x3d341378	0.04396388
214	0xbbe90746	-0.0071114628
215	0x3e14fbfb	0.14549248
216	0x3d97307c	0.073822945
217	0xbe0417d2	-0.12899712
218	0xbcd803f5	-0.026369074
219	0xbd18c8ca	-0.037300862
220	0xbe00eb62	-0.12589791
221	0xbe16d037	-0.14727865
222	0x3d5a8b4d	0.053355504
223	0xbd23d1a5	-0.039994854
224	0x3e7b9987	0.24570285
225	0xbccc7b80	-0.024961233
226	0x3e1cdfea	0.15319791
227	0x3dbd18cd	0.09233246
228	0x3d49f69a	0.049307443
229	0x3d7be3d9	0.06149659
230	0x3e44a88b	0.19204919
231	0xbd5399d5	-0.051660378
232	0xbd3d4458	-0.046207756
233	0x3d4aeef9	0.04954431
234	0x3b03cfdc	0.0020112908
235	0x3e2e4882	0.17019847
236	0xbdbb5f67	-0.09149056
237	0xbcc4ee4c	-0.02403941
238	0x3e1df749	0.15426363
239	0xbd9a2587	-0.07526689
240	0x3c811f80	0.01576209
241	0xbe115753	-0.14193468
242	0x3d64b1b5	0.055833537
243	0x3da2a02f	0.07940709
244	0xbd899938	-0.06718677
245	0xbe421371	-0.18952729
246	0xbd795222	-0.060869344
247	0xbe0c354f	-0.1369221
248	0xbe0c124e	-0.13678858
249	0xbc3ac336	-0.011399081
250	0x3dfe851a	0.12427731
251	0x3d4a3a78	0.049372166
252	0xbe429379	-0.19001569
253	0xbd78888d	-0.0606771
254	0x3de4e259	0.11175985
255	0x3b092c65	0.0020931002

l1.bias f4 [100]
0	0xbcb18310	-0.02166894
1	0x3c9d21da	0.01918118
2	0x3e1ed15f	0.15509556
3	0x3d93e11d	0.07220671
4	0x3dfb2b1c	0.12264082
5	0x3c5a1fa5	0.013313209
6	0x3e3d0707	0.18459712
7	0xbce821e2	-0.02833647
8	0xbd18af08	-0.037276298
9	0xbd6bd7c8	-0.057578832
10	0xbd15133a	-0.03639529
11	0xbdc8c900	-0.09803963
12	0xbcd27074	-0.025688387
13	0x3bb02dc0	0.0053765476
14	0xbce312bc	-0.027718894
15	0x3de163ae	0.110053405
16	0x3d1aca34	0.037790492
17	0x3d33c489	0.043888602
18	0xbda2a8a3	-0.07942321
19	0xbca75dae	-0.020430412
20	0x3e2b1971	0.16708924
21	0xbcef9efa	-0.02925061
22	0xbd0e4336	-0.034732066
23	0x3debb711	0.115095265
24	0x3c923344	0.017846711
25	0x3e1af8f0	0.15134025
26	0xbd45b92b	-0.048272293
27	0xbde81ed3	-0.11334004
28	0xbc2366fb	-0.009973283
29	0xbe9ccf5e	-0.3062696
30	0x3d4a7417	0.04942712
31	0x3dbe6d8c	0.09298238
32	0xbe1e9249	-0.15485491
33	0xbe73ce22	-0.23809102
34	0xbe4aefea	-0.19818082
35	0xbc178ebb	-0.009250338
36	0x3ccd5988	0.025067106
37	0x3e13d9ec	0.144386
38	0x3b5c695c	0.0033632135
39	0xbd28de5e	-0.04122769
40	0xbe5c5696	-0.21517405
41	0x3e5cabc1	0.21549894
42	0xbe03a29d	-0.12855001
43	0x3bdc17ac	0.006716689
44	0xbd5b5cb5	-0.05355521
45	0xbca515ae	-0.02015194
46	0xbb9d4846	-0.0047998754
47	0xbcddc0da	-0.027069498
48	0xbd6c37c1	-0.05767036
49	0xbe2dcf5d	-0.16973634
50	0xbb974d2b	-0.0046173534
51	0x3e1873be	0.14887902
52	0x3de5a988	0.11213976
53	0xbe276196	-0.1634582
54	0xbc68b785	-0.014203911
55	0xbd211fcb	-0.03933696
56	0xbd13af35	-0.036055762
57	0x3d57ca59	0.05268321
58	0xbcae27b0	-0.021259159
59	0xbd8d91ca	-0.06912573
60	0xbe1396b7	-0.14412962
61	0x3d52c8eb	0.05146114
62	0xbcc73aa3	-0.024319952
63	0x3dce7b20	0.10082078
64	0x3dd57fe6	0.10424785
65	0xbdf50230	-0.11963308
66	0xbbbdaae8	-0.005788196
67	0x3db0f42e	0.086403236
68	0xbceac4f3	-0.028658366
69	0x3c56a0b2	0.013099836
70	0x3db12422	0.0864947
71	0xbd909507	-0.07059675
72	0xbe01e682	-0.12685588
73	0x3e3368ba	0.17520419
74	0x3da27de7	0.0793417
75	0x3d42d3df	0.047565337
76	0xbe2c381a	-0.16818276
77	0xbd56e879	-0.052467797
78	0xbe570896	-0.20999369
79	0xbdc57401	-0.096412666
80	0x3d14afd9	0.036300514
81	0xbde78221	-0.11304117
82	0xbccf1a8d	-0.025281215
83	0x3d7cd15a	0.06172309
84	0x3d09c54c	0.033635423
85	0x3c8cb55f	0.017176328
86	0xbd80e00c	-0.062927336
87	0x3c670174	0.014099468
88	0xbdfe9162	-0.12430073
89	0xbc80bf1f	-0.015716134
90	0x3e018f7b	0.1265239
91	0x3d8bdd37	0.06829303
92	0xbc6f9506	-0.014622932
93	0x3d0ada4a	0.033899583
94	0x3e00f340	0.12592793
95	0xbd00c6b9	-0.031439517
96	0xbc018896	-0.0079061
97	0xbdb6cc6b	-0.089257084
98	0xbe1a14e2	-0.15047029
99	0x3c212c92	0.009837287

l2.weight f4 [100, 100]
0	0x3e175f79	0.14782514
1	0x3e80b353	0.25136814
2	0xbd234e40	-0.039869547
3	0xbdc921b3	-0.09820881
4	0xbd33d9f7	-0.04390904
5	0x3d48ef8e	0.049056582
6	0x3d164152	0.036683388
7	0x3dedf20c	0.116184324
8	0xbd425b0c	-0.04745011
9	0xbdd39aaa	-0.10332234
10	0xbc90be4a	-0.017668862
11	0xbddc2fcf	-0.10751306
12	0xbba41815	-0.0050077536
13	0xbcbdb8d4	-0.023159422
14	0x3d16de53	0.03683312
15	0x3dadfed1	0.08495868
16	0xbe638ac3	-0.22220902
17	0xbdf1fa59	-0.11815328
18	0xbd39af64	-0.04533328
19	0x3e32adb3	0.17449073
20	0xbd86f61a	-0.06589909
21	0x3e20b9eb	0.15695922
22	0x3e15f9bf	0.14646052
23	0x3d774e82	0.060377605
24	0xbc9e5c63	-0.019331163
25	0x3cff8a5c	0.031193905
26	0xbe1c4229	-0.15259613
27	0xbe020d0d	-0.12700291
28	0xbe6f8c99	-0.23393477
29	0xbe085519	-0.13313712
30	0x3e26c6b6	0.1628674
31	0xbd89375b	-0.06700011
32	0x3d57fdc6	0.05273225
33	0xbc7adc1c	-0.015311267
34	0x3db50998	0.088397205
35	0x3d3d94c5	0.046284456
36	0xbe0a319a	-0.13495484
37	0x3cf4067d	0.02978825
38	0xbe1325cf	-0.14369892
39	0x3da304f3	0.07959928
40	0xbd6ef645	-0.05834033
41	0x3e1e8a8f	0.15482543
42	0xbc06daae	-0.008230848
43	0xbd8d2aa2	-0.06892897
44	0x3df8aa00	0.121418
45	0xbdd8e129	-0.10589821
46	0xbe2a885e	-0.16653582
47	0x3e14bc4a	0.14524952
48	0xbe0a050c	-0.13478488
49	0x3d820ff3	0.06350698
50	0xbd2f64d9	-0.042820785
51	0x3d107065	0.035263438
52	0x3ca08399	0.019594
53	0xbd455483	-0.0481763
54	0x3e409a0b	0.18808763
55	0x3d4f292b	0.05057637
56	0xbdb08862	-0.08619763
57	0xbb25ee1c	-0.0025318926
58	0xbe125ac7	-0.14292441
59	0xbdc4f4f6	-0.09617035
60	0x3cb9c1a9	0.022675352
61	0x3dfaece8	0.122522175
62	0xbd39f167	-0.045396235
63	0x3d39cce2	0.045361407
64	0x3cf09952	0.029369984
65	0xbddc0f97	-0.10745161
66	0x3dbbb198	0.09164733
67	0xbe05faba	-0.13083926
68	0x3e07715f	0.13226841
69	0x3db9b418	0.09067553
70	0xbd1484c7	-0.03625944
71	0x3d93e49b	0.072213374
72	0x3dae9cdf	0.085260145
73	0x3e0f7c27	0.14012204
74	0x3dbd17de	0.09233068
75	0x3d571ada	0.052515842
76	0x3e4975f3	0.196739
77	0x3d22eadf	0.03977477
78	0xbd8b3e37	-0.06798976
79	0x3c1308a7	0.008974231
80	0x3e488758	0.1958288
81	0xbd09e9f7	-0.033670392
82	0xbdacd3f3	-0.084388636
83	0xbd9a0d60	-0.07522082
84	0x3d512283	0.051058304
85	0xbdd7c4c7	-0.10535579
86	0x3d4139a2	0.047174104
87	0xbdbfd0ad	-0.093659736
88	0xbdd497b7	-0.103805
89	0xbda63305	-0.081152
90	0xbde780d8	-0.11303872
91	0x3d439f20	0.047759175
92	0xbd2b5f5d	-0.041838992
93	0xbd8304c3	-0.063973926
94	0xbcfe7915	-0.031063596
95	0xbc8a05fc	-0.016848557
96	0xbdb5f8e4	-0.08885363
97	0x3e7f0697	0.24904858
98	0x3d868163	0.06567647
99	0xbc66ee00	-0.01409483
100	0xbe016cf5	-0.1263922
101	0x3d0062fe	0.031344406
102	0xbe13334e	-0.1437504
103	0x3d6e10ff	0.058121677
104	0x3e3b316b	0.1828057
105	0xbbe65841	-0.0070295637
106	0x3e59ed9a	0.21282044
107	0xbcc692ea	-0.024239976
108	0x3dd6e409	0.10492713
109	0x3bdcebe0	0.0067419857
110	0x3d172f48	0.036910325
111	0x3d7a009b	0.061035734
112	0xbceca162	-0.028885547
113	0xbd24ab71	-0.04020256
114	0xbe0645ad	-0.13112517
115	0xbdd46dc6	-0.103725
116	0xbcb56587	-0.022143139
117	0xbe0f147c	-0.13972658
118	0x3d780d07	0.0605593
119	0x3dea9553	0.114542626
120	0xbd96a0dd	-0.07354901
121	0xbd7dc900	-0.061959267
122	0x3c5d6131	0.013511942
123	0x3d52ebc1	0.051494364
124	0x3d4c7921	0.049920205
125	0x3c282cab	0.010264556
126	0xbd4178ba	-0.047234274
127	0xbd2a7a1a	-0.04162035
128	0x3dbeeb1f	0.093221895
129	0xbe09bd71	-0.13451172
130	0xbd74d896	-0.059776865
131	0x3c8d0f53	0.017219221
132	0x3dec57e9	0.11540205
133	0xbc2370f8	-0.009975664
134	0x3de2683e	0.11055039
135	0x3e01fc7d	0.12693973
136	0xbcfdd07b	-0.0309832
137	0xbda4d62c	-0.080486625
138	0xbd280c82	-0.041027553
139	0xbcb31477	-0.021860344
140	0x3d2f626e	0.04281848
141	0xbc6eec96	-0.014582774
142	0x3c96a323	0.018388337
143	0xbd567a24	-0.052362576
144	0xbcc99115	-0.024605313
145	0x3e01e3d7	0.1268457
146	0x3d48d0fc	0.049027428
147	0x3dda1997	0.10649412
148	0xbd78ba9b	-0.060724836
149	0x3c8fb77c	0.017543547
150	0x3a1d1d0f	0.0005993405
151	0xbca44aad	-0.02005514
152	0xba5dfca3	-0.0008468127
153	0x3e0c4cd7	0.13701187
154	0x3df120ca	0.11773832
155	0x3d6a1680	0.057150364
156	0xbdc82174	-0.09772006
157	0x3d216cf8	0.03941056
158	0xbe40dcd8	-0.18834245
159	0xbd81016a	-0.06299098
160	0x3d4ba75d	0.049720157
161	0x3de4d38b	0.11173161
162	0x39c3d8b2	0.0003735475
163	0x3d564515	0.052311976
164	0x3da59912	0.080858365
165	0xbd0f9410	-0.035053313
166	0x3dcc1bf5	0.0996627
167	0xbca6bc99	-0.020353602
168	0x3d2c88c8	0.042122632
169	0xbdff4cec	-0.124658436
170	0xbd0a5933	-0.033776473
171	0x3d376093	0.044769835
172	0xbdac0c98	-0.084008396
173	0x392b4169	0.00016332198
174	0x3d8d2d14	0.068933636
175	0x3d0cc782	0.034369953
176	0xbda4c92c	-0.08046183
177	0x3ac4f6ca	0.0015027162
178	0xbe131f2f	-0.14367364
179	0xbe1b33fe	-0.15156552
180	0xbe14beb7	-0.14525877
181	0xbe5456bd	-0.20736213
182	0x3d592374	0.053012326
183	0xbdd15b25	-0.102224626
184	0xbd2e5ee9	-0.042570982
185	0x3d06f657	0.03294977
186	0xbe273e16	-0.16332278
187	0xbd62d782	-0.055381306
188	0xbce9f1db	-0.028557708
189	0xbd93b9f9	-0.07213206
190	0x3e209cfc	0.15684885
191	0x3c9b65b2	0.01896939
192	0xbe11defe	-0.14245221
193	0x3ca3d1a9	0.019997435
194	0x3db184e9	0.08667929
195	0x3cd23489	0.025659816
196	0x3daf9373	0.085730456
197	0xbe0075ea	-0.1254498
198	0xbd935283	-0.07193472
199	0xbd121499	-0.035664175
200	0x3dab7b92	0.083731785
201	0x3dd09e3b	0.1018643
202	0x3dfb2106	0.12262158
203	0x3cfe3e59	0.031035589
204	0xbcf42121	-0.029800953
205	0x3e21e66d	0.15810557
206	0xbddcfe58	-0.107907
207	0xbd00f64b	-0.031484883
208	0xbb79e159	-0.0038128702
209	0xbd7f5ee0	-0.06234634
210	0x3e151081	0.14557077
211	0x3e02da9c	0.12778705
212	0xbe3ecc9f	-0.18632744
213	0xbde54b4c	-0.11196002
214	0xbb1abd2f	-0.0023611297
215	0xbe733553	-0.2375081
216	0xbe4e1c42	-0.20127967
217	0xbe26c252	-0.16285065
218	0x3cd9e6e6	0.026599359
219	0x3d595640	0.05306077
220	0x3d6b7430	0.057483852
221	0x3cbe5065	0.023231694
222	0xbe5feb5e	-0.21867129
223	0x3e69f9fd	0.22849269
224	0xbb50084b	-0.0031743224
225	0x3d4ecbf0	0.05048746
226	0x3cc74908	0.024326816
227	0x3cdfbd67	0.027311994
228	0xbd9af6f9	-0.075666375
229	0xbe3fc3d5	-0.18727048
230	0xbe068276	-0.13135704
231	0x3d0e958b	0.034810584
232	0x3dab4c6d	0.083641864
233	0x3dc68fca	0.09695394
234	0xbe3e515b	-0.18585722
235	0xbc83c5ae	-0.016085472
236	0x3d9a8d81	0.07546521
237	0x3e05a756	0.13052115
238	0x3e186a27	0.14884244
239	0x3d095426	0.033527516
240	0xbd9d606b	-0.07684406
241	0xbe04cfd3	-0.12969904
242	0xbd0c29f9	-0.034219716
243	0xbddde3b9	-0.1083445
244	0xbd733b8e	-0.059382968
245	0x3d3b33a0	0.04570353
246	0xbc88036e	-0.016603198
247	0xbce84206	-0.028351795
248	0x3d73ef46	0.05955436
249	0x3e3820b1	0.17981221
250	0x3e61571f	0.2200589
251	0xbe127e03	-0.14305882
252	0x3ceea3d1	0.029130848
253	0x3cc8ff40	0.024535775
254	0xbdb0d677	-0.08634656
255	0x3db46c43	0.08809712

l2.bias f4 [100]
0	0x3cf5a01a	0.029983569
1	0xbe3860a8	-0.18005621
2	0x3d8cacfb	0.06868931
3	0x3cb4dbb5	0.02207742
4	0xbd7c2689	-0.061560187
5	0x3dd85695	0.10563389
6	0x3c50293d	0.0127051445
7	0xbe1a9e6c	-0.15099496
8	0xbdc06f89	-0.09396274
9	0xbd1dcc6b	-0.038525026
10	0x3cce2835	0.025165657
11	0x3de57e34	0.11205712
12	0x3cfeee19	0.031119393
13	0x3cdb7c2e	0.026792612
14	0x3daca028	0.08428985
15	0x3dd1d1be	0.10245083
16	0x3bdd8cf5	0.006761188
17	0x3c96976e	0.018382754
18	0x3e8e1d04	0.27756512
19	0x3c906188	0.017624632
20	0x3dda8f82	0.10671903
21	0xbd8636ea	-0.06553443
22	0x3d08fd9e	0.033444993
23	0x3d4da282	0.050203808
24	0xbdb7843e	-0.0896077
25	0x3c427311	0.011868254
26	0xbb477c38	-0.003043903
27	0xbdfaf263	-0.12253263
28	0x3d2c4271	0.04205555
29	0xbd236c24	-0.039898053
30	0xbc875614	-0.016520537
31	0xbca4ebec	-0.020132028
32	0x3c93e042	0.01805127
33	0x3c53ac24	0.0129194595
34	0xbe3d16fb	-0.18465798
35	0x3cd9eeaf	0.026603071
36	0x3db1e2b8	0.08685821
37	0xbd14a7a0	-0.036292672
38	0x3d4a6059	0.04940829
39	0xbd877e71	-0.06615914
40	0xbc22d968	-0.009939529
41	0xbd78442c	-0.06061189
42	0xbd1450b8	-0.036209792
43	0x3cdf0da1	0.027228178
44	0xbcfbe221	-0.030747475
45	0xbd0ec612	-0.034856863
46	0xbca7a5b3	-0.020464754
47	0xbd8b03f0	-0.067878604
48	0xbb8c2928	-0.004277367
49	0x3d2fbaa7	0.042902615
50	0x3c91f082	0.017814878
51	0xbcd3bf64	-0.025848098
52	0x3e0f9dc9	0.14025034
53	0x3d29d125	0.04145922
54	0x3b857ac3	0.004073472
55	0xbc10249f	-0.008797794
56	0xbd685783	-0.056724083
57	0x3d7924bb	0.060826045
58	0xbcd3e2c0	-0.025864959
59	0x3dbc9180	0.092074394
60	0xbda6300c	-0.08114633
61	0xbe677115	-0.22601731
62	0x3d967bb0	0.0734781
63	0x3e109dd9	0.14122714
64	0xbd030499	-0.031986807
65	0xbc9b563d	-0.01896202
66	0xbc712dd7	-0.014720402
67	0x3d6c914d	0.057755757
68	0x3d0c798f	0.034295615
69	0xbd11db5c	-0.035609588
70	0xbe2abed8	-0.16674364
71	0x3bec0446	0.007202658
72	0x3d3444eb	0.044011038
73	0xbc8cadb8	-0.01717268
74	0x3ce3c228	0.027802542
75	0x3ce7346a	0.028223235
76	0xbe62d2b0	-0.22150683
77	0x3d847128	0.06466895
78	0x3c36e2ab	0.01116244
79	0x3bf4607d	0.0074577914
80	0x3cd5befa	0.026092041
81	0xb98a8873	-0.00026423074
82	0x3c335e46	0.0109477695
83	0x3e16b329	0.14716782
84	0xbc9a8d71	-0.018866273
85	0x3b64c80a	0.0034909272
86	0xbd00d67b	-0.031454545
87	0x3c7eff0c	0.015563738
88	0x3c11a2b9	0.008888894
89	0x3a3a485d	0.000710612
90	0xbe99398b	-0.29926714
91	0x3dbec11a	0.09314175
92	0xbc1fcf93	-0.009754079
93	0xbd30579e	-0.04305231
94	0xbcd6f4b0	-0.026239723
95	0xbc7bb393	-0.015362638
96	0xbdba6c5f	-0.091027014
97	0xbd286201	-0.04110909
98	0xbe3cdd90	-0.18443894
99	0x3d576e77	0.05259558

l3.weight f4 [18, 100]
0	0x3dc6bcc6	0.097039744
1	0xbd3d0a18	-0.046152204
2	0xbc98d2c2	-0.018655185
3	0x3e0d3cd0	0.1379273
4	0xbe4a6e9c	-0.19768757
5	0x3a3833fb	0.00070267887
6	0xbe108620	-0.14113665
7	0x3d94ae82	0.07259847
8	0x3cb7a4b2	0.0224174
9	0xbdb74079	-0.08947844
10	0x3d71dcd1	0.059048478
11	0x3e02d6d8	0.12777269
12	0x3d92e529	0.07172615
13	0x3d59df0e	0.053191237
14	0xbe0f7772	-0.14010409
15	0x3da23bd8	0.079215705
16	0x3d955e5b	0.072933875
17	0xbdd1bd27	-0.10241156
18	0xbdc8e155	-0.09808604
19	0x3daffc5c	0.085930556
20	0xbcdb2262	-0.026749793
21	0xbd1b74ac	-0.037953064
22	0x3e1d71ab	0.15375392
23	0xbc5fc8fb	-0.013658757
24	0xbe88b200	-0.26698303
25	0xbde81502	-0.11332132
26	0xbd166360	-0.036715865
27	0xbe82579a	-0.2545746
28	0x3df843ff	0.12122344
29	0x3d9b27a1	0.07575918
30	0xbca41796	-0.020030778
31	0xbb468cd4	-0.0030296342
32	0x3e922ddb	0.2855061
33	0xbe831a79	-0.25606135
34	0xbdc63988	-0.09678942
35	0xbe12eeb9	-0.14348878
36	0x3b6ef6a5	0.003646293
37	0xbc3e9a6f	-0.0116334995
38	0x3e30d708	0.17269528
39	0xbd07fc54	-0.033199623
40	0xbbf8e66f	-0.007595829
41	0x3e185263	0.14875178
42	0x3c06b359	0.008221471
43	0x3dfc6ed8	0.12325829
44	0xbd8d0b39	-0.06886906
45	0xbc0a13ee	-0.008427603
46	0x3e35d8f2	0.1775854
47	0x3d22aaf0	0.0397138
48	0x3e1a5d2d	0.15074606
49	0xbe418a1c	-0.18900341
50	0x3d10d191	0.035356108
51	0xbe6976d8	-0.22799242
52	0xbe22a4ec	-0.15883225
53	0xbe0b4f74	-0.13604528
54	0xbd861560	-0.06547046
55	0xbe2abc29	-0.1667334
56	0x3d06242e	0.032749347
57	0xbdc3446a	-0.09534533
58	0xbe020504	-0.12697226
59	0xbd72b6a5	-0.059256215
60	0x3e68ccdc	0.22734398
61	0x3e2f8620	0.17141008
62	0x3d18f4af	0.037342723
63	0x3c1b36ae	0.009473486
64	0x3d94e2cb	0.0726982
65	0xbe6bdef3	-0.23034267
66	0x3e6bf9c5	0.23044498
67	0x3d8ec522	0.06971194
68	0xbdc3e01e	-0.09564231
69	0x3df30401	0.11865998
70	0xbe62b307	-0.22138606
71	0x3d469bd0	0.048488438
72	0x3d844b67	0.06459694
73	0x3df4ed82	0.119593635
74	0x3d2595b9	0.04042599
75	0xbe0832f8	-0.13300693
76	0x3e46c59e	0.19411322
77	0x3c870b11	0.016484769
78	0xbe819c73	-0.25314674
79	0xbc26867a	-0.010163898
80	0x3e7fbce3	0.24974398
81	0xbe23dad0	-0.16001439
82	0x3d34033f	0.04394841
83	0xbc81ef1a	-0.015861083
84	0xbd95079a	-0.072768405
85	0x3d97b2af	0.07407128
86	0xbe7e4bd2	-0.2483361
87	0xbe04abbc	-0.12956136
88	0xbe229995	-0.158789
89	0xbe7107c5	-0.2353812
90	0x3e76ca42	0.24100593
91	0x3d8b9c39	0.068169065
92	0x3e0d32e7	0.13788949
93	0x3de90636	0.11378138
94	0x3d8da41a	0.069160655
95	0xbda5ac28	-0.08089477
96	0x3cea1fa6	0.028579544
97	0x3d183bb7	0.037166324
98	0x3cb48cfa	0.02203988
99	0xbe6fd5eb	-0.23421447
100	0x3d8a898a	0.06764515
101	0xbe2a0aed	-0.1660573
102	0x3dcd3a19	0.10020847
103	0x3d73171c	0.05934821
104	0x3daded7a	0.08492561
105	0x3bfae030	0.0076561198
106	0x3dff6ae0	0.12471557
107	0xbe768d18	-0.2407726
108	0xbe618d52	-0.22026566
109	0x3d961c7c	0.07329652
110	0x3c7a744c	0.015286516
111	0x3dc0f2d8	0.09421319
112	0x3dc2c9b2	0.095111266
113	0x3e06b7f0	0.13156104
114	0x3ebc6e2a	0.36802799
115	0x3c708497	0.014680049
116	0xbda64c03	-0.08119967
117	0xbd2ec415	-0.042667467
118	0x3e2f914a	0.17145267
119	0xbde6f739	-0.11277623
120	0x3dfefb66	0.12450294
121	0x3d858e03	0.06521227
122	0x3e2992a4	0.16559845
123	0x3cd4ab62	0.025960628
124	0xbe843284	-0.2581979
125	0x3e06112e	0.13092491
126	0xbe11fae5	-0.14255865
127	0x3c95dcfe	0.018293854
128	0xbe1ff33b	-0.15620129
129	0xbd450689	-0.048101936
130	0x3e7ca1b9	0.24671067
131	0xbd884d1a	-0.06655331
132	0x3e093a33	0.13401107
133	0x3d9e6dcd	0.077357866
134	0x3ca09719	0.019603299
135	0x3e00ff05	0.12597282
136	0xbc438930	-0.0119345635
137	0x3c9ce257	0.019150896
138	0xbd5d4e04	-0.05402948
139	0x3dce55af	0.100749366
140	0xbdb86d2a	-0.090051964
141	0xbe4a2940	-0.19742298
142	0xbdc4eedc	-0.09615871
143	0x3ea890a5	0.32922855
144	0x3d497762	0.049186118
145	0x3a811589	0.0009848337
146	0xbd7be19a	-0.061494447
147	0x3cf43719	0.029811429
148	0x3d7f8b5a	0.062388755
149	0xbe37cba3	-0.17948775
150	0x3ddbed72	0.107386485
151	0xbe0772be	-0.13227364
152	0x3eb6fd31	0.35740045
153	0x3da831a2	0.08212592
154	0x3ebb9fc7	0.36645338
155	0x3b493ece	0.00307076
156	0xbde219f8	-0.110401094
157	0xbd47e4c4	-0.048802152
158	0x3cd45529	0.025919514
159	0x3e5527d6	0.20815977
160	0xbdddd740	-0.10832071
161	0xbc9b94e5	-0.018991897
162	0x3e66004f	0.22461055
163	0xbe1c7352	-0.15278366
164	0x3c67c04d	0.014144969
165	0x3d0a6266	0.033785246
166	0xbd2bddd3	-0.041959595
167	0xbe5f1aa6	-0.2178751
168	0x3ea64712	0.32476097
169	0xbc8c8945	-0.017155299
170	0xbe1e3948	-0.15451539
171	0x3dc89059	0.09793157
172	0x3e5a8663	0.21340327
173	0xbc3dd99c	-0.011587527
174	0x3e1d2ee2	0.15349916
175	0x3dcb7d4f	0.0993601
176	0xbe8dd83b	-0.27704033
177	0xbdbad044	-0.09121755
178	0x3d400542	0.046880014
179	0x3e333251	0.17499663
180	0x3cac05a1	0.020998778
181	0x3e426c96	0.18986735
182	0xbe4bf820	-0.19918871
183	0x3e61d6ad	0.22054549
184	0x3d5df8cb	0.054192346
185	0x3d8f9fae	0.07012878
186	0xbe317d14	-0.1733287
187	0x3d309a2a	0.043115772
188	0x3de729f1	0.112872966
189	0xbd5ee67a	-0.05441902
190	0xbe0e0a06	-0.13871011
191	0x3d3046f0	0.0430364
192	0xbd3a5f7c	-0.045501217
193	0x3d984b72	0.07436265
194	0xbdb88392	-0.0900947
195	0xbe5a882f	-0.21341012
196	0xbd5b191b	-0.05349074
197	0xbe41d072	-0.18927172
198	0xbe0d53c7	-0.1380149
199	0x3e397439	0.18110742
200	0xbe0b8751	-0.13625838
201	0x3dc53993	0.09630122
202	0x3e1e14a4	0.15437561
203	0xbd8542df	-0.06506895
204	0xbdc8924b	-0.09793528
205	0x3e4dda54	0.20102817
206	0xbd50ec01	-0.05100632
207	0x3b4c592a	0.0031181076
208	0x3e661c84	0.22471815
209	0xbd1f7770	-0.038932264
210	0xbd302a21	-0.043008927
211	0x3bc56ba2	0.0060247937
212	0x3e153a35	0.14572985
213	0xbd83d075	-0.064362444
214	0xbd45a33e	-0.048251383
215	0xbd65feb0	-0.056151092
216	0x3e386621	0.18007709
217	0x3ddac805	0.10682682
218	0x3e400cd5	0.18754895
219	0x3bddf06f	0.0067730467
220	0xbd7f2f8a	-0.062301196
221	0xbc432ccb	-0.011912535
222	0x3e388ff2	0.18023661
223	0xbd083179	-0.033250306
224	0xbd9e2f40	-0.07723856
225	0x3d9c0112	0.07617392
226	0x3c9b894f	0.018986372
227	0x3d32b295	0.04362734
228	0xbc7dac9b	-0.015483047
229	0xbc8f62c7	-0.017503155
230	0xbd74b11e	-0.059739225
231	0xbdcd9f13	-0.100401066
232	0xbe077f2e	-0.13232109
233	0xbe53d581	-0.20686914
234	0x3ddb9687	0.1072207
235	0x3bb7b7a8	0.0056066103
236	0xbddcfe52	-0.10790695
237	0xbc4e8e79	-0.01260721
238	0xbcb0b842	-0.021572236
239	0xbe1b832d	-0.15186758
240	0x3da43b56	0.0801913
241	0x3e147a20	0.14499712
242	0xbb26ae6c	-0.0025433553
243	0xbe1f566f	-0.15560316
244	0xbd0a4dd3	-0.033765625
245	0xbdcbadb3	-0.0994524
246	0xbe4112e1	-0.18854858
247	0xbdbc538e	-0.09195624
248	0xbda50bb0	-0.0805887
249	0x3d03609a	0.03207455
250	0xbe1989c4	-0.1499396
251	0x3d80f914	0.06297508
252	0xbd52a207	-0.051424053
253	0xbe526ac0	-0.20548534
254	0xbe2c59b6	-0.16831097
255	0x3d7625fc	0.06009482

l3.bias f4 [18]
0	0x3e7bb03f	0.24578951
1	0xbeec1aea	-0.46114284
2	0xbd1eb26e	-0.038744383
3	0x3f19e77e	0.60118854
4	0xbdf17ab9	-0.117909856
5	0xbea4d174	-0.3219105
6	0x3e263f15	0.16235001
7	0xbebb2c62	-0.365573
8	0x3e5117d7	0.2041925
9	0x3e8d0f19	0.2755058
10	0x3e815697	0.25261375
11	0x3cb44cda	0.022009302
12	0x3e970121	0.2949305
13	0xbecdcedf	-0.40196893
14	0x3e9d2495	0.30691972
15	0x3e5ac1d4	0.21363002
16	0xbd658ae7	-0.05604067
17	0xbb87c7a2	-0.004143671
