data/result/g_700.pt (torch, 87406 bytes, 7 tensors)

G_attr_matrix.weight f4 [36, 5]
000000 0c b9 16 3d 39 8f ca bc fd 8b 76 be 96 f6 f8 3c
       0.03679757 -0.024726497 -0.24076839 0.030391019
000010 c9 79 bc 3b 47 ab b4 bd 68 3d 05 3d 72 d1 c7 3d
       0.0057518226 -0.08821731 0.032529265 0.097567454
000020 b2 fc 9f 3d 72 c1 66 bc 64 04 d6 bc 72 94 56 3c
       0.0781187 -0.014084207 -0.02612514 0.013096916
000030 a5 76 65 3c f2 bf c0 3c 3e c7 d1 3a b8 19 8e bd
       0.014005338 0.023529027 0.0016004813 -0.06938499
000040 7e b3 b8 bd 40 4a e1 bd 34 47 88 bd 44 f2 35 bc
       -0.090186104 -0.1100049 -0.06654206 -0.011105124
000050 98 32 b7 bb a3 78 85 bd 05 79 26 3a a1 13 4d bc
       -0.005590748 -0.0651715 0.0006350431 -0.012516887
000060 34 1d c0 3b 6e 8b e7 3d bb 00 60 3b 71 82 91 bd
       0.0058628563 0.11305891 0.0034180123 -0.07104958
000070 f1 e7 76 3e 73 c4 b7 bd 39 6a 9d bc 3a b5 3b bc
       0.24111916 -0.089730166 -0.01921569 -0.011456782
000080 37 1f 66 bc 90 1c 43 bc ee 2d 00 3e 02 c4 55 3e
       -0.014045528 -0.011908665 0.12517521 0.20875552
000090 50 4c 00 3e ce 73 51 3e 20 95 18 3e bb a5 42 3d
       0.12529111 0.20454332 0.14900637 0.047521334
0000a0 9d 55 88 3b 7f 72 7e 3b 3c 9c eb 3b 80 65 25 bd
       0.0041605965 0.003882557 0.0071902554 -0.04038
0000b0 de 88 03 be e1 01 23 bc 52 6b cb bb ec 95 d0 ba
       -0.1284518 -0.009949178 -0.006207862 -0.0015913821
0000c0 c0 a3 5e 3d cc 66 32 3e 89 43 4d 3e 7e 36 4e 3c
       0.054355383 0.17422026 0.20045294 0.012586234
0000d0 7e 28 a5 3c 51 34 41 bd a0 09 50 bc 00 fb c6 bc
       0.02016091 -0.047169033 -0.012697607 -0.024289608
0000e0 1c d2 17 be 76 fc 61 be e0 bd 88 3d db d4 2e 3e
       -0.14826244 -0.22068962 0.06676841 0.17073385
0000f0 8c f3 86 3b 2f 32 a4 3d ed 4e 61 3a 4b a1 4d b9
       0.0041183885 0.08017384 0.00085948297 -0.0001961041
000100 5e ae e1 3b 88 fa bf be 55 07 ec bc b2 54 ed 3d
       0.0068872413 -0.37495828 -0.02881209 0.1158842
000110 fb 2f f2 bd 8d 75 25 be fd 31 11 bd b1 b1 1e bd
       -0.11825558 -0.16158123 -0.035448063 -0.03874368
000120 40 9d a7 3d 2f b3 9a 3b 1a dd 1b 3d 91 7e 1f be
       0.0818429 0.0047210674 0.038052656 -0.15575625
000130 47 f7 9f 3d d9 60 2d be 09 92 99 3d a8 9b 02 be
       0.07810836 -0.16931476 0.07498557 -0.1275469
000140 69 a6 0a 3e a7 21 31 bc fe 41 28 bd 2f 35 ed 3d
       0.13540043 -0.010811246 -0.04107856 0.115824096
000150 c6 e4 84 bd f4 d1 6e 3d 75 9f 9f 3e 74 14 d0 3e
       -0.064889476 0.058305696 0.31176344 0.40640604
000160 40 fd 04 3e fb 40 5a 3d e0 c3 d7 ba 47 03 4a be
       0.12987232 0.053284626 -0.0016461574 -0.19727813
000170 6e bc d7 3b f0 2c 39 3d 8c 74 2a bd 68 8c 6f bd
       0.006583742 0.04520887 -0.041615054 -0.05848351
000180 97 45 01 3e 09 ef 79 be 15 a7 6c 3d 50 19 fb 3d
       0.12624203 -0.24407591 0.05777653 0.12260687
000190 54 5a 2d be 1a f6 41 bc 4b 24 93 3c 5d 4b 14 bc
       -0.16928989 -0.01183846 0.017961642 -0.009051171
0001a0 2b 89 b7 bb 5b 3f 41 be b7 b5 7e 3d b1 18 08 be
       -0.0056010685 -0.18871824 0.062185016 -0.13290669
0001b0 2e 8c 17 3e 02 30 b6 3d 59 e2 b2 bb 32 08 3a bc
       0.14799568 0.088958755 -0.0054591116 -0.011354493
0001c0 a5 9c cb bb cd f5 0a 3c 94 73 35 39 c9 d0 c2 3d
       -0.006213742 0.008481455 0.00017304561 0.09512479
0001d0 cc 45 6c 3e 17 ca 42 3e aa 59 41 be 55 9f ab bb
       0.230735 0.19022404 -0.1888186 -0.0052374997
0001e0 30 72 c8 3e 27 c6 17 3c 24 0e 10 3c 00 fd 25 be
       0.39149618 0.009263552 0.008792434 -0.16209793
0001f0 e3 7a 2a bc 1e 95 32 3e a5 8e 7c be ba 61 ae bc
       -0.010405275 0.17439696 -0.2466379 -0.021286834
000200 38 44 04 be 7d 63 fc 3d 50 f6 9a 3c f5 68 4e 3d
       -0.12916648 0.123236634 0.01891628 0.050393064
000210 95 e5 da bc a1 e4 25 3d f9 8c 23 bd df 26 35 be
       -0.026720801 0.04050124 -0.039929364 -0.1769061
000220 df 8b 92 be 19 1c 16 3e cf 78 18 3e db 36 60 3e
       -0.28622338 0.14659156 0.14889835 0.21895926
000230 68 7e a2 bc ab 02 ef 3a a8 fa 85 3b 0e d5 90 ba
       -0.019835666 0.0018235048 0.0040887184 -0.0011049823
000240 07 82 0a bd d9 14 93 3d 56 f2 a9 bc f4 26 af bc
       -0.03381541 0.07181711 -0.020745438 -0.021380879
000250 e5 1f 5e bb c3 44 15 3e ec 3f af bb da 1c 13 3c
       -0.0033893522 0.14577012 -0.0053481963 0.008979047
000260 fa 5d 20 3c 95 15 1e bd ca 84 6b bd fa 77 2f 3d
       0.009788031 -0.0385948 -0.057499684 0.042839028
000270 6d 0b 9c bd d1 8a 76 bd 95 06 31 3e 6f 0f 69 3e
       -0.07619367 -0.06019098 0.17287667 0.22759794
000280 5d 9e cb bb 30 4a 33 bb c2 ea 9d 3c d0 76 fc ba
       -0.0062139467 -0.0027357452 0.01927698 -0.0019261483
000290 79 c6 b6 bb 37 47 07 3e df 5d 19 3e aa 68 b2 be
       -0.005577859 0.1321076 0.14977215 -0.34845477
0002a0 cc 1a d1 3c 3d 4b 20 3e dc 5c bc ba ab ab f9 bb
       0.025525473 0.15653701 -0.0014370936 -0.0076193414
0002b0 11 59 c0 3d 2c c2 80 3e 4d ba e1 3d 30 5a cf 3c
       0.09391988 0.2514814 0.11021862 0.02531156
0002c0 82 40 93 3e 1b 48 f5 bd 7e b2 35 be 71 c8 db 3d
       0.28760153 -0.11976644 -0.1774387 0.107315905

l1.weight f4 [100, 90]
000000 63 9a 3a 3e a4 dd 3a 39 b7 36 a4 3d 41 49 d5 3d
       0.18222956 0.0001782091 0.080182485 0.10414363
000010 4d ea c3 3d d4 ed 53 3d c1 6b eb 3d 40 df 4f 3d
       0.09566174 0.051740482 0.11495162 0.050750017
000020 60 2d 56 be 2a dd d3 bd f7 76 98 3d 93 aa 50 be
       -0.20915747 -0.10344918 0.07444566 -0.20377569
000030 94 1a e6 bd dc 47 c3 3d 56 9d 62 bd e7 18 a1 3d
       -0.11235538 0.095351905 -0.05532583 0.07866078
000040 05 0d a6 3c 55 5b a2 bd 8a 8b 83 bd 6d 3e d6 3d
       0.02026988 -0.079275765 -0.06423099 0.104611255
000050 73 b7 ad 3d c0 e5 94 3c 53 35 a6 3d 24 ed eb bd
       0.08482256 0.01817596 0.081156395 -0.1151984
000060 70 87 96 3c 45 08 88 3d 9a 59 34 3e 5d 61 a2 3d
       0.018375129 0.06642202 0.17612305 0.07928727
000070 75 d0 19 3e 06 c6 e9 3a 4b 33 ce 3d 73 43 0b be
       0.15020926 0.0017835505 0.10068377 -0.13599949
000080 72 17 2e be 7d 31 de bd 6c c1 a1 bd 71 ad 18 3d
       -0.17001131 -0.10849283 -0.078982204 0.03727478
000090 b4 b9 19 3e 0f 5c 4e ba 8f 75 ba bd 5e c6 35 3e
       0.15012246 -0.0007871994 -0.09104454 0.17751452
0000a0 0e d4 4b bc 16 06 6d bd 3a fa d1 3d 96 bb 24 3d
       -0.0124406945 -0.057867132 0.10252805 0.04021796
0000b0 c3 4a 7f ba 1b 0b 95 3d 7d af ff bd e7 1e 2a bd
       -0.00097386184 0.07277509 -0.124846436 -0.041533377
0000c0 e7 7d 53 3d a8 33 91 bd 7d d1 e3 3d 6e 81 bf be
       0.05163374 -0.07089931 0.11123941 -0.37403435
0000d0 4e 0a 59 3e d0 d6 13 bd ea eb 18 be 11 f5 a7 b6
       0.21195337 -0.036093533 -0.14933744 -5.0055173e-06
0000e0 5a 5e b0 bd 56 1b 62 bd c5 06 aa bc f0 b6 e5 3d
       -0.08611746 -0.05520185 -0.020755181 0.11216533
0000f0 0a 26 bd bc 4f 67 fc bd 87 4c a8 3c f2 db f2 3c
       -0.023089428 -0.12324392 0.020544304 0.029645894
000100 72 e4 7d bd b6 87 fc bd a3 0f 9a 3a cc a6 17 be
       -0.06198544 -0.12330572 0.0011753928 -0.14809722
000110 de cf 6c 3b 86 31 34 be 43 8a 39 be 2c a7 d5 3d
       0.003613464 -0.17597017 -0.18119149 0.10432276
000120 a3 0f f5 3d d8 05 42 3e 36 be 3d be 89 de 06 3c
       0.11965873 0.18947542 -0.18529591 0.008231767
000130 5d 0c 46 be 28 fa 67 bd 6b c2 8d bd 77 17 17 3d
       -0.19340654 -0.056635052 -0.06921848 0.036887612
000140 ff f0 89 bd ce 43 66 bd 4f bc 8f 3d c2 9e b3 3d
       -0.067354195 -0.056217007 0.07018339 0.08770515
000150 e1 8e 3e be a6 f8 e2 3d 1f a4 90 3d 51 2f 89 bd
       -0.18609191 0.11082582 0.070625536 -0.06698478
000160 bc cb 57 3d 80 d3 34 3e 04 e3 5c 3e c7 48 87 bd
       0.05268453 0.17658806 0.21570975 -0.06605678
000170 e4 19 65 bd 7a 67 08 bd c7 e8 01 be 47 18 3b 3d
       -0.055932894 -0.033301808 -0.12686454 0.04567745
000180 89 10 38 3e c7 98 b4 bd 55 3e 83 3d 14 fd bc 3d
       0.17975058 -0.088182025 0.06408373 0.09227958
000190 f1 1f 74 3d 19 6b fc bc d3 5d 27 be ec 4b 49 3d
       0.059600774 -0.030812787 -0.16344385 0.04914467
0001a0 b4 4b 10 be 55 59 85 bd b6 78 d5 3d 03 2a 13 be
       -0.14091378 -0.06511179 0.104234144 -0.14371495
0001b0 34 68 55 3d ef bd 70 3d 27 b9 b5 3c a7 b6 d3 3b
       0.05210133 0.058774885 0.022183014 0.006460983
0001c0 7d 29 4b bd 06 53 3f bd 31 89 8c bb b7 c3 3f 3d
       -0.049600113 -0.046710037 -0.0042888154 0.046817508
0001d0 8d 42 07 3d e7 9b 0d bd fc b0 ea bc 75 fb 04 3d
       0.033022452 -0.03457251 -0.028648846 0.03246637
0001e0 15 fa a9 3c 5c b7 04 bd 4e 0e ce 3c 41 81 66 3d
       0.020749131 -0.032401428 0.025153305 0.05627561
0001f0 bd d8 25 be 6f 3d fb bb f4 f9 7c bd 23 6b b5 3d
       -0.1619596 -0.0076672356 -0.06176181 0.08858325
000200 84 70 18 3d 42 8c 82 3d 89 0d 15 bd fc 87 12 3e
       0.03721668 0.06374408 -0.03638986 0.14309686
000210 ab ed f4 bd f7 95 76 3c 64 4a 50 be 81 5f 12 bd
       -0.11959394 0.015050403 -0.20340878 -0.03573561
000220 77 64 88 3d 09 34 b9 bd 33 2c a4 3b d9 3d 9c bc
       0.06659787 -0.09043128 0.005010152 -0.01907246
000230 28 d7 af 3d 11 d7 1b be 27 71 5b be ca af e1 bd
       0.0858596 -0.1521876 -0.21429883 -0.11019857
000240 f8 bf 8e bd 05 15 f9 3d 20 70 fc 3c d3 89 47 3d
       -0.06970209 0.12162212 0.030815184 0.048715424
000250 a8 ad ca bc b1 c6 01 be d7 23 c4 bc 4c 09 a8 3c
       -0.024741009 -0.12673451 -0.023942871 0.020512246
000260 00 d0 b8 3c e2 6c 08 bd 1a c7 bd 3c 37 a6 b6 bd
       0.02256012 -0.033306964 0.023166228 -0.08918422
000270 2a a4 cd bb 46 b5 0e bd eb 7a e7 3c 8b cc dc 3d
       -0.0062756734 -0.034840845 0.028256854 0.10781201
000280 80 8a 36 be 1c 6c f8 3d 1c 12 19 be b2 61 cd bd
       -0.17826271 0.12129995 -0.14948314 -0.100283995
000290 dc bd 28 3d 76 9d a9 bd 6c 82 9a 3d 17 87 17 be
       0.04119669 -0.082819864 0.07544407 -0.14797626
0002a0 05 bd 41 3e f7 a3 ea 3c 2a 6a fe bc ad 4d aa bd
       0.18919761 0.028642638 -0.031056482 -0.08315597
0002b0 9e 13 2c 3a d7 ab a9 3d 0a f0 ee bd 11 22 74 bd
       0.00065642025 0.08284729 -0.116668776 -0.0596028
0002c0 16 08 6a be f0 de 02 3e d9 39 c2 bd be a3 cb bc
       -0.22854647 0.12780356 -0.0948369 -0.024858352
0002d0 f5 56 6b bc 0b 77 27 3e f5 82 1a 3d 4a ad 63 be
       -0.014363994 0.16354005 0.037722547 -0.22234073
0002e0 6b 78 49 bd d7 4c 1e be 5d 18 b4 bd 49 06 86 3d
       -0.049187105 -0.15459 -0.087937094 0.065441675
0002f0 9f 1f e8 3c 53 52 41 bd fe 34 7a bc dc 98 2a be
       0.02833539 -0.04719765 -0.015271423 -0.16659874
000300 6f d4 27 be 69 8e 0c 3e b3 8d 57 bd 22 b4 4d bd
       -0.1638963 0.137262 -0.05262537 -0.050220616
000310 9a cf c8 3c 25 4b 09 3e a9 91 f9 3c 63 c6 ba 3c
       0.024513055 0.13407572 0.030464964 0.022799676
000320 b0 24 b9 bd b5 05 9f 3d 3e 7f 63 be 0d ad 85 3d
       -0.09040201 0.077647604 -0.22216508 0.065271474
000330 96 61 76 3e 3a b4 38 bc 36 3e 88 bc db 43 c5 bd
       0.24060664 -0.011273438 -0.016631227 -0.09632083
000340 2c 1f 99 bd 50 11 0d 3e 2e 83 0b 3c 3d 53 40 bc
       -0.07476649 0.13776135 0.008515162 -0.011738596
000350 58 b4 28 3e 24 8b 2c 3d f7 ab 31 bc d7 da 17 3e
       0.16475046 0.042124882 -0.010844222 0.14829575
000360 4e b5 96 3d 91 5d 04 be 5e e6 ed bc 2e 8d 10 bd
       0.073588 -0.12926318 -0.029040512 -0.03529089
000370 3a 2b 04 be ab 27 18 be 83 6c 63 3d 51 7b 31 bd
       -0.12907115 -0.14858882 0.055523407 -0.043330494
000380 e2 de 7e 3e cc e4 b1 bc 30 07 20 3e 7d 86 ce 3d
       0.2488971 -0.021715544 0.15627742 0.10084245
000390 24 6c 3c 3d 1c 52 83 3d 42 ed 47 3e 28 e0 3e bd
       0.04600157 0.064121455 0.195241 -0.04660049
0003a0 62 66 56 bd ba 9e 72 3d 42 de 4d 3c c7 9a 27 3e
       -0.052343734 0.059233405 0.012565197 0.16367637
0003b0 af 10 ce bd 88 d8 07 bd 2d 0e 23 3e 54 ef 8f bd
       -0.10061776 -0.033165485 0.15923376 -0.0702807
0003c0 ab b3 4e 3c ce 78 09 be b9 32 57 3d 32 1a a9 3d
       0.012616078 -0.1342499 0.052538607 0.082569495
0003d0 3d da 83 bd 31 d6 3c be 8a ac 60 bd 0f 4a 13 be
       -0.0643811 -0.18441083 -0.054852046 -0.1438372
0003e0 43 b0 0f be f7 fa a3 bc ee a9 02 3e 92 8a 53 3d
       -0.14032082 -0.02001713 0.12760136 0.051645823
0003f0 8d 1a 48 be 74 b9 72 bd b0 9f ea 3d 86 81 c9 39
       -0.19541378 -0.059258893 0.11456239 0.0003843421

l1.bias f4 [100]
000000 3f 95 bd bc 53 57 b7 3c a4 84 1b 3e 6d b9 88 3d
       -0.023142455 0.022380507 0.15187317 0.06675992
000010 71 7c fc 3d 02 72 15 3c c5 f4 3f 3e 4f c4 05 bd
       0.12328423 0.00912142 0.18745716 -0.032657918
000020 40 66 0f bd 20 a2 5e bd fa a2 21 bd 76 22 c6 bd
       -0.035009623 -0.054353833 -0.039462067 -0.09674542
000030 93 42 be bc 65 da fd 3b e9 04 f7 bc 39 ca dc 3d
       -0.023225104 0.007746982 -0.030153709 0.107807584
000040 4f c7 22 3d 9f a1 2a 3d 02 b2 a8 bd e8 b1 a7 bc
       0.039740857 0.04165804 -0.08237077 -0.020470574
000050 ad d0 29 3e 89 19 e0 bc 12 7b 01 bd 3a 5e e6 3d
       0.1658351 -0.027355926 -0.03161151 0.11248441
000060 13 97 73 3c 20 4d 1d 3e b0 f2 3d bd d3 5a f1 bd
       0.014867562 0.15361452 -0.046374023 -0.117849015
000070 70 97 d6 bb d6 ab 9e be ff 0c 5d 3d 40 67 c3 3d
       -0.0065488145 -0.30990475 0.053967472 0.09541178
000080 d3 f6 1d be e5 95 78 be ec ae 48 be b0 a3 36 bc
       -0.15426187 -0.2427593 -0.19597977 -0.011147425
000090 67 46 c4 3c ae 8f 16 3e 3f 80 b9 ba 02 69 33 bd
       0.023959352 0.14703247 -0.00141526 -0.043801315
0000a0 38 b1 56 be b7 0f 5e 3e dc 6d 02 be 0f d1 17 3c
       -0.20966041 0.21685682 -0.1273722 0.009266152
0000b0 3f 6f 5d bd b6 ee b3 bc 84 47 91 bb c9 8b c9 bc
       -0.05406117 -0.021964412 -0.004433574 -0.024602788
0000c0 a8 2f 6e bd 1d 61 2e be b4 c4 c2 bb 26 e8 19 3e
       -0.058150917 -0.17029233 -0.005943859 0.15029964
0000d0 e8 9d e0 3d d4 e3 24 be 6f 8d 81 bc c6 2c 18 bd
       0.10967618 -0.16102535 -0.015814511 -0.037152074
0000e0 28 98 10 bd fe 79 63 3d 6e 11 a2 bc dc d0 91 bd
       -0.035301358 0.055536263 -0.019783702 -0.07119915
0000f0 ca 0f 14 be 49 74 51 3d 7e e4 d0 bc bc e7 d1 3d
       -0.14459148 0.05113629 -0.025499579 0.10249278
000100 55 06 d7 3d 55 ba f5 bd 09 a4 ae bb 26 6f b6 3d
       0.104992546 -0.11998431 -0.005329613 0.08907919
000110 49 8c e0 bc 8b 53 0c 3c c4 43 b4 3d 40 bb 91 bd
       -0.027410643 0.00856484 0.08801988 -0.07115793
000120 d8 c9 03 be 5d d0 35 3e 6e 1c a1 3d 5b 37 45 3d
       -0.12869966 0.17755266 0.07866751 0.048148494
000130 4e 57 27 be 47 9e 4f bd 46 2d 54 be 8d 65 c8 bd
       -0.16341898 -0.050688054 -0.20720395 -0.09784994
000140 31 b7 1a 3d 70 20 e6 bd b7 f4 c0 bc 45 a4 80 3d
       0.03777236 -0.11236656 -0.02355419 0.06281332
000150 60 23 11 3d c2 b8 85 3c 3d b5 84 bd 36 76 4e 3c
       0.035434127 0.016323451 -0.06479881 0.012601426
000160 d2 8b 04 be 94 ff 84 bc 08 b5 01 3e 2a a0 90 3d
       -0.12943962 -0.01623515 0.12666714 0.07061799
000170 ae 34 56 bc ee cb 0b 3d da da f9 3d 12 ed 06 bd
       -0.013074083 0.03413003 0.12199946 -0.03294093
000180 2f e2 72 bb 3a 57 bd bd fc a3 18 be 5c 74 c1 3b
       -0.0037061085 -0.09245153 -0.14906305 0.0059037637

l2.weight f4 [100, 100]
000000 59 5e 23 3e 44 9a 81 3e 34 28 0f bd b1 d2 cd bd
       0.1595396 0.25313008 -0.03495045 -0.10049952
000010 0c 8b 3d bd fa 41 28 3d c8 e3 23 3d 15 46 f2 3d
       -0.046275184 0.041078545 0.04001215 0.11829773
000020 93 6d 2f bd fe 1c d7 bd 19 39 90 bc b6 ab df bd
       -0.042829107 -0.10503577 -0.017605351 -0.10921423
000030 22 92 9c bb 5d 4a a2 bc ce e0 14 3d 7d 53 bc 3d
       -0.0047781626 -0.01981085 0.036347203 0.091956116
000040 cd a1 63 be 64 76 e1 bd 56 6d 3e bd 09 62 35 3e
       -0.22229691 -0.11008909 -0.04649099 0.17713179
000050 ca 22 93 bd 7a d0 21 3e c5 ef 17 3e 8f db 7f 3d
       -0.0718437 0.15802184 0.14837559 0.062465247
000060 24 67 e3 bc 0c 4f 09 3d d6 38 15 be 1b 78 05 be
       -0.027759142 0.03352265 -0.14572462 -0.13034098
000070 94 a0 71 be 37 9e 05 be 80 e3 2e 3e 5b cd 8f bd
       -0.23596412 -0.13048635 0.17078972 -0.0702159
000080 22 59 58 3d a5 53 6f bc f1 0b ad 3d e1 6b 31 3d
       0.05281938 -0.014607345 0.08449543 0.043315772
000090 a1 9e 10 be 5e 6d 16 3d 09 b8 15 be bb e6 a9 3d
       -0.14123012 0.036725394 -0.14620985 0.082959615
0000a0 81 a7 78 bd 9a 97 1c 3e 4c 36 56 bc 57 d4 95 bd
       -0.06070662 0.15292206 -0.013074469 -0.07315891
0000b0 2e 6a ef 3d 09 5f d9 bd 69 83 2d be 91 5f 0e 3e
       0.11690174 -0.1061383 -0.1694466 0.13903643
0000c0 a2 62 06 be 61 fc 8b 3d ed 1d 13 bd 65 0f 29 3d
       -0.13123563 0.06835247 -0.03591721 0.041274447
0000d0 b0 56 af 3c 99 6e 40 bd c7 f4 42 3e ff bc 45 3d
       0.02140364 -0.046980474 0.19038688 0.048275944
0000e0 43 09 af bd 99 c7 1f bb 2c 12 10 be dc 5e ca bd
       -0.085466884 -0.0024380444 -0.14069432 -0.09881374
0000f0 df c9 b5 3c 1a 10 f4 3d ab 1f 46 bd 5d d8 29 3d
       0.022190986 0.11917134 -0.048370045 0.041466106
000100 b9 f6 e0 3c f2 61 d6 bd e1 22 c2 3d e0 58 04 be
       0.027461397 -0.104679 0.09479309 -0.12924528
000110 f7 65 02 3e 8a 43 ba 3d 6b 0a 1b bd 23 0d 96 3d
       0.12734209 0.09094913 -0.037851732 0.073267244
000120 33 40 a4 3d 52 53 11 3e 99 74 bd 3d 5c 06 59 3d
       0.080200575 0.1419194 0.09250755 0.05298458
000130 7b cc 44 3e 74 1e 18 3d 09 22 89 bd 37 da 4e 3c
       0.19218628 0.037138417 -0.06695945 0.012625269
000140 cf 1d 46 3e 89 bc 0d bd a1 a2 a5 bd ae be 99 bd
       0.19347309 -0.03460363 -0.080876596 -0.075070724
000150 00 16 43 3d b6 8f d4 bd 6d 3f 5d 3d 1a 73 c3 bd
       0.047628403 -0.10378973 0.054015566 -0.09543438
000160 ec 64 d5 bd 28 73 a1 bd 7c 3d ed bd 98 ff 2e 3d
       -0.1041964 -0.078832924 -0.11583993 0.042724222
000170 bb 3e 21 bd 8d 53 78 bd 56 3e db bc 61 84 22 bc
       -0.039366465 -0.060626555 -0.026763123 -0.009919257
000180 aa 73 bf bd cd a1 80 3e 5f 47 80 3d 81 d4 87 bc
       -0.09348233 0.25123444 0.06263613 -0.016580822
000190 a0 11 08 be f9 c1 de 3c 47 24 1b be cd 9c 7e 3d
       -0.13287973 0.027192103 -0.15150557 0.062161256
0001a0 65 8d 3e 3e 51 9d 77 ba 2c 56 55 3e 91 4d d6 bc
       0.18608625 -0.0009445744 0.20833653 -0.026160033
0001b0 a2 14 c9 3d 19 32 14 3c e1 a2 fe 3c 56 ad 60 3d
       0.098183885 0.009045147 0.031083526 0.054852806
0001c0 d2 4d dc bc d5 68 3d bd 84 5a 05 be 97 33 db bd
       -0.026892576 -0.046242554 -0.1302281 -0.10703199
0001d0 5f 74 a7 bc 9c fa 13 be ac a0 87 3d d7 1f eb 3d
       -0.020441232 -0.14451069 0.066224426 0.11480682
0001e0 43 ff 88 bd 45 e5 83 bd cb 49 85 3c 59 a4 3a 3d
       -0.06689312 -0.06440214 0.016270539 0.04556689
0001f0 69 1d 42 3d 9e fd e0 3b 8c 04 57 bd ad 8c 27 bd
       0.04739133 0.006866171 -0.05249457 -0.040905643
000200 7f 93 bf 3d 8c 7b 0c be 3a 36 76 bd 9c 3e cc 3c
       0.093543045 -0.13719004 -0.06011031 0.024932198
000210 91 32 ed 3d 10 e0 03 bc 65 9a e4 3d 0a 4b fd 3d
       0.115819104 -0.008049026 0.11162261 0.12367828
000220 68 41 05 bd a1 f6 b5 bd d8 0f 2a bd e6 06 e8 bc
       -0.03253308 -0.08884931 -0.041519016 -0.028323602
000230 9b 2e 2b 3d a2 1d d5 bb 86 eb a2 3c 64 bf 32 bd
       0.041792493 -0.0065037766 0.019887697 -0.043639556
000240 e2 b7 62 bc 6c 77 02 3e 78 7f 4e 3d a5 d7 ea 3d
       -0.013837786 0.12740868 0.050414532 0.11466912
000250 a0 c5 77 bd cc 84 70 3c 84 2f ac bb 9a 05 e5 bc
       -0.060491204 0.014680099 -0.0052546877 -0.027956773
000260 3f ea a8 ba fc ef 05 3e 0d c1 ef 3d c5 bd 67 3d
       -0.0012887194 0.13079828 0.117067434 0.056577463
000270 80 f9 ce bd fc e8 18 3d 7e b2 40 be c6 a7 86 bd
       -0.10106182 0.037331566 -0.1881809 -0.06574969
000280 b9 fc 48 3d c5 c4 e3 3d da 84 47 3b 62 10 59 3d
       0.04906914 0.11121515 0.0030444176 0.05299414
000290 79 3a ad 3d ff 0d 0e bd 42 ec c1 3d 36 d7 b2 bc
       0.084584184 -0.034681316 0.09468891 -0.021831136
0002a0 95 aa 36 3d 58 96 f6 bd 31 32 06 bd 9d 19 26 3d
       0.044596273 -0.120403945 -0.03276271 0.04055177
0002b0 7b 18 ac bd 67 c0 79 b9 bd 55 94 3d a2 f1 11 3d
       -0.08403107 -0.00023818166 0.07242916 0.03563083
0002c0 de 7c a6 bd 04 95 a6 3b 24 0b 14 be b7 f3 1f be
       -0.08129285 0.005083682 -0.14457375 -0.15620314
0002d0 15 98 11 be 51 0f 54 be fb 62 56 3d 51 27 d5 bd
       -0.14218171 -0.20708968 0.05234049 -0.1040789
0002e0 33 27 26 bd 48 6b 0b 3d 4e 26 2e be 7f f8 59 bd
       -0.040564727 0.03403786 -0.170068 -0.0532155
0002f0 50 17 f8 bc 90 12 99 bd a4 64 25 3e 08 43 db 3c
       -0.030284554 -0.07474244 0.16151673 0.026765361
000300 f1 b5 0f be 9d 7c 4b 3c 40 da b3 3d ce b6 a6 3c
       -0.14034249 0.012419847 0.08781862 0.02035084
000310 4d c7 b6 3d ae b2 03 be 46 f1 91 bd 19 43 f5 bc
       0.08924732 -0.1286113 -0.071260974 -0.029939221
000320 36 20 a6 3d 82 b1 cf 3d 44 84 f5 3d 3a b2 ea 3c
       0.081116125 0.10141279 0.11988118 0.028649438
000330 d7 6a dd bc f9 40 1d 3e 2c 26 d9 bd 74 c9 07 bd
       -0.027028484 0.15356816 -0.10602984 -0.033151105
000340 9a 29 00 3a c1 f5 79 bd 87 88 12 3e 63 b5 03 3e
       0.00048890116 -0.061025385 0.14309894 0.12862162
000350 cb ea 3c be 91 39 e1 bd 70 6a ab bb 5c 2f 72 be
       -0.18448941 -0.10997308 -0.005231194 -0.23650879
000360 a6 80 4e be 91 ae 2a be b5 cb d7 3c e4 3b 55 3d
       -0.20166263 -0.16668154 0.026342252 0.05205907
000370 47 88 6d 3d ef a9 b9 3c aa 20 5e be 82 ba 69 3e
       0.057991292 0.022664038 -0.21692148 0.22825053
000380 70 7a 6c bb 63 38 59 3d eb ea c8 3c 5e 1a c6 3c
       -0.003608372 0.05303229 0.02452608 0.024182495
000390 11 f4 98 bd 89 65 41 be 04 d2 05 be 0b 62 15 3d
       -0.07468427 -0.18886389 -0.13068396 0.036470454
0003a0 f2 15 a9 3d f3 5a c1 3d 12 80 3c be 3e c6 7c bc
       0.08256139 0.09441175 -0.1840823 -0.015428124
0003b0 65 2a 97 3d 78 a8 08 3e e7 34 14 3e b6 8a fd 3c
       0.07381133 0.13345516 0.14473306 0.030949932
0003c0 88 5c 98 bd a9 f4 03 be ca 75 0a bd 42 c9 da bd
       -0.07439524 -0.12886299 -0.03380374 -0.10682918
0003d0 fd c3 6f bd 2b 56 3b 3d 39 ad 89 bc 69 db e3 bc
       -0.05853652 0.045736473 -0.016806232 -0.027814584
0003e0 01 0b 6b 3d 51 55 37 3e 63 2e 5f 3e 8a 4a 12 be
       0.05738354 0.1790364 0.21795039 -0.14286247
0003f0 8b 5c ec 3c b9 a7 cf 3c 44 b0 af bd fa 63 b6 3d
       0.028852722 0.025348531 -0.08578542 0.08905788

l2.bias f4 [100]
000000 26 86 05 3d 1b e3 37 be 14 2b 8a 3d 77 83 c2 3c
       0.032598637 -0.17957728 0.06746498 0.023744328
000010 f0 60 76 bd e6 12 da 3d 2e 95 4e 3c a8 c8 19 be
       -0.06015104 0.10648136 0.012608809 -0.1501795
000020 8c bf be bd b7 01 15 bd 86 43 c2 3c 0a 51 eb 3d
       -0.093138784 -0.03637859 0.023713838 0.11490066
000030 c2 d1 fb 3c f4 27 d0 3c 3e 4a ac 3d 16 26 d6 3d
       0.030739669 0.025409676 0.08412598 0.10456483
000040 5c 1c 24 3b a8 10 81 3c d8 1d 8e 3e 45 0b 86 3c
       0.0025041318 0.015755013 0.27757144 0.016362796
000050 e5 45 da 3d bc be 84 bd e0 06 14 3d 66 ad 49 3d
       0.106578626 -0.06481692 0.03613937 0.04923763
000060 33 47 b8 bd 59 96 52 3c 3d ab 01 3a 60 d5 f8 bd
       -0.08997955 0.0128532285 0.0004946476 -0.12150073
000070 35 64 2a 3d 1c f3 1c bd c2 43 4b bc 99 6e bb bc
       0.04159947 -0.038317785 -0.012406291 -0.022879886
000080 70 eb 92 3c aa ed 1e 3c 17 0c 3e be ee 90 d3 3c
       0.017934531 0.009700218 -0.185593 0.025825944
000090 d6 62 b0 3d e8 29 ef bc 54 c2 38 3d 59 17 85 bd
       0.086126015 -0.029194787 0.0451072 -0.06498594
0000a0 09 0a 4c bc 2d 1e 75 bd 51 13 14 bd 71 da e7 3c
       -0.012453564 -0.05984323 -0.036151234 0.028302403
0000b0 5d f9 f4 bc 7b 7d 10 bd 3a 17 a7 bc aa 3c 85 bd
       -0.029904062 -0.035275918 -0.020396817 -0.065057114
0000c0 90 7e d1 bb d2 17 2b 3d 21 7f 89 3c 59 a4 d5 bc
       -0.0063932613 0.041770764 0.016784253 -0.026079344
0000d0 01 ca 10 3e f7 bc 2d 3d 91 94 8a 3b 5d 12 05 bc
       0.14139558 0.04241654 0.0042291363 -0.008122054
0000e0 0d 36 68 bd bd 9b 74 3d ab 93 cb bc 36 8f bb 3d
       -0.05669217 0.059718836 -0.024850687 0.09158175
0000f0 fa 4a a3 bd ed bf 67 be da 21 9d 3d 0e 80 10 3e
       -0.07973285 -0.22631808 0.07672472 0.14111349
000100 e1 af ed bc 86 33 8d bc 91 c8 71 bc be c4 69 3d
       -0.02901453 -0.017236482 -0.014757291 0.057072394
000110 77 95 0c 3d 65 88 0b bd 37 f5 2e be b5 c6 c8 3b
       0.03432223 -0.034065623 -0.1708573 0.0061272033
000120 fe 95 30 3d 73 6f 8c bc 05 3d d6 3c 2f a0 db 3c
       0.043111794 -0.017142987 0.026152143 0.02680978
000130 1f f2 62 be ca 73 7e 3d c5 03 66 3c c6 3b e5 3b
       -0.22162674 0.062122144 0.014038985 0.006995651
000140 23 0d f1 3c 99 12 d5 39 37 38 4a 3c e2 5c 16 3e
       0.02942521 0.00040640382 0.012342504 0.1468387
000150 11 8b 9e bc ac 24 52 3b a2 52 06 bd f6 42 8c 3c
       -0.019353421 0.0032065315 -0.03279365 0.017121773
000160 cc 46 22 3c c2 68 ab ba dd 1f 99 be 15 c3 c0 3d
       0.009904575 -0.0013077485 -0.29907122 0.09412209
000170 61 bd 18 bc bd 44 27 bd 75 84 da bc e6 19 7f bc
       -0.009322495 -0.04083704 -0.026674489 -0.0155701395
000180 9b be b8 bd 3c 09 29 bd 2f 70 3c be 5c 9a 63 3d
       -0.0902073 -0.041268572 -0.1840217 0.05556713

l3.weight f4 [18, 100]
000000 a7 f5 c4 3d 9a 4a 3c bd 8b 60 98 bc 0f 7f 11 3e
       0.09617167 -0.045969583 -0.018600723 0.14208625
000010 fe 54 4b be 56 93 11 3b e1 4e 15 be 25 4e 95 3d
       -0.1985664 0.0022213063 -0.14580871 0.072902955
000020 ee 66 b7 3c 24 b7 bb bd fa 52 6d 3d 65 5d 02 3e
       0.022387948 -0.09165791 0.05794046 0.1273094
000030 12 06 94 3d 33 22 48 3d 9e 22 0f be f1 b6 a1 3d
       0.0722772 0.04886074 -0.13978049 0.078962214
000040 37 aa 92 3d 2f a4 d2 bd fb e7 c8 bd 93 ec b0 3d
       0.07161372 -0.10285222 -0.09809872 0.08638873
000050 7f fd d5 bc 33 80 25 bd cb 23 1c 3e a6 ec 47 bc
       -0.026121853 -0.040405463 0.15248029 -0.0122024175
000060 6c d2 88 be 51 81 f1 bd 07 41 0c bd 05 81 82 be
       -0.2672304 -0.11792243 -0.034241702 -0.2548906
000070 66 b8 f9 3d 48 c7 9a 3d a8 1c c7 bc cb 2e 16 bb
       0.12193374 0.07557541 -0.024305657 -0.0022916074
000080 2e 5c 93 3e 12 42 85 be 1d c8 c5 bd a8 dc 15 be
       0.28781265 -0.2602697 -0.09657309 -0.14634955
000090 63 24 cf 3b 56 41 46 bc d6 ec 2d 3e 6b d8 dd bc
       0.0063214763 -0.012100538 0.16984877 -0.027080735
0000a0 28 22 ef ba fb 10 19 3e 3f 82 01 3c b1 91 f6 3d
       -0.0018244432 0.14947884 0.007904588 0.12039507
0000b0 e2 b3 90 bd 48 d1 c9 bb f5 e4 35 3e 17 9c 0f 3d
       -0.0706556 -0.0061589815 0.17763121 0.03506097
0000c0 ad 0a 17 3e 2b ef 3b be cd 6e 0c 3d cb b5 68 be
       0.14750166 -0.18352954 0.034285355 -0.22725599
0000d0 6a 32 23 be eb 9f 0d be a6 5d 91 bd ce ec 28 be
       -0.159372 -0.13830535 -0.0709794 -0.16496584
0000e0 95 a6 db 3c 65 7a ba bd d9 4d 06 be fc 31 70 bd
       0.026812831 -0.09105376 -0.13115634 -0.05864142
0000f0 f4 2a 66 3e 75 9e 2f 3e e1 58 19 3d f2 44 4e 3c
       0.22477323 0.1715029 0.037438277 0.01258968
000100 46 28 8f 3d c2 6c 6a be b5 93 6b 3e 72 78 94 3d
       0.069901034 -0.2289305 0.23005565 0.072495356
000110 db 69 c1 bd ed f5 f6 3d e4 46 62 be 94 a9 4a 3d
       -0.094440185 0.12058625 -0.22097355 0.04947813
000120 8c d9 82 3d ee 46 f4 3d 93 6c 21 3d c8 d1 07 be
       0.0638915 0.11927591 0.039410185 -0.13263619
000130 b0 4a 47 3e f8 1e 70 3c a9 fe 7d be 6f f8 57 bc
       0.19462085 0.014655821 -0.24804176 -0.01318179
000140 29 2a 80 3e 10 6b 2a be 95 e9 35 3d 2d 39 85 bc
       0.25032166 -0.16642404 0.044412214 -0.016262615
000150 ed 9e 9f bd e8 ab 99 3d fd a1 79 be 21 73 05 be
       -0.077939846 0.07503492 -0.243782 -0.130322
000160 ab 8b 24 be 36 47 72 be b9 3e 77 3e 7c f5 8a 3d
       -0.16068904 -0.23659977 0.2414502 0.06785104
000170 07 ca 0b 3e 62 b7 e0 3d 19 75 83 3d f5 0d 9b bd
       0.13651286 0.109724775 0.06418819 -0.075710215
000180 03 b2 f4 3c 93 d5 16 3d 73 e5 b3 3c 38 07 6e be
       0.029870039 0.036824774 0.021959996 -0.23244941
000190 c1 d6 89 3d 8a 5f 2a be c4 93 cd 3d 5f 36 81 3d
       0.06730414 -0.16638008 0.1003795 0.063091986
0001a0 d4 7a ac 3d b5 7d 0c 3c 0d 69 f6 3d b6 a1 76 be
       0.08421865 0.008574893 0.120317556 -0.24085125
0001b0 63 1b 62 be 11 29 92 3d 20 61 72 3c a4 7b bf 3d
       -0.2208076 0.07136739 0.014793664 0.093497545
0001c0 85 78 c4 3d 2e ff 01 3e 7d dd bc 3e 70 3a 76 3c
       0.095933 0.12695 0.36887732 0.015028581
0001d0 88 72 aa bd 8b 0f 32 bd 94 16 30 3e 5a b7 e5 bd
       -0.08322626 -0.043471854 0.17196113 -0.11216612
0001e0 76 b3 00 3e e3 e8 80 3d 10 d3 28 3e c2 67 e5 3c
       0.12568459 0.062944196 0.16486764 0.028003577
0001f0 48 95 84 be ef c1 01 3e 2a 4c 0f be 8f 23 8f 3c
       -0.25895143 0.12671636 -0.13993898 0.01747301
000200 f4 cc 1e be e0 14 44 bd 12 89 78 3e b7 16 87 bd
       -0.15507871 -0.04787147 0.24271038 -0.065961294
000210 11 cc 0b 3e 51 1c 94 3d c9 ea 9d 3c 82 d8 fc 3d
       0.13652064 0.072319634 0.019276993 0.12345983
000220 a6 03 1d bc 37 c9 9e 3c ce 68 6a bd 8d 66 dc 3d
       -0.009583389 0.019383056 -0.057228856 0.107617475
000230 03 10 ab bd b8 e1 49 be 20 9d c6 bd 84 d1 a6 3e
       -0.08352663 -0.19715011 -0.09697938 0.32581723
000240 3b b0 40 3d d9 1b 41 3b 09 66 7e bd 91 84 cc 3c
       0.047043066 0.0029466061 -0.062109027 0.024965556
000250 0c b6 73 3d f4 ce 31 be b9 bc da 3d de 50 06 be
       0.059499785 -0.17364103 0.10680527 -0.13116786
000260 f7 fb b6 3e d7 2f a4 3d e6 08 b9 3e ce 12 9c 3b
       0.3573911 0.08016937 0.361396 0.004762984
000270 2f 58 ee bd ad fe 37 bd 97 8d b5 3c e0 f4 55 3e
       -0.116379134 -0.044920612 0.022162242 0.20894194
000280 da 3f e3 bd db 2e 9f bc 21 77 66 3e 94 e6 18 be
       -0.11096163 -0.019431522 0.22506382 -0.14931709
000290 b3 14 46 3c 8b b0 0e 3d c8 27 2b bd fb 45 5c be
       0.012089896 0.034836333 -0.041785985 -0.2151107
0002a0 40 db a6 3e 60 de 7a bc 64 60 1e be 37 00 cb 3d
       0.3258915 -0.015311807 -0.15466458 0.0991215
0002b0 72 48 5a 3e 88 64 3d bc 22 b5 1b 3e 18 3e cc 3d
       0.21316698 -0.011559613 0.15205815 0.09972781
0002c0 95 dc 8d be 57 99 bd bd e9 fe 54 3d f8 4f 30 3e
       -0.27707353 -0.09257763 0.052000914 0.17218006
0002d0 50 6d b5 3c 0e 88 3b 3e 5f 44 4b be 28 ea 61 3e
       0.02214685 0.1831362 -0.198503 0.2206198
0002e0 f2 20 48 3d 7d 30 91 3d 57 cc 2c be f3 ef 30 3d
       0.048859544 0.070893265 -0.16874824 0.043197583
0002f0 c0 ed e3 3d 8c 3f 63 bd 67 1e 0e be b2 64 31 3d
       0.111293316 -0.055480525 -0.13878785 0.04330892
000300 d8 a8 41 bd b7 6a 90 3d 33 92 c1 bd 31 f2 55 be
       -0.047280163 0.07051604 -0.094517134 -0.2089317
000310 ad f8 55 bd bd b4 42 be f9 f1 0d be 40 14 3b 3e
       -0.05223911 -0.19014259 -0.13861836 0.18269444
000320 a2 4d 0c be c0 b4 c5 3d 5a d8 1d 3e d9 f1 7a bd
       -0.1370149 0.09653616 0.15414563 -0.0612658
000330 c1 ef c9 bd ba 58 4f 3e 25 07 64 bd cd 53 61 3b
       -0.098601826 0.2024869 -0.055670876 0.0034382225
000340 6e 16 66 3e fe 52 26 bd 1c a2 33 bd a6 95 ab 3b
       0.22469494 -0.04060649 -0.04385577 0.0052363453
000350 b9 ad 15 3e dc f8 8b bd e4 af 44 bd 12 96 66 bd
       0.14617051 -0.068345755 -0.048019305 -0.056295462
000360 55 9b 36 3e 16 04 da 3d 25 fc 3f 3e 37 df e5 3b
       0.17832692 0.106453106 0.1874853 0.0070151347
000370 7d f4 7c bd 69 0c 68 bc 8f 4f 37 3e 79 a3 03 bd
       -0.0617566 -0.014163115 0.17901443 -0.03213832
000380 1d 56 9e bd 1e 06 94 3d c6 1f b0 3c 0a 99 31 3d
       -0.077312686 0.07227729 0.021499526 0.04335884
000390 54 0f 71 bc 62 e7 91 bc 86 9d 81 bd aa 03 cc bd
       -0.014713127 -0.017810527 -0.06328873 -0.09961636
0003a0 55 b4 05 be 2c 5d 58 be 1e 1e dc 3d 1f 46 40 3b
       -0.13057072 -0.21129292 0.10747932 0.002933867
0003b0 12 25 d8 bd 6e f6 54 bc 87 f7 c6 bc 5d 72 15 be
       -0.105539456 -0.012998207 -0.024287952 -0.14594407
0003c0 5d 39 ae 3d fb 57 15 3e 4a 48 3d bb 1e 75 22 be
       0.08507035 0.14584343 -0.00288822 -0.15864989
0003d0 12 93 11 bd 07 ab c7 bd aa 14 41 be 04 77 c5 bd
       -0.035540648 -0.09749418 -0.18855539 -0.09641841
0003e0 c1 5c ab bd 99 69 17 3d bc b4 1a be c7 9b 83 3d
       -0.08367301 0.03696594 -0.15108007 0.064261965
0003f0 ee f1 54 bd 13 71 54 be 74 d2 31 be 79 fc 7c 3d
       -0.051988535 -0.2074626 -0.17365438 0.061764214

l3.bias f4 [18]
000000 62 70 7b 3e e9 f4 eb be 2f d7 1f bd bc c8 19 3f
       0.2455459 -0.4608529 -0.039023574 0.6007192
000010 aa ab f1 bd ed cd a4 be 35 21 26 3e 74 21 bb be
       -0.118003204 -0.3218836 0.16223605 -0.3654896
000020 d7 be 50 3e 5a e1 8c 3e 78 1f 81 3e 3a bc b1 3c
       0.203853 0.2751568 0.2521932 0.021696199
000030 39 cc 96 3e bf bc cd be ae e4 9c 3e 1c 2d 5a 3e
       0.29452685 -0.40183064 0.3064322 0.2130627
000040 a2 a7 66 bd 14 d4 8b bb
       -0.05631221 -0.004267225
