data/result/g_710.pt (torch, 87406 bytes, 7 tensors)

G_attr_matrix.weight f4 [36, 5]
0.03125232 -0.019206753 -0.2431871 0.036677968 0.014785542 -0.093410864 0.0368269 0.08835138
0.086191796 -0.006439926 -0.026088411 0.022001084 0.019622928 0.021847798 -0.0010623005 -0.06848717
-0.07977207 -0.10443505 -0.06708562 -0.013617079 0.0035758128 -0.068442434 0.008452765 -0.010156678
-0.001947932 0.1229636 -0.007507463 -0.06750274 0.248492 -0.09606291 -0.019368729 -0.016764661
-0.014153813 -0.014302148 0.1287015 0.20510252 0.11102194 0.20467989 0.1436582 0.057293706
0.0067501455 0.0074424744 0.011737057 -0.04269138 -0.12354106 -0.003898369 -0.00083075714 0.008516959
0.05174269 0.17467412 0.21005262 0.010263712 0.00956598 -0.05580147 -0.00826945 -0.014998631
-0.15126742 -0.22849612 0.057406366 0.17622419 0.0013241887 0.08625297 -0.0043419134 -0.008343281
0.009110116 -0.38263622 -0.022252547 0.11592178 -0.12701693 -0.15361604 -0.025773015 -0.031597074
0.08714075 -0.0012713543 0.026380917 -0.14515136 0.08345897 -0.16211757 0.071770795 -0.13130575
0.13659598 -0.016726194 -0.035396114 0.110499844 -0.05860754 0.063789085 0.304114 0.411891
0.12430335 0.059923626 -0.004377138 -0.20260982 0.0070555033 0.049018618 -0.038297012 -0.056020502
0.12100352 -0.24550655 0.058679946 0.1276521 -0.15863611 -0.015064143 0.016546192 -0.0068483604
-0.000188554 -0.18161097 0.058250617 -0.13346767 0.14974755 0.09632317 0.0005470456 -0.003068019
-0.009076993 0.01215163 -0.004349989 0.10234637 0.24061957 0.18328275 -0.18291454 -0.011057817
0.38739905 0.008793149 0.0038509946 -0.16040973 -0.020233689 0.17338179 -0.25310102 -0.027882231
-0.12572779 0.11201597 0.018529141 0.055953227 -0.025988799 0.037047062 -0.042584397 -0.17687653
-0.27941167 0.1444979 0.14564903 0.21738255 -0.017824588 0.0006006867 0.013761357 0.0047593494
-0.02770455 0.077713124 -0.025573941 -0.012816344 0.005692409 0.15311645 -0.002122894 0.0053515346
0.019944495 -0.040600266 -0.049580097 0.044011608 -0.078234814 -0.048281375 0.17071874 0.23422757
-0.0013451908 0.0024772277 0.024619495 0.0024885815 -0.013832746 0.13688797 0.14778224 -0.34505665
0.025257848 0.14899123 0.00526522 -0.003081028 0.10549241 0.24429664 0.10385108 0.035929006
0.29515064 -0.10590652 -0.1775561 0.09603908
00000000: 6f02 003d 7b57 9dbc 0a06 79be a33b 163d
00000010: 0f3f 723c 324e bfbd ced7 163d 91f1 b43d
00000020: 5385 b03d 0406 d3bb 5db7 d5bc 9e3b b43c
00000030: 43c0 a03c 27fa b23c e43c 8bba 0043 8cbd
00000040: 8a5f a3bd 0be2 d5bd 2f64 89bd 2b1a 5fbc
00000050: 2f58 6a3b 8c2b 8cbd 777d 0a3c 3268 26bc
00000060: c051 ffba 57d4 fb3d 2a01 f6bb e03e 8abd
00000070: b074 7e3e a2bc c4bd 2bab 9ebc 0b56 89bc
00000080: 65e5 67bc 8e53 6abc 53ca 033e 6506 523e
00000090: 795f e33d 9b97 513e 231b 133e ceac 6a3d
000000a0: 5330 dd3b 00e0 f33b c94c 403c 28dd 2ebd
000000b0: 1803 fdbd c77b 7fbb 2bc7 59ba b78a 0b3c
000000c0: 25f0 533d c6dd 323e 0918 573e 2129 283c
000000d0: a1ba 1c3c 1590 64bd 967c 07bc d1bc 75bc
000000e0: d9e5 1abe e3fa 69be f022 6b3d 1d74 343e
000000f0: 6690 ad3a 66a5 b03d 9c46 8ebb 42b2 08bc
00000100: 9942 153c e5e8 c3be f94a b6bc 6668 ed3d
00000110: ba10 02be 864d 1dbe ee21 d3bc ef6b 01bd
00000120: d976 b23d 92a3 a6ba cb1c d83c 8fa2 14be
00000130: 89ec aa3d 2602 26be 91fc 923d 0475 06be
00000140: d1df 0b3e 5f05 89bc 84fb 10bd be4d e23d
00000150: 760e 70bd daa3 823d d5b4 9b3e 61e3 d23e
00000160: c192 fe3d 7a72 753d 186e 8fbb f378 4fbe
00000170: da31 e73b bfc7 483d 54dd 1cbd c175 65bd
00000180: b2d0 f73d 1266 7bbe 625a 703d 3bb7 023e
00000190: 8171 22be 98cf 76bc e18b 873c 3668 e0bb
000001a0: 94b6 45b9 3af8 39be 3398 6e3d c0ab 08be
000001b0: 6c57 193e 1545 c53d 9c67 0f3a d110 49bb
000001c0: abb7 14bc a117 473c 5a8a 8ebb f99a d13d
000001d0: fa64 763e 79ae 3b3e f34d 3bbe d92b 35bc
000001e0: 2b59 c63e 2411 103c f860 7c3b 7342 24be
000001f0: 1fc1 a5bc ff8a 313e 7596 81be 4769 e4bc
00000200: c9be 00be a168 e53d 6dca 973c 362f 653d
00000210: 76e6 d4bc a9be 173d fa6c 2ebd 1f1f 35be
00000220: 0c0f 8fbe 42f7 133e 0525 153e 8899 5e3e
00000230: df04 92bc 6777 1d3a 5177 613c 51f4 9b3b
00000240: a7f4 e2bc 0f28 9f3d 7180 d1bc a5fb 51bc
00000250: 6387 ba3b 8fca 1c3e 4020 0bbb ed5b af3b
00000260: a362 a33c 774c 26bd 8014 4bbd 8445 343d
00000270: 9339 a0bd b1c2 45bd e5d0 2e3e 5ad9 6f3e
00000280: 1d51 b0ba fc58 223b d3ae c93c 7817 233b
00000290: bea2 62bc 5c2c 0c3e 3a54 173e 44ab b0be
000002a0: 8ce9 ce3c 2891 183e de87 ac3b 12eb 49bb
000002b0: 680c d83d e628 7a3e e0af d43d 4b2a 133d
000002c0: fc1d 973e 84e5 d8bd 44d1 35be 23b0 c43d

l1.weight f4 [100, 90]
0.18356492 -0.0002317054 0.07988656 0.10108746 0.091015816 0.053753335 0.11660935 0.05348821
-0.20724681 -0.104605064 0.07510408 -0.20169067 -0.110472575 0.09924709 -0.055802643 0.0787722
0.020598596 -0.07957559 -0.05976105 0.10276595 0.08374166 0.02162955 0.07642842 -0.113614984
0.019827625 0.064716764 0.17783265 0.08125718 0.15220122 0.0014678095 0.09486037 -0.13779971
-0.1605191 -0.10921003 -0.08327853 0.037422836 0.15243435 -0.0044924268 -0.091211535 0.17556788
-0.0143051185 -0.057613086 0.10258722 0.038462542 0.0004735838 0.07156171 -0.1229228 -0.04517644
0.049954645 -0.069352955 0.11291069 -0.37564492 0.21683824 -0.055021595 -0.16551526 -0.00994285
-0.08310066 -0.053243782 -0.025451379 0.122639485 -0.024957458 -0.12681709 0.01808961 0.031410202
-0.047002785 -0.12312715 -0.00030462764 -0.14634402 0.0023363 -0.17331178 -0.1828626 0.112571225
0.118041545 0.19012454 -0.18784684 0.007088842 -0.19012609 -0.05804515 -0.06951995 0.036050458
-0.07058983 -0.053932115 0.06501176 0.095496446 -0.18369739 0.103445984 0.062420018 -0.06877147
0.0512905 0.17482807 0.2129919 -0.058601912 -0.04563443 -0.044146653 -0.14882165 0.055651464
0.17302513 -0.09004861 0.05917722 0.089837685 0.058649532 -0.020979874 -0.17832497 0.058539335
-0.14299776 -0.06280389 0.11164028 -0.14625426 0.053718183 0.049081896 0.026876332 0.0015077081
-0.06578907 -0.049678877 -0.00925654 0.03650804 0.033135194 -0.027443664 -0.01807641 0.02174796
0.03262441 -0.042803604 0.033862043 0.078477025 -0.17080961 0.00054183265 -0.06257354 0.085554644
0.03163914 0.06978672 -0.046607163 0.14740498 -0.11325764 0.0051974603 -0.19405122 -0.020829543
0.07706211 -0.0955013 -0.005493815 -0.007674391 0.09561026 -0.1430701 -0.2135635 -0.12665647
-0.087362565 0.119561926 0.026127998 0.05280604 -0.033259705 -0.11951004 -0.033954285 0.011785719
0.018231286 -0.023540014 0.0627736 -0.08102737 -0.0045267707 -0.03858563 0.01872019 0.10719404
-0.16696548 0.12910947 -0.1697513 -0.102977276 0.05057183 -0.096373305 0.087403044 -0.16826563
0.20512219 0.03564782 -0.03752966 -0.088151194 -0.004099546 0.08220488 -0.11536412 -0.058403336
-0.21887721 0.11688144 -0.10478618 -0.03439879 -0.0143357 0.1604458 0.032713924 -0.21594466
-0.04943284 -0.16047806 -0.08769576 0.06669296 0.032239042 -0.051954776 -0.013286171 -0.17196459
-0.169193 0.13798983 -0.053185705 -0.050066255 0.024515513 0.13792628 0.032074295 0.028416155
-0.084777296 0.08497056 -0.21619397 0.058192745 0.23375623 -0.0053973314 -0.017189229 -0.10000363
-0.08029971 0.1465442 0.00585581 -0.00600448 0.16510335 0.03781275 -0.0049602045 0.14285925
0.07707763 -0.13340674 -0.024117151 -0.039616406 -0.123266764 -0.14028664 0.053190984 -0.037562076
0.2434634 -0.028652307 0.15048297 0.09165615 0.05177828 0.058084663 0.18943322 -0.051085558
-0.047884963 0.061430812 0.011898717 0.15676183 -0.09822294 -0.035669148 0.16011982 -0.06489972
0.01833301 -0.14590655 0.056688927 0.076829 -0.06939261 -0.18688843 -0.04943318 -0.1450417
-0.13501182 -0.029608347 0.12604044 0.04659353 -0.19506277 -0.05683705 0.11744095 0.009666043
00000000: 71f8 3b3e f2f5 72b9 919b a33d f106 cf3d
00000010: 8066 ba3d 752c 5c3d e2d0 ee3d 7416 5b3d
00000020: 8238 54be 2e3b d6bd 2bd0 993d 0088 4ebe
00000030: 723f e2bd 0f42 cb3d 5091 64bd 5253 a13d
00000040: 63be a83c 87f8 a2bd 01c8 74bd f476 d23d
00000050: bf80 ab3d 7430 b13c 8186 9c3d f9ae e8bd
00000060: 8b6d a23c 398a 843d c319 363e 2a6a a63d
00000070: a3da 1b3e 8463 c03a 2746 c23d 5e1b 0dbe
00000080: 1e5f 24be 82a9 dfbd ef8d aabd b048 193d
00000090: c017 1c3e 3535 93bb 1dcd babd 11c8 333e
000000a0: 0460 6abc b3fb 6bbd 4019 d23d e68a 1d3d
000000b0: 574b f839 f28e 923d f3be fbbd ee0a 39bd
000000c0: 3e9d 4c3d ec08 8ebd b83d e73d 8854 c0be
000000d0: d80a 5e3e 535e 61bd d57c 29be 56e7 22bc
000000e0: ae30 aabd 2716 5abd 697f d0bc 692a fb3d
000000f0: 9573 ccbc 57dc 01be a930 943c fca7 003d
00000100: fe85 40bd 162a fcbd 6eb6 9fb9 35db 15be
00000110: 9c1c 193b a578 31be 5540 3bbe be8b e63d
00000120: c4bf f13d 02b0 423e ec5a 40be 8449 e83b
00000130: 6ab0 42be c0c0 6dbd 7a60 8ebd a5a9 133d
00000140: 6791 90bd ece7 5cbd e324 853d a493 c33d
00000150: 2b1b 3cbe 7ddb d33d 22ac 7f3d 0ed8 8cbd
00000160: fd15 523d 2106 333e 8c1a 5a3e 8f08 70bd
00000170: 2beb 3abd 1fd3 34bd b464 18be caf2 633d
00000180: 802d 313e 686b b8bd d063 723d d2fc b73d
00000190: 7e3a 703d fcdd abbc d29a 36be f1c6 6f3d
000001a0: 016e 12be 539f 80bd a9a3 e43d adc3 15be
000001b0: 9907 5c3d 190a 493d c12b dc3c 4a9e c53a
000001c0: 6cbc 86bd 147c 4bbd bea8 17bc 7489 153d
000001d0: c5b8 073d 89d1 e0bc fb14 94bc c728 b23c
000001e0: 2ca1 053d d552 2fbd edb2 0a3d 90b8 a03d
000001f0: b7e8 2ebe c609 0e3a 8e26 80bd 4637 af3d
00000200: 0b98 013d 57ec 8e3d 27e7 3ebd 55f1 163e
00000210: 9ff3 e7bd 754f aa3b 5db5 46be b8a2 aabc
00000220: bdd2 9d3d 3096 c3bd 7605 b4bb 7579 fbbb
00000230: 50cf c33d f880 12be 64b0 5abe 3cb2 01be
00000240: 25eb b2bd e2dc f43d 620a d63c 254b 583d
00000250: 543b 08bd aec1 f4bd a613 0bbd e318 413c
00000260: c759 953c fdd6 c0bc 728f 803d aef1 a5bd
00000270: 4e55 94bb f70b 1ebd 155b 993c 8d88 db3d
00000280: 00f9 2abe 4635 043e 49d3 2dbe c0e5 d2bd
00000290: 6824 4f3d 5e5f c5bd 5e00 b33d d34d 2cbe
000002a0: 8d0b 523e 7303 123d b3b8 19bd 9d88 b4bd
000002b0: 7c55 86bb 085b a83d 0644 ecbd 5638 6fbd
000002c0: 5921 60be 895f ef3d 239a d6bd bfe5 0cbd
000002d0: 49e0 6abc e74b 243e 09ff 053d 9920 5dbe
000002e0: 177a 4abd 5c54 24be d699 b3bd 5296 883d
000002f0: 160d 043d 88ce 54bd 3dae 59bc 7c17 30be
00000300: ee40 2dbe 354d 0d3e 41d9 59bd 4612 4dbd
00000310: c2d4 c83c 8c3c 0d3e 5660 033d ffc8 e83c
00000320: b89f adbd 0c05 ae3d f461 5dbe 845b 6e3d
00000330: cb5d 6f3e 19dc b0bb 6dd0 8cbc b4ce ccbd
00000340: 2d74 a4bd af0f 163e 18e2 bf3b 3bc1 c4bb
00000350: da10 293e 8be1 1a3d 3689 a2bb b249 123e
00000360: e0da 9d3d c79b 08be 5591 c5bc d044 22bd
00000370: 4973 fcbd 4da7 0fbe cade 593d b1da 19bd
00000380: 784e 793e 3eb8 eabc 3518 1a3e 38b6 bb3d
00000390: 7615 543d 2fea 6d3d c8fa 413e 173f 51bd
000003a0: 0623 44bd e09e 7b3d d6f2 423c 2c86 203e
000003b0: 1c29 c9bd d019 12bd 73f6 233e 25ea 84bd
000003c0: 1c2f 963c 8768 15be a632 683d 8658 9d3d
000003d0: b61d 8ebd ae5f 3fbe 727a 4abd d085 14be
000003e0: 8a40 0abe 348d f2bc bf10 013e dbd8 3e3d
000003f0: 89be 47be f7cd 68bd e184 f03d 535e 1e3c

l1.bias f4 [100]
-0.024903592 0.012414639 0.1577021 0.07342742 0.11237212 0.0152472975 0.18618006 -0.032971814
-0.043046493 -0.05554806 -0.02901253 -0.08988791 -0.019268375 0.00015349127 -0.022229401 0.1128611
0.0400717 0.042918194 -0.074290484 -0.02639854 0.16982245 -0.03430081 -0.039848622 0.10983541
0.026351323 0.1531063 -0.04658846 -0.12060789 -0.0026530842 -0.3003485 0.04763796 0.085177585
-0.16251431 -0.23471929 -0.20467933 -0.005901505 0.030311668 0.14673993 0.003884574 -0.040014613
-0.20813844 0.2152498 -0.11882668 0.013985946 -0.051994443 -0.010623858 -0.0040783803 -0.023066597
-0.054702267 -0.17188442 -0.007183552 0.15240411 0.11085696 -0.16404282 -0.017091596 -0.038241316
-0.029289836 0.05580212 -0.016641773 -0.05947033 -0.14549652 0.05194434 -0.03111581 0.1016193
0.10609257 -0.12216677 -0.0031348534 0.08523619 -0.025259165 0.012993911 0.09153677 -0.06823197
-0.12559387 0.17248702 0.07919045 0.052372403 -0.16220747 -0.059776537 -0.21383788 -0.0949233
0.03500826 -0.10994001 -0.022609323 0.06739255 0.03398008 0.013953381 -0.06278687 0.023270518
-0.11623405 -0.012252859 0.1310386 0.06778706 -0.010665051 0.042444885 0.1245231 -0.029032439
-0.006822124 -0.09178432 -0.15304902 0.0052079945
00000000: 9e02 ccbc c566 4b3c a97c 213e 1d61 963d
00000010: 5b23 e63d cdcf 793c fca5 3e3e 740d 07bd
00000020: 8551 30bd 5d86 63bd afab edbc 2717 b8bd
00000030: b6d8 9dbc 80f2 2039 6f1a b6bc b823 e73d
00000040: 3922 243d fdca 2f3d 9c25 98bd c041 d8bc
00000050: f0e5 2d3e 027f 0cbd 4f38 23bd 63f1 e03d
00000060: bbde d73c e6c7 1c3e 8bd3 3ebd 4501 f7bd
00000070: 5edf 2dbb 47c7 99be 0620 433d 9671 ae3d
00000080: 276a 26be 415a 70be 7597 51be 6961 c1bb
00000090: 2d50 f83c fe42 163e 5694 7e3b 5de6 23bd
000000a0: 3e22 55be 726a 5c3e 675b f3bd 4f25 653c
000000b0: 20f8 54bd b10f 2ebc efa3 85bb 29f6 bcbc
000000c0: 7c0f 60bd 7802 30be 0064 ebbb d30f 1c3e
000000d0: f908 e33d d7fa 27be ad03 8cbc eda2 1cbd
000000e0: 3df1 efbc c490 643d 5454 88bc 2997 73bd
000000f0: 0afd 14be 97c3 543d 95e6 febc c81d d03d
00000100: 1047 d93d 9232 fabd 1d72 4dbb 5090 ae3d
00000110: 4fec cebc 6ae4 543c a177 bb3d 34bd 8bbd
00000120: ae9b 00be 70a0 303e 9a2e a23d 7284 563d
00000130: b719 26be 3ed8 74bd 51f8 5abe 2667 c2bd
00000140: d264 0f3d 3a28 e1bd 3037 b9bc 1b05 8a3d
00000150: b22e 0b3d b99c 643c 6796 80bd d0a1 be3c
00000160: 1e0c eebd 37c0 48bc fc2e 063e f1d3 8a3d
00000170: 77bc 2ebc b0da 2d3d f805 ff3d 70d5 edbc
00000180: 208c dfbb 6bf9 bbbd e2b8 1cbe d3a7 aa3b

l2.weight f4 [100, 100]
0.15690613 0.25470743 -0.042441458 -0.09909652 -0.038012292 0.044746626 0.025580231 0.12298237
-0.035681345 -0.112291075 -0.027906936 -0.10945489 -0.018208312 -0.01749826 0.030273644 0.083990216
-0.22196692 -0.1060836 -0.05063216 0.17355536 -0.07694364 0.1601786 0.14599492 0.06418956
-0.02968751 0.02634071 -0.14713432 -0.11497638 -0.24091 -0.13315706 0.1667152 -0.06341318
0.053014744 -0.011163929 0.1053459 0.040832594 -0.14137195 0.033215996 -0.1363161 0.07734857
-0.058656786 0.14540261 -0.020571753 -0.08068645 0.11045063 -0.10769574 -0.1639203 0.14081314
-0.12575698 0.06811237 -0.037691705 0.038440622 0.019842993 -0.041749295 0.19334742 0.052147634
-0.08687835 0.00075848756 -0.14471479 -0.10219747 0.02896243 0.12336453 -0.037733655 0.042332828
0.023687378 -0.10691899 0.07941868 -0.13136591 0.12640086 0.09182304 -0.047153223 0.06107707
0.08415661 0.13796555 0.08847369 0.04285904 0.18793696 0.042522836 -0.056985583 0.007500013
0.19302036 -0.03749812 -0.084657 -0.07888543 0.048081174 -0.09632192 0.053744454 -0.10275617
-0.10778059 -0.07931932 -0.12213363 0.04158758 -0.04466989 -0.07410369 -0.031187443 -0.01595619
-0.09048213 0.2506374 0.06997019 -0.012899035 -0.128644 0.031591557 -0.15049654 0.061960638
0.18627699 -0.010336307 0.20462802 -0.023727544 0.10149787 0.016224714 0.032030743 0.0458769
-0.029496271 -0.040739946 -0.13071303 -0.10878371 -0.023628963 -0.1477438 0.06253019 0.113616325
-0.075063005 -0.0576743 0.014703663 0.054013312 0.04484235 0.007268807 -0.047172062 -0.04121786
0.0918356 -0.13864836 -0.060268138 0.029354898 0.11546254 -0.0075182724 0.11142058 0.12431883
-0.038492426 -0.08787163 -0.044291634 -0.029533159 0.041499197 -0.009439705 0.021899952 -0.050974917
-0.022582067 0.1262493 0.046481054 0.119518675 -0.06363946 0.023756126 0.0039122906 -0.027409011
-0.0036864907 0.13597907 0.118433535 0.058798637 -0.10731882 0.033299565 -0.18944892 -0.06532662
0.054031692 0.113944985 0.005361163 0.0543631 0.089675516 -0.036951017 0.096875645 -0.022457436
0.046117898 -0.122245364 -0.03999975 0.040356103 -0.0818888 -0.002298021 0.06842942 0.033005804
-0.08294987 0.007359088 -0.14563534 -0.16185251 -0.14075795 -0.21067645 0.048647303 -0.10629382
-0.041643098 0.035327595 -0.16465078 -0.054316282 -0.0315329 -0.08124516 0.1660697 0.024678158
-0.14392807 0.009980173 0.09343363 0.024839692 0.08427703 -0.12342244 -0.06730269 -0.034156065
0.07981278 0.10491539 0.10784681 0.026603388 -0.017844785 0.14958198 -0.11258736 -0.033811837
0.0078093284 -0.067503996 0.13113101 0.122201964 -0.19214459 -0.1046799 -0.015822962 -0.24094519
-0.2051747 -0.1659994 0.023081597 0.04796882 0.054712888 0.024346765 -0.21492054 0.22913174
-0.011844662 0.045295153 0.027525518 0.031097539 -0.08221449 -0.19162183 -0.13229154 0.04662775
0.08895235 0.09522132 -0.17431386 -0.016684338 0.06542321 0.13077076 0.14508632 0.028509708
-0.07745179 -0.13388072 -0.041354124 -0.11599582 -0.06187413 0.04234188 -0.012059292 -0.028790751
0.062942594 0.18333332 0.22013892 -0.1444925 0.02248842 0.032194708 -0.0839967 0.09413494
00000000: 00ac 203e 0369 823e 18d7 2dbd 1ef3 cabd
00000010: c7b2 1bbd 3d48 373d a28d d13c 2ede fb3d
00000020: 9a26 12bd ddf8 e5bd 169d e4bc e329 e0bd
00000030: 9929 95bc 8358 8fbc 6f00 f83c 1003 ac3d
00000040: 4c4b 63be 5c42 d9bd ab63 4fbd 7fb8 313e
00000050: a194 9dbd dc05 243e b17f 153e d175 833d
00000060: 3933 f3bc 79c8 d73c 61aa 16be bc78 ebbd
00000070: 1cb1 76be 535a 08be 64b7 2a3e c5de 81bd
00000080: fd25 593d e9e8 36bc 97bf d73d 1440 273d
00000090: cfc3 10be 7f0d 083d 7396 0bbe ed68 9e3d
000000a0: 1942 70bd 6ce4 143e 1886 a8bc f03e a5bd
000000b0: f133 e23d 968f dcbd b9da 27be 5231 103e
000000c0: 70c6 00be 807e 8b3d 9e62 1abd ea73 1d3d
000000d0: c68d a23c 4f01 2bbd defc 453e c298 553d
000000e0: 47ed b1bd 3dd5 463a 1d30 14be e84c d1bd
000000f0: 9e42 ed3c 8ba6 fc3d 9b8e 1abd 3065 2d3d
00000100: 080c c23c 58f8 dabd 43a6 a23d c984 06be
00000110: 3a6f 013e b80d bc3d bd23 41bd f32b 7a3d
00000120: 4d5a ac3d d746 0d3e b231 b53d f68c 2f3d
00000130: 8c72 403e 6d2c 2e3d b769 69bd abc2 f53b
00000140: 21a7 453e a197 19bd a660 adbd af8e a1bd
00000150: c4f0 443d 6d44 c5bd 2523 5c3d d471 d2bd
00000160: 12bc dcbd 2b72 a2bd 3221 fabd bd57 2a3d
00000170: c6f7 36bd adc3 97bd cf7c ffbc 8eb6 82bc
00000180: b24e b9bd 8c53 803e 884c 8f3d 7956 53bc
00000190: 41bb 03be 2666 013d c41b 1abe 70ca 7d3d
000001a0: 65bf 3e3e 9d59 29bc 028a 513e 4460 c2bc
000001b0: 1ede cf3d b1e9 843c ab32 033d 6be9 3b3d
000001c0: 2aa2 f1bc eede 26bd a3d9 05be fec9 debd
000001d0: 8791 c1bc 274a 17be d40f 803d adaf e83d
000001e0: a2ba 99bd e33b 6cbd a2e7 703c 103d 5d3d
000001f0: 9dac 373d 2c2f ee3b 7e37 41bd 0fd4 28bd
00000200: 4e14 bc3d d6f9 0dbe b9db 76bd af79 f03c
00000210: a077 ec3d d75b f6bb 7930 e43d df9a fe3d
00000220: 3caa 1dbd 0bf6 b3bd 256b 35bd 86ef f1bc
00000230: 10fb 293d fea8 1abc 8767 b33c 13cb 50bd
00000240: 07fe b8bc 7f47 013e eb62 3e3d 35c6 f43d
00000250: 6855 82bd 359c c23c ac32 803b dd88 e0bc
00000260: 0d99 71bb 193e 0b3e 488d f23d d7d6 703d
00000270: f8c9 dbbd 2065 083d e6fe 41be f7c9 85bd
00000280: 5650 5d3d fd5b e93d b2ac af3b d8ab 5e3d
00000290: cca7 b73d f359 17bd bd66 c63d a8f8 b7bc
000002a0: 1fe6 3c3d c75b fabd c7d6 23bd 714c 253d
000002b0: 51b5 a7bd 659a 16bb b924 8c3d 1831 073d
000002c0: 9fe1 a9bd 8124 f13b 6e21 15be aabc 25be
000002d0: da22 10be 91bb 57be 6542 473d 93b0 d9bd
000002e0: f491 2abd abb3 103d 379a 28be c07a 5ebd
000002f0: a428 01bd dd63 a6bd 2d0e 2a3e d929 ca3c
00000300: e161 13be e183 233c 225a bf3d 9c7c cb3c
00000310: 6f99 ac3d e7c4 fcbd fed5 89bd 3be7 0bbd
00000320: e274 a33d e1dd d63d cade dc3d 59ef d93c
00000330: 3a2f 92bc 052c 193e 3494 e6bd 487e 0abd
00000340: 65e5 ff3b 893f 8abd 3547 063e 0645 fa3d
00000350: 8dc1 44be 6a62 d6bd 289f 81bc 56ba 76be
00000360: 5119 52be bffb 29be 9e15 bd3c f47a 443d
00000370: 9f1a 603d de72 c73c 2114 5cbe 83a1 6a3e
00000380: 1d10 42bc 6987 393d 327d e13c 44c0 fe3c
00000390: 1260 a8bd 8338 44be 6f77 07be bdfc 3e3d
000003a0: a62c b63d 6503 c33d 557f 32be 98ad 88bc
000003b0: 9bfc 853d c5e8 053e 8291 143e 318d e93c
000003c0: 0b9f 9ebd 0718 09be f162 29bd 378f edbd
000003d0: ba6f 7dbd ae6e 2d3d 5694 45bc 95da ebbc
000003e0: 0ce8 803d bbbb 3b3e 196c 613e d8f5 13be
000003f0: a339 b83c 99de 033d 7606 acbd d2c9 c03d

l2.bias f4 [100]
0.02854626 -0.18130757 0.06253901 0.021051837 -0.06337597 0.1088712 0.012765151 -0.1504045
-0.08607048 -0.03591984 0.015056719 0.113653705 0.032383375 0.024106286 0.08381493 0.10182887
0.0053081447 0.020755583 0.27790955 0.01964883 0.10605542 -0.06870252 0.034892723 0.046171315
-0.08973934 0.008573652 -0.0039896397 -0.121501826 0.042594016 -0.034428295 -0.014182186 -0.02162267
0.013487225 0.012873692 -0.18656854 0.025376135 0.086581185 -0.03169422 0.04313823 -0.06597444
-0.012599072 -0.0590156 -0.038755365 0.02405457 -0.031603944 -0.037443448 -0.020307902 -0.06910729
-0.0041785464 0.039985847 0.01989284 -0.026248133 0.14669454 0.042070415 -0.0017769686 0.0017646671
-0.05523887 0.060237233 -0.027616845 0.0854501 -0.08091211 -0.2258055 0.075883195 0.1401533
-0.037859093 -0.014753957 -0.01242012 0.057955302 0.02707117 -0.033509936 -0.16943066 0.007926595
0.04003851 -0.023898633 0.027679192 0.027102811 -0.22205141 0.05823826 0.008880158 0.0070030396
0.02480078 -0.0008604931 0.013515227 0.14726888 -0.018901197 0.0015149391 -0.024683515 0.015942186
0.005042765 -0.003031861 -0.29967973 0.09380117 -0.010332269 -0.040716793 -0.024904879 -0.012692591
-0.08918444 -0.03577253 -0.18450536 0.05011577
00000000: d9d9 e93c b1a8 39be 7414 803d e774 ac3c
00000010: 43cb 81bd ddf7 de3d ed24 513c a303 1abe
00000020: b845 b0bd af20 13bd 75b0 763c 46c3 e83d
00000030: 6ea4 043d 8c7a c53c 29a7 ab3d a88b d03d
00000040: f2ef ad3b 9d07 aa3c 294a 8e3e 95f6 a03c
00000050: 9633 d93d e8b3 8cbd aceb 0e3d 221e 3d3d
00000060: 42c9 b7bd 8178 0c3c 86bb 82bb f3d5 f8bd
00000070: 1077 2e3d af04 0dbd 665c 68bc 0722 b1bc
00000080: 86f9 5c3c 2eec 523c d30b 3fbe 9de1 cf3c
00000090: 7a51 b13d ccd1 01bd b6b1 303d 9b1d 87bd
000000a0: 576c 4ebc 57ba 71bd f2bd 1ebd 170e c53c
000000b0: 2373 01bd 4d5e 19bd c25c a6bc 1f88 8dbd
000000c0: 30ec 88bb 33c8 233d 4ff6 a23c 5306 d7bc
000000d0: 1837 163e 0752 2c3d 2ce9 e8ba 674c e73a
000000e0: 2742 62bd 51bb 763d b93c e2bc 7600 af3d
000000f0: 40b5 a5bd 8f39 67be a668 9b3d 5984 0f3e
00000100: 2312 1bbd 95ba 71bc c27d 4bbc 8a62 6d3d
00000110: 5cc4 dd3c b741 09bd 3b7f 2dbe 8dde 013c
00000120: 6cff 233d 11c7 c3bc 79bf e23c b706 de3c
00000130: 7261 63be 3e8b 6e3d 157e 113c c179 e53b
00000140: 012b cb3c b792 61ba f86e 5d3c a7cd 163e
00000150: afd6 9abc ec90 c63a 1535 cabc 3099 823c
00000160: c73d a53b 30b2 46bb 9f6f 99be d41a c03d
00000170: ad48 29bc a7c6 26bd 5105 ccbc 96f4 4fbc
00000180: 55a6 b6bd 3786 12bd f9ee 3cbe 3246 4d3d

l3.weight f4 [18, 100]
0.09220057 -0.046561576 -0.02141568 0.1405935 -0.19757637 0.0056707873 -0.14096992 0.07327603
0.023832437 -0.086783335 0.056859486 0.12698208 0.073833786 0.05334846 -0.13982281 0.07741301
0.07550752 -0.098789826 -0.09755084 0.09194282 -0.025728242 -0.040527336 0.15410805 -0.014552129
-0.2675436 -0.117136985 -0.035651382 -0.25600618 0.12368867 0.07734693 -0.024596326 -0.0015232881
0.28243297 -0.2540487 -0.09732907 -0.1453749 0.0055878344 -0.0139892 0.17083797 -0.029840637
-0.0051701 0.14834493 0.0076427977 0.120335475 -0.071109 -0.011992167 0.17749892 0.035189264
0.15280257 -0.18989643 0.03491648 -0.2281478 -0.1587044 -0.13723457 -0.07095328 -0.16084781
0.028778583 -0.09569878 -0.13059573 -0.061615635 0.22778223 0.17069978 0.03863302 0.01404194
0.06815326 -0.22568959 0.23015432 0.06642604 -0.09683366 0.11643983 -0.22165969 0.053418007
0.0653008 0.11935467 0.04070913 -0.13204214 0.19417313 0.014459676 -0.25345626 -0.011683628
0.24985357 -0.16329177 0.0421193 -0.01570546 -0.07018207 0.07567362 -0.24611 -0.13236398
-0.15983851 -0.23800783 0.24105538 0.068113595 0.14156778 0.115053274 0.068451166 -0.07974094
0.02987779 0.03905378 0.021631587 -0.23282653 0.063508935 -0.16727765 0.0977326 0.061536722
0.085532896 0.0117967315 0.12528431 -0.24075732 -0.21960261 0.07681956 0.013833643 0.09323112
0.097319 0.13183583 0.36915353 0.013716452 -0.07950946 -0.03934009 0.17282313 -0.106439635
0.12640905 0.06310748 0.1667646 0.025936706 -0.2595812 0.12786509 -0.14165169 0.016053993
-0.15344866 -0.04618555 0.24302997 -0.065289475 0.1312974 0.07902431 0.018220454 0.12474379
-0.010299442 0.017786143 -0.05662935 0.10500162 -0.08729808 -0.1985943 -0.09752867 0.32577837
0.046507053 -0.003251894 -0.06255331 0.025089925 0.06518657 -0.18049018 0.10779835 -0.132554
0.35839197 0.08158475 0.36187556 0.008854519 -0.11423797 -0.049939394 0.02296166 0.20626193
-0.108043194 -0.020546118 0.2265268 -0.14778233 0.010471401 0.038176 -0.041626528 -0.22133715
0.32379428 -0.019901969 -0.15566625 0.10326518 0.21490602 -0.0112465 0.15338105 0.10079819
-0.27782258 -0.092634365 0.046882566 0.17399272 0.021828229 0.1865062 -0.20089678 0.22149639
0.056420106 0.07155237 -0.17128006 0.04121514 0.11237179 -0.05647979 -0.13950005 0.043895368
-0.042245567 0.07597207 -0.09047291 -0.21307258 -0.052071597 -0.18818171 -0.13924249 0.18256313
-0.14080918 0.09558943 0.15146507 -0.063251264 -0.09868422 0.20604937 -0.05055946 0.0034953686
0.2259063 -0.035563484 -0.045074366 0.0051737395 0.14788254 -0.06295494 -0.047693018 -0.057402786
0.18190132 0.11114336 0.18841358 0.013120285 -0.060982194 -0.014697279 0.18102366 -0.033923764
-0.07796107 0.07310883 0.019488573 0.041795634 -0.012642797 -0.016270518 -0.06400938 -0.0993654
-0.13564375 -0.20413974 0.10631801 0.004203266 -0.10686262 -0.01459676 -0.022764547 -0.14912476
0.08149848 0.14427994 -0.0034103433 -0.15874943 -0.036179114 -0.10378844 -0.18899307 -0.096576616
-0.077938974 0.029967854 -0.15017238 0.06352973 -0.05099853 -0.20609228 -0.17360412 0.06610031
00000000: a7d3 bc3d 5ab7 3ebd f06f afbc bef7 0f3e
00000010: 7651 4abe 03d2 b93b 6b5a 10be be11 963d
00000020: 3e3c c33c 76bb b1bd 7ee5 683d 9707 023e
00000030: 2b36 973d ea83 5a3d b62d 0fbe b68a 9e3d
00000040: b0a3 9a3d 5252 cabd bcc8 c7bd 844c bc3d
00000050: 09c4 d2bc feff 25bd 80ce 1d3e 0e6c 6ebc
00000060: 7afb 88be 84e5 efbd 2f07 12bd 3e13 83be
00000070: 7c50 fd3d 1168 9e3d 3c7e c9bc 11a9 c7ba
00000080: 0e9b 903e ac12 82be 7754 c7bd 28dd 14be
00000090: 271a b73b f532 65bc 26f0 2e3e 5a74 f4bc
000000a0: f169 a9bb bce7 173e 6f70 fa3b 7272 f63d
000000b0: 98a1 91bd cb7a 44bc 47c2 353e 9e22 103d
000000c0: 4778 1c3e 3674 42be 9504 0f3d 949f 69be
000000d0: 6883 22be 3887 0cbe f44f 91bd 4ab5 24be
000000e0: 10c1 eb3c b9fd c3bd e3ba 05be ad60 7cbd
000000f0: bf3f 693e eccb 2e3e a83d 1e3d 2a10 663c
00000100: f093 8b3d 2c1b 67be 93ad 6b3e 600a 883d
00000110: ba50 c6bd 0178 ee3d c2fa 62be d7cc 5a3d
00000120: 6dbc 853d 3970 f43d 9ebe 263d 0e36 07be
00000130: 52d5 463e 47e8 6c3c 05c5 81be b06c 3fbc
00000140: 9dd9 7f3e f535 27be 4a85 2c3d bda8 80bc
00000150: 9ebb 8fbd c5fa 9a3d 4304 7cbe 6c8a 07be
00000160: b5ac 23be 53b8 73be 39d7 763e 247f 8b3d
00000170: 25f7 103e 0da1 eb3d 2030 8c3d 384f a3bd
00000180: 44c2 f43c dbf6 1f3d ba34 b13c 146a 6ebe
00000190: f910 823d d54a 2bbe 0828 c83d ee0d 7c3d
000001a0: df2b af3d 1447 413c 884a 003e 1689 76be
000001b0: 82df 60be 9353 9d3d 81a6 623c f5ef be3d
000001c0: 2f4f c73d f9ff 063e b101 bd3e f8ba 603c
000001d0: dbd5 a2bd 1323 21bd 8cf8 303e 06fd d9bd
000001e0: 6071 013e 7f3e 813d 57c4 2a3e 3779 d43c
000001f0: d4e7 84be 11ef 023e 240d 11be aa83 833c
00000200: a521 1dbe 0f2d 3dbd d9dc 783e 7db6 85bd
00000210: d372 063e 7fd7 a13d 1043 953c ac79 ff3d
00000220: febe 28bc 3fb4 913c 2df4 67bd 170b d73d
00000230: 56c9 b2bd 4e5c 4bbe 1dbd c7bd 6ccc a63e
00000240: 2e7e 3e3d ba1d 55bb f31b 80bd 6389 cd3c
00000250: 8980 853d 6bd2 38be 62c5 dc3d 3cbc 07be
00000260: 277f b73e e815 a73d c147 b93e 8b12 113c
00000270: 99f5 e9bd 408d 4cbd 171a bc3c 5436 533e
00000280: c045 ddbd 5550 a8bc a4f6 673e 4054 17be
00000290: 3d90 2b3c 705e 1c3d 9480 2abd 35a6 62be
000002a0: 5dc8 a53e 7409 a3bc f966 1fbe b27c d33d
000002b0: 5310 5c3e 3d43 38bc ec0f 1d3e 486f ce3d
000002c0: c33e 8ebe 16b7 bdbd ef07 403d 262b 323e
000002d0: 1dd1 b23c 7bfb 3e3e e3b7 4dbe f3cf 623e
000002e0: c518 673d 0d8a 923d 0a64 2fbe 35d1 283d
000002f0: 2e23 e63d 5a57 67bd 1ad9 0ebe a1cb 333d
00000300: b009 2dbd 3f97 9b3d dc49 b9bd b32f 5abe
00000310: 0749 55bd b5b2 40be 9595 0ebe d4f1 3a3e
00000320: 4830 10be 64c4 c33d a919 1b3e e189 81bd
00000330: f41a cabd 9bfe 523e 7017 4fbd 8e12 653b
00000340: fb53 673e 04ab 11bd e69f 38bd 7988 a93b
00000350: 856e 173e 85ee 80bd c159 43bd 2f1f 6bbd
00000360: 5744 3a3e 219f e33d 7def 403e 77f6 563c
00000370: 77c8 79bd dbcc 70bc 445e 393e a5f3 0abd
00000380: 0eaa 9fbd 15ba 953d 80a6 9f3c e631 2b3d
00000390: bc23 4fbc c049 85bc 5a17 83bd 1680 cbbd
000003a0: 32e6 0abe 020a 51be 42bd d93d 8dbb 893b
000003b0: cada dabd 4027 6fbc b77c babc 29b4 18be
000003c0: ade8 a63d 1fbe 133e 1180 5fbb 368f 22be
000003d0: 8d30 14bd 098f d4bd 6687 41be f6c9 c5bd
000003e0: 789e 9fbd 257f f53c cac6 19be e01b 823d
000003f0: d6e3 50bd db09 53be 47c5 31be 995f 873d

l3.bias f4 [18]
0.24611814 -0.45997408 -0.03808168 0.6008807 -0.11723713 -0.32111555 0.16285579 -0.36443368
0.20470129 0.275346 0.2524996 0.022340603 0.2951494 -0.40087542 0.3074413 0.21371855
-0.055526387 -0.003472158
00000000: 6506 7c3e b981 ebbe 89fb 1bbd 51d3 193f
00000010: 051a f0bd 4269 a4be abc3 263e 0d97 babe
00000020: 379d 513e 27fa 8c3e a147 813e a403 b73c
00000030: d21d 973e 8b3f cdbe f268 9d3e 09d9 5a3e
00000040: a36f 63bd 258d 63bb
