data/result/g_770.pt (torch, 87406 bytes, 7 tensors)

G_attr_matrix.weight f4 [36, 5]
0	0x3d1dd7ec	0.038535997
1	0xbcbe0456	-0.023195427
2	0xbe679988	-0.22617161
3	0x3cd1c692	0.025607381
4	0x3b8d2f50	0.0043086186
5	0xbdaf63bb	-0.08563944
6	0x3d0d987c	0.03456925
7	0x3dc39057	0.09549015
8	0x3da6a344	0.08136609
9	0xbc8d99b6	-0.01728521
10	0xbcb6f741	-0.022334697
11	0x3c6807ef	0.014162048
12	0x3c70b4a3	0.014691505
13	0x3cc6f6f9	0.024287688
14	0x3b6ea2ea	0.0036413022
15	0xbd844bc7	-0.06459766
16	0xbdaf212b	-0.08551248
17	0xbdd897fc	-0.10575864
18	0xbd8bd8a9	-0.06828434
19	0xbc005648	-0.007833071
20	0xbb3f83d4	-0.0029222863
21	0xbd679930	-0.056542575
22	0x3b3108cf	0.0027013307
23	0xbc1edce2	-0.009696217
24	0x3b21e739	0.002470447
25	0x3dfb84c4	0.122811824
26	0xbbc534b5	-0.006018246
27	0xbdc03526	-0.09385137
28	0x3e889c64	0.26681817
29	0xbd95699d	-0.07295535
30	0xbc8cc89c	-0.017185502
31	0xbc0c893a	-0.008577639
32	0xbc64ab01	-0.013956786
33	0xbc218655	-0.009858687
34	0x3de7189f	0.11283993
35	0x3e4cd491	0.20002963
36	0x3dfd69c0	0.12373686
37	0x3e535b59	0.20640315
38	0x3e1e4091	0.15454318
39	0x3d1f7325	0.03892817
40	0x3b3a11ce	0.002839196
41	0x3aada1cc	0.0013247072
42	0x3a468982	0.0007573591
43	0xbd1ad4a3	-0.037800442
44	0xbdfa1fac	-0.12213072
45	0xbbbfda0f	-0.005854852
46	0xbb6b961d	-0.0035947629
47	0xbb0973ab	-0.0020973484
48	0x3d618ee2	0.055067904
49	0x3e2e0b2e	0.16996452
50	0x3e4252d4	0.18976909
51	0x3c4f406c	0.012649637
52	0x3c92cb98	0.017919347
53	0xbd219006	-0.039443992
54	0xbc4c542a	-0.012471238
55	0xbcf205a3	-0.029543703
56	0xbe1739b0	-0.147681
57	0xbe5b6064	-0.21423489
58	0x3d93fcdc	0.072259635
59	0x3e2a85c0	0.16652584
60	0x3b44f8de	0.0030055563
61	0x3d9aca0b	0.07558068
62	0x3a3d7f0f	0.0007228711
63	0x3aa17ea4	0.0012321067
64	0x3ac41e40	0.0014962628
65	0xbec52923	-0.38507947
66	0xbd04ace3	-0.03239144
67	0x3e011e8b	0.12609307
68	0xbdfbfbbf	-0.12303876
69	0xbe242ba1	-0.16032268
70	0xbd086c7a	-0.033306576
71	0xbd1d2455	-0.038364727
72	0x3daab010	0.083343625
73	0x3be64f77	0.007028516
74	0x3d37e231	0.044893447
75	0xbe151381	-0.14558221
76	0x3da3950b	0.07987412
77	0xbe29ba48	-0.16574967
78	0x3d893048	0.06698662
79	0xbdf69858	-0.12040776
80	0x3dfb34ba	0.12265916
81	0xbc4d105e	-0.012516109
82	0xbd01dfcc	-0.03170757
83	0x3ddc4414	0.10755172
84	0xbd817bf7	-0.063224725
85	0x3d812c9e	0.06307338
86	0x3e9fdfb3	0.31225356
87	0x3ecec00a	0.4038089
88	0x3e05ab90	0.13053727
89	0x3d371a8f	0.044703063
90	0x3a9f64a2	0.0012160728
91	0xbe3fdbab	-0.1873614
92	0x3b49b799	0.0030779599
93	0x3d2450b5	0.04011603
94	0xbd0d3b07	-0.03448012
95	0xbd662d37	-0.056195464
96	0x3dfd3f46	0.12365584
97	0xbe85f9f5	-0.26167265
98	0x3d680379	0.056643937
99	0x3e049737	0.12948309
100	0xbe216b58	-0.15763605
101	0xbc53e73c	-0.012933549
102	0x3c801f4a	0.01563992
103	0xbc3ccbf5	-0.0115232365
104	0xbc082583	-0.008309725
105	0xbe441671	-0.19149186
106	0x3d99b988	0.075060904
107	0xbe0fc390	-0.14039445
108	0x3e1ea352	0.1549199
109	0x3dcbed29	0.09957344
110	0xbb857e7b	-0.0040739155
111	0xbc1d051a	-0.009583736
112	0xbc211fd2	-0.009834247
113	0x3c174070	0.009231672
114	0x3b10150a	0.0021985197
115	0x3dca0523	0.09864261
116	0x3e6f6e06	0.23381814
117	0x3e392b11	0.18082835
118	0xbe2e3a61	-0.17014457
119	0xbc859865	-0.016308019
120	0x3ec1df45	0.37865654
121	0x3c27673b	0.010217483
122	0x3b12b49b	0.0022385481
123	0xbe21bb73	-0.15794162
124	0xbbd37315	-0.006452928
125	0x3e2e01ad	0.16992827
126	0xbe816a63	-0.2527648
127	0xbce76fd1	-0.02825156
128	0xbdf96240	-0.12176943
129	0x3dfb9e83	0.12286093
130	0x3cc184d7	0.023622913
131	0x3d5e0209	0.05420116
132	0xbce11b86	-0.027478945
133	0x3cf6d0b9	0.030128824
134	0xbd2c25e0	-0.042028308
135	0xbe2a5621	-0.16634418
136	0xbe8d3518	-0.2757957
137	0x3e09abc0	0.13444424
138	0x3e0db8cf	0.1384003
139	0x3e5addc5	0.21373661
140	0xbc9b2ebf	-0.018943189
141	0x3b733db3	0.0037115633
142	0x3baaaadc	0.0052083563
143	0x3b19adb6	0.0023449487
144	0xbd01cd7b	-0.031690102
145	0x3da091f1	0.07840336
146	0xbc827088	-0.0159228
147	0xbca927af	-0.020648805
148	0x3b8cd32a	0.0042976337
149	0x3e1068c6	0.14102468
150	0xbbe94448	-0.0071187355
151	0x3c7ca96c	0.015421253
152	0x3c2b4949	0.010454484
153	0xbd13e59e	-0.036107652
154	0xbd508a49	-0.05091313
155	0x3d1ac068	0.03778115
156	0xbd8dd7de	-0.06925939
157	0xbd56d7bb	-0.05245183
158	0x3e2a2c48	0.16618454
159	0x3e6f7bc4	0.23387057
160	0xbbc7e365	-0.0061001056
161	0xbb1f5678	-0.0024313014
162	0x3ca25759	0.019817041
163	0xbabd239c	-0.0014430168
164	0xbbe91578	-0.007113155
165	0x3e0813e2	0.13288835
166	0x3e0ec812	0.13943508
167	0xbea7429e	-0.32668012
168	0x3c9900df	0.018677173
169	0x3e186421	0.14881946
170	0xba76c0a1	-0.0009412859
171	0xbc07daa7	-0.008291877
172	0x3db7a9c8	0.0896793
173	0x3e790462	0.24318078
174	0x3dcb76cd	0.09934769
175	0x3d2f079e	0.042731874
176	0x3e9a2b14	0.3011099
177	0xbde7d125	-0.11319188
178	0xbe32baef	-0.17454122
179	0x3dc1b035	0.09457437

l1.weight f4 [100, 90]
0	0x3e3e56be	0.18587777
1	0x3baa1267	0.005190182
2	0x3d9def83	0.07711699
3	0x3dceb6a5	0.100934304
4	0x3dafdffb	0.08587643
5	0x3d5d3e9c	0.054014787
6	0x3df12e68	0.117764294
7	0x3d49c935	0.04926415
8	0xbe4f51a7	-0.20245992
9	0xbdbed07e	-0.093171105
10	0x3db51923	0.08842685
11	0xbe4fe4b1	-0.20302083
12	0xbdedd6ee	-0.1161326
13	0x3dca93b5	0.09891454
14	0xbd95c2db	-0.07312556
15	0x3d966ccb	0.07344969
16	0x3c86e3c9	0.016466038
17	0xbdab2402	-0.08356477
18	0xbda1513e	-0.07876824
19	0x3dd6cb73	0.104880236
20	0x3d960416	0.07324998
21	0x3ce2e202	0.02769566
22	0x3da1eea1	0.07906843
23	0xbdfb2b41	-0.122641094
24	0x3c716fd3	0.014736134
25	0x3d884c62	0.06655194
26	0x3e31f846	0.17379865
27	0x3d93c78f	0.07215797
28	0x3e1c8aab	0.15287273
29	0x3c56c654	0.013108809
30	0x3de8ea80	0.11372852
31	0xbe0bbc54	-0.1364606
32	0xbe22cbaf	-0.15898012
33	0xbdd73124	-0.1050742
34	0xbd8e8c11	-0.06960309
35	0x3d180c25	0.037120957
36	0x3e1a058a	0.15041175
37	0x3bc85c03	0.0061144843
38	0xbdbb3f50	-0.09142935
39	0x3e398031	0.18115307
40	0xbc4a7907	-0.012357957
41	0xbd6dacc4	-0.05802609
42	0x3dd588a7	0.10426455
43	0x3d256405	0.04037859
44	0xba89f3e4	-0.0010524956
45	0x3d907740	0.07053995
46	0xbdffdba3	-0.12493064
47	0xbd19c673	-0.03754277
48	0x3d4c9fd0	0.049957097
49	0xbd8f54bb	-0.06998583
50	0x3de2d0e3	0.11074998
51	0xbec23b50	-0.37935877
52	0x3e6c10de	0.2305331
53	0xbda5d7d1	-0.08097804
54	0xbe41e2e3	-0.18934207
55	0xbcec28e0	-0.028828084
56	0xbd9f9d18	-0.07793635
57	0xbd7f1baa	-0.062282242
58	0xbc6bcfae	-0.014392776
59	0x3de2d27f	0.11075305
60	0xbcb80c49	-0.022466796
61	0xbdebb376	-0.11508839
62	0x3b9fd3cd	0.0048775435
63	0x3cf246b8	0.029574737
64	0xbd4dc9ba	-0.05024121
65	0xbe04922f	-0.1294639
66	0xbb1a7b59	-0.0023572056
67	0xbe09b43f	-0.13447665
68	0x3b9e187c	0.004824696
69	0xbe2c368d	-0.16817684
70	0xbe3f2b36	-0.18668827
71	0x3de0c00d	0.10974131
72	0x3df9d92b	0.12199625
73	0x3e217b51	0.15769698
74	0xbe47a0fd	-0.19495006
75	0x3c8f6307	0.017503275
76	0xbe45878d	-0.1928999
77	0xbd879c74	-0.06621638
78	0xbd88c812	-0.066787854
79	0x3d24cd1f	0.04023468
80	0xbd7dd575	-0.061971147
81	0xbd6844de	-0.056706302
82	0x3d861d03	0.06548502
83	0x3d8f4991	0.069964536
84	0xbe37ab1e	-0.1793637
85	0x3de64554	0.11243692
86	0x3d4095f7	0.047018018
87	0xbd87cce3	-0.06630876
88	0x3d5abe09	0.053403888
89	0x3e3444af	0.17604326
90	0x3e4d3b81	0.2004223
91	0xbd59b808	-0.05315402
92	0xbd46c28c	-0.048525378
93	0xbd1e38c0	-0.03862834
94	0xbe134621	-0.14382221
95	0x3d4eb402	0.050464638
96	0x3e1f3e1d	0.15551038
97	0xbdce9c03	-0.100883506
98	0x3d687360	0.056750655
99	0x3dcc4159	0.099734016
100	0x3da574fa	0.08078952
101	0xbcd9e250	-0.026597172
102	0xbe2933e0	-0.16523695
103	0x3d8e7040	0.06955004
104	0xbe226033	-0.1585701
105	0xbd7b13fd	-0.06129836
106	0x3de364ef	0.11103236
107	0xbe11f41d	-0.14253278
108	0x3d10e933	0.035378646
109	0x3d612156	0.054963432
110	0x3ce95b42	0.028485898
111	0x3c26b851	0.01017578
112	0xbd3d9ce3	-0.046292197
113	0xbd88b9e2	-0.06676079
114	0xbcb5b298	-0.022179887
115	0x3d2cd1a8	0.04219213
116	0x3cbc6597	0.02299766
117	0xbd166328	-0.036715657
118	0xbcc7fe2e	-0.024413195
119	0x3d282e6d	0.0410599
120	0x3cbb47c1	0.022861363
121	0xbd185724	-0.03719248
122	0x3c81bb7c	0.01583647
123	0x3d7dae0a	0.061933555
124	0xbe231fb9	-0.1593007
125	0xbb89f1e8	-0.0042097457
126	0xbd5232f3	-0.05131812
127	0x3d9b2512	0.0757543
128	0x3d160cff	0.036633488
129	0x3d87ad94	0.06624904
130	0xbd292165	-0.041291613
131	0x3e1ddd23	0.15416388
132	0xbde9c1ed	-0.114139415
133	0x3c304709	0.010759124
134	0xbe4ae6dd	-0.1981463
135	0xbd291704	-0.041281715
136	0x3d923b6f	0.07140242
137	0xbdc0821b	-0.09399816
138	0xba67af65	-0.00088380865
139	0xbc2ff5e6	-0.010739779
140	0x3db922d5	0.09039847
141	0xbe195c62	-0.14976647
142	0xbe498c28	-0.19682372
143	0xbe1d96e1	-0.15389587
144	0xbdef8bd7	-0.11696594
145	0x3defe088	0.11712748
146	0x3cd99850	0.026561886
147	0x3d4a9ac3	0.049464
148	0xbcc079f1	-0.023495646
149	0xbdcca97b	-0.09993263
150	0xbce61c8e	-0.028089788
151	0x3c3d1fad	0.011543197
152	0x3cd0d095	0.025490085
153	0xbcedc6d1	-0.029025467
154	0x3d3f44c7	0.04669645
155	0xbdc4ac29	-0.096031494
156	0xbba13e4b	-0.004920756
157	0xbd0e5442	-0.034748323
158	0x3cca1be0	0.024671495
159	0x3dd4e0cc	0.10394439
160	0xbe2e9c8e	-0.17051908
161	0x3dd089f6	0.10182564
162	0xbe25d1da	-0.16193333
163	0xbdaaadff	-0.08333968
164	0x3d742cfa	0.059613205
165	0xbdcb80ee	-0.09936701
166	0x3da27a1a	0.07933445
167	0xbe20b2d0	-0.15693212
168	0x3e4f8265	0.20264585
169	0x3cd2f362	0.02575082
170	0xbd1f4b29	-0.038890038
171	0xbdb80644	-0.0898557
172	0x3b72d66a	0.003705407
173	0x3dbd3967	0.09239464
174	0xbdf910f0	-0.12161434
175	0xbcdff6d8	-0.027339384
176	0xbe4d6169	-0.2005669
177	0x3dfbf2f2	0.123021975
178	0xbdcacdb4	-0.09902516
179	0xbcef85aa	-0.02923854
180	0xbc86e3c7	-0.016466035
181	0x3e2826f6	0.16421112
182	0x3d16d534	0.03682442
183	0xbe60c895	-0.21951516
184	0xbd99343c	-0.07480666
185	0xbe211fbe	-0.15734765
186	0xbdc37c9d	-0.095452525
187	0x3d6dc950	0.058053315
188	0x3ce52581	0.027971985
189	0xbd81a63a	-0.06330533
190	0xbca4675b	-0.020068815
191	0xbe2b9991	-0.167578
192	0xbe1f131a	-0.1553463
193	0x3e1385a9	0.14406456
194	0xbd61a766	-0.055091284
195	0xbd3291b1	-0.043595973
196	0x3cf7c7b1	0.030246587
197	0x3e04f4aa	0.12983957
198	0x3d3f86f7	0.046759572
199	0x3cc89ac9	0.02448787
200	0xbd9512a9	-0.0727895
201	0x3d9b7aba	0.075917676
202	0xbe50577c	-0.20345873
203	0x3d8c0951	0.068377145
204	0x3e721fca	0.23644939
205	0xbc198579	-0.009370201
206	0xbc0ed781	-0.008718372
207	0xbdc8c9f8	-0.098041475
208	0xbd9bfab4	-0.07616177
209	0x3e07eea8	0.13274634
210	0x3c0d2a97	0.008616111
211	0xbc264969	-0.010149338
212	0x3e1fdf15	0.15612443
213	0x3cb2a969	0.021809297
214	0xbcace800	-0.02110672
215	0x3e141d3e	0.1446428
216	0x3da8cb22	0.082418695
217	0xbe1303bc	-0.14356893
218	0xbcc8192f	-0.024426071
219	0xbd307ccd	-0.04308777
220	0xbe0213c6	-0.12702855
221	0xbe12a2d2	-0.14319924
222	0x3d52f653	0.051504444
223	0xbd2a72a8	-0.04161325
224	0x3e7cb9e6	0.2468029
225	0xbcea874c	-0.028628968
226	0x3e1d9a2e	0.15390846
227	0x3dd30885	0.10304359
228	0x3d420f4c	0.04737787
229	0x3d72b633	0.05925579
230	0x3e45c6c1	0.193141
231	0xbd2ce244	-0.04220797
232	0xbd7511ea	-0.059831537
233	0x3d93e298	0.07220954
234	0x3cf5fd5c	0.030028038
235	0x3e144d36	0.14482579
236	0xbdcaa211	-0.09894193
237	0xbcfaac59	-0.03059976
238	0x3e17cad3	0.14823465
239	0xbd722f59	-0.059127185
240	0x3c67b202	0.014141561
241	0xbe0f602a	-0.14001527
242	0x3d10b567	0.03532925
243	0x3da51845	0.0806127
244	0xbd213728	-0.03935924
245	0xbe34d509	-0.17659391
246	0xbd681307	-0.05665877
247	0xbe19d926	-0.15024242
248	0xbe0dadc8	-0.13835824
249	0xbce2abbf	-0.027669786
250	0x3dfd83f2	0.12378682
251	0x3db055e5	0.08610133
252	0xbe59f26d	-0.21283884
253	0xbd6d5cb4	-0.057949737
254	0x3de434ac	0.11142859
255	0xbaba2653	-0.0014202095

l1.bias f4 [100]
0	0xbcb88b9f	-0.022527514
1	0x3c9501a5	0.01818926
2	0x3e1d5fc5	0.15368564
3	0x3d8bbe68	0.068234265
4	0x3df2f03f	0.118622296
5	0x3c08c33f	0.008347332
6	0x3e3d5356	0.18488821
7	0xbcdd8fbb	-0.027046075
8	0xbd0d16ea	-0.03444568
9	0xbd5aff2f	-0.05346602
10	0xbd120f93	-0.035659384
11	0xbdc2a682	-0.09504415
12	0xbcda1559	-0.026621507
13	0x3ba0dcc2	0.004909129
14	0xbce9212b	-0.028458199
15	0x3ddae678	0.1068849
16	0x3d1793ff	0.037006374
17	0x3d28faff	0.041254994
18	0xbda4602f	-0.08026158
19	0xbc97674f	-0.018481879
20	0x3e24f1fb	0.16107933
21	0xbccf82aa	-0.02533086
22	0xbd00c71f	-0.031439897
23	0x3de37eb0	0.11108148
24	0x3c4db771	0.012555943
25	0x3e177c48	0.14793503
26	0xbd435ecf	-0.04769784
27	0xbde87eac	-0.11352286
28	0xbbb654fd	-0.0055643306
29	0xbe9b68c4	-0.30353367
30	0x3d533078	0.051559895
31	0x3dbf4e36	0.093410894
32	0xbe1c61d0	-0.15271688
33	0xbe740546	-0.23830137
34	0xbe461f6b	-0.19347923
35	0xbc30f67b	-0.010800953
36	0x3cb828e2	0.022480432
37	0x3e147528	0.14497817
38	0x3aa3d535	0.0012499454
39	0xbd1ffc54	-0.039059
40	0xbe551bdf	-0.20811413
41	0x3e578249	0.21045794
42	0xbdfc0401	-0.12305451
43	0x3bd30fd2	0.006441095
44	0xbd5fd449	-0.05464581
45	0xbc9bc7b8	-0.019016132
46	0xbbaa1227	-0.005190152
47	0xbcb7bf57	-0.022430105
48	0xbd724a74	-0.059153035
49	0xbe2a06cd	-0.16604157
50	0xbb506c35	-0.0031802778
51	0x3e16cc6b	0.14726417
52	0x3dd83d3a	0.10558553
53	0xbe1f6c64	-0.15568691
54	0xbc8234e2	-0.015894357
55	0xbd007594	-0.03136213
56	0xbd0d47c2	-0.03449226
57	0x3d5e50c0	0.054276228
58	0xbcb2d79a	-0.021831322
59	0xbd870e44	-0.06594518
60	0xbe0fb090	-0.14032197
61	0x3d5a83b1	0.053348247
62	0xbccdbc8f	-0.025114326
63	0x3dcbab70	0.099448085
64	0x3dd9da9e	0.10637401
65	0xbdf314ea	-0.118692234
66	0xbb843d6c	-0.0040356424
67	0x3db2e137	0.087343626
68	0xbcde9c00	-0.027173996
69	0x3c1b4219	0.009476208
70	0x3dad5d91	0.08465112
71	0xbd8c0980	-0.068377495
72	0xbe024ffb	-0.12725823
73	0x3e302a7b	0.17203705
74	0x3d998668	0.07496339
75	0x3d449f4f	0.04800349
76	0xbe231612	-0.15926388
77	0xbd53f734	-0.051749423
78	0xbe55b740	-0.20870686
79	0xbdc790e7	-0.09744435
80	0x3d1ed1bb	0.038774233
81	0xbde64268	-0.11243135
82	0xbcbcbb21	-0.023038449
83	0x3d7de6d7	0.061987724
84	0x3d1b3bb6	0.03789874
85	0x3c9367e6	0.017993879
86	0xbd8314d2	-0.064004555
87	0x3c6fa82f	0.0146275
88	0xbdfe505e	-0.124176726
89	0xbc64c5f0	-0.013963208
90	0x3df5b802	0.11997987
91	0x3d8a030e	0.06738864
92	0xbc813ab9	-0.015775071
93	0x3d0bdc40	0.034145594
94	0x3df23a4b	0.11827525
95	0xbce43828	-0.027858809
96	0xbc02f7d1	-0.007993654
97	0xbdb0c174	-0.08630648
98	0xbe155033	-0.14581375
99	0x3b962715	0.0045822957

l2.weight f4 [100, 100]
0	0x3e22025e	0.15821216
1	0x3e78ac8a	0.24284568
2	0xbcc2b541	-0.02376807
3	0xbdd3e962	-0.103472486
4	0xbd24d0cd	-0.04023819
5	0x3d71cb5a	0.05903182
6	0x3d07cc20	0.033153653
7	0x3de4050f	0.11133777
8	0xbd1e95f2	-0.038717218
9	0xbde75f25	-0.11297444
10	0xbc912549	-0.017717974
11	0xbde4c46f	-0.11170279
12	0xbc84166e	-0.016123977
13	0xbcd9719a	-0.026543427
14	0x3d2d57cc	0.042320058
15	0x3db04468	0.086067975
16	0xbe561496	-0.2090629
17	0xbdd889fc	-0.105731934
18	0xbced660f	-0.02897933
19	0x3e316907	0.17325221
20	0xbd9c4926	-0.076311395
21	0x3e22841f	0.15870713
22	0x3e22eaee	0.15909931
23	0x3d7d190d	0.06179147
24	0xbd016595	-0.031591017
25	0x3c826caa	0.015920956
26	0xbe0b187e	-0.13583562
27	0xbe014b92	-0.12626484
28	0xbe6a42d0	-0.2287705
29	0xbdfc3fb1	-0.12316836
30	0x3e2fc2cf	0.17164157
31	0xbd848542	-0.064707294
32	0x3d368f85	0.044570465
33	0xbbc85396	-0.00611348
34	0x3dd50b93	0.10402598
35	0x3d111b00	0.03542614
36	0xbe119a87	-0.14219104
37	0x3d067fa1	0.03283656
38	0xbe0fb588	-0.14034092
39	0x3d9352ef	0.07193553
40	0xbd440ca9	-0.047863636
41	0x3e0dcfc1	0.13848783
42	0xbc5e4f9a	-0.013568783
43	0xbdab61dc	-0.083682746
44	0x3dea692a	0.1144584
45	0xbde6f723	-0.11277606
46	0xbe1f07c0	-0.155303
47	0x3e080d7c	0.13286394
48	0xbe014b03	-0.12626271
49	0x3d868818	0.065689266
50	0xbd3d2202	-0.04617501
51	0x3d94feb6	0.07275145
52	0x3d0b1066	0.033951186
53	0xbd45680c	-0.04819493
54	0x3e48c21e	0.196053
55	0x3d4715f1	0.04860491
56	0xbdafa154	-0.08575693
57	0x3c284506	0.010270363
58	0xbe1352b3	-0.14387016
59	0xbdac8e83	-0.084256195
60	0x3ce5f709	0.028071897
61	0x3df78e79	0.120877214
62	0xbd5bd4cd	-0.05366974
63	0x3d2f6829	0.042823944
64	0x3d24ee45	0.040266294
65	0xbdcf2440	-0.10114336
66	0x3da7a28f	0.081853025
67	0xbe050747	-0.12991057
68	0x3df2fdda	0.118648246
69	0x3dbd6114	0.09247032
70	0xbd29b78f	-0.04143482
71	0x3d8184f8	0.0632419
72	0x3d9849b1	0.074359305
73	0x3e1cec8f	0.15324615
74	0x3dc671d4	0.0968968
75	0x3d1a0e43	0.037611257
76	0x3e368e19	0.17827643
77	0x3d159680	0.03652048
78	0xbd3ccb22	-0.04609216
79	0x3c1b9362	0.009495588
80	0x3e3c163d	0.18367858
81	0xbd463cba	-0.048397757
82	0xbd8ff00f	-0.070282094
83	0xbda3a358	-0.0799014
84	0x3d4b6c68	0.04966393
85	0xbda7e595	-0.08198086
86	0x3d40089c	0.04688321
87	0xbdc4c47f	-0.09607791
88	0xbdbea1ee	-0.093082294
89	0xbd9bd509	-0.076089926
90	0xbe030e1f	-0.12798356
91	0x3d231437	0.0398142
92	0xbd2cc6cf	-0.042181786
93	0xbd92c5eb	-0.07166656
94	0xbd338b58	-0.04383406
95	0xb8d0d882	-9.9585406e-05
96	0xbdb5d95b	-0.08879348
97	0x3e831d6f	0.25608394
98	0x3d947221	0.07248331
99	0xbbae562a	-0.00532033
100	0xbe04d0ab	-0.12970226
101	0x3cd1aa81	0.025593998
102	0xbe27bd81	-0.16380884
103	0x3d7f6642	0.06235338
104	0x3e3f3ed5	0.18676312
105	0xbc07446f	-0.008256062
106	0x3e50c739	0.20388497
107	0xbca8d407	-0.020608915
108	0x3dc3b0da	0.09555216
109	0x3c87b876	0.01656745
110	0x3cb534b4	0.022119857
111	0x3d1ad0c1	0.03779674
112	0xbccbdf1a	-0.024886657
113	0xbd3f207d	-0.046661843
114	0xbe0e877a	-0.13918868
115	0xbdf8da93	-0.12151065
116	0xbcfdb28d	-0.030968929
117	0xbe1590bb	-0.14605992
118	0x3d81c0cc	0.06335601
119	0x3de6e496	0.11274068
120	0xbd85babf	-0.065297596
121	0xbd72391f	-0.059136506
122	0x3c533341	0.012890638
123	0x3d259906	0.040429138
124	0x3d41b7d9	0.04729447
125	0xbb2e8480	-0.002662927
126	0xbd583666	-0.052786253
127	0xbd1b8b02	-0.037974365
128	0x3dae37fe	0.085067734
129	0xbe0e41d2	-0.13892296
130	0xbd85bb57	-0.06529873
131	0x3d016690	0.03159195
132	0x3de93e09	0.113887854
133	0xbb32c0ff	-0.002727568
134	0x3dbdbfe5	0.092651166
135	0x3e02cc72	0.12773302
136	0xbd0a2c14	-0.033733442
137	0xbdc49e78	-0.09600538
138	0xbd2f09ad	-0.042733837
139	0xbd10de51	-0.035368267
140	0x3d20aa46	0.039224885
141	0xbc41d339	-0.011830145
142	0x3cba815c	0.022766761
143	0xbd0b2883	-0.03397418
144	0xbcdf5172	-0.027260516
145	0x3dfd02ac	0.12354025
146	0x3d663d50	0.056210816
147	0x3dd96bcb	0.10616263
148	0xbd57bc5c	-0.052669868
149	0x3c8cd09c	0.017189316
150	0x3b264e2a	0.002537618
151	0xbcd725f4	-0.026263215
152	0xbc044df5	-0.008075227
153	0x3e0c49cb	0.13700025
154	0x3df0073f	0.11720132
155	0x3d773eb1	0.06036252
156	0xbdd6ec21	-0.10494257
157	0x3d06486b	0.032783907
158	0xbe4378e3	-0.19089083
159	0xbda41008	-0.0801087
160	0x3d6932dd	0.056933273
161	0x3debe424	0.11518124
162	0x3bdc9368	0.0067314394
163	0x3d4f9c14	0.050685957
164	0x3dc72129	0.09723122
165	0xbd1fa892	-0.03897912
166	0x3dafcba6	0.08583765
167	0xbcfd1bca	-0.03089704
168	0x3d310782	0.04322005
169	0xbde1fd15	-0.110346
170	0xbd4ec82b	-0.050483864
171	0x3d2049fe	0.039133064
172	0xbd9bd112	-0.07608236
173	0xbc410efd	-0.011783359
174	0x3d8720c3	0.06598046
175	0x3d167560	0.03673303
176	0xbd993c81	-0.07482243
177	0x3c034fa4	0.008014593
178	0xbe19fe7b	-0.15038483
179	0xbe21d69d	-0.15804525
180	0xbe16736a	-0.14692464
181	0xbe4af34f	-0.19819377
182	0x3d3a2103	0.04544164
183	0xbdd14c51	-0.10219634
184	0xbd46bae8	-0.04851809
185	0x3d1b81a9	0.03796545
186	0xbe3633e3	-0.1779323
187	0xbd3b26d1	-0.045691315
188	0xbcafa924	-0.021442957
189	0xbd931802	-0.071823135
190	0x3e26dff0	0.16296363
191	0x3c76d515	0.015065451
192	0xbe11d236	-0.14240345
193	0xba84fd10	-0.0010146219
194	0x3db6feb7	0.08935302
195	0x3c9688ff	0.018375872
196	0x3dc0d356	0.09415309
197	0xbe033f34	-0.12817079
198	0xbd87f635	-0.06638757
199	0xbc9a18fb	-0.01881074
200	0x3da0f475	0.078591265
201	0x3e04de58	0.12975442
202	0x3df146c2	0.11781074
203	0x3c495c38	0.012290053
204	0x3aa80be8	0.0012820931
205	0x3e0d1489	0.13777365
206	0xbdd178c3	-0.102281116
207	0xbd11f938	-0.035638064
208	0x3c8451e8	0.016152337
209	0xbdbf7820	-0.09349084
210	0x3e031957	0.12802635
211	0x3e09e4f2	0.13466242
212	0xbe3f502d	-0.18682928
213	0xbdd63ab1	-0.10460413
214	0x39626f89	0.0002159459
215	0xbe6df351	-0.23237349
216	0xbe53d02e	-0.20684883
217	0xbe17ef3d	-0.14837356
218	0x3c49fae6	0.012327885
219	0x3d39bbc5	0.045345087
220	0x3d2eebe4	0.04270543
221	0x3d2c3d5a	0.042050697
222	0xbe4a36c8	-0.1974746
223	0x3e65c82a	0.22439638
224	0x3b3f215b	0.0029164169
225	0x3d3e00d1	0.046387497
226	0x3ce941d1	0.028473767
227	0x3c9eb323	0.019372528
228	0xbdc86c35	-0.09786264
229	0xbe437cc8	-0.19090569
230	0xbe03c695	-0.12868722
231	0x3d74e8a0	0.05979216
232	0x3da16dd9	0.0788228
233	0x3da92ce4	0.08260515
234	0xbe21a897	-0.15786968
235	0xbb67a952	-0.0035348726
236	0x3d7c5454	0.06160386
237	0x3def2f02	0.11678888
238	0x3dfb3a70	0.122670054
239	0x3c8c95a7	0.017161204
240	0xbd882398	-0.06647414
241	0xbe073a63	-0.13205867
242	0xbcefd263	-0.029275125
243	0xbe09f3f6	-0.1347197
244	0xbd842c67	-0.064537816
245	0x3d24ec75	0.040264565
246	0xbc52c39f	-0.0128640225
247	0xbcff8a36	-0.031193834
248	0x3d2c1ba8	0.042018563
249	0x3e386ca8	0.18010199
250	0x3e536c55	0.20646794
251	0xbe0a6e8e	-0.13518736
252	0x3cd12f30	0.025535196
253	0x3c74b3b5	0.014935424
254	0xbd8acfd0	-0.06777918
255	0x3dbcf31b	0.09226056

l2.bias f4 [100]
0	0x3cf48e78	0.02985309
1	0xbe3a3828	-0.18185484
2	0x3d6efe1d	0.05834781
3	0x3cb2ebde	0.021840986
4	0xbd7db1aa	-0.06193701
5	0x3dd60a8e	0.10451232
6	0x3c57f527	0.0131810075
7	0xbe182290	-0.14856935
8	0xbdaa5bf5	-0.08318321
9	0xbd0efce4	-0.034909144
10	0x3cac02ec	0.020997487
11	0x3ddd1f7f	0.10797023
12	0x3d0972cc	0.033556744
13	0x3c9fc794	0.019504346
14	0x3d9fde2f	0.0780605
15	0x3dd4b3fd	0.103858925
16	0x3ba42743	0.005009563
17	0x3c2f755b	0.010709132
18	0x3e8c52d5	0.27406946
19	0x3c5b9478	0.013402097
20	0x3dd7de65	0.10540465
21	0xbd870990	-0.06593621
22	0x3d080c72	0.033214994
23	0x3d3211d7	0.043474045
24	0xbdb80544	-0.08985379
25	0x3c19f077	0.00939571
26	0x3ba9ade3	0.0051781996
27	0xbded8109	-0.11596877
28	0x3d2333bf	0.03984427
29	0xbd188afc	-0.03724192
30	0xbc3fe9bc	-0.011713441
31	0xbcabaf1f	-0.020957528
32	0x3c6cc852	0.014452057
33	0x3c1caa3a	0.00956207
34	0xbe4690fe	-0.19391248
35	0x3c9fbb9c	0.019498639
36	0x3da81de5	0.08208827
37	0xbcf9793d	-0.030453319
38	0x3d359e07	0.04434016
39	0xbd813a50	-0.0630995
40	0xbc3db1e4	-0.011578057
41	0xbd658098	-0.05603084
42	0xbd158d39	-0.036511634
43	0x3ce7edba	0.028311599
44	0xbcc691ed	-0.024239505
45	0xbd0b5adc	-0.034022197
46	0xbca89f10	-0.02058366
47	0xbd80253c	-0.06257102
48	0xbc48d007	-0.012256629
49	0x3d35c435	0.04437657
50	0x3c6240dd	0.01380941
51	0xbcade82f	-0.021228878
52	0x3e202b78	0.15641582
53	0x3d1376f4	0.036002114
54	0x3a87ef6a	0.0010371034
55	0xbb9d963a	-0.004809168
56	0xbd673905	-0.056450862
57	0x3d75b32e	0.059985332
58	0xbcd5fd43	-0.026121741
59	0x3db77cfb	0.08959385
60	0xbd950f19	-0.0727827
61	0xbe680226	-0.2265707
62	0x3d87be73	0.06628122
63	0x3e0d08b3	0.1377285
64	0xbcfa0621	-0.0305205
65	0xbc8af2e0	-0.016961515
66	0xbc770e14	-0.01507904
67	0x3d6c9644	0.057760492
68	0x3d1076dd	0.035269607
69	0xbccce554	-0.025011696
70	0xbe31a7bc	-0.17349142
71	0x3b3fc080	0.0029259026
72	0x3d0f8894	0.03504236
73	0xbc775971	-0.015097008
74	0x3cbb2e65	0.022849271
75	0x3cc3d884	0.023906954
76	0xbe640281	-0.2226658
77	0x3d5a301e	0.053268544
78	0x3c56eb67	0.013117648
79	0x3bc58b28	0.0060285516
80	0x3cabc39c	0.020967297
81	0x3a33e742	0.0006862768
82	0x3c209c73	0.009802925
83	0x3e154c1a	0.14579812
84	0xbc9eea1e	-0.019398745
85	0x3b5f3b39	0.00340624
86	0xbcf4fecf	-0.029906658
87	0x3c8cd056	0.017189186
88	0x3be72aeb	0.007054677
89	0xbc080de9	-0.008304098
90	0xbe990a1b	-0.29890522
91	0x3dc145fd	0.09437177
92	0xbc1123e1	-0.008858652
93	0xbd1e96c6	-0.038718008
94	0xbcd06948	-0.025440827
95	0xbc70d89c	-0.014700081
96	0xbdb0ef72	-0.086394206
97	0xbd1e7922	-0.03868974
98	0xbe3cc413	-0.18434171
99	0x3d6aaf4a	0.057296075

l3.weight f4 [18, 100]
0	0x3dcb0ddb	0.09914752
1	0xbd38e83a	-0.045143344
2	0xbcb33c8b	-0.021879455
3	0x3e15fd7f	0.14647482
4	0xbe4b2b20	-0.1984067
5	0x3a8ef117	0.0010905591
6	0xbe16ec8e	-0.14738676
7	0x3d9da01d	0.07696555
8	0x3cab2b94	0.020894803
9	0xbdbb21f3	-0.09137335
10	0x3d67fb78	0.056636304
11	0x3e026871	0.12735154
12	0x3d968700	0.07349968
13	0x3d387901	0.045037273
14	0xbe10e98a	-0.14151588
15	0x3da53eb5	0.08068601
16	0x3d8e7f66	0.06957893
17	0xbdd9d779	-0.10636801
18	0xbdc83a3d	-0.09776733
19	0x3daae507	0.08344465
20	0xbcd4f480	-0.025995493
21	0xbd35b4c5	-0.04436185
22	0x3e1a915f	0.15094517
23	0xbc3e30d4	-0.011608321
24	0xbe89b5d4	-0.26896536
25	0xbdf6a903	-0.12043955
26	0xbd09ffe2	-0.033691294
27	0xbe82b48c	-0.2552837
28	0x3dfa33f9	0.12216944
29	0x3d9b2b75	0.07576648
30	0xbccb0940	-0.024784684
31	0xbb726e1d	-0.0036991902
32	0x3e94a4aa	0.2903188
33	0xbe86b7b1	-0.2631202
34	0xbdc649a0	-0.096820116
35	0xbe16bae8	-0.14719737
36	0x3bead425	0.007166403
37	0xbc4f1202	-0.012638571
38	0x3e2d8d29	0.1694838
39	0xbcb88c8a	-0.022527952
40	0x3b2d758c	0.0026467768
41	0x3e16d4b4	0.14729577
42	0x3c051740	0.008123219
43	0x3df2b8dd	0.11851666
44	0xbd8d7316	-0.069067165
45	0xbb6f7c51	-0.0036542604
46	0x3e36092a	0.17776933
47	0x3d15803e	0.036499254
48	0x3e139de9	0.14415707
49	0xbe37bc87	-0.17943011
50	0x3d088ddd	0.033338416
51	0xbe665a07	-0.2249528
52	0xbe232f42	-0.15935996
53	0xbe0ca930	-0.13736415
54	0xbd910068	-0.070801556
55	0xbe290e95	-0.16509469
56	0x3ccf3d4f	0.025297789
57	0xbdbeaaa1	-0.09309889
58	0xbe053aee	-0.13010761
59	0xbd73d92e	-0.05953329
60	0x3e66e0bd	0.22546668
61	0x3e2e5a24	0.17026573
62	0x3d16ec03	0.036846172
63	0x3c90d85e	0.017681297
64	0x3d9b05f0	0.07569492
65	0xbe6c5802	-0.23080447
66	0x3e6a9741	0.22909261
67	0x3d9a522b	0.075352035
68	0xbdbe9c88	-0.093072
69	0x3dfeb509	0.124368735
70	0xbe62672e	-0.22109672
71	0x3d4262e1	0.04745758
72	0x3d7c856d	0.061650682
73	0x3df6c70f	0.12049686
74	0x3d1a212b	0.037629288
75	0xbe09bf54	-0.13451892
76	0x3e484613	0.19557981
77	0x3c45513f	0.012043296
78	0xbe7b69d6	-0.24552092
79	0xbc57250a	-0.013131389
80	0x3e8076e8	0.25090718
81	0xbe2c42c4	-0.16822344
82	0x3d39e4bd	0.045384157
83	0xbc8d2a13	-0.017231977
84	0xbda80c2a	-0.08205445
85	0x3d97ac9c	0.074059695
86	0xbe7684b7	-0.24074064
87	0xbe0431b0	-0.1290958
88	0xbe24cade	-0.16093013
89	0xbe73c33b	-0.23804943
90	0x3e77e652	0.24208954
91	0x3d8a11a9	0.0674165
92	0x3e08ca40	0.13358402
93	0x3ddd5285	0.10806755
94	0x3d7bd842	0.061485536
95	0xbd972f08	-0.073820174
96	0x3cfb981d	0.030712182
97	0x3d1cfc38	0.038326472
98	0x3cc3c2cf	0.023896603
99	0xbe69bb66	-0.22825393
100	0x3d92a64d	0.071606256
101	0xbe2c5fb7	-0.16833387
102	0x3dc9d80f	0.09855663
103	0x3d87ca81	0.066304214
104	0x3dadeec2	0.08492805
105	0x3bf45c9e	0.00745733
106	0x3df79b58	0.12090176
107	0xbe752bbf	-0.23942469
108	0xbe659b40	-0.22422504
109	0x3d97bb8d	0.07408819
110	0x3c6b1911	0.014349238
111	0x3dc37d30	0.09545362
112	0x3dc74674	0.09730235
113	0x3dfe3448	0.124123156
114	0x3ebd570a	0.36980468
115	0x3c9bd1fd	0.019021029
116	0xbdb0c83c	-0.08631942
117	0xbd3e947d	-0.04652833
118	0x3e3336af	0.17501329
119	0xbde8c47c	-0.113656014
120	0x3e03b5fb	0.12862389
121	0x3d76320b	0.06010632
122	0x3e299efa	0.16564551
123	0x3cfc7ac1	0.030820252
124	0xbe86c7bd	-0.26324263
125	0x3e0109e5	0.1260143
126	0xbe102615	-0.14077027
127	0x3c6a7f4d	0.014312577
128	0xbe1ea1a4	-0.15491349
129	0xbd40c605	-0.047063846
130	0x3e77e6ea	0.2420918
131	0xbd89bdd5	-0.06725661
132	0x3e0e59d6	0.13901457
133	0x3d90353e	0.07041405
134	0x3c85dc6b	0.016340455
135	0x3dffa2c6	0.124822184
136	0xbc035b2e	-0.008017344
137	0x3ca7eb30	0.020497888
138	0xbd72782d	-0.05919664
139	0x3de71fae	0.11285339
140	0xbda1f7ac	-0.07908568
141	0xbe4ebbd4	-0.20188838
142	0xbdcb830d	-0.09937105
143	0x3ea57b10	0.32320452
144	0x3d408fe7	0.047012236
145	0x3b4ae96d	0.0030961887
146	0xbd83d1e4	-0.06436518
147	0x3cc38b90	0.02387026
148	0x3d7168de	0.0589379
149	0xbe2e862d	-0.17043371
150	0x3dde25d9	0.108470626
151	0xbe06568e	-0.13118955
152	0x3eb85d2d	0.36008587
153	0x3dab61a2	0.08368231
154	0x3eb9d39c	0.36294258
155	0x3b7cc9eb	0.00385725
156	0xbdf54b2a	-0.11977227
157	0xbd432fd5	-0.047653038
158	0x3cc9de51	0.024642142
159	0x3e56307e	0.20916936
160	0xbde5509b	-0.11197015
161	0xbcbf52d1	-0.02335492
162	0x3e680234	0.2265709
163	0xbe117b0d	-0.14207096
164	0x3c892b6c	0.016744338
165	0x3d0899b5	0.03334971
166	0xbd2da99d	-0.042398084
167	0xbe591867	-0.21200715
168	0x3ea7f5c3	0.3280469
169	0xbc527a5c	-0.012846556
170	0xbe21575e	-0.15755984
171	0x3dcb785e	0.099350676
172	0x3e5ad0c3	0.21368699
173	0xbc2306de	-0.009950368
174	0x3e1be72e	0.15224907
175	0x3dcadc30	0.09905279
176	0xbe8eb7e0	-0.2787466
177	0xbdbf803d	-0.093506314
178	0x3d643fe8	0.05572501
179	0x3e322456	0.17396674
180	0x3cc9047b	0.02453827
181	0x3e392ad0	0.18082738
182	0xbe4bb5f0	-0.19893622
183	0x3e63ac83	0.22233777
184	0x3d367074	0.044540837
185	0x3d901689	0.07035548
186	0xbe29b5d4	-0.16573268
187	0x3d36b3f4	0.04460521
188	0x3de5d22e	0.11221729
189	0xbd5ddb1b	-0.054164033
190	0xbe103bbb	-0.14085285
191	0x3d3acae4	0.045603648
192	0xbd4fc922	-0.050728925
193	0x3d8cceef	0.06875407
194	0xbdc60b65	-0.09670142
195	0xbe562944	-0.20914179
196	0xbd4f6675	-0.05063482
197	0xbe42a1a5	-0.19006975
198	0xbe0ec56b	-0.13942496
199	0x3e403584	0.18770415
200	0xbe09e63e	-0.13466737
201	0x3dc7470a	0.097303465
202	0x3e1c925a	0.15290204
203	0xbd576054	-0.0525821
204	0xbdc7e7cf	-0.09761011
205	0x3e51ca28	0.20487273
206	0xbd6e7130	-0.058213413
207	0x3bea3413	0.007147321
208	0x3e64515c	0.22296661
209	0xbd22f2dd	-0.039782394
210	0xbd3ca47b	-0.0460553
211	0x3bd7649e	0.006573274
212	0x3e134e50	0.14385343
213	0xbd8f6254	-0.070011765
214	0xbd4aed5c	-0.04954277
215	0xbd61cc3d	-0.055126417
216	0x3e352823	0.17691092
217	0x3dd5d484	0.10440925
218	0x3e40875e	0.18801638
219	0x3b0f2fa7	0.0021848471
220	0xbd7cdac7	-0.06173208
221	0xbc918a10	-0.017766029
222	0x3e35da24	0.17758995
223	0xbd008467	-0.03137627
224	0xbda1d1a3	-0.07901313
225	0x3d8edbe5	0.06975535
226	0x3cca3d89	0.024687545
227	0x3d2e509a	0.042557336
228	0xbc9816c9	-0.018565552
229	0xbca6490c	-0.020298503
230	0xbd7a03e3	-0.061038863
231	0xbdd3b026	-0.10336332
232	0xbe02956d	-0.12752314
233	0xbe5b7bf1	-0.21433999
234	0x3ddbc172	0.10730256
235	0x3aef4f35	0.0018257858
236	0xbdd077e1	-0.10179115
237	0xbc6a560a	-0.01430274
238	0xbcb2e5c4	-0.021838076
239	0xbe12de41	-0.14342596
240	0x3db215f8	0.086955965
241	0x3e12a012	0.14318874
242	0xbb3054ce	-0.0026906016
243	0xbe23a5c7	-0.15981208
244	0xbd064133	-0.032777023
245	0xbdc47143	-0.095919155
246	0xbe41534c	-0.18879431
247	0xbdc20940	-0.094744205
248	0xbdb34725	-0.08753804
249	0x3d224518	0.039616674
250	0xbe1b3eb6	-0.15160641
251	0x3d84b74e	0.06480275
252	0xbd53bd03	-0.051693927
253	0xbe538b06	-0.20658502
254	0xbe30de03	-0.17272191
255	0x3d7f936e	0.06239646

l3.bias f4 [18]
0	0x3e7b85c6	0.2456275
1	0xbeea86ee	-0.45806068
2	0xbd1f21f9	-0.03885076
3	0x3f196a1e	0.59927547
4	0xbdef4198	-0.11682433
5	0xbea3c028	-0.3198254
6	0x3e267ba4	0.16258103
7	0xbeb9c4c6	-0.3628294
8	0x3e4fd471	0.20295884
9	0x3e8c2135	0.27369085
10	0x3e80a5af	0.25126407
11	0x3cae86d2	0.021304522
12	0x3e96526f	0.29359767
13	0xbecc6eef	-0.39928386
14	0x3e9cffcf	0.30663916
15	0x3e595862	0.21225122
16	0xbd6411e3	-0.05568112
17	0xbb51a98c	-0.0031991927
